generators/n1.ckpt (torch, 90119 bytes, 167 tensors)

resolve.0.weight f4 [1, 1, 7]
3.3226912 1.6498803 -0.3192453 1.3105841 2.5027266 0.27217513 -3.8061383
00000000: f9a6 5440 472f d33f 1f74 a3be 38c1 a73f
00000010: ac2c 2040 8a5a 8b3e c597 73c0

resolve.2.layers.0.conv0.weight f4 [1, 1, 3]
0.60641277 0.24971245 0.9106753
00000000: de3d 1b3f 9fb4 7f3e 0422 693f

resolve.2.layers.1.conv0.weight f4 [1, 1, 3]
0.33512515 -0.11380362 0.4280777
00000000: 8695 ab3e df11 e9bd 002d db3e

resolve.2.layers.2.conv0.weight f4 [1, 1, 3]
-0.05908213 -0.006473987 0.26312238
00000000: 1b00 72bd bd23 d4bb fab7 863e

resolve.2.layers.3.weight f4 [2, 1, 12]
-0.33228093 0.33438885 0.6521456 0.072555274 -0.09463417 -0.07438041 0.35680613 0.17657422
-0.25188643 -0.045977805 0.71481764 0.64531386 -0.12187944 -0.032369062 0.3948938 0.08373955
0.11689783 -0.016165314 0.34771875 0.18828243 0.53842443 0.4225248 0.22569603 -0.025088428
00000000: ba20 aabe 0435 ab3e 04f3 263f dc97 943d
00000010: 8fcf c1bd c254 98bd 4baf b63e dfcf 343e
00000020: 42f7 80be 3953 3cbd 4afe 363f 4a33 253f
00000030: ee9b f9bd 6c95 04bd 852f ca3e a47f ab3d
00000040: 2168 ef3d 1f6d 84bc 3108 b23e 1ccd 403e
00000050: 2fd6 093f 2c55 d83e dc1c 673e 3f86 cdbc

resolve.2.layers.3.bias f4 [2]
-0.10609144 -0.36255446
00000000: 7846 d9bd bda0 b9be

resolve.3.layers.0.conv0.weight f4 [2, 2, 3]
-0.65460646 0.20022273 0.009335165 -0.045894586 -1.2269307 0.108354904 -0.0897431 -0.34694782
0.070973076 -0.7314689 0.08818678 -0.28270108
00000000: 4a94 27bf 3007 4d3e 85f2 183c f6fb 3bbd
00000010: 110c 9dbf 2de9 dd3d 3bcb b7bd 25a3 b1be
00000020: 555a 913d 8c41 3bbf 459b b43d 32be 90be

resolve.3.layers.0.conv0.bias f4 [2]
0.16184454 0.28649917
00000000: 93ba 253e 05b0 923e

resolve.3.layers.0.bn0.weight f4 [2]
1.0 1.0
00000000: 0000 803f 0000 803f

resolve.3.layers.0.bn0.bias f4 [2]
0.0 0.0
00000000: 0000 0000 0000 0000

resolve.3.layers.0.bn0.running_mean f4 [2]
0.0 0.0
00000000: 0000 0000 0000 0000

resolve.3.layers.0.bn0.running_var f4 [2]
1.0 1.0
00000000: 0000 803f 0000 803f

resolve.3.layers.0.conv1.weight f4 [2, 2, 1]
0.4711588 -0.8288173 -0.4320363 0.3765739
00000000: ba3b f13e 5f2d 54bf dd33 ddbe 4bce c03e

resolve.3.layers.0.conv1.bias f4 [2]
0.8719261 0.7340686
00000000: 8d36 5f3f ebeb 3b3f

resolve.3.layers.0.bn1.weight f4 [2]
1.0 1.0
00000000: 0000 803f 0000 803f

resolve.3.layers.0.bn1.bias f4 [2]
0.0 0.0
00000000: 0000 0000 0000 0000

resolve.3.layers.0.bn1.running_mean f4 [2]
0.0 0.0
00000000: 0000 0000 0000 0000

resolve.3.layers.0.bn1.running_var f4 [2]
1.0 1.0
00000000: 0000 803f 0000 803f

resolve.3.layers.1.conv0.weight f4 [2, 2, 3]
1.0569041 0.2986813 0.2916096 -1.1822332 0.08211967 0.29064906 0.05460579 -2.6940386
-1.6264807 -0.12979347 -0.6786815 -0.91270906
00000000: a248 873f c1ec 983e da4d 953e 6b53 97bf
00000010: 5c2e a83d f4cf 943e 52aa 5f3d 216b 2cc0
00000020: 8530 d0bf 94e8 04be 12be 2dbf 4da7 69bf

resolve.3.layers.1.conv0.bias f4 [2]
0.22476697 -1.091022
00000000: 5029 663e 9ca6 8bbf

resolve.3.layers.1.bn0.weight f4 [2]
1.0 1.0
00000000: 0000 803f 0000 803f

resolve.3.layers.1.bn0.bias f4 [2]
0.0 0.0
00000000: 0000 0000 0000 0000

resolve.3.layers.1.bn0.running_mean f4 [2]
0.0 0.0
00000000: 0000 0000 0000 0000

resolve.3.layers.1.bn0.running_var f4 [2]
1.0 1.0
00000000: 0000 803f 0000 803f

resolve.3.layers.1.conv1.weight f4 [2, 2, 1]
0.6637334 -0.60060096 -0.4097341 0.7389137
00000000: 6fea 293f fcc0 19bf abc8 d1be 7329 3d3f

resolve.3.layers.1.conv1.bias f4 [2]
-0.035310347 -0.41366333
00000000: 95a1 10bd aecb d3be

resolve.3.layers.1.bn1.weight f4 [2]
1.0 1.0
00000000: 0000 803f 0000 803f

resolve.3.layers.1.bn1.bias f4 [2]
0.0 0.0
00000000: 0000 0000 0000 0000

resolve.3.layers.1.bn1.running_mean f4 [2]
0.0 0.0
00000000: 0000 0000 0000 0000

resolve.3.layers.1.bn1.running_var f4 [2]
1.0 1.0
00000000: 0000 803f 0000 803f

resolve.3.layers.2.conv0.weight f4 [2, 2, 3]
0.02691698 -0.0011717686 -0.08734432 -0.57999325 0.23410322 -0.10940177 -0.042869583 -0.76303786
0.032508887 0.20792696 0.03646498 0.05475188
00000000: 0081 dc3c 0896 99ba 94e1 b2bd 707a 14bf
00000010: c1b8 6f3e 090e e0bd 0498 2fbd 7356 43bf
00000020: 0a28 053d ceea 543e 4e5c 153d 8243 603d

resolve.3.layers.2.conv0.bias f4 [2]
0.031523775 0.120387025
00000000: 131f 013d 798d f63d

resolve.3.layers.2.bn0.weight f4 [2]
1.0 1.0
00000000: 0000 803f 0000 803f

resolve.3.layers.2.bn0.bias f4 [2]
0.0 0.0
00000000: 0000 0000 0000 0000

resolve.3.layers.2.bn0.running_mean f4 [2]
0.0 0.0
00000000: 0000 0000 0000 0000

resolve.3.layers.2.bn0.running_var f4 [2]
1.0 1.0
00000000: 0000 803f 0000 803f

resolve.3.layers.2.conv1.weight f4 [2, 2, 1]
-0.5486625 -0.49624872 -0.20547827 -0.5908183
00000000: 2575 0cbf 5014 febe e568 52be de3f 17bf

resolve.3.layers.2.conv1.bias f4 [2]
0.47463852 0.1191422
00000000: d203 f33e d300 f43d

resolve.3.layers.2.bn1.weight f4 [2]
1.0 1.0
00000000: 0000 803f 0000 803f

resolve.3.layers.2.bn1.bias f4 [2]
0.0 0.0
00000000: 0000 0000 0000 0000

resolve.3.layers.2.bn1.running_mean f4 [2]
0.0 0.0
00000000: 0000 0000 0000 0000

resolve.3.layers.2.bn1.running_var f4 [2]
1.0 1.0
00000000: 0000 803f 0000 803f

resolve.3.layers.3.weight f4 [4, 2, 8]
-0.07659231 -0.35693517 -0.39276248 -0.35524088 -0.020661864 -0.06267945 0.14389428 0.056113105
0.31162623 -0.4413677 -0.46956855 -0.5373613 -0.41095585 0.30378443 0.38804078 -0.080658026
0.19269867 -0.27402604 0.3652681 0.042128537 -0.35023546 0.13879812 0.00057505764 -0.11159647
-0.11751391 -0.13189544 0.015708538 -0.053392038 -0.09529497 0.020336382 -0.044918682 0.006162509
-0.002608327 0.10831509 0.18076453 0.19808201 0.18214467 0.027334128 -0.07619372 -0.06445952
-0.0042640883 0.113487795 0.11041844 -0.016563801 0.23253077 0.33752152 0.16930069 0.12150092
-0.007758752 -0.04749863 -0.048098773 -0.22125137 0.108654715 -0.13025737 0.08294383 0.09854756
-0.094742686 0.53375655 0.5802776 -0.71819276 0.27607286 0.59288085 -0.07449768 0.35220715
00000000: 6edc 9cbd 35c0 b6be 2a18 c9be 22e2 b5be
00000010: 1243 a9bc 155e 80bd 0659 133e dbd6 653d
00000020: 798d 9f3e f2fa e1be 4a6b f0be 8390 09bf
00000030: ce68 d2be a289 9b3e 48ad c63e 0930 a5bd
00000040: cd52 453e 244d 8cbe 6c04 bb3e f98e 2c3d
00000050: 1052 b3be 1821 0e3e 77bf 163a b18c e4bd
00000060: 22ab f0bd 990f 07be 31af 803c 9cb1 5abd
00000070: 022a c3bd 7c98 a63c a7fc 37bd dfee c93b
00000080: 77f0 2abb 4dd4 dd3d 561a 393e 03d6 4a3e
00000090: 2284 3a3e d2eb df3c 740b 9cbd 5a03 84bd
000000a0: c4b9 8bbb 4a6c e83d 1023 e23d cfb0 87bc
000000b0: 8c1c 6e3e 9fcf ac3e 295d 2d3e 79d5 f83d
000000c0: 213d febb ec8d 42bd 3803 45bd b88f 62be
000000d0: 5d86 de3d 3062 05be 74de a93d 4ed3 c93d
000000e0: 7408 c2bd 45a4 083f 138d 143f 7bdb 37bf
000000f0: 6c59 8d3e 0ac7 173f 3d92 98bd 7f54 b43e

resolve.3.layers.3.bias f4 [4]
0.32864314 0.07993766 0.07708119 0.0900249
00000000: ea43 a83e 5bb6 a33d bedc 9d3d fa5e b83d

resolve.4.layers.0.conv0.weight f4 [4, 4, 3]
0.3197797 0.21851458 0.10643437 0.37340003 1.6363978 -0.9034564 0.118233226 -0.47183487
-0.014100744 0.35639226 0.0035573079 -0.0019269057 -0.1872733 0.34359726 -0.12308364 -0.37966987
-0.36968824 0.07458763 0.2261609 -0.25950414 0.024143677 -0.5619076 0.31865847 -0.04309458
-0.07166389 -0.17173411 -0.0034651489 -0.044112973 -0.2534788 0.15040544 0.32012674 0.0877941
-0.31599483 -0.53203416 0.1014953 0.60046554 -0.05712815 -0.25339535 -0.0402768 -0.4559548
-0.20590372 -0.059792135 -0.023432735 -0.09516074 -0.32022977 -0.17522167 -0.053843655 -0.016344076
00000000: 2aba a33e 49c2 5f3e 43fa d93d 4a2e bf3e
00000010: 7c75 d13f eb48 67bf 4324 f23d 5794 f1be
00000020: cf06 67bc 0c79 b63e b921 693b 3a90 fcba
00000030: 92c4 3fbe fbeb af3e 4713 fcbd 1764 c2be
00000040: c747 bdbe 66c1 983d b996 673e badd 84be
00000050: f6c8 c53c 2dd9 0fbf 3427 a33e f183 30bd
00000060: 84c4 92bd 11db 2fbe 8d17 63bb ceaf 34bd
00000070: f9c7 81be e203 1a3e a7e7 a33e 65cd b33d
00000080: 13ca a1be 6433 08bf c5dc cf3d 1cb8 193f
00000090: 35ff 69bd 09bd 81be 49f9 24bd e872 e9be
000000a0: 6dd8 52be 99e8 74bd 02f6 bfbc a2e3 c2bd
000000b0: 28f5 a3be 4f6d 33be 2a8b 5cbd 03e4 85bc

resolve.4.layers.0.conv0.bias f4 [4]
-0.2978829 -0.029842634 -0.3430612 0.38427967
00000000: 1c84 98be 8a78 f4bc b8a5 afbe 4ec0 c43e

resolve.4.layers.0.bn0.weight f4 [4]
1.0 1.0 1.0 1.0
00000000: 0000 803f 0000 803f 0000 803f 0000 803f

resolve.4.layers.0.bn0.bias f4 [4]
0.0 0.0 0.0 0.0
00000000: 0000 0000 0000 0000 0000 0000 0000 0000

resolve.4.layers.0.bn0.running_mean f4 [4]
0.0 0.0 0.0 0.0
00000000: 0000 0000 0000 0000 0000 0000 0000 0000

resolve.4.layers.0.bn0.running_var f4 [4]
1.0 1.0 1.0 1.0
00000000: 0000 803f 0000 803f 0000 803f 0000 803f

resolve.4.layers.0.conv1.weight f4 [4, 4, 1]
0.4791763 0.7510234 0.01073604 -0.10853598 -0.2422972 -0.5883524 -0.48411697 -0.8314418
0.15773079 -0.1322037 0.25963977 0.3179601 -0.29952496 -0.5769501 -1.1167502 -0.1786874
00000000: 9956 f53e 1243 403f 37e6 2f3c 1d48 debd
00000010: c21c 78be 439e 16bf 2ede f7be 5fd9 54bf
00000020: 2e84 213e 6860 07be 81ef 843e abcb a23e
00000030: 565b 99be 00b3 13bf acf1 8ebf d4f9 36be

resolve.4.layers.0.conv1.bias f4 [4]
0.027649058 0.35845342 -0.12877694 -0.13409618
00000000: 4780 e23c 3587 b73e 1ade 03be 8250 09be

resolve.4.layers.0.bn1.weight f4 [4]
1.0 1.0 1.0 1.0
00000000: 0000 803f 0000 803f 0000 803f 0000 803f

resolve.4.layers.0.bn1.bias f4 [4]
0.0 0.0 0.0 0.0
00000000: 0000 0000 0000 0000 0000 0000 0000 0000

resolve.4.layers.0.bn1.running_mean f4 [4]
0.0 0.0 0.0 0.0
00000000: 0000 0000 0000 0000 0000 0000 0000 0000

resolve.4.layers.0.bn1.running_var f4 [4]
1.0 1.0 1.0 1.0
00000000: 0000 803f 0000 803f 0000 803f 0000 803f

resolve.4.layers.1.conv0.weight f4 [4, 4, 3]
-0.14182226 0.11793655 -0.1298466 -0.25983173 0.040426675 -0.14290208 0.091603495 0.08013846
0.04571154 -0.09436201 -0.1062421 0.01563257 0.036761176 0.41775686 -0.09013156 -0.12615661
-0.110586636 0.010694671 0.2719668 -0.043653402 -0.012524977 0.43610528 0.38923973 0.17266233
0.028335366 -0.055617113 0.40242043 -0.4249572 -0.20682208 -0.51807207 -0.13866982 -0.41533604
-0.19072744 0.069729224 0.229576 0.17085752 0.5111433 0.08764359 0.23318611 -0.5929985
-0.08526381 -0.38541833 0.39818442 -0.08749414 0.11340539 0.4624173 0.87380844 0.12784277
00000000: db39 11be b888 f13d 82f6 04be aa08 85be
00000010: 7196 253d ec54 12be 9d9a bb3d a21f a43d
00000020: 063c 3b3d df40 c1bd 7595 d9bd e00f 803c
00000030: e392 163d 3ae4 d53e e596 b8bd 332f 01be
00000040: 3f7b e2bd b438 2f3c 3b3f 8b3e e9cd 32bd
00000050: 9035 4dbc 3149 df3e 6e4a c73e 65ce 303e
00000060: 921f e83c c5ce 63bd 0d0a ce3e fd93 d9be
00000070: 2bc9 53be 5fa0 04bf 76ff 0dbe eda6 d4be
00000080: 0e4e 43be 32ce 8e3d f915 6b3e 46f5 2e3e
00000090: 4ada 023f 7c7e b33d 57c8 6e3e c0ce 17bf
000000a0: cb9e aebd 8d55 c5be d4de cb3e 2130 b3bd
000000b0: 1641 e83d f6c1 ec3e e9b1 5f3f 37e9 023e

resolve.4.layers.1.conv0.bias f4 [4]
0.04306493 0.07393239 -0.67242277 -0.5220653
00000000: da64 303d dd69 973d e623 2cbf 12a6 05bf

resolve.4.layers.1.bn0.weight f4 [4]
1.0 1.0 1.0 1.0
00000000: 0000 803f 0000 803f 0000 803f 0000 803f

resolve.4.layers.1.bn0.bias f4 [4]
0.0 0.0 0.0 0.0
00000000: 0000 0000 0000 0000 0000 0000 0000 0000

resolve.4.layers.1.bn0.running_mean f4 [4]
0.0 0.0 0.0 0.0
00000000: 0000 0000 0000 0000 0000 0000 0000 0000

resolve.4.layers.1.bn0.running_var f4 [4]
1.0 1.0 1.0 1.0
00000000: 0000 803f 0000 803f 0000 803f 0000 803f

resolve.4.layers.1.conv1.weight f4 [4, 4, 1]
-0.11010744 0.31759533 -0.28662172 0.08955933 0.13309044 0.05937757 0.40482765 0.26549843
-0.28771877 0.029958978 0.49318606 0.14012489 0.038535863 0.4896385 -0.05927878 0.079878464
00000000: 0280 e1bd db9b a23e 15c0 92be e26a b73d
00000010: dc48 083e e535 733d 9245 cf3e 69ef 873e
00000020: e04f 93be 886c f53c e282 fc3e e67c 0f3e
00000030: c8d7 1d3d e6b1 fa3e 4ece 72bd 5297 a33d

resolve.4.layers.1.conv1.bias f4 [4]
-0.1676058 -0.1305376 0.31435803 0.27982137
00000000: dba0 2bbe a6ab 05be 89f3 a03e bf44 8f3e

resolve.4.layers.1.bn1.weight f4 [4]
1.0 1.0 1.0 1.0
00000000: 0000 803f 0000 803f 0000 803f 0000 803f

resolve.4.layers.1.bn1.bias f4 [4]
0.0 0.0 0.0 0.0
00000000: 0000 0000 0000 0000 0000 0000 0000 0000

resolve.4.layers.1.bn1.running_mean f4 [4]
0.0 0.0 0.0 0.0
00000000: 0000 0000 0000 0000 0000 0000 0000 0000

resolve.4.layers.1.bn1.running_var f4 [4]
1.0 1.0 1.0 1.0
00000000: 0000 803f 0000 803f 0000 803f 0000 803f

resolve.4.layers.2.conv0.weight f4 [4, 4, 3]
-0.0144765675 0.45187193 -0.3066023 -0.11741967 -0.2738477 -0.07602344 -0.029246317 -0.035741847
-0.06247576 0.1905864 0.64704055 0.11076631 -0.024361353 0.04824266 -0.19659032 0.016479792
0.56968296 0.09079922 -0.093291156 -0.37609494 -0.078612894 0.024836477 0.3324705 -0.02763592
-0.07349744 0.05927722 0.048711494 0.07398408 0.25438395 -0.072871685 -0.0020790056 0.014924983
0.011862822 -0.039443303 -0.43490034 -0.009694635 0.057861563 -0.060985733 -0.13110642 -0.031125424
0.19540928 0.26662028 -0.085286245 -0.17224598 -0.07218231 -0.006477713 0.12439603 -0.11016892
00000000: 202f 6dbc c25b e73e fafa 9cbe b979 f0bd
00000010: c435 8cbe 2db2 9bbd f995 efbc 0b66 12bd
00000020: 95e6 7fbd 1529 433e 73a4 253f 72d9 e23d
00000030: 7691 c7bc 189a 453d f94e 49be a100 873c
00000040: bed6 113f f1f4 b93d 6f0f bfbd 848f c0be
00000050: ccff a0bd de75 cb3c 9339 aa3e ba64 e2bc
00000060: d385 96bd accc 723d b485 473d f784 973d
00000070: 9d3e 823e c03d 95bd ed3f 08bb ea87 743c
00000080: 485c 423c 4d8f 21bd 42ab debe 3fd6 1ebc
00000090: 3f00 6d3d 2dcc 79bd c340 06be bffa febc
000000a0: 5f19 483e 7482 883e 8eaa aebd 4061 30be
000000b0: 52d4 93bd ff42 d4bb 59c3 fe3d 3ea0 e1bd

resolve.4.layers.2.conv0.bias f4 [4]
-0.32010287 -0.16806348 -0.14479946 -0.18657915
00000000: 86e4 a3be d518 2cbe 4f46 14be 9b0e 3fbe

resolve.4.layers.2.bn0.weight f4 [4]
1.0 1.0 1.0 1.0
00000000: 0000 803f 0000 803f 0000 803f 0000 803f

resolve.4.layers.2.bn0.bias f4 [4]
0.0 0.0 0.0 0.0
00000000: 0000 0000 0000 0000 0000 0000 0000 0000

resolve.4.layers.2.bn0.running_mean f4 [4]
0.0 0.0 0.0 0.0
00000000: 0000 0000 0000 0000 0000 0000 0000 0000

resolve.4.layers.2.bn0.running_var f4 [4]
1.0 1.0 1.0 1.0
00000000: 0000 803f 0000 803f 0000 803f 0000 803f

resolve.4.layers.2.conv1.weight f4 [4, 4, 1]
0.07584286 0.27372864 -0.08580643 -0.29811424 0.27519974 -0.45037505 0.43174258 0.36647356
0.03790797 0.4252804 -0.13980266 -0.32628453 0.34511623 -0.107211806 -0.12867232 -0.22941726
00000000: 8053 9b3d 2926 8c3e 48bb afbd 6ea2 98be
00000010: fbe6 8c3e 8f97 e6be 5d0d dd3e 6ca2 bb3e
00000020: 6345 1b3d 5abe d93e 6e28 0fbe c40e a7be
00000030: 13b3 b03e dd91 dbbd adc2 03be 5cec 6abe

resolve.4.layers.2.conv1.bias f4 [4]
0.5211867 0.21921197 -0.0073304004 -0.3161521
00000000: 7e6c 053f 1a79 603e db33 f0bb b0de a1be

resolve.4.layers.2.bn1.weight f4 [4]
1.0 1.0 1.0 1.0
00000000: 0000 803f 0000 803f 0000 803f 0000 803f

resolve.4.layers.2.bn1.bias f4 [4]
0.0 0.0 0.0 0.0
00000000: 0000 0000 0000 0000 0000 0000 0000 0000

resolve.4.layers.2.bn1.running_mean f4 [4]
0.0 0.0 0.0 0.0
00000000: 0000 0000 0000 0000 0000 0000 0000 0000

resolve.4.layers.2.bn1.running_var f4 [4]
1.0 1.0 1.0 1.0
00000000: 0000 803f 0000 803f 0000 803f 0000 803f

resolve.4.layers.3.weight f4 [8, 4, 4]
0.12614809 0.0021070603 -0.11261817 0.16359733 0.03927749 0.6405428 0.93573993 0.31748185
-0.055914696 -0.15240291 -0.3044156 -0.032863297 -0.11493988 -0.3973278 -0.051790576 -0.0063952357
-0.047658175 0.11532021 0.42151657 -0.04646319 0.010806123 -0.22290681 -0.0059080273 -0.24839602
0.15529366 -0.017090233 -0.23080443 0.26697978 0.18608278 0.10824413 0.07246149 -0.15823252
0.19337723 0.0117060235 0.28056306 -0.013704723 -0.22328477 0.26285654 -0.63679415 0.058417488
0.034533832 -0.10796776 -0.08130182 0.20565256 -0.018419918 0.20750406 0.03704742 0.14462829
0.2933852 -0.21572302 -0.044449296 0.0071187317 0.3233427 -0.21372612 0.07132199 0.034152124
-0.3131799 0.18096882 0.15153001 0.08286098 0.053963784 0.4026247 0.16726841 -0.0012102518
-0.111993775 -0.18630922 0.11298708 -0.07495428 -0.21114247 -0.12588672 -0.24062015 -0.07774286
0.07886037 0.25348583 0.14912283 0.22044584 0.21851371 0.0011951323 -0.06301623 0.12570648
0.02573071 -0.07951449 -0.024647804 -0.06336741 0.09560699 0.045518152 -0.14895791 0.04613955
-0.02525983 -0.2508766 0.095650636 -0.056371342 0.18132527 0.13933946 0.056823123 0.14858958
0.25264996 0.2629325 0.025580397 0.08132495 -0.044436913 0.18214926 0.0841273 -0.057632953
-0.01407782 -0.1726009 0.06885014 0.09186739 0.255358 0.3074251 0.026612177 0.08342235
-0.0650892 0.32437167 0.01211273 -0.08747193 0.05017553 -0.43583375 -0.070744894 0.14105268
0.14420757 -0.3023355 0.39286372 0.07639486 -0.04524583 0.24621722 0.045217495 0.19920197
00000000: f72c 013e 9b16 0a3b 5ba4 e6bd 0f86 273e
00000010: 6fe1 203d 9dfa 233f a78c 6f3f fb8c a23e
00000020: cf06 65bd 820f 1cbe 5ddc 9bbe aa9b 06bd
00000030: 9a65 ebbd 8d6e cbbe 5b22 54bd 208f d1bb
00000040: 3835 43bd 012d ec3d 05d1 d73e 3050 3ebd
00000050: 2a0c 313c af41 64be 2098 c1bb 875b 7ebe
00000060: 4d05 1f3e d100 8cbc ff57 6cbe 93b1 883e
00000070: 7c8c 3e3e 19af dd3d b166 943d b507 22be
00000080: ae04 463e 9fca 3f3c f6a5 8f3e c689 60bc
00000090: c3a4 64be 2295 863e f104 23bf 2d47 6f3d
000000a0: 5973 0d3d 331e ddbd 9281 a6bd 9696 523e
000000b0: 5ee5 96bc f27b 543e 09bf 173d 7019 143e
000000c0: 9636 963e 7fe6 5cbe 7710 36bd 4044 e93b
000000d0: 2d8d a53e 05db 5abe 4311 923d 19e3 0b3d
000000e0: 1e59 a0be e44f 393e af2a 1b3e 04b3 a93d
000000f0: 2109 5d3d d324 ce3e 6948 2b3e 50a1 9eba
00000100: fe5c e5bd d8c7 3ebe c565 e73d a181 99bd
00000110: bb35 58be 73e8 00be 2165 76be a637 9fbd
00000120: 8c81 a13d e5c8 813e a8b3 183e 8ebc 613e
00000130: 0fc2 5f3e fca5 9c3a a70e 81bd 33b9 003e
00000140: 36c9 d23c 7ed8 a2bd 31ea c9bc c6c6 81bd
00000150: 99cd c33d 3e71 3a3d 6c88 18be d3fc 3c3d
00000160: b4ed cebc e672 80be 7be4 c33d a3e5 66bd
00000170: 55ad 393e 01af 0e3e 5dbf 683d de27 183e
00000180: 565b 813e 179f 863e fb8d d13c b28d a63d
00000190: 7b03 36bd 5685 3a3e ef4a ac3d 8810 6cbd
000001a0: a8a6 66bc 4abe 30be 4d01 8d3d f824 bc3d
000001b0: 49be 823e d366 9d3e c801 da3c 56d9 aa3d
000001c0: 7d4d 85bd 0b14 a63e 7974 463c 7c24 b3bd
000001d0: db84 4d3d 9a25 dfbe b3e2 90bd 1d70 103e
000001e0: 26ab 133e b8cb 9abe 6f25 c93e e974 9c3d
000001f0: b153 39bd 5e20 7c3e fb35 393d 9afb 4b3e

resolve.4.layers.3.bias f4 [8]
0.11530713 -0.07579556 0.14502092 0.010330144 -0.09896194 0.07267786 0.20747514 -0.16083336
00000000: 2526 ec3d b43a 9bbd 5d80 143e c43f 293c
00000010: 8fac cabd 21d8 943d 5d74 543e 80b1 24be

resolve.5.weight f4 [8, 8, 3]
0.35458836 0.29588768 0.25516996 -0.09405329 -0.095162146 0.06105781 -0.065521665 0.17950976
-0.27470225 -0.033324167 -0.33976978 -0.13808863 -0.015752388 0.22716996 0.20591989 0.15640157
0.089137785 -0.19338161 -0.032757312 0.06099192 -0.11574975 0.21118523 0.09165664 -0.050842762
0.24462354 -0.115897655 -0.2202798 0.26147878 0.23441532 0.23958021 -0.07652489 0.2732214
0.31110948 -0.049613647 -0.23526818 -0.16664378 -0.114191785 -0.20433608 -0.1961569 -0.18985042
-0.098815925 0.021150135 0.061362024 0.043242168 -0.02771616 0.024594923 -0.09255422 -0.22481933
0.14913835 0.13329548 -0.094751626 0.21304505 -0.059959676 0.013542764 -0.56577265 -0.22737205
0.057938688 0.16676961 0.5011849 -0.07194653 -0.23778509 0.077071995 -0.20075475 -0.27675706
0.1224826 -0.24966617 -0.111339115 -0.16509727 -0.07490589 0.13207763 -0.45111033 -0.08619448
-0.1609365 0.26911965 -0.20196299 -0.06699259 0.026448684 0.2986731 -0.21655269 -0.24178079
0.08617416 0.20720503 -0.16841397 -0.026181148 0.1129191 -0.062379465 -0.07007131 0.23363538
-0.06740693 -0.11738381 -0.18861048 0.04312659 -0.12140476 -0.024237629 0.24888551 0.055502627
-0.42831802 -0.06522399 0.08094765 -0.1971858 -0.1941262 0.20972401 0.31225094 0.26847073
-0.16231357 -0.15478298 -0.49935687 -0.44359085 -0.13944595 -0.3478959 0.21898006 -0.04561085
-0.3526195 -0.3691413 0.033082284 0.28280643 -0.41158682 -0.10593679 0.14254646 -0.15788749
0.018669715 0.036513705 0.47961873 0.057663046 0.026721943 -0.2659286 0.001898861 0.531881
-0.27073696 0.109181084 -0.25567582 0.13060376 -0.013731402 -0.017033527 -0.08735713 -0.08383858
0.099759564 -0.13429917 -0.03540556 0.088624336 0.33892962 -0.0052540144 -0.23023476 0.099706054
0.027067585 0.14165913 -0.106632 -0.11953306 0.07888928 -0.0039740023 0.02013079 -0.26254743
0.084359 -0.0118774455 -0.30701748 0.107898735 -0.06365089 -0.18135528 0.01554566 0.23670064
-0.103924476 0.25095484 -0.12437149 0.26669842 0.086355664 0.4812287 -0.061957438 0.19469702
-0.017857768 -0.09078583 -0.05655088 -0.09032048 -0.03520315 -0.17303857 -0.12503254 -0.21897085
-0.23307413 0.14539003 0.0059288642 0.025318675 0.026120529 -0.24263588 0.15420678 -0.03688853
-0.0845418 -0.33315802 -0.1988852 -0.020229932 -0.33733967 0.11197045 0.16550991 0.5147946
00000000: 9b8c b53e 977e 973e a3a5 823e 039f c0bd
00000010: 5fe4 c2bd c117 7a3d 3930 86bd 68d1 373e
00000020: c6a5 8cbe ec7e 08bd 4ef6 adbe 1b67 0dbe
00000030: 270b 81bc 3e9f 683e aadc 523e bc27 203e
00000040: df8d b63d d405 46be 882c 06bd aad2 793d
00000050: 340e edbd f140 583e 7ab6 bb3d 8040 50bd
00000060: 987e 7a3e c05b edbd 0791 61be 8ce0 853e
00000070: 920a 703e 8454 753e 15b9 9cbd ade3 8b3e
00000080: be49 9f3e ae37 4bbd 24ea 70be aba4 2abe
00000090: 62dd e9bd 7a3d 51be 5bdd 48be 2668 42be
000000a0: 0160 cabd 0c43 ad3c bf56 7b3d b31e 313d
000000b0: 000d e3bc 4b7b c93c 118d bdbd 0a37 66be
000000c0: b9b7 183e 9c7e 083e 240d c2bd 7b28 5a3e
000000d0: 4798 75bd 78e2 5d3c 7ad6 10bf 38d4 68be
000000e0: 1e51 6d3d a7c5 2a3e a74d 003f b458 93bd
000000f0: ef7d 73be ecd7 9d3d a792 4dbe 1ab3 8dbe
00000100: 28d8 fa3d 7da8 7fbe c305 e4bd 420f 29be
00000110: 4268 99bd 5c3f 073e eff7 e6be bb86 b0bd
00000120: 8acc 24be 0dca 893e 63cf 4ebe 6933 89bd
00000130: e9aa d83c aeeb 983e fdbf 5dbe 6295 77be
00000140: 147c b03d 8e2d 543e b674 2cbe d979 d6bc
00000150: 2142 e73d 9c81 7fbd 8c81 8fbd 1d3e 6f3e
00000160: a50c 8abd ec66 f0bd 1b23 41be 82a5 303d
00000170: 0fa3 f8bd fe8d c6bc d8db 7e3e b956 633d
00000180: 804c dbbe 2894 85bd e2c7 a53d 13eb 49be
00000190: 05c9 46be e4c1 563e 5bdf 9f3e ff74 893e
000001a0: 8735 26be 6e7f 1ebe b4ab ffbe 571e e3be
000001b0: ebca 0ebe 691f b2be 4f3c 603e 71d2 3abd
000001c0: 8b8a b4be 1700 bdbe 4a81 073d 01cc 903e
000001d0: 82bb d2be 63f5 d8bd b3f7 113e 42ad 21be
000001e0: 3bf1 983c 658f 153d 9690 f53e 1630 6c3d
000001f0: fae7 da3c cb27 88be 34e3 f83a 5a29 083f
00000200: 099e 8abe 559a df3d f1e7 82be febc 053e
00000210: adf9 60bc e589 8bbc 4ce8 b2bd 90b3 abbd
00000220: be4e cc3d b985 09be 6c05 11bd ad80 b53d
00000230: 2f88 ad3e de29 acbb a9c2 6bbe b032 cc3d
00000240: d7bc dd3c 170f 113e e161 dabd c0cd f4bd
00000250: b490 a13d 5938 82bb 54e9 a43c 9e6c 86be
00000260: 69c4 ac3d 9e99 42bc 6531 9dbe 03fa dc3d
00000270: 665b 82bd 33b5 39be 39b3 7e3c a761 723e
00000280: 5bd6 d4bd 277d 803e 7bb6 febd b28c 883e
00000290: 3ddb b03d 9c63 f63e 15c7 7dbd a85e 473e
000002a0: 744a 92bc eced b9bd e5a1 67bd f2f9 b8bd
000002b0: 2e31 10bd 0631 31be 8808 00be e539 60be
000002c0: fcaa 6ebe 20e1 143e eb46 c23b 1c69 cf3c
000002d0: b8fa d53c 8a75 78be 62e8 1d3e 6d18 17bd
000002e0: 4024 adbd b093 aabe 90a8 4bbe 3eb9 a5bc
000002f0: c9b7 acbe c350 e53d 6e7b 293e 94c9 033f

resolve.5.bias f4 [8]
-0.12945549 0.13417514 0.10938069 -0.10812097 -0.05323841 -0.055591475 0.24669455 -0.25748816
00000000: fb8f 04be 3565 093e fc02 e03d 876e ddbd
00000010: 8510 5abd e3b3 63bd 7f9d 7c3e 7dd5 83be

resolve.6.weight f4 [8, 8, 7]
-0.21741867 -0.1243739 -0.31831253 0.33565098 0.14452821 0.013099497 -0.06205014 0.037057154
-0.01125927 -0.2087024 -0.20995349 0.09213976 -0.067307696 -0.1314128 -0.07717507 -0.16485667
-0.33143425 -0.17010549 0.15901929 0.08083269 0.04694641 -0.052538034 0.13505 -0.15859649
0.103664435 0.072584 -0.14468518 0.027714534 0.03120341 -0.12152838 -0.27500978 -0.020900048
-0.19641013 0.10439912 0.074430846 0.047070585 -0.0940573 0.23178042 -0.5058449 -0.034727767
-0.15448141 -0.06614258 0.107048735 0.0131557975 -0.07220961 0.17219914 0.5381828 0.46629906
0.1155158 0.10324097 0.05635266 0.097270325 -0.015756717 -0.24167228 -0.26555815 -0.07137658
-0.0042669214 0.04468788 -0.0021640991 0.8080158 0.15894827 -0.04288118 0.082445696 -0.044560745
-0.005228414 -0.03891766 -0.25829473 0.07066037 -0.12660399 0.065004155 0.0070318226 -0.068966396
-0.03734925 0.10803045 -0.6134943 -0.11348224 -0.017186891 -0.025542544 -0.14481312 -0.091968976
0.055768467 0.031902794 0.021898603 -0.031774577 -0.0089165075 0.02253257 -0.24594213 0.2209881
-0.17903027 0.19659321 -0.036307473 -0.091901354 0.10145225 0.04736145 -0.055658754 -0.007580372
0.12502316 -0.008594467 0.048433494 0.014878611 0.0427211 -0.14704236 -0.32794183 0.13057832
0.015863212 -0.07025241 0.2658905 -0.17348343 0.08521886 -0.19933334 -0.11555822 0.011784699
-0.11359985 0.03667352 0.111642465 -0.22925997 -0.5134149 -0.2625878 0.057003327 0.08941308
-0.08892359 0.052108068 0.017074902 0.07926793 -0.040366497 -0.11811582 -0.019020196 -0.064360954
-0.05659711 0.052514765 0.061148692 0.20882618 0.11833138 0.050313894 0.07693422 0.0771796
-0.13930714 -0.25831392 -0.07562385 -0.04182187 0.026449727 -0.038335405 0.01892104 -0.33139285
0.1083999 0.108553566 -0.0064927554 -0.0632247 -0.030977888 -0.088862084 0.27024502 0.055048924
-0.03597434 -0.092404254 0.12089411 0.023998654 -0.11937947 0.06262786 0.3478747 0.22649263
0.12308504 -0.11357854 0.037084814 -0.048526037 -0.24786906 -0.29455644 -0.060940083 -0.05566368
-0.11934848 -0.2189242 0.44304532 -0.2842266 -0.17369205 0.4567875 -0.2251844 0.030536938
0.06818268 -0.17976475 -0.027947009 0.24002711 -0.09538381 0.010560764 -0.01539478 -0.10039332
0.070707865 0.23327622 0.8485974 -0.22854166 0.0040234113 -0.010178122 -0.079228856 -0.15648755
0.28280398 -0.121252894 -0.13483855 -0.028727442 0.058979556 0.054841153 0.14203116 -0.32508293
-0.24855016 -0.09933822 0.05276648 -0.13409369 -0.33164072 0.45274404 0.18710257 0.090026736
-0.28568903 0.012538012 -0.024691204 -0.013752797 -0.28494868 0.4605695 -0.39370635 0.11729819
-0.0281627 0.037822735 -0.04014526 -0.33840114 -0.13779545 0.054236595 -0.11325964 0.035964336
-0.06701305 -0.017683221 -0.5092056 0.03672125 0.1633591 -0.093530215 0.009449588 -0.008438557
-0.040713836 0.16397293 0.2716344 -0.02019727 -0.047187332 -0.07239263 -0.033565413 -0.0027342238
-0.07572026 -0.4732109 0.06602209 -0.15366293 0.062116195 0.005954906 0.11711827 0.19743153
0.007084909 -0.2732815 0.1235995 0.01660305 0.0046314765 0.02293658 -0.20471899 0.058257364
00000000: 00a3 5ebe beb7 febd dcf9 a2be 72da ab3e
00000010: 34ff 133e 469f 563c 4a28 7ebd 3ec9 173d
00000020: cd78 38bc 15b6 55be 0cfe 56be c5b3 bc3d
00000030: 9ed8 89bd 1491 06be f70d 9ebd 30d0 28be
00000040: c0b1 a9be 2230 2ebe f4d5 223e 9c8b a53d
00000050: e14a 403d 1f32 57bd 8c4a 0a3e 1e67 22be
00000060: 054e d43d eca6 943d 5a28 14be 9709 e33c
00000070: 4b9e ff3c dfe3 f8bd 15ce 8cbe 9436 abbc
00000080: bd1f 49be 35cf d53d 336f 983d 16cd 403d
00000090: 1da1 c0bd d957 6d3e 0d7f 01bf b43e 0ebd
000000a0: 6030 1ebe c375 87bd 5e3c db3d 6a8b 573c
000000b0: a2e2 93bd f954 303e 59c6 093f c0be ee3e
000000c0: 8c93 ec3d 0070 d33d 0cd2 663d aa35 c73d
000000d0: 3b14 81bc f078 77be 3df7 87be e22d 92bd
000000e0: 88d1 8bbb a30a 373d 8fd3 0dbb 20da 4e3f
000000f0: 56c3 223e 2da4 2fbd 4ad9 a83d 5485 36bd
00000100: 1e53 abbb 2068 1fbd 353f 84be 62b6 903d
00000110: 7aa4 01be e620 853d 346b e63b 413e 8dbd
00000120: 87fb 18bd 123f dd3d f60d 1dbf 6069 e8bd
00000130: 86cb 8cbc 993e d1bc e449 14be 3b5a bcbd
00000140: 7a6d 643d 81ac 023d b364 b33c 0f26 02bd
00000150: 8b16 12bc 3996 b83c 41d8 7bbe b44a 623e
00000160: b653 37be bb4f 493e 25b7 14bd c736 bcbd
00000170: 32c6 cf3d 14fe 413d 6ffa 63bd c564 f8bb
00000180: 1206 003e cfcf 0cbc 3362 463d 6bc5 733c
00000190: 52fc 2e3d 4692 16be fee7 a7be 53b6 053e
000001a0: 91f3 813c 7fe0 8fbd cd22 883e a4a5 31be
000001b0: 3a87 ae3d 0a1e 4cbe caa9 ecbd 9c14 413c
000001c0: 0aa7 e8bd f936 163d cea4 e43d 20c3 6abe
000001d0: 296f 03bf e871 86be 527c 693d 341e b73d
000001e0: 921d b6bd 456f 553d aae0 8b3c 3957 a23d
000001f0: 5757 25bd b5e6 f1bd 3ed0 9bbc adcf 83bd
00000200: 5fd2 67bd b919 573d 0d77 7a3d 88d6 553e
00000210: b957 f23d f115 4e3d b08f 9d3d 5710 9e3d
00000220: 88a6 0ebe b941 84be ade0 9abd 694d 2bbd
00000230: 19ad d83c 9605 1dbd 4c00 9b3c 53ac a9be
00000240: c400 de3d 5551 de3d 2ec1 d4bb f47b 81bd
00000250: 57c5 fdbc 53fd b5bd 8e5d 8a3e fb7a 613d
00000260: d459 13bd 713e bdbd 5597 f73d d398 c43c
00000270: 397d f4bd 0943 803d a21c b23e afed 673e
00000280: 0214 fc3d de9b e8bd 3fe6 173d 3dc3 46bd
00000290: 63d1 7dbe 1ad0 96be 4f9c 79bd 99ff 63bd
000002a0: fa6c f4bd aa2d 60be d6d6 e23e 2686 91be
000002b0: 54dc 31be 0de0 e93e bd96 66be 9a28 fa3c
000002c0: 5ca3 8b3d 4014 38be 20f1 e4bc abc9 753e
000002d0: 9658 c3bd 0e07 2d3c 633a 7cbc 039b cdbd
000002e0: 49cf 903d f6df 6e3e ae3d 593f d306 6abe
000002f0: d2d6 833b 23c2 26bc bd42 a2bd 463e 20be
00000300: afcb 903e 7053 f8bd 1e13 0abe d055 ebbc
00000310: 8c94 713d 1ea1 603d 9e70 113e 4571 a6be
00000320: ef83 7ebe d671 cbbd aa21 583d db4f 09be
00000330: d0cc a9be 11ce e73e d197 3f3e f05f b83d
00000340: d545 92be 3c6c 4d3c 3545 cabc 6953 61bc
00000350: cbe4 91be c4cf eb3e e193 c9be 093a f03d
00000360: 76b5 e6bc 03ec 1a3d 5b6f 24bd ea42 adbe
00000370: 401a 0dbe 3127 5e3d acf4 e7bd 574f 133d
00000380: 233e 89bd 67dc 90bc 4c5b 02bf 0569 163d
00000390: 9c47 273e c58c bfbd 72d2 1a3c e041 0abc
000003a0: 8dc3 26bd 85e8 273e aa13 8b3e bf74 a5bc
000003b0: 8147 41bd 9642 94bd e37b 09bd aa30 33bb
000003c0: 3913 9bbd b348 f2be 9736 873d d159 1dbe
000003d0: 8d6d 7e3d 5f21 c33b b4db ef3d 7e2b 4a3e
000003e0: 8628 e83b 8eeb 8bbe bc21 fd3d 1f03 883c
000003f0: a4c3 973b 7fe5 bb3c dba1 51be 469f 6e3d

resolve.6.bias f4 [8]
-0.008734436 0.019682072 -0.01583746 -0.114819326 0.031427372 -0.028218407 0.015284982 -0.017231775
00000000: e11a 0fbc 4c3c a13c 90bd 81bc 6526 ebbd
00000010: fdb9 003d 4a2a e7bc dc6d 7a3c a729 8dbc

resolve.8.layers.0.weight f4 [8, 4, 12]
0.018617738 0.043755088 0.10008466 0.1441786 0.1949511 -0.13084434 -0.2088224 -0.17086759
-0.17185108 -0.06930108 0.018751826 -0.0449547 0.03374891 0.064289615 0.17887186 0.13629177
0.19159138 -0.06907477 0.028845103 -0.08293491 0.042841434 0.21276206 0.44177002 0.14977188
0.039834622 0.053682804 0.025250878 0.037830643 0.076985136 0.13319752 0.31464276 0.18161447
0.17688431 0.08323768 -0.027037935 -0.024494758 -0.033115223 -0.14123054 -0.081192516 -0.029672176
0.16052954 -0.65291816 -0.4992886 -0.40650097 -0.24144165 -0.3125593 -0.0868824 -0.053639993
-0.017040895 0.116322875 -0.15686552 -0.26960072 -0.3166898 0.098154984 -0.057840895 -0.02645328
0.001840146 0.023638282 -0.063851215 0.024108604 -0.05438622 0.083507836 -0.36504677 -0.10000166
-0.21660526 0.09199047 -0.27844873 0.09519892 -0.004623369 0.12696734 0.09093633 0.13985834
-0.049027976 -0.06307269 -0.14384462 -0.0800101 0.08738706 0.25121307 0.11802338 0.28528872
0.119468324 -0.12503485 -0.0049380353 0.04676193 0.10308078 0.6423403 0.053325847 -0.40764707
-0.19333553 0.31643346 0.05539442 -0.21774964 0.31878772 0.1345795 -0.11370908 0.010554732
0.014158049 -0.002410063 0.07862863 0.10514967 0.09222947 0.29436475 0.2477295 0.27205324
0.042576853 0.050145417 0.033852473 -0.07470559 -0.053072944 -0.02915703 0.09905034 0.19380637
0.30215812 0.5331762 0.42927068 0.35688597 0.28166246 0.30243886 0.50460684 0.10312468
0.06994433 0.06349653 0.032031372 0.09411531 0.020078178 -0.030289862 0.10395952 -0.13107648
-0.115648694 -0.08602135 -0.14420904 -0.0844734 -0.0150140915 -0.3041322 -0.22291514 -0.18697646
-0.6907877 0.023572497 -0.50623137 -0.15855587 -0.117681354 -0.44109198 -0.2597524 -0.33973324
-0.043584406 0.086109355 0.005677545 0.056986004 0.3433209 0.029443793 -0.014497099 -0.009376849
-0.11576168 -0.07765429 -0.027813802 -0.0057836534 -0.05090057 -0.044020746 -0.28729782 -0.049656983
0.18836012 -0.045209497 0.04112479 -0.028800873 -0.16108201 0.02845792 0.08244057 0.08880642
-0.12549338 0.026043776 -0.0056682057 0.04476524 0.024536172 -0.16415492 -0.27888352 -0.24963191
-0.16165629 -0.21118271 -0.035227668 -0.018704522 0.27858222 0.2956966 -0.067730375 0.10204629
0.6436999 -1.1273748 -0.80572546 -0.9497925 -0.37816063 -0.39871886 -0.19741344 0.070069715
0.019825209 0.085458286 0.20024106 0.23423408 0.19100899 0.20524347 0.13564254 -0.055027973
-0.033393875 -0.13281003 -0.15004387 -0.05567652 0.06560478 0.12990202 0.21135914 0.1919552
0.2130522 0.25314745 0.0829073 -0.22923607 -0.12708515 -0.12411421 0.051903855 0.042481136
0.10569622 -0.0071759745 -0.111886844 -0.19684403 -0.24793725 -0.14380752 -0.23739779 0.0051512285
0.14440402 0.15030108 0.34460807 0.21885325 -0.17597413 -0.2948558 -0.14441347 -0.2593754
-0.46966022 0.0066147787 0.28206345 -0.09659787 -0.014871904 0.032112837 -0.06275594 0.12558238
0.07925701 0.11092142 -0.1326183 -0.12614205 -0.13901256 -0.08899416 -0.13887754 -0.19414201
0.0810759 0.06488032 0.01380967 -0.024878727 0.10904808 0.29968843 0.16991517 0.159378
00000000: 3a84 983c 8938 333d 30f9 cc3d 8ea3 133e
00000010: 43a1 473e 0ffc 05be 8ad5 55be eaf7 2ebe
00000020: bbf9 2fbe baed 8dbd 6e9d 993c 6b22 38bd
00000030: 4c3c 0a3d 46aa 833d 2f2a 373e 1290 0b3e
00000040: 8830 443e 1377 8dbd 914c ec3c c7d9 a9bd
00000050: 807a 2f3d 4cde 593e ae2f e23e cd5d 193e
00000060: a129 233d 80e2 5b3d eeda ce3c 4ef4 1a3d
00000070: 62aa 9d3d ee64 083e db18 a13e 25f9 393e
00000080: 2921 353e 8478 aa3d a97e ddbc 3ba9 c8bc
00000090: d4a3 07bd bd9e 10be 4348 a6bd 1013 f3bc
000000a0: db61 243e a525 27bf c1a2 ffbe e520 d0be
000000b0: 7b3c 77be c607 a0be 66ef b1bd 9cb5 5bbd
000000c0: 5999 8bbc b03a ee3d 5ba1 20be 1b09 8abe
000000d0: 2a25 a2be 7b05 c93d 93ea 6cbd 8db4 d8bc
000000e0: 0e31 f13a 12a5 c13c 6dc4 82bd 687f c53c
000000f0: 16c4 5ebd 2806 ab3d 69e7 babe accd ccbd
00000100: c5cd 5dbe 8065 bc3d d590 8ebe a7f7 c23d
00000110: a17f 97bb ba03 023e d43c ba3d 0637 0f3e
00000120: 8fd1 48bd 412c 81bd 014c 13be 56dc a3bd
00000130: fdf7 b23d 009f 803e 3eb6 f13d 5d11 923e
00000140: cfab f43d 2309 00be 3ecf a1bb 7089 3f3d
00000150: 041c d33d 6a70 243f 346c 5a3d 1eb7 d0be
00000160: c0f9 45be 9103 a23e 42e5 623d c3f9 5ebe
00000170: 2538 a33e 35cf 093e 4ee0 e8bd c1ed 2c3c
00000180: 29f7 673c 26f2 1dbb 0c08 a13d b658 d73d
00000190: cee2 bc3d fab6 963e cdac 7d3e 904a 8b3e
000001a0: 1165 2e3d 4865 4d3d e4a8 0a3d 3fff 98bd
000001b0: 0463 59bd b9da eebc e8da ca3d 2d75 463e
000001c0: 78b4 9a3e 3c7e 083f 5ec9 db3e c2b9 b63e
000001d0: 1036 903e 44d9 9a3e ea2d 013f 0833 d33d
000001e0: f93e 8f3d 780a 823d 5433 033d 87bf c03d
000001f0: fe7a a43c 7222 f8bc bbe8 d43d ea38 06be
00000200: 39d9 ecbd f62b b0bd 89ab 13be 6400 adbd
00000210: aafd 75bc 37b7 9bbe de43 64be c276 3fbe
00000220: 76d7 30bf 1c1b c13c 6198 01bf 785c 22be
00000230: ec02 f1bd cfd6 e1be 44fe 84be 84f1 adbe
00000240: 9085 32bd 1a5a b03d b30a ba3b 286a 693d
00000250: c2c7 af3e 1c34 f13c 3e85 6dbc 5ba1 19bc
00000260: 7614 edbd 3609 9fbd c5d9 e3bc cd84 bdbb
00000270: 1e7d 50bd 194f 34bd b318 93be 1f65 4bbd
00000280: 7ae1 403e 982d 39bd 7872 283d cfef ebbc
00000290: aff2 24be 9520 e93c 9ad6 a83d 24e0 b53d
000002a0: 5681 00be c259 d53c 5bbc b9bb c25b 373d
000002b0: 1500 c93c 3a18 28be d2c9 8ebe 829f 7fbe
000002c0: 3a89 25be 4840 58be e34a 10bd 3a3a 99bc
000002d0: 54a2 8e3e 8b65 973e 39b6 8abd a5fd d03d
000002e0: 84c9 243f d14d 90bf 0644 4ebf 9a25 73bf
000002f0: 459e c1be e124 ccbe c026 4abe b680 8f3d
00000300: 7a68 a23c c104 af3d fe0b 4d3e 0fdb 6f3e
00000310: dc97 433e 582b 523e e1e5 0a3e 0365 61bd
00000320: 04c8 08bd 5aff 07be 1aa5 19be 100d 64bd
00000330: cd5b 863d 0905 053e 886e 583e e78f 443e
00000340: 5b2a 5a3e 8b9c 813e 4dcb a93d dcbc 6abe
00000350: 9c22 02be 972f febd 2399 543d b300 2e3d
00000360: 4377 d83d 7024 ebbb ee24 e5bd 7b91 49be
00000370: 43e3 7dbe 4742 13be 6818 73be a3cb a83b
00000380: a6de 133e 87e8 193e 7870 b03e 111b 603e
00000390: 9032 34be 57f7 96be 20e1 13be dacc 84be
000003a0: 4e77 f0be c9c0 d83b 9f6a 903e 1bd5 c5bd
000003b0: 49a9 73bc c088 033d 3086 80bd ab98 003e
000003c0: 8051 a23d c52a e33d 17cd 07be 622b 01be
000003d0: 4f59 0ebe 9242 b6bd ea35 0ebe 2acd 46be
000003e0: 1f0b a63d f9df 843d f441 623c 79ce cbbc
000003f0: 9a54 df3d c370 993e 3efe 2d3e fd33 233e

resolve.8.layers.0.bias f4 [4]
0.05447134 -0.30321053 0.062502645 -0.067688845
00000000: 571d 5f3d 693e 9bbe 6301 803d 73a0 8abd

resolve.8.layers.2.conv0.weight f4 [4, 4, 3]
0.09889866 -0.0010983968 0.3476701 -0.25385 -0.34478512 -0.058925316 -0.25846133 0.3634897
0.059673157 0.021134347 -0.10022233 0.29549202 -0.037678737 -0.18287897 -0.36052483 0.19182181
0.16600083 -0.24459437 0.1250446 -0.1835328 -0.09979086 -0.09849627 -0.4927558 -0.057139732
0.005019556 -0.40921763 -0.16181979 0.05020682 -0.108424425 0.31307587 0.0005352064 0.018194366
0.20657949 -0.28510153 -0.3004224 -0.36569962 0.07433412 -0.34686282 0.2836787 -0.050306413
-0.030514373 0.25999817 0.40996107 -0.031300556 -0.016028415 -0.08605978 0.13007195 0.095140144
00000000: 618b ca3d 15f8 8fba d101 b23e a1f8 81be
00000010: ad87 b0be ac5b 71bd 0b55 84be 521b ba3e
00000020: d76b 743d f021 ad3c 5d41 cdbd bb4a 973e
00000030: 0555 1abd a044 3bbe b696 b8be f06c 443e
00000040: 1ffc 293e f276 7abe b10b 003e 06f0 3bbe
00000050: 275f ccbd 6ab8 c9bd 7d4a fcbe 5a0b 6abd
00000060: 167b a43b f984 d1be 16b4 25be aba5 4d3d
00000070: a00d debd 7b4b a03e 184d 0c3a 5a0c 953c
00000080: 9389 533e d4f8 91be f7d0 99be fb3c bbbe
00000090: 7d3c 983d 0198 b1be 563e 913e 190e 4ebd
000000a0: 47f9 f9bc 7b1e 853e 6be6 d13e 0335 00bd
000000b0: 064e 83bc 1c40 b0bd 9531 053e d6d8 c23d

resolve.8.layers.2.conv0.bias f4 [4]
0.35849318 0.033043243 0.11309774 -0.45554918
00000000: 6b8c b73e 5a58 073d ca9f e73d be3d e9be

resolve.8.layers.2.bn0.weight f4 [4]
1.0 1.0 1.0 1.0
00000000: 0000 803f 0000 803f 0000 803f 0000 803f

resolve.8.layers.2.bn0.bias f4 [4]
0.0 0.0 0.0 0.0
00000000: 0000 0000 0000 0000 0000 0000 0000 0000

resolve.8.layers.2.bn0.running_mean f4 [4]
0.0 0.0 0.0 0.0
00000000: 0000 0000 0000 0000 0000 0000 0000 0000

resolve.8.layers.2.bn0.running_var f4 [4]
1.0 1.0 1.0 1.0
00000000: 0000 803f 0000 803f 0000 803f 0000 803f

resolve.8.layers.2.conv1.weight f4 [4, 4, 1]
0.32506686 0.24643607 0.38422883 -0.43310207 -0.014575854 0.2192562 -0.42125425 -0.47061917
-0.48351684 -0.0747798 0.34662935 0.20424417 0.23867965 -0.56719637 -0.28625205 -0.034406103
00000000: 2a6f a63e bd59 7c3e a4b9 c43e 8ebf ddbe
00000010: 90cf 6ebc b384 603e a3ae d7be fff4 f0be
00000020: 858f f7be 2726 99bd 6779 b13e 6225 513e
00000030: 7068 743e c833 11bf a18f 92be 6aed 0cbd

resolve.8.layers.2.conv1.bias f4 [4]
0.0055866824 -0.29745036 0.4705256 -0.21706076
00000000: 7d10 b73b 6a4b 98be bbe8 f03e 2d45 5ebe

resolve.8.layers.2.bn1.weight f4 [4]
1.0 1.0 1.0 1.0
00000000: 0000 803f 0000 803f 0000 803f 0000 803f

resolve.8.layers.2.bn1.bias f4 [4]
0.0 0.0 0.0 0.0
00000000: 0000 0000 0000 0000 0000 0000 0000 0000

resolve.8.layers.2.bn1.running_mean f4 [4]
0.0 0.0 0.0 0.0
00000000: 0000 0000 0000 0000 0000 0000 0000 0000

resolve.8.layers.2.bn1.running_var f4 [4]
1.0 1.0 1.0 1.0
00000000: 0000 803f 0000 803f 0000 803f 0000 803f

resolve.8.layers.3.conv0.weight f4 [4, 4, 3]
0.104057856 -0.15411 0.09321772 -0.03885757 0.09183967 -0.42534277 0.094370455 -0.40172318
0.12385514 -0.08155691 0.08784201 0.049293477 -0.087822445 0.20197167 -0.18376747 0.10622476
-0.33244547 0.06517566 -0.22444838 0.1287645 0.108473554 -0.062462565 0.04325275 0.21230464
0.14419098 0.3054261 0.112144135 0.19767383 0.069601655 -0.26512888 0.22176255 -0.050043363
-0.0020171741 -0.07861276 0.09978405 -0.0834616 -0.3413899 -0.172856 -0.36504462 -0.04947411
-0.18325248 0.55489355 -0.023048244 0.0761095 0.069632314 0.20063095 -0.05426342 -0.14844145
00000000: 491c d53d 03cf 1dbe efe8 be3d 1e29 1fbd
00000010: 7016 bc3d 87c6 d9be 4c45 c13d a9ae cdbe
00000020: c3a7 fd3d 4f07 a7bd 83e6 b33d f5e7 493d
00000030: 41dc b3bd a9d1 4e3e 8a2d 3cbe 5e8c d93d
00000040: 4b36 aabe d17a 853d ccd5 65be d7da 033e
00000050: 6227 de3d bfd8 7fbd cc29 313d 6366 593e
00000060: cda6 133e cf60 9c3e d3ab e53d 026b 4a3e
00000070: 508b 8e3d f9be 87be b915 633e 45fa 4cbd
00000080: 9132 04bb baff a0bd 945b cc3d eaed aabd
00000090: a8ca aebe 2a01 31be 21e7 babe 5da5 4abd
000000a0: 8aa6 3bbe 810d 0e3f accf bcbc 4cdf 9b3d
000000b0: 639b 8e3d 3372 4d3e 5243 5ebd 0901 18be

resolve.8.layers.3.conv0.bias f4 [4]
-0.03337131 0.15650049 0.08784001 -0.35250473
00000000: 5bb0 08bd aa41 203e 77e5 b33d 807b b4be

resolve.8.layers.3.bn0.weight f4 [4]
1.0 1.0 1.0 1.0
00000000: 0000 803f 0000 803f 0000 803f 0000 803f

resolve.8.layers.3.bn0.bias f4 [4]
0.0 0.0 0.0 0.0
00000000: 0000 0000 0000 0000 0000 0000 0000 0000

resolve.8.layers.3.bn0.running_mean f4 [4]
0.0 0.0 0.0 0.0
00000000: 0000 0000 0000 0000 0000 0000 0000 0000

resolve.8.layers.3.bn0.running_var f4 [4]
1.0 1.0 1.0 1.0
00000000: 0000 803f 0000 803f 0000 803f 0000 803f

resolve.8.layers.3.conv1.weight f4 [4, 4, 1]
-0.26762214 0.06737966 0.40290684 -0.22723195 -0.36589795 0.37629572 0.48632717 -0.056130987
0.40270633 0.35447857 0.19719061 0.5168263 -0.10421543 0.28301337 0.24928795 -0.32691422
00000000: c505 89be 59fe 893d ce49 ce3e 7eaf 68be
00000010: fa56 bbbe d5a9 c03e e0ff f83e 9be9 65bd
00000020: 862f ce3e 377e b53e 56ec 493e ba4e 043f
00000030: e66e d5bd 21e7 903e 5745 7f3e 4d61 a7be

resolve.8.layers.3.conv1.bias f4 [4]
0.19855651 -0.06184334 0.32889453 -0.20237176
00000000: 6652 4b3e 714f 7dbd dd64 a83e 8b3a 4fbe

resolve.8.layers.3.bn1.weight f4 [4]
1.0 1.0 1.0 1.0
00000000: 0000 803f 0000 803f 0000 803f 0000 803f

resolve.8.layers.3.bn1.bias f4 [4]
0.0 0.0 0.0 0.0
00000000: 0000 0000 0000 0000 0000 0000 0000 0000

resolve.8.layers.3.bn1.running_mean f4 [4]
0.0 0.0 0.0 0.0
00000000: 0000 0000 0000 0000 0000 0000 0000 0000

resolve.8.layers.3.bn1.running_var f4 [4]
1.0 1.0 1.0 1.0
00000000: 0000 803f 0000 803f 0000 803f 0000 803f

resolve.8.layers.4.conv0.weight f4 [4, 4, 3]
0.1707209 0.106274694 -0.13013247 -0.016155493 -0.12900262 0.10415408 0.21592298 -0.21329018
-0.08809691 0.08221713 0.0030253937 0.11386845 0.031948734 -0.3270495 -0.119300246 -0.10408085
-0.2812404 0.06362373 -0.3012196 0.08900464 -0.050450545 0.06899691 0.83993393 0.08098642
0.024858287 0.20754156 -0.08759154 0.105562195 0.06730221 0.08410769 0.21463782 0.21182275
-0.025381068 0.022745911 0.027292948 0.06557076 0.21436322 -0.22922324 0.19198242 -0.25529778
-0.042573858 -0.18374488 -0.10727526 0.060272176 -0.09114804 0.03359596 0.23198384 -0.20341796
00000000: 76d1 2e3e 8ca6 d93d 7241 05be 8658 84bc
00000010: 4319 04be bc4e d53d ea1a 5d3e be68 5abe
00000020: 276c b4bd 7461 a83d af45 463b dd33 e93d
00000030: addc 023d 0873 a7be b053 f4bd 5728 d5bd
00000040: befe 8fbe 284d 823d 7539 9abe 1148 b63d
00000050: 3ba5 4ebd 404e 8d3d e905 573f 35dc a53d
00000060: 9ba3 cb3c c685 543e 3163 b3bd fe30 d83d
00000070: bed5 893d a740 ac3d 04ca 5b3e 10e8 583e
00000080: f5eb cfbc a255 ba3c 7695 df3c f649 863d
00000090: 0882 5b3e 7fb9 6abe 0a97 443e 64b6 82be
000000a0: ed61 2ebd 9e27 3cbe 22b3 dbbd f5df 763d
000000b0: d3ab babd eb9b 093d 2c8d 6d3e cc4c 50be

resolve.8.layers.4.conv0.bias f4 [4]
0.04787217 -0.03858883 0.19653687 -0.15968978
00000000: 9c15 443d 520f 1ebd f640 493e b885 23be

resolve.8.layers.4.bn0.weight f4 [4]
1.0 1.0 1.0 1.0
00000000: 0000 803f 0000 803f 0000 803f 0000 803f

resolve.8.layers.4.bn0.bias f4 [4]
0.0 0.0 0.0 0.0
00000000: 0000 0000 0000 0000 0000 0000 0000 0000

resolve.8.layers.4.bn0.running_mean f4 [4]
0.0 0.0 0.0 0.0
00000000: 0000 0000 0000 0000 0000 0000 0000 0000

resolve.8.layers.4.bn0.running_var f4 [4]
1.0 1.0 1.0 1.0
00000000: 0000 803f 0000 803f 0000 803f 0000 803f

resolve.8.layers.4.conv1.weight f4 [4, 4, 1]
-0.28833845 0.24024874 0.31683028 -0.0073344912 0.035520796 -0.5670639 -0.15696202 -0.25869614
0.20085482 -0.15680774 -0.3873621 -0.08493386 -0.08094996 0.06782697 0.22043312 0.14405926
00000000: 19a1 93be c403 763e 9437 a23e 2c56 f0bb
00000010: 417e 113d 1a2b 11bf a7ba 20be d273 84be
00000020: e3ac 4d3e 3592 20be 5354 c6be cef1 adbd
00000030: 18c9 a5bd dee8 8a3d 38b9 613e 4584 133e

resolve.8.layers.4.conv1.bias f4 [4]
-0.4021808 -0.28277028 0.0039675375 -0.36519456
00000000: a4ea cdbe 44c7 90be 1e02 823b c8fa babe

resolve.8.layers.4.bn1.weight f4 [4]
1.0 1.0 1.0 1.0
00000000: 0000 803f 0000 803f 0000 803f 0000 803f

resolve.8.layers.4.bn1.bias f4 [4]
0.0 0.0 0.0 0.0
00000000: 0000 0000 0000 0000 0000 0000 0000 0000

resolve.8.layers.4.bn1.running_mean f4 [4]
0.0 0.0 0.0 0.0
00000000: 0000 0000 0000 0000 0000 0000 0000 0000

resolve.8.layers.4.bn1.running_var f4 [4]
1.0 1.0 1.0 1.0
00000000: 0000 803f 0000 803f 0000 803f 0000 803f

resolve.9.layers.0.weight f4 [4, 2, 8]
-0.18209429 0.0059360648 -0.073295474 -0.055950116 0.035879392 0.11774282 0.03167703 0.09027295
-0.08382526 0.029514233 0.103722736 -0.20289338 -0.116491616 -0.38628983 -0.053260647 -0.20988908
0.111169845 -0.20463759 -0.20346843 -0.23317789 -0.22538039 -0.09595021 0.016815457 -0.0066182576
0.026592491 -0.048186406 -0.250842 -0.12959547 -0.14607753 0.06329317 -0.030425753 0.17472425
0.17580202 0.024749286 0.16646163 0.26610988 0.15951565 0.32732344 0.1890909 0.07030197
0.111677095 0.06314266 0.02909717 0.14079398 0.10029184 0.20261592 0.20157887 0.1273156
-0.21476124 0.15595925 -0.08134096 -0.08601321 -0.11705776 -0.020944301 -0.049038097 0.051240593
-0.021834152 0.04687622 0.38323072 -0.25359312 0.12283589 -0.11494659 0.16032763 0.096719734
00000000: ed76 3abe 5283 c23b f01b 96bd f32b 65bd
00000010: 45f6 123d 2623 f13d c6bf 013d 06e1 b83d
00000020: 94ac abbd d5c7 f13c 966c d43d 48c3 4fbe
00000030: 2893 eebd c8c7 c5be d627 5abd 2aed 56be
00000040: 04ad e33d 848c 51be 075a 50be 2fc6 6ebe
00000050: 1eca 66be 8b81 c4bd 92c0 893c f8dd d8bb
00000060: 7fd8 d93c 1c5f 45bd 5d6e 80be adb4 04be
00000070: 5995 15be d99f 813d 6e3f f9bc eaea 323e
00000080: 7205 343e 04bf ca3c eb74 2a3e 8e3f 883e
00000090: 1258 233e f096 a73e 0ba1 413e 7bfa 8f3d
000000a0: f6b6 e43d f050 813d 305d ee3c 4c2c 103e
000000b0: cf65 cd3d 8c7a 4f3e b16a 4e3e 055f 023e
000000c0: 5fea 5bbe c8b3 1f3e 1796 a6bd b227 b0bd
000000d0: fbbb efbd 6293 abbc 2cdc 48bd a8e1 513d
000000e0: 89dd b2bc 4701 403d d136 c43e f5d6 81be
000000f0: 6291 fb3d 1e69 ebbd ed2c 243e ff14 c63d

resolve.9.layers.0.bias f4 [2]
-0.032364637 -0.26140517
00000000: c890 04bd e6d6 85be

resolve.9.layers.2.conv0.weight f4 [2, 2, 3]
-0.43378827 0.037296895 -0.10915517 -0.5016957 0.8501404 0.11729848 -0.12121081 -0.055248994
0.48774448 -0.04772091 0.05760961 0.6953326
00000000: 7f19 debe a1c4 183d bf8c dfbd 216f 00bf
00000010: cda2 593f 2f3a f03d 603d f8bd c54c 62bd
00000020: a5b9 f93e 0077 43bd 0ef8 6b3d 5101 323f

resolve.9.layers.2.conv0.bias f4 [2]
0.11804729 0.43924928
00000000: c7c2 f13d 48e5 e03e

resolve.9.layers.2.bn0.weight f4 [2]
1.0 1.0
00000000: 0000 803f 0000 803f

resolve.9.layers.2.bn0.bias f4 [2]
0.0 0.0
00000000: 0000 0000 0000 0000

resolve.9.layers.2.bn0.running_mean f4 [2]
0.0 0.0
00000000: 0000 0000 0000 0000

resolve.9.layers.2.bn0.running_var f4 [2]
1.0 1.0
00000000: 0000 803f 0000 803f

resolve.9.layers.2.conv1.weight f4 [2, 2, 1]
0.456677 0.20453043 -0.8880113 0.41209397
00000000: 91d1 e93e 6d70 513e b554 63bf fbfd d23e

resolve.9.layers.2.conv1.bias f4 [2]
-0.49071127 0.2775977
00000000: 823e fbbe 4921 8e3e

resolve.9.layers.2.bn1.weight f4 [2]
1.0 1.0
00000000: 0000 803f 0000 803f

resolve.9.layers.2.bn1.bias f4 [2]
0.0 0.0
00000000: 0000 0000 0000 0000

resolve.9.layers.2.bn1.running_mean f4 [2]
0.0 0.0
00000000: 0000 0000 0000 0000

resolve.9.layers.2.bn1.running_var f4 [2]
1.0 1.0
00000000: 0000 803f 0000 803f

resolve.9.layers.3.conv0.weight f4 [2, 2, 3]
-0.14314835 0.22520803 -0.22150746 -0.09307897 0.26451108 -0.14902739 0.002117104 -0.057716988
0.02844634 0.0107529815 0.7568608 0.03192723
00000000: 7b95 12be ef9c 663e dad2 62be 30a0 bebd
00000010: ff6d 873e a39a 18be 1cbf 0a3b a668 6cbd
00000020: 4c08 e93c 462d 303c a1c1 413f 21c6 023d

resolve.9.layers.3.conv0.bias f4 [2]
0.1409451 0.4210985
00000000: ea53 103e 399a d73e

resolve.9.layers.3.bn0.weight f4 [2]
1.0 1.0
00000000: 0000 803f 0000 803f

resolve.9.layers.3.bn0.bias f4 [2]
0.0 0.0
00000000: 0000 0000 0000 0000

resolve.9.layers.3.bn0.running_mean f4 [2]
0.0 0.0
00000000: 0000 0000 0000 0000

resolve.9.layers.3.bn0.running_var f4 [2]
1.0 1.0
00000000: 0000 803f 0000 803f

resolve.9.layers.3.conv1.weight f4 [2, 2, 1]
-0.43268752 0.21016257 -0.17023174 -0.46590862
00000000: 3889 ddbe db34 573e 3b51 2ebe 938b eebe

resolve.9.layers.3.conv1.bias f4 [2]
0.44593498 -0.09839043
00000000: 9751 e43e ec80 c9bd

resolve.9.layers.3.bn1.weight f4 [2]
1.0 1.0
00000000: 0000 803f 0000 803f

resolve.9.layers.3.bn1.bias f4 [2]
0.0 0.0
00000000: 0000 0000 0000 0000

resolve.9.layers.3.bn1.running_mean f4 [2]
0.0 0.0
00000000: 0000 0000 0000 0000

resolve.9.layers.3.bn1.running_var f4 [2]
1.0 1.0
00000000: 0000 803f 0000 803f

resolve.9.layers.4.conv0.weight f4 [2, 2, 3]
0.02596376 -0.11538722 0.009566999 0.08494547 -0.077744275 0.06214186 0.09654589 0.3754656
0.052676603 0.15316087 -0.22472116 0.08380152
00000000: f4b1 d43c 2350 ecbd e7be 1c3c e4f7 ad3d
00000010: 6438 9fbd 7788 7e3d dab9 c53d 073d c03e
00000020: 6cc3 573d 34d6 1c3e 4e1d 66be 22a0 ab3d

resolve.9.layers.4.conv0.bias f4 [2]
-0.5597698 -0.13537961
00000000: 134d 0fbf f4a0 0abe

resolve.9.layers.4.bn0.weight f4 [2]
1.0 1.0
00000000: 0000 803f 0000 803f

resolve.9.layers.4.bn0.bias f4 [2]
0.0 0.0
00000000: 0000 0000 0000 0000

resolve.9.layers.4.bn0.running_mean f4 [2]
0.0 0.0
00000000: 0000 0000 0000 0000

resolve.9.layers.4.bn0.running_var f4 [2]
1.0 1.0
00000000: 0000 803f 0000 803f

resolve.9.layers.4.conv1.weight f4 [2, 2, 1]
0.4977068 -0.5381628 -0.72352403 -0.076718904
00000000: 6dd3 fe3e 0ac5 09bf df38 39bf cd1e 9dbd

resolve.9.layers.4.conv1.bias f4 [2]
0.077611975 -0.05341418
00000000: 07f3 9e3d d4c8 5abd

resolve.9.layers.4.bn1.weight f4 [2]
1.0 1.0
00000000: 0000 803f 0000 803f

resolve.9.layers.4.bn1.bias f4 [2]
0.0 0.0
00000000: 0000 0000 0000 0000

resolve.9.layers.4.bn1.running_mean f4 [2]
0.0 0.0
00000000: 0000 0000 0000 0000

resolve.9.layers.4.bn1.running_var f4 [2]
1.0 1.0
00000000: 0000 803f 0000 803f

resolve.10.layers.0.weight f4 [2, 1, 4]
0.023066092 -0.24190211 -0.3571371 -0.3485929 -0.32294318 -0.111468725 -0.13831614 0.018289926
00000000: 1af5 bc3c 30b5 77be adda b6be c57a b2be
00000010: cf58 a5be b749 e4bd bfa2 0dbe c1d4 953c

resolve.10.layers.2.conv0.weight f4 [1, 1, 3]
-0.74242073 0.12696582 -0.5303077
00000000: 490f 3ebf 5403 023e 3fc2 07bf

resolve.10.layers.3.conv0.weight f4 [1, 1, 3]
0.13607304 -0.59533286 0.03931002
00000000: bb56 0b3e bc67 18bf 8b03 213d

resolve.10.layers.4.conv0.weight f4 [1, 1, 3]
-0.045901917 0.32624403 -0.060964376
00000000: a603 3cbd 7509 a73e c8b5 79bd

resolve.11.weight f4 [1, 1, 7]
0.17975469 -0.5158686 0.110144414 -0.07484221 -0.349954 0.21812676 -0.3150061
00000000: 9d11 383e f70f 04bf 6593 e13d df46 99bd
00000010: 2c2d b3be 9f5c 5f3e 7b48 a1be
