generators/n10.ckpt (torch, 824002 bytes, 235 tensors)

resolve.0.weight f4 [10, 1, 7]
000000 d5 9d df 3f ef 8d fc 3f ed dd dc 3e 57 8e f5 be
       1.7470042 1.9730815 0.43138066 -0.4796016
000010 b8 38 3b bf 2d 1a 27 3e ac 55 3f bd 70 00 b1 3f
       -0.7313342 0.16318579 -0.046712562 1.3828259
000020 ac 95 c7 3f 2b e1 3a 3f 23 f2 85 3f 8a e4 32 3f
       1.5592551 0.7299983 1.0464519 0.6987997
000030 39 6d 5b 3f 2f 21 c4 3e d5 40 3e 3f 5c 0f 53 3f
       0.85713536 0.38306567 0.74317676 0.8244531
000040 2a bc 6a 3f c6 7a 3e bd 6b bd 41 bf 37 c0 01 bf
       0.91693366 -0.046503805 -0.75679654 -0.5068392
000050 2a 9b f9 be de c4 97 3e a1 71 0a bd 07 23 e8 be
       -0.48751193 0.29642385 -0.03379977 -0.45339224
000060 18 12 c9 bf e1 38 b4 bf 76 cd 62 bf a5 87 04 bf
       -1.5708647 -1.4079858 -0.8859476 -0.5176948
000070 c5 4b bf bd 65 08 16 bf 15 37 3c 3f ce 96 4c 3f
       -0.09340624 -0.5860656 0.7352155 0.7991761
000080 6f a1 c2 3f dd b0 4f 3f a9 df 01 be 94 58 30 3f
       1.5205516 0.81129247 -0.12682976 0.6888516
000090 5b d6 7c 3f 6d 30 b8 3f 33 13 56 3f e7 5b 0b 3e
       0.9876458 1.4389778 0.83623046 0.13609277
0000a0 4c 77 98 3d d7 0e 6b bd df ab a7 3f c9 00 e6 3f
       0.07444629 -0.0573872 1.3099326 1.796899
0000b0 95 e4 94 3f ca 44 13 bc b2 60 8e 3e 88 35 04 3f
       1.1632258 -0.008988569 0.27808148 0.5164418
0000c0 7c 5e 52 3f 30 2e 9e be 25 01 e6 bf 3b db c2 bf
       0.8217542 -0.30894613 -1.7969099 -1.5223154
0000d0 d8 ba 15 bd 16 db ea 3f 4a b9 8b 3f 53 75 f7 bd
       -0.03655514 1.834811 1.0915921 -0.12082925
0000e0 6b 85 61 3f cf 20 c9 3f 86 24 9a 3f 20 d8 65 bf
       0.88094205 1.5713137 1.2042396 -0.89782906
0000f0 68 68 84 bf 19 3d c7 be 33 a8 28 3f b7 51 bc bf
       -1.0344362 -0.389138 0.6588165 -1.4712437
000100 2c 0b 19 bf 3a 6c 39 be f9 8d 91 bd 57 53 bc bf
       -0.5978267 -0.18107691 -0.07107157 -1.4712933
000110 2e 69 ec bf b9 66 af bf
       -1.8469598 -1.3703223

resolve.0.bias f4 [10]
000000 31 98 8d 3e 8e 08 a6 3d 66 61 74 3e c0 ba 5d be
       0.27655175 0.081071004 0.2386528 -0.2165327
000010 02 e8 75 be 37 a3 79 be ab 98 6d be 53 6b e6 3c
       -0.24014285 -0.24378668 -0.2320277 0.028127348
000020 5e df d1 3d 09 39 9c 3e
       0.10247682 0.30512264

resolve.2.layers.0.conv0.weight f4 [10, 10, 3]
000000 07 1f 4c bd f0 03 48 be 79 72 c5 3d 63 79 00 3e
       -0.049834277 -0.19532752 0.096409746 0.12546305
000010 97 65 d1 3d 01 bd 27 3d 20 b1 10 3e c6 76 f2 bd
       0.10224455 0.040951733 0.14130068 -0.118390605
000020 21 47 1d bd 20 39 74 3e 04 d4 af 3d 15 b4 7e bc
       -0.038397912 0.23849916 0.08585361 -0.015545865
000030 b7 cb a8 3d a4 27 5e 3d 6c 23 5f be aa 89 82 3c
       0.082419805 0.054237023 -0.21790856 0.015934784
000040 0b b5 0f 3e 71 bb 8c bd b0 b0 ed 3d e7 62 6d be
       0.14033906 -0.06871689 0.11605966 -0.2318226
000050 f5 74 b5 bd c7 98 09 3f ca c5 c8 3e 48 82 9d be
       -0.088601984 0.53748745 0.392134 -0.3076346
000060 24 74 05 3e ad 21 9d be df 44 cc 3d e4 e3 01 be
       0.13032585 -0.30689755 0.099740736 -0.1268459
000070 2f 96 f5 bc f7 fc 9a bd d5 b1 a7 3e 9a 97 a0 bd
       -0.02997884 -0.075677805 0.32752863 -0.07841416
000080 c9 7a 45 3e 93 a6 86 3e 86 8b ce bd aa 2e 95 3d
       0.1928512 0.2629896 -0.10085206 0.07284291
000090 02 65 f2 3d 94 34 17 be 23 fa 25 3e 25 0a 02 bc
       0.11835672 -0.1476615 0.16208701 -0.007936989
0000a0 85 a7 77 3d ec ff 45 3d 9d 61 a7 bd 4a 19 01 be
       0.060462493 0.04833977 -0.08172915 -0.12607303
0000b0 b4 cf 4c be 06 92 8c 3d d2 d2 64 bc b2 ed e9 3c
       -0.20001107 0.06863789 -0.013966279 0.028555725
0000c0 c3 83 e1 3e 76 d9 0b be b4 7d 7b 3e ee df 6c 3f
       0.4404584 -0.13657174 0.2455967 0.9252919
0000d0 13 55 fa 3e 87 f8 c9 be 0a 55 48 be be a8 34 bf
       0.4889303 -0.39447424 -0.1956369 -0.7056998
0000e0 33 53 17 3e f7 61 84 be 89 0e 33 3e c3 17 59 bc
       0.14777832 -0.2585599 0.17486013 -0.013250294
0000f0 cd c0 c8 3d e2 d7 40 be 9f 58 eb 3d f2 f2 c6 bd
       0.09802399 -0.18832353 0.114915125 -0.09714307
000100 1d b9 ca bc 4b e7 ad 3d d1 be 4b 3d ae 5e cf 3d
       -0.024746472 0.08491381 0.049742524 0.101254806
000110 33 09 0e 3e 61 7c 25 bd a3 79 75 3d 3a be b0 bd
       0.13870697 -0.04040182 0.059930455 -0.08630033
000120 6c b2 35 3d 90 22 c5 bd 82 11 54 3e de 29 75 bd
       0.04435961 -0.09625733 0.20709804 -0.05985438
000130 c8 e8 bc 3d 5a f2 c8 3d b4 13 3a 3e fe 78 b2 bd
       0.09224087 0.0981185 0.18171579 -0.08714484
000140 b6 4a 73 3e c8 de 0d 3e 0d f6 fe 3d dc 24 bd be
       0.23758969 0.13854516 0.12449274 -0.36942184
000150 43 4a bd 3d f9 70 ef bd a1 8c 86 3c 89 e2 eb 3d
       0.0924268 -0.1169147 0.016424479 0.115178175
000160 1c ec 1e 3d 3e e2 35 be 97 27 46 bd e1 5b 9d 3d
       0.03879939 -0.17762086 -0.0483776 0.0768354
000170 73 b0 11 3e bb b1 d0 3d 05 b0 81 3d f8 cf e0 3c
       0.14227466 0.101901494 0.06332401 0.027442917
000180 4b 5f c1 bd 21 86 03 3e 22 ea 29 3e 84 bc 4c be
       -0.09442004 0.12844135 0.16593221 -0.19993788
000190 56 fd 97 3d 99 80 2d 3e b4 60 14 3e c9 bb e2 3b
       0.07421367 0.16943587 0.14490014 0.0069193584
0001a0 d3 de 0d 3e 6a b1 8c 3e 17 2c 79 3e c8 be 95 3d
       0.13854532 0.27479106 0.24333225 0.07311779
0001b0 35 90 e4 3d 5f 02 5f 3e f9 02 8b 3d 9b 6e 04 bf
       0.11160318 0.21778248 0.06787676 -0.5173127
0001c0 2f 35 be be e1 b5 3b 3d 89 29 14 3e 12 e4 3c 3e
       -0.3714995 0.04582775 0.1446897 0.18446377
0001d0 a1 7c 54 3d 63 c9 cf bd c2 f5 58 bb 94 e0 fd 3d
       0.051876668 -0.10145833 -0.0033105467 0.123963505
0001e0 43 1f 26 be 16 59 f7 3d ba 51 2c 3c 86 d6 f0 bd
       -0.16222863 0.12077539 0.010517532 -0.11759667
0001f0 60 7f 21 3e 12 61 83 bd bc 4b 55 bd f5 9d c3 bd
       0.15771246 -0.06414999 -0.05207418 -0.09551612
000200 59 0a 9c be 47 9b 52 3e b6 a8 12 3e 6f b2 4e bd
       -0.30476645 0.20567046 0.1432217 -0.050463136
000210 81 73 d4 bd 0e 84 09 be 0e ec 49 3d b8 f7 02 3e
       -0.10373593 -0.13429281 0.049297385 0.1278981
000220 74 cd c1 bc 69 23 6b be b1 10 5b bc ca 9e 23 3e
       -0.023657538 -0.22962727 -0.013370679 0.15978542
000230 22 ce b1 bd 94 f4 36 bf 37 0a 06 bf 7e ae 64 3f
       -0.08681895 -0.71466947 -0.52359337 0.89328754
000240 d0 1f 6f 3e dc a2 49 3f d1 f3 37 be 84 88 75 3e
       0.2335198 0.7876413 -0.17964102 0.23977858
000250 b5 1d 31 be 42 f7 08 be a9 62 eb bd 55 b4 0a 3e
       -0.17296489 -0.13375571 -0.11493427 0.13545354
000260 dc 89 21 3e e7 9b 07 3e 70 16 c6 3d 4d 56 7c 3d
       0.15775245 0.13243066 0.09672248 0.06160574
000270 d7 b5 31 3c 35 45 18 be 87 75 9a bd c6 2d 8d be
       0.010846577 -0.1487015 -0.07541948 -0.27573985
000280 96 fb 3f bd a9 7c 50 be 79 6c 8e bd 85 0d 8e bd
       -0.04687079 -0.20360054 -0.06954283 -0.069361724
000290 fc d6 6e 3b 55 95 6e be a8 51 45 be ae 10 25 3d
       0.0036444059 -0.23299153 -0.1926943 0.04029911
0002a0 1f e3 06 be 1a be bb 3a 67 61 25 be 1c bb 1c 3c
       -0.13172577 0.0014323622 -0.16150437 0.009566095
0002b0 5a ba c3 3d 7d e4 61 be 35 0e 02 be 6f 57 a6 be
       0.09557028 -0.22059818 -0.12700732 -0.32488582
0002c0 75 45 9d 3d b4 c7 38 be 05 7c 14 3d 22 23 9d 3d
       0.076792635 -0.1804493 0.036251087 0.07672717
0002d0 a5 f9 ee 3d 97 38 1b be 5f df e5 3d 46 16 8c be
       0.1166871 -0.15158306 0.11224245 -0.27360743
0002e0 83 e9 02 be 2e db 04 bd f3 2a 7b bb 33 9e 87 3c
       -0.1278439 -0.03243559 -0.003832516 0.016554927
0002f0 65 0d f7 bc db b3 11 be d1 f5 04 3e a4 90 04 be
       -0.030157754 -0.14228766 0.12984397 -0.12945801
000300 71 cc b8 3d 88 1a ec 3d 41 6d 16 3e dd 3f dd bd
       0.09023369 0.11528498 0.14690115 -0.108031966
000310 87 b0 46 be 2a a1 e3 bb d7 29 7c bc c5 0e 8a be
       -0.19403277 -0.0069467025 -0.015390835 -0.26964393
000320 09 ed 08 be 84 68 20 be dd 50 8d bd d2 92 95 bc
       -0.13371672 -0.1566487 -0.06900189 -0.018258486
000330 22 1f 06 be 44 54 c9 bd 82 da 82 be 5d a2 6f 3e
       -0.13097814 -0.098305255 -0.25557333 0.2340178
000340 54 ad 68 3e 22 11 56 3d 44 f9 9e 3d c0 11 36 3d
       0.2272237 0.052262433 0.077623874 0.04445052
000350 e6 6b 09 be d0 87 a1 be 67 62 9c bc 4e f2 62 be
       -0.13420066 -0.3154893 -0.01908989 -0.22162744
000360 e4 cd 4c 3c 5f 84 9a 3d 0c 7c 1c bd 18 14 93 be
       0.01250026 0.07544779 -0.038204238 -0.28726268
000370 2c 02 85 bb 49 c2 e3 3c b8 d8 e3 bc 96 6d b0 bc
       -0.004059097 0.027802603 -0.0278133 -0.02153663
000380 0f 14 a3 bd 51 d7 fb 3d 14 4f 5a ba 10 70 76 3d
       -0.0796281 0.12296928 -0.00083278236 0.060165465
000390 a0 86 40 be 84 7b 9b 3d d6 ee 40 3e 8a 4d c8 be
       -0.18801355 0.07591918 0.18841109 -0.39121658
0003a0 db 83 34 bf 59 a8 3e 3d 82 99 73 3e 66 9a 92 3e
       -0.70513695 0.046547268 0.23789027 0.28633422
0003b0 27 47 6a 3c a4 fb 34 3e 7f 1d 95 bd a4 2f 4a 3d
       0.014299191 0.17674118 -0.072810166 0.04936184
0003c0 b9 ad 32 be 36 f0 c2 bd 97 20 b7 3d 2f 30 12 be
       -0.17449082 -0.09518473 0.08941763 -0.14276193
0003d0 07 88 bd be 5c e9 a6 be 45 ba 13 be 1e e6 4b be
       -0.37017843 -0.32599914 -0.14426525 -0.19912001
0003e0 fc 29 1e be b0 d6 b7 3d 26 83 75 3e 33 e9 fa 3d
       -0.15445703 0.08976495 0.2397581 0.122515105
0003f0 0d e7 1d be f9 a7 20 be 37 1d bc 3d 70 d6 29 be
       -0.1542017 -0.15689076 0.0918526 -0.16585708

resolve.2.layers.0.conv0.bias f4 [10]
000000 51 2c df 3d 9a d6 15 be e7 cd 81 3d c6 81 b7 3d
       0.108971246 -0.14632645 0.06338101 0.08960299
000010 a1 73 5b 3d bc c8 4e 3e f9 f7 1b be 60 ac 99 bd
       0.05357707 0.20193762 -0.15231313 -0.07503581
000020 27 e7 f1 3d 2e ec ed bc
       0.11811667 -0.029043283

resolve.2.layers.0.bn0.weight f4 [10]
000000 00 00 80 3f 00 00 80 3f 00 00 80 3f 00 00 80 3f
       1.0 1.0 1.0 1.0
000010 00 00 80 3f 00 00 80 3f 00 00 80 3f 00 00 80 3f
       1.0 1.0 1.0 1.0
000020 00 00 80 3f 00 00 80 3f
       1.0 1.0

resolve.2.layers.0.bn0.bias f4 [10]
000000 00 00 00 00 00 00 00 00 00 00 00 00 00 00 00 00
       0.0 0.0 0.0 0.0
000010 00 00 00 00 00 00 00 00 00 00 00 00 00 00 00 00
       0.0 0.0 0.0 0.0
000020 00 00 00 00 00 00 00 00
       0.0 0.0

resolve.2.layers.0.bn0.running_mean f4 [10]
000000 00 00 00 00 00 00 00 00 00 00 00 00 00 00 00 00
       0.0 0.0 0.0 0.0
000010 00 00 00 00 00 00 00 00 00 00 00 00 00 00 00 00
       0.0 0.0 0.0 0.0
000020 00 00 00 00 00 00 00 00
       0.0 0.0

resolve.2.layers.0.bn0.running_var f4 [10]
000000 00 00 80 3f 00 00 80 3f 00 00 80 3f 00 00 80 3f
       1.0 1.0 1.0 1.0
000010 00 00 80 3f 00 00 80 3f 00 00 80 3f 00 00 80 3f
       1.0 1.0 1.0 1.0
000020 00 00 80 3f 00 00 80 3f
       1.0 1.0

resolve.2.layers.0.conv1.weight f4 [10, 10, 1]
000000 92 5e be bd 77 20 e3 be cd 37 85 3c 92 8a 69 3e
       -0.092953816 -0.44360706 0.01626196 0.22806767
000010 86 0a 2b 3f a8 a8 13 be 11 5e 76 bc 21 c7 8b bd
       0.6681293 -0.14419806 -0.015037076 -0.0682509
000020 33 59 65 3e 3c 60 cd bc f3 34 3e bd fe 85 4c 3e
       0.22397308 -0.025070302 -0.046437215 0.19972989
000030 d3 e9 cb 3d 57 a7 a0 3a 59 be 42 3d 81 c2 a2 be
       0.09956708 0.0012256902 0.04754481 -0.3178902
000040 12 b4 4f be 9b 1d 3c be c1 2d 01 be f5 26 f6 3d
       -0.20283535 -0.18370669 -0.1261511 0.12019149
000050 d1 49 49 be 94 e6 ff be 91 e4 a8 3c 11 47 4c 3b
       -0.19657065 -0.49980605 0.020616801 0.0031170289
000060 27 30 97 3f 58 b4 a1 be e9 0f 14 3e 5c 04 bc 3e
       1.181157 -0.31582904 0.14459194 0.36722076
000070 82 69 53 bc e0 5f 33 be b1 b6 2c be 91 4e cd be
       -0.012903573 -0.17517042 -0.16866566 -0.40099004
000080 ca 22 01 be 39 5b 57 3e 50 f1 60 3f e3 eb c4 3d
       -0.12610927 0.21030892 0.87868214 0.09615304
000090 19 2e 32 bd ab 36 c1 bd 25 3d 9f bd 5d a4 17 3b
       -0.043500993 -0.09434255 -0.07775334 0.002313874
0000a0 81 e2 bc 3e 09 7d 7e 3e 52 f9 d3 3c 8f 31 3c 3e
       0.3689156 0.24852385 0.025875721 0.1837828
0000b0 46 a1 3e bf c9 c7 86 3e 26 db 0b bd de f4 20 bc
       -0.74464834 0.263243 -0.034144543 -0.009824006
0000c0 d9 fd 80 3d fa 0c 82 3e 69 ed 61 be 19 2c 88 3d
       0.062984176 0.25400525 -0.22063221 0.06649036
0000d0 90 15 3a 3d 2a 25 a3 3e 29 fb 08 3f 30 d8 8d bd
       0.04543072 0.3186429 0.5350824 -0.06926
0000e0 b1 af 85 be d8 bc d3 3e 53 3b 51 3d 4f 91 b4 be
       -0.26110604 0.41355014 0.051081967 -0.35267112
0000f0 1f 21 48 bd f4 7c 12 bf cf 68 93 be 92 8a a6 3d
       -0.04885971 -0.57221913 -0.287909 0.08131899
000100 93 fa 15 3f 90 14 e4 3d 71 88 f3 3d d1 67 8d 3e
       0.5858547 0.111367345 0.118912585 0.27618268
000110 94 4a 24 3e 04 10 8b bd f1 a8 bc 3e f8 dc 1a 3f
       0.16044074 -0.06790164 0.36847642 0.6049342
000120 29 1e 47 3e 7b 58 40 be 58 e0 d3 be e2 d9 7e be
       0.19445099 -0.18783753 -0.41382098 -0.24887803
000130 4e 3a 8f be 81 6b 7d be 31 e6 dc 3e d0 9f c4 3e
       -0.2797417 -0.2474804 0.43144372 0.38403177
000140 da f1 e7 3e 93 de 80 3e c0 6f 86 3d 9f 09 5d bd
       0.45301706 0.2516981 0.06564283 -0.053964254
000150 8b e2 92 be fb 6a 07 3e b0 b2 b5 bd db 01 0f bf
       -0.28688464 0.13224404 -0.088719726 -0.55862206
000160 48 86 2c 3d d1 37 c6 3d 8f e4 28 3d 06 5a ac bd
       0.042120248 0.09678615 0.041233595 -0.08415608
000170 1b 11 1a bd a6 4e 40 3d cc 06 54 3c 5d a8 4b be
       -0.03761397 0.046950005 0.012941074 -0.19888444
000180 82 d8 a1 3c 34 33 49 3d f5 4d a8 3e 2b e6 b8 3e
       0.01975656 0.049121097 0.32871976 0.36113104

resolve.2.layers.0.conv1.bias f4 [10]
000000 32 8a c0 3d a6 f1 5e 3d 78 0d 19 be ea ac 30 3d
       0.09401359 0.054429673 -0.14946544 0.043133654
000010 10 83 1f 3d e6 9b 3d 3d 12 56 01 3e d9 ca 83 3e
       0.03894335 0.046291254 0.1263049 0.25740698
000020 f1 d9 e0 bd 5b dd d4 bd
       -0.10979069 -0.10393783

resolve.2.layers.0.bn1.weight f4 [10]
000000 00 00 80 3f 00 00 80 3f 00 00 80 3f 00 00 80 3f
       1.0 1.0 1.0 1.0
000010 00 00 80 3f 00 00 80 3f 00 00 80 3f 00 00 80 3f
       1.0 1.0 1.0 1.0
000020 00 00 80 3f 00 00 80 3f
       1.0 1.0

resolve.2.layers.0.bn1.bias f4 [10]
000000 00 00 00 00 00 00 00 00 00 00 00 00 00 00 00 00
       0.0 0.0 0.0 0.0
000010 00 00 00 00 00 00 00 00 00 00 00 00 00 00 00 00
       0.0 0.0 0.0 0.0
000020 00 00 00 00 00 00 00 00
       0.0 0.0

resolve.2.layers.0.bn1.running_mean f4 [10]
000000 00 00 00 00 00 00 00 00 00 00 00 00 00 00 00 00
       0.0 0.0 0.0 0.0
000010 00 00 00 00 00 00 00 00 00 00 00 00 00 00 00 00
       0.0 0.0 0.0 0.0
000020 00 00 00 00 00 00 00 00
       0.0 0.0

resolve.2.layers.0.bn1.running_var f4 [10]
000000 00 00 80 3f 00 00 80 3f 00 00 80 3f 00 00 80 3f
       1.0 1.0 1.0 1.0
000010 00 00 80 3f 00 00 80 3f 00 00 80 3f 00 00 80 3f
       1.0 1.0 1.0 1.0
000020 00 00 80 3f 00 00 80 3f
       1.0 1.0

resolve.2.layers.1.conv0.weight f4 [10, 10, 3]
000000 8e 24 74 be a6 5d 64 be e4 3b 39 be ed a4 64 3e
       -0.2384207 -0.22301349 -0.18089253 0.22328539
000010 58 f4 00 3e 95 03 19 3e 13 12 84 be 9d b1 a4 bc
       0.1259321 0.14942773 -0.2579504 -0.020104224
000020 0e 86 9f be e2 c7 bd 3e 3e f6 c5 3e 83 bb 13 bd
       -0.31156963 0.3706656 0.3866443 -0.036067497
000030 c7 ef 90 3d 3a fd 68 be 70 43 0f be cd 7c d8 bd
       0.07076984 -0.22752848 -0.13990569 -0.10570679
000040 2c fc 40 3e 51 5d 35 be d2 e8 f9 bc 0a 82 f6 bd
       0.18846196 -0.17711379 -0.030506525 -0.12036522
000050 df 47 1a be a5 11 bf 3d 60 42 17 3d ab 83 34 3e
       -0.15066479 0.09329537 0.036928535 0.17628352
000060 3c 03 3e 3e 3f 31 2a be 8b f8 bb 3d 96 e4 c3 bc
       0.18555921 -0.16620348 0.09178265 -0.02391271
000070 aa e5 11 3e ad 3c 8a bd 94 e0 fa 3d 5b 82 b4 bd
       0.14247766 -0.06749854 0.12249866 -0.08813926
000080 17 94 ff 3d 72 8d 40 3e 92 5e 90 bd 04 bc 4b 3c
       0.12479418 0.18803957 -0.07049288 0.012434963
000090 11 39 c1 3d 8a 87 76 bd 02 42 ef bd 85 39 1e 3f
       0.09434713 -0.060187854 -0.11682512 0.6180652
0000a0 62 4a b6 3d eb 72 a7 3e 5c 81 ab 3c 1d 8f 46 3e
       0.08900906 0.32704863 0.020935707 0.19390531
0000b0 83 07 39 bd 19 a3 78 3e 88 2e f6 3d 49 81 5c 3e
       -0.04517318 0.24280967 0.12020594 0.21533693
0000c0 93 4e 8c 3e 08 6d ea be bb ca 0e bd a8 f8 71 bd
       0.27403697 -0.4578631 -0.034861308 -0.059075028
0000d0 cc 09 bb 3d f3 07 ee 3c df 9d 0a 3c fe fb 8a be
       0.09132728 0.029056525 0.008460491 -0.2714538
0000e0 7f cd 90 3d ec 37 14 3b 40 60 a9 3e f6 b9 86 bc
       0.07070445 0.002261634 0.33081245 -0.016446095
0000f0 5c 71 42 3e fb 85 50 3e ac a4 81 3d ae 4f 89 bd
       0.18988556 0.2036361 0.06330237 -0.06704651
000100 bd 40 56 be d6 d5 ca bc cc 2f a7 bc 47 68 0b 3d
       -0.20923133 -0.024760168 -0.020408534 0.034034993
000110 40 b2 a6 bc dc 37 a4 3c 6b df f5 3c b8 71 ec bd
       -0.020348668 0.020046167 0.03001376 -0.11545128
000120 a2 3b 9e bd 59 57 03 3e 86 4b 3f 3e 3e 0d 94 bc
       -0.07726218 0.12826289 0.18681154 -0.01807272
000130 0b 6e 8e bd 76 44 c8 3d bb bf 87 be 41 bc c3 be
       -0.06954583 0.09778683 -0.26513466 -0.38229564
000140 ec a5 c7 bb 77 70 3d be 27 4b 1f 3e 41 57 94 3e
       -0.0060927775 -0.18499933 0.15556012 0.2897282
000150 89 20 fc 3d 45 14 bb 3c 5f 88 eb bd 10 75 c6 3d
       0.12310893 0.022836814 -0.1150062 0.09690297
000160 2f 01 86 3e f2 7b 60 3d 71 9e b5 3d 15 bd ce 3d
       0.26172778 0.054805703 0.08868111 0.10094658
000170 ae e8 b2 bd 36 0e 13 3e f9 66 d6 ba ab 8f 5e be
       -0.087357864 0.1436089 -0.0016357593 -0.21734492
000180 a1 18 d3 3d 36 7d 53 be 32 c2 8e 3e 53 61 ed 3d
       0.10307432 -0.20653233 0.27882534 0.11590829
000190 01 1e 28 be 62 de 26 3e e1 be 10 be 8a e8 ca 3c
       -0.16417696 0.1629577 -0.14135315 0.024769086
0001a0 e3 1c 5d be c3 59 30 bd 49 1f 56 be d0 ed 8e bc
       -0.2159305 -0.043054353 -0.20910372 -0.017447382
0001b0 c4 3b d5 3e 13 91 10 3e e8 58 ad 3e 20 80 0e be
       0.4164716 0.14117841 0.33856893 -0.13916063
0001c0 d0 af 85 3c e1 cf ed 3d 70 40 7f 3e d0 ac 72 be
       0.016319185 0.116119154 0.24926925 -0.23698735
0001d0 9f a8 ab bc 2d 99 94 be 8b 13 e4 bd 99 3c 52 3e
       -0.020954428 -0.29023114 -0.1113654 0.20530929
0001e0 d7 0b 38 be 93 38 fa 39 c1 47 22 be cc 88 9e bd
       -0.17973267 0.00047725867 -0.15847684 -0.07740936
0001f0 c3 d4 c9 3d 12 6e 01 3e ed 37 50 3e ac c5 bb bd
       0.09855034 0.12639645 0.20333834 -0.09168562
000200 1a 37 fc bd 6e 29 85 3e 06 b0 ae be c2 49 46 be
       -0.12315197 0.2600817 -0.3411867 -0.19364074
000210 ca 92 bc 3d 37 93 8c 3e 5b 50 81 3d b0 95 25 be
       0.09207685 0.27456066 0.06314155 -0.16170382
000220 8f e4 2c be 8e 0c e4 3b 0b e6 e7 bd ce c4 26 be
       -0.16884063 0.0069595044 -0.11323174 -0.16286013
000230 45 bb ea 3d 26 2b d6 3c 9f fc d5 3e 2c 0f f4 3d
       0.114615 0.026143622 0.41794297 0.11916956
000240 cb 5d 9a be e2 ed e6 3d 34 92 4e 3e b3 5d 15 3e
       -0.30149683 0.11275841 0.2017296 0.14586525
000250 11 e5 e0 3d 50 ca 7d be 3c 22 8a 3e e2 32 21 be
       0.10981191 -0.24784207 0.26979244 -0.15742067
000260 48 ba be 3e 65 39 19 3b a8 c0 8f bd dd b3 f8 3d
       0.37251496 0.0023380157 -0.07019168 0.12143681
000270 50 4e 82 3e d4 87 f7 be 4c ed 5d 3e 2e b1 c9 3e
       0.25450373 -0.48345816 0.21672553 0.3939299
000280 1a ee 97 be 67 83 66 3e 29 d6 8f be fb 70 e9 3e
       -0.29673845 0.22511064 -0.2809308 0.4559401
000290 87 c7 8d be 1c 21 35 3e 51 de c0 bd 39 4f cf 3d
       -0.2769129 0.17688411 -0.094174035 0.101225324
0002a0 63 ff 09 3f 01 1e 26 bf 6f 22 e8 3e 24 36 82 bd
       0.53905314 -0.6488953 0.4533877 -0.06357983
0002b0 f2 f5 ef 3e 47 c2 23 be 4a 6d ef bd 7c f3 19 bc
       0.4686733 -0.1599208 -0.11690767 -0.00939643
0002c0 ff b3 b8 bd d6 e7 06 be 00 9b 1d bd b3 a6 a3 3d
       -0.090187065 -0.13174376 -0.038477898 0.0799078
0002d0 f6 fd fb 3d 22 0e 38 3c d7 2f ff bd 61 9a 73 3e
       0.123042986 0.011233838 -0.124602966 0.2378936
0002e0 4f 97 33 3e 2e 07 a6 3e 45 07 9f bd 4c d4 83 bb
       0.17538188 0.32427353 -0.077650584 -0.0040231105
0002f0 cb a7 59 be 54 a3 a4 bd 1a 21 25 3d 18 77 1a 3e
       -0.21255414 -0.08038965 0.04031477 0.15084493
000300 e0 87 7b bd 15 3a fd 3d 42 2b ac bd 03 79 86 3d
       -0.061408877 0.12364594 -0.08406688 0.0656605
000310 02 10 ea 3d cb b1 b6 3d 2b 82 5a 3e df 81 dd 3e
       0.114288345 0.0892063 0.21338718 0.43263146
000320 49 ee 82 3e 77 15 3f bd 4c 3c 9e bc aa d1 0f be
       0.25572422 -0.04665133 -0.019315861 -0.14044824
000330 2d d8 d6 3d 74 9e 35 bd 10 0d 1f 3e ec 6f 00 3d
       0.10490451 -0.044340566 0.15532327 0.031356737
000340 b1 f6 90 be f8 37 aa bc fa 7c 53 bd 38 12 4c 3d
       -0.2831321 -0.020778641 -0.05163286 0.049822062
000350 dd 05 47 3d 02 75 c6 be ac 72 c7 bc 4a a2 06 3e
       0.048589576 -0.38761145 -0.024346672 0.13147846
000360 3a 9a d5 bd 5f 39 16 be a9 f0 2c be 3c 23 94 bd
       -0.10429807 -0.14670323 -0.1688868 -0.07233283
000370 fe 8e e2 3a 26 17 ef 3d 37 df 6b 3d d9 f6 8a 3e
       0.0017285047 0.11674337 0.05758592 0.27141455
000380 18 a4 51 3e 96 fd e5 3c 00 71 99 3d f0 92 90 bd
       0.20472753 0.02807502 0.07492256 -0.07059276
000390 b9 a7 00 bf 5a 0c 76 be 8a 0e 65 be c0 5b 1d be
       -0.50255924 -0.24028149 -0.22368827 -0.15367031
0003a0 4c 2b 94 be 8f 7e 18 3e 8f b8 13 bd d4 d4 0b 3e
       -0.28939283 0.14892028 -0.03606468 0.13655406
0003b0 3e 4f 04 be a9 3d 18 3d 30 2e 8f 3e 87 03 99 3e
       -0.12920853 0.03716818 0.27964926 0.29885504
0003c0 a2 01 14 3d 84 2d 33 bd 72 3e 0e 3c 8c 3f d0 3e
       0.03613437 -0.04374458 0.00868188 0.40673482
0003d0 c8 ab 11 3e 8c 2c 23 be a9 28 a1 bc 5c 0a 8c bd
       0.14225686 -0.15934962 -0.019672709 -0.068379134
0003e0 58 ee bd 3d 4a dc ea 3d 27 e4 2d 3d 63 06 58 3e
       0.09273976 0.11467798 0.04245391 0.21096186
0003f0 9d 75 e4 bd 8e d1 c7 bd 39 aa e0 bd 26 7b d1 bd
       -0.111552455 -0.09756766 -0.109699674 -0.10228567

resolve.2.layers.1.conv0.bias f4 [10]
000000 58 15 91 bc ee 88 aa 3d ac b3 ea bd 0a 1b a1 3d
       -0.017710373 0.083268985 -0.11460051 0.078664854
000010 60 b4 c5 3c 49 6b dc bd ac 71 1f 3c ea 05 a6 3d
       0.024133861 -0.107626505 0.009731691 0.08106597
000020 8d cc 56 3d 0b d2 12 be
       0.05244117 -0.14337938

resolve.2.layers.1.bn0.weight f4 [10]
000000 00 00 80 3f 00 00 80 3f 00 00 80 3f 00 00 80 3f
       1.0 1.0 1.0 1.0
000010 00 00 80 3f 00 00 80 3f 00 00 80 3f 00 00 80 3f
       1.0 1.0 1.0 1.0
000020 00 00 80 3f 00 00 80 3f
       1.0 1.0

resolve.2.layers.1.bn0.bias f4 [10]
000000 00 00 00 00 00 00 00 00 00 00 00 00 00 00 00 00
       0.0 0.0 0.0 0.0
000010 00 00 00 00 00 00 00 00 00 00 00 00 00 00 00 00
       0.0 0.0 0.0 0.0
000020 00 00 00 00 00 00 00 00
       0.0 0.0

resolve.2.layers.1.bn0.running_mean f4 [10]
000000 00 00 00 00 00 00 00 00 00 00 00 00 00 00 00 00
       0.0 0.0 0.0 0.0
000010 00 00 00 00 00 00 00 00 00 00 00 00 00 00 00 00
       0.0 0.0 0.0 0.0
000020 00 00 00 00 00 00 00 00
       0.0 0.0

resolve.2.layers.1.bn0.running_var f4 [10]
000000 00 00 80 3f 00 00 80 3f 00 00 80 3f 00 00 80 3f
       1.0 1.0 1.0 1.0
000010 00 00 80 3f 00 00 80 3f 00 00 80 3f 00 00 80 3f
       1.0 1.0 1.0 1.0
000020 00 00 80 3f 00 00 80 3f
       1.0 1.0

resolve.2.layers.1.conv1.weight f4 [10, 10, 1]
000000 74 8f 4a bd c1 b9 fb bc c7 e5 8c 3e f2 f5 5a 3e
       -0.049453214 -0.030728223 0.27519056 0.21382883
000010 d3 a7 81 3e 1f be 52 bf ac 0c 01 3e d5 d8 72 3e
       0.25323352 -0.8232135 0.1260249 0.23715527
000020 9d 7c 13 3d 59 ac 2e 3f 6b 86 46 3e 08 03 49 3e
       0.036007512 0.6823173 0.19387214 0.19630063
000030 fe b6 01 be cb b6 38 be 71 21 bb 3d be 5e 90 bd
       -0.12667462 -0.1803848 0.09137238 -0.07049321
000040 ed fe 3f 3e 70 c4 8b be 7c af 5d 3d cc 12 ca 3d
       0.1874959 -0.27298307 0.054122433 0.098668665
000050 e7 96 00 3f 45 13 43 3e 7a 11 ca bd 87 9d c4 be
       0.5023026 0.1905032 -0.09866615 -0.38401434
000060 56 43 1b bc 0a 12 3c bf 34 93 7c 3d cf fb fe bc
       -0.009476503 -0.73465025 0.06166382 -0.031125931
000070 80 b6 9c 3d 26 72 60 3d b3 d9 d7 3c b6 bc 86 be
       0.076519966 0.05479636 0.026348924 -0.2631585
000080 a4 55 84 be 82 95 80 be 4e 08 01 3e 3e 42 e2 be
       -0.2584659 -0.25114065 0.12600824 -0.44191164
000090 5c 4e 9f 3d d0 d5 76 bc bc 3c 61 3e 41 7c 2e 3f
       0.07778618 -0.015065625 0.21995825 0.68158346
0000a0 de a5 42 3e 21 c5 40 be d4 84 4b be dd 5a cd 3d
       0.19008586 -0.18825199 -0.19874889 0.100270964
0000b0 5b 6b 91 bd 3b 43 2e 3e 32 5b 51 3e 7d f0 0a 3e
       -0.071005546 0.17017834 0.20444945 0.13568301
0000c0 6a 8a 5c 3e 73 62 87 3e 41 ed 8d bb 72 67 b0 be
       0.21537176 0.26442298 -0.0043312614 -0.34453923
0000d0 c9 9b a6 3e 42 2a f0 bc 7c 94 0e be 2e d4 20 3e
       0.3254073 -0.029317025 -0.1392383 0.1570594
0000e0 b8 0b 5e 3e fd be ce 3d 2b bc 0f 3d 14 3a 03 bf
       0.21684158 0.10095022 0.03509156 -0.51260495
0000f0 fa 04 83 bd da 46 35 3e 47 1e ae bd 58 65 2a 3e
       -0.063974336 0.17702809 -0.08501869 0.16640222
000100 a8 7b 0c bd d8 83 78 be ee d9 7d 3e 58 20 5b be
       -0.034297615 -0.24269044 0.24790165 -0.21399057
000110 5f 95 b5 3e 0b 87 65 bd 03 bd 10 3e d4 6e 0b 3f
       0.35465524 -0.05603699 0.14134602 0.54465985
000120 e8 13 20 3d e5 4c 39 3e 4f 17 c5 3e 6d 6f 5d 3f
       0.039081484 0.18095739 0.38494346 0.8649815
000130 c7 1e 75 3e c9 25 80 be b2 23 b5 be 2c 5b 34 bf
       0.23937522 -0.25028828 -0.35378796 -0.7045162
000140 42 c2 36 3d 6d b8 6d bd e8 e7 ec bd 8d c2 2e bd
       0.044618852 -0.05803721 -0.1156767 -0.042666007
000150 62 29 0a 3f 4a 95 b4 be fe c5 39 bd 23 86 f9 bd
       0.53969395 -0.3527015 -0.045354836 -0.12183788
000160 44 cc ee bd 20 70 72 3d 78 b5 b9 3e 4c 5d bf 3e
       -0.11660054 0.059188962 0.36271262 0.37375867
000170 bc 75 7a 3e f7 01 02 bc e6 22 6f 3d 96 e8 c9 bd
       0.24458975 -0.007935039 0.05838289 -0.09858815
000180 76 ba 87 be 5c fa 0a 3a fc 0d 56 3d 66 41 79 bc
       -0.26509446 0.00053015887 0.05225943 -0.015213346

resolve.2.layers.1.conv1.bias f4 [10]
000000 ae 06 51 be d1 db 6f 3e 88 9e 35 3e 88 94 18 3e
       -0.20412704 0.23423697 0.17736256 0.1490041
000010 57 5a 9f 3e 20 27 d4 bd 36 87 11 be a8 55 9f bd
       0.3112361 -0.10359025 -0.14211735 -0.077800095
000020 54 cd 5a 3c da 1e 3a bd
       0.013354618 -0.04543958

resolve.2.layers.1.bn1.weight f4 [10]
000000 00 00 80 3f 00 00 80 3f 00 00 80 3f 00 00 80 3f
       1.0 1.0 1.0 1.0
000010 00 00 80 3f 00 00 80 3f 00 00 80 3f 00 00 80 3f
       1.0 1.0 1.0 1.0
000020 00 00 80 3f 00 00 80 3f
       1.0 1.0

resolve.2.layers.1.bn1.bias f4 [10]
000000 00 00 00 00 00 00 00 00 00 00 00 00 00 00 00 00
       0.0 0.0 0.0 0.0
000010 00 00 00 00 00 00 00 00 00 00 00 00 00 00 00 00
       0.0 0.0 0.0 0.0
000020 00 00 00 00 00 00 00 00
       0.0 0.0

resolve.2.layers.1.bn1.running_mean f4 [10]
000000 00 00 00 00 00 00 00 00 00 00 00 00 00 00 00 00
       0.0 0.0 0.0 0.0
000010 00 00 00 00 00 00 00 00 00 00 00 00 00 00 00 00
       0.0 0.0 0.0 0.0
000020 00 00 00 00 00 00 00 00
       0.0 0.0

resolve.2.layers.1.bn1.running_var f4 [10]
000000 00 00 80 3f 00 00 80 3f 00 00 80 3f 00 00 80 3f
       1.0 1.0 1.0 1.0
000010 00 00 80 3f 00 00 80 3f 00 00 80 3f 00 00 80 3f
       1.0 1.0 1.0 1.0
000020 00 00 80 3f 00 00 80 3f
       1.0 1.0

resolve.2.layers.2.conv0.weight f4 [10, 10, 3]
000000 d2 cc 95 3d c3 2c e1 3e d7 93 d8 bd 87 9c 4a 3e
       0.07314457 0.43979463 -0.10575073 0.19786273
000010 a9 92 a6 3e c4 37 c3 3d a1 4d 78 be 28 0e ac 3e
       0.32533768 0.09532121 -0.24248363 0.3360455
000020 33 6d bd bd fe 1c 1b be f0 bd da 3e dd 2e eb be
       -0.09249344 -0.15147778 0.42723036 -0.4593419
000030 7f 35 14 be b7 af e8 bb dc 8d 02 be 86 eb fd bd
       -0.14473532 -0.007101025 -0.12749428 -0.12398438
000040 0d 11 a2 bd 25 c3 73 3e 36 b1 aa 3d 39 38 14 3e
       -0.079134084 0.2380491 0.083345816 0.14474572
000050 95 e2 fb 3d 83 4c 61 be 7a 79 f4 be 9a 78 de bd
       0.122990765 -0.22001843 -0.4774893 -0.10862847
000060 40 92 af be 6c 27 1c 3f ec 86 25 3d f2 3e 1d 3e
       -0.34291267 0.60997653 0.040411875 0.15356043
000070 9b ea c3 3d 4c 80 1b 3e 25 c7 13 be d4 9e 44 be
       0.09566232 0.1518566 -0.14431436 -0.19201213
000080 c2 95 1c 3d 61 64 c0 3c af d7 40 3e ad 9d fc bd
       0.038228758 0.023485364 0.18832277 -0.12334762
000090 e0 ae 2d 3c 49 a0 a2 be 5d d4 4c 3e 33 48 8c 3e
       0.0106007755 -0.31762913 0.20002885 0.27398834
0000a0 e1 83 9e be 1a 06 79 3d da dc 86 be fd 83 f3 3c
       -0.3095999 0.060796835 -0.2634037 0.029726023
0000b0 9b ba c5 bd 42 b1 78 3d d9 bc a6 3d d7 95 5a bd
       -0.09654733 0.06071592 0.081414886 -0.053365555
0000c0 02 f9 3e 3d f7 22 79 3c 0b fd a1 bb 43 6a 86 be
       0.04662419 0.01520609 -0.004943495 -0.26252946
0000d0 9f 2a 9c 3e e3 5b 09 be b2 eb 63 3e 66 06 cd 3d
       0.30501267 -0.13413958 0.2225788 0.10010986
0000e0 9c b6 30 be f8 ce f7 3d 1b 88 94 3d 9d dd e9 3d
       -0.1725716 0.12100023 0.072525226 0.114192225
0000f0 d1 9e e1 bc 8c 82 39 3d c2 5d 92 3d 11 a4 02 3e
       -0.02754155 0.045290515 0.07146789 0.12757899
000100 f6 47 a6 be 75 1f 98 3e 7d 65 03 be e3 d4 ab 3e
       -0.32476777 0.297115 -0.12831683 0.33560857
000110 c4 bc 89 bc 9b b8 ef bd c5 2c 5f 3d c1 fa 91 bd
       -0.016813643 -0.117051326 0.054486055 -0.07127906
000120 2e 37 e7 3c 6b cd 86 be 72 0d 92 3e dd f7 f8 3b
       0.028224554 -0.26328596 0.28525883 0.007597907
000130 19 90 06 be 75 b9 d4 3d 0c 23 ae bd 46 02 91 be
       -0.13140906 0.103869356 -0.085027784 -0.28322047
000140 a9 a4 7e bd d7 0e 67 3c 0e 93 2b be e0 05 fa 3d
       -0.06216875 0.014102659 -0.16755316 0.12208152
000150 e3 55 05 be fd 4b e5 3d aa 03 fb 3e ed b2 92 3d
       -0.13021044 0.11196134 0.49026233 0.07163034
000160 db db 07 3c 9b cb b4 be 2c 54 24 3e 30 b0 bf bd
       0.008292164 -0.3531159 0.16047734 -0.09359777
000170 8f 9e 73 3d f2 02 ce 3e a5 ad c7 3e 17 cb 7f 3e
       0.059477385 0.40236622 0.38999668 0.24979816
000180 5d 89 8d bd 4e e8 5a 3e 1e ef 95 3e 8c cf 75 3d
       -0.069109656 0.2137768 0.29283994 0.060012385
000190 37 cc c4 be fc b4 6a bd 5e 3e 16 3e dd 3d f9 3d
       -0.38437054 -0.057301506 0.14672229 0.121700026
0001a0 2d 2d 57 3e 9a 8d 54 3e 47 82 09 3e fd 2d 72 be
       0.21013327 0.20757142 0.13428603 -0.23650356
0001b0 60 c7 ae 3e 72 ee 80 3e aa 72 60 3d f3 ef 84 be
       0.34136486 0.2518192 0.054796852 -0.25964317
0001c0 29 60 9a 3e 01 d4 09 be c7 a0 27 bc 62 54 81 3e
       0.3015149 -0.1345978 -0.010231203 0.2525969
0001d0 0f f5 50 bd fb 1c 1f bd dd c8 8c be 04 22 e4 3d
       -0.051014956 -0.038845997 -0.27496997 0.111393005
0001e0 40 90 c5 bb 56 65 c4 3e d6 a1 8c 3d 47 fe 16 3e
       -0.006029159 0.38358563 0.06866805 0.14745437
0001f0 50 83 89 bd 9d 26 67 bd 73 e3 27 be 33 c7 4d 3e
       -0.06714499 -0.05643331 -0.16395359 0.2009552
000200 78 58 ef 3d 9d 12 be 3d 41 ef 06 3f db 04 1b 3e
       0.11686796 0.09280894 0.5270882 0.15138571
000210 80 78 56 3d 67 64 12 be 47 38 2d 3e b6 8a 31 3e
       0.05236101 -0.14296113 0.16916 0.1733807
000220 7b 08 87 3d 98 a7 18 3e a4 16 52 3e 0d e4 ca bd
       0.065934144 0.14907682 0.20516449 -0.099067785
000230 89 c0 8c 3e 85 40 b2 bd dc 82 88 be 9a 55 61 be
       0.27490643 -0.087037124 -0.26662338 -0.2200531
000240 6b d2 5d be 79 b7 c7 3e 7a 23 3f be 36 bc bb 3d
       -0.216623 0.39007166 -0.18665877 0.09166758
000250 40 29 38 3e 04 ec 8d bc 05 9a 49 3e 5a 69 d5 3d
       0.17984486 -0.017324455 0.1968766 0.10420485
000260 24 fb 29 bb e5 d1 db 3c 74 82 b7 3b 1d f5 83 bc
       -0.0025937045 0.026833484 0.005600268 -0.01610809
000270 4f 6b 42 bd b7 7c 88 3d ac 10 70 3c 12 ae 96 be
       -0.04746562 0.066644125 0.014652412 -0.2942968
000280 9b 83 a6 be 9a 6c 23 be 98 eb 44 be c7 40 13 be
       -0.32522282 -0.15959397 -0.19230497 -0.1438018
000290 f7 b6 57 bd 9a 40 7b 3c 88 a8 31 3e a5 79 63 bc
       -0.052664723 0.015335226 0.17349446 -0.013883983
0002a0 13 d3 8d be f5 8a e3 bd 1e 31 cc bd 2d c3 4c 3e
       -0.277001 -0.11110488 -0.09970306 0.19996329
0002b0 ee 07 dd bd 5e 5d 67 3c 2b 82 e7 3e ad d6 9d 3a
       -0.10792528 0.014121382 0.45216498 0.0012042128
0002c0 8f b1 04 be 36 36 a6 3e ae 37 78 be fd d5 b1 3d
       -0.12958358 0.32463235 -0.2423999 0.08683393
0002d0 cd 5a 6f be 67 0b 02 be 14 b7 e6 bd 76 c2 01 3e
       -0.23374481 -0.12699662 -0.11265388 0.12671837
0002e0 84 69 c0 bd 26 ca eb 3c cf ba 9a 3d 87 48 6a bd
       -0.093951255 0.028782915 0.07555162 -0.057198074
0002f0 00 82 f3 bd 54 06 d4 bd 28 80 c9 be d6 29 9e be
       -0.1189003 -0.103527695 -0.39355588 -0.30891293
000300 bf 38 7a bd 77 9d 79 3e c7 ef 90 bd 1b 2d 84 3e
       -0.061089274 0.24376474 -0.07076984 0.25815663
000310 ca de 64 bd 0b b0 f9 3d 42 af bf 3d 73 bb 38 3e
       -0.05587653 0.12191781 0.093596 0.18040256
000320 4b 7b 7f be 10 73 14 be 00 e6 8e 3e b6 2c fe bd
       -0.24949376 -0.14497018 0.2790985 -0.12410872
000330 62 9f b1 3e d3 0e c6 bd 2c 5f e0 3d 74 07 29 3e
       0.34691912 -0.09670796 0.109556526 0.1650675
000340 16 97 c8 3d 5f ab a9 3d ad 20 01 be b7 b1 90 3e
       0.09794442 0.082846396 -0.12610121 0.28260586
000350 a5 d2 05 be c6 ea 36 be e4 77 f7 3d ae eb ba bd
       -0.13068636 -0.17862996 0.12083414 -0.091269836
000360 39 2b 49 be 52 dd 7f 3e f5 c2 82 be b3 bf 9b 3d
       -0.19645394 0.24986771 -0.25539365 0.07604923
000370 a4 d8 f6 3e 6c 1f 27 3c fa 6d 97 3d e7 75 12 be
       0.4821216 0.010200363 0.07394023 -0.14302789
000380 0d 20 06 3a 77 19 34 3d 03 9f 28 3d ae 5d ec ba
       0.000511647 0.043969598 0.04116727 -0.001803329
000390 47 1d a7 3e 1e 92 d2 3d a7 9c 9b bc d1 c3 8a 3d
       0.32639524 0.10281776 -0.018995596 0.0677563
0003a0 62 1e 39 be c0 69 dc 3d b6 bf b4 be 17 1e 3f 3d
       -0.18077996 0.10762358 -0.35302514 0.046659555
0003b0 da 6e ba 3e 20 a1 40 bd f6 b5 e0 bc 06 c2 e5 3d
       0.36412698 -0.04702866 -0.027430516 0.11218648
0003c0 86 72 01 3e b3 3b 37 bd 36 1c 51 3e 3d 72 d6 3d
       0.12641343 -0.044734668 0.20420918 0.10471008
0003d0 ee 03 30 be 47 6d 72 3e 7c a3 57 3e fc 89 04 bd
       -0.17188999 0.23674498 0.21058458 -0.032358155
0003e0 40 fc b7 bd 81 d5 7e 3d 69 08 6c be 8f 07 3c 3d
       -0.0898366 0.062215332 -0.23050083 0.045905646
0003f0 89 86 e4 bd 39 3c 60 bd 40 a9 89 3e cb 41 5c 3e
       -0.11158473 -0.054744933 0.2688694 0.21509473

resolve.2.layers.2.conv0.bias f4 [10]
000000 49 6e 2b bd e2 47 83 3d 07 9d f0 3c 77 1f bb bc
       -0.041853223 0.06410195 0.029371751 -0.022842152
000010 bc df 6f 3d 62 88 0f be 7c 7b 34 3e 5a e9 ed 3d
       0.05856298 -0.1401687 0.1762523 0.11616774
000020 54 c8 f6 3d 3e 9b 25 bd
       0.12049928 -0.040431254

resolve.2.layers.2.bn0.weight f4 [10]
000000 00 00 80 3f 00 00 80 3f 00 00 80 3f 00 00 80 3f
       1.0 1.0 1.0 1.0
000010 00 00 80 3f 00 00 80 3f 00 00 80 3f 00 00 80 3f
       1.0 1.0 1.0 1.0
000020 00 00 80 3f 00 00 80 3f
       1.0 1.0

resolve.2.layers.2.bn0.bias f4 [10]
000000 00 00 00 00 00 00 00 00 00 00 00 00 00 00 00 00
       0.0 0.0 0.0 0.0
000010 00 00 00 00 00 00 00 00 00 00 00 00 00 00 00 00
       0.0 0.0 0.0 0.0
000020 00 00 00 00 00 00 00 00
       0.0 0.0

resolve.2.layers.2.bn0.running_mean f4 [10]
000000 00 00 00 00 00 00 00 00 00 00 00 00 00 00 00 00
       0.0 0.0 0.0 0.0
000010 00 00 00 00 00 00 00 00 00 00 00 00 00 00 00 00
       0.0 0.0 0.0 0.0
000020 00 00 00 00 00 00 00 00
       0.0 0.0

resolve.2.layers.2.bn0.running_var f4 [10]
000000 00 00 80 3f 00 00 80 3f 00 00 80 3f 00 00 80 3f
       1.0 1.0 1.0 1.0
000010 00 00 80 3f 00 00 80 3f 00 00 80 3f 00 00 80 3f
       1.0 1.0 1.0 1.0
000020 00 00 80 3f 00 00 80 3f
       1.0 1.0

resolve.2.layers.2.conv1.weight f4 [10, 10, 1]
000000 ea 8b e2 3e cf d6 d5 bd fd 5f cf bd 67 33 0d 3d
       0.4424737 -0.10441362 -0.1012573 0.03447285
000010 77 b3 00 3f 42 15 be be 5d 75 ac bd 75 ef 9e 3e
       0.5027384 -0.37125593 -0.08420823 0.31042066
000020 ae 11 d1 3a e3 25 de 3e 7f bc 31 be 23 1d f1 3d
       0.0015950704 0.4338828 -0.17357062 0.117731355
000030 5e d1 c7 bd e3 e1 e5 bd ff ae 9f 3d 9b 0d b1 3d
       -0.097567305 -0.11224725 0.0779705 0.08645173
000040 07 63 87 be 72 38 c6 3d b3 c8 94 be 21 fd ad 3d
       -0.2644274 0.09678735 -0.2905937 0.08495546
000050 77 eb bc 3e 9b ad 0e bf e9 f3 37 be 11 21 9a bd
       0.36898395 -0.5573365 -0.17964138 -0.07525838
000060 e7 d5 eb bd fa 33 c2 3e 26 09 c1 bd d9 81 82 3e
       -0.11515408 0.3793028 -0.09425573 0.2548969
000070 17 1d 1b be 34 bd c3 be 8e ca 4b bc 3c f4 d3 3e
       -0.15147816 -0.38230288 -0.0124384295 0.41397274
000080 3c ac d4 be 14 e4 39 be 4b 59 99 3e e2 34 a9 3e
       -0.41537654 -0.18153411 0.29950938 0.3304816
000090 0a 11 6c be 24 29 f9 3b 03 e5 da bb b2 34 8a be
       -0.23053375 0.0076037813 -0.0066801324 -0.26993328
0000a0 e6 13 19 3d 13 b2 88 3d 49 27 5d bd 66 83 03 3e
       0.037372492 0.0667459 -0.053992543 0.12843093
0000b0 77 38 8c be a6 50 02 3e 1f 0a 8f 3e fd 36 82 3d
       -0.2738683 0.12726077 0.2793741 0.063581444
0000c0 c4 9b c2 3c e4 03 23 3e 84 d9 b8 be 8c c0 b0 3c
       0.023755915 0.15919453 -0.3610345 0.021576189
0000d0 fe 70 b8 bd 6e c4 37 be a1 1a f3 be 75 ca 4c 3e
       -0.090059265 -0.17946026 -0.47481254 0.19999106
0000e0 c2 5d 99 3e 53 ee 91 be 13 00 c6 3c 68 66 91 bd
       0.29954344 -0.2850214 0.024169957 -0.070996106
0000f0 4d 9a 68 3e b1 ce a8 3d 68 1f b0 3e cf 63 7d be
       0.22715111 0.08242548 0.3439896 -0.24745105
000100 8b 73 29 3e 05 d5 85 3e 45 16 15 be a6 2c 2d be
       0.16547982 0.26139084 -0.14559276 -0.16911563
000110 cc a5 2b bb 2d be 15 be d0 83 b2 be d6 39 3f 3e
       -0.0026191352 -0.14623328 -0.3486619 0.18674406
000120 9a 43 e2 3d b6 5f a7 3e e9 95 c1 be 30 34 80 3e
       0.1104805 0.3269021 -0.37809685 0.25039816
000130 b8 e7 0f 3f 06 69 62 be 78 3a 51 be ea 12 1d 3d
       0.5621295 -0.22110376 -0.2043246 0.038348116
000140 78 f3 7b 3e d7 51 52 3e fb ab 5b be 8b f5 ba bc
       0.24604595 0.20539032 -0.21452324 -0.022822162
000150 8b 18 36 3e e2 85 cb bd 9a f7 95 be 9c 88 8a 3d
       0.177828 -0.099376455 -0.29290468 0.067643374
000160 1a 13 e4 be b6 ed c3 3d c3 1e 5f be 13 f3 96 bd
       -0.44545823 0.09566824 -0.21789078 -0.073705815
000170 c6 5b 1e 3e 58 2d cc 3d cd 85 1d be 4c f3 92 be
       0.15464696 0.09969586 -0.15383072 -0.28701246
000180 60 ff a2 3d 5e 73 00 3e 4c b6 5f be 34 d8 43 3e
       0.07958865 0.12544009 -0.21846884 0.19125444

resolve.2.layers.2.conv1.bias f4 [10]
000000 34 ba 4c be 06 1f 2e bc 69 d2 e5 3d 1a 85 6a 3e
       -0.19992906 -0.010627514 0.11221773 0.22902337
000010 5b dd 3e be 47 db 56 3e 22 b1 1c 3e 81 45 af bd
       -0.18639128 0.20982085 0.15301946 -0.08558179
000020 8e 2f 99 3d 41 cb c7 bd
       0.074797735 -0.097555645

resolve.2.layers.2.bn1.weight f4 [10]
000000 00 00 80 3f 00 00 80 3f 00 00 80 3f 00 00 80 3f
       1.0 1.0 1.0 1.0
000010 00 00 80 3f 00 00 80 3f 00 00 80 3f 00 00 80 3f
       1.0 1.0 1.0 1.0
000020 00 00 80 3f 00 00 80 3f
       1.0 1.0

resolve.2.layers.2.bn1.bias f4 [10]
000000 00 00 00 00 00 00 00 00 00 00 00 00 00 00 00 00
       0.0 0.0 0.0 0.0
000010 00 00 00 00 00 00 00 00 00 00 00 00 00 00 00 00
       0.0 0.0 0.0 0.0
000020 00 00 00 00 00 00 00 00
       0.0 0.0

resolve.2.layers.2.bn1.running_mean f4 [10]
000000 00 00 00 00 00 00 00 00 00 00 00 00 00 00 00 00
       0.0 0.0 0.0 0.0
000010 00 00 00 00 00 00 00 00 00 00 00 00 00 00 00 00
       0.0 0.0 0.0 0.0
000020 00 00 00 00 00 00 00 00
       0.0 0.0

resolve.2.layers.2.bn1.running_var f4 [10]
000000 00 00 80 3f 00 00 80 3f 00 00 80 3f 00 00 80 3f
       1.0 1.0 1.0 1.0
000010 00 00 80 3f 00 00 80 3f 00 00 80 3f 00 00 80 3f
       1.0 1.0 1.0 1.0
000020 00 00 80 3f 00 00 80 3f
       1.0 1.0

resolve.2.layers.3.weight f4 [20, 10, 12]
000000 48 c2 fb 3d b3 8f 97 3d cf 2f 53 be 20 21 b5 be
       0.122929156 0.07400455 -0.20623706 -0.35376835
000010 94 e6 f2 ba c2 2f 82 3e b1 c4 72 3e 1b 3f d7 3d
       -0.0018531852 0.2542706 0.23707844 0.10510083
000020 4d ae 60 be 0e 18 39 be 15 90 6f bd 23 e6 cf 3c
       -0.2194149 -0.18075582 -0.058487017 0.025378292
000030 b4 be af 3c e7 39 43 3d 05 b3 b9 3d af 1f 30 bd
       0.021453239 0.04766264 0.090673484 -0.042998966
000040 06 99 09 be 9b 4a bc 3c 11 eb f7 3c a6 59 ce 3c
       -0.1343728 0.022984793 0.030263456 0.025189232
000050 cf eb fd bb fb a8 62 3d 33 46 65 bd d4 55 85 3d
       -0.007749058 0.055336934 -0.05597515 0.06510511
000060 9f 5a 85 3e 7a 7b c1 3d 16 a3 0c be 85 70 a2 be
       0.260457 0.094473794 -0.13734087 -0.3172647
000070 9b 67 99 3c ab a6 2b 3e 10 b9 61 3d fa 3a a9 bc
       0.01872616 0.16762798 0.05510813 -0.020658005
000080 b0 99 22 be cd eb e2 bd 70 ed 69 3d 60 7a f8 3d
       -0.1587894 -0.11080132 0.057111204 0.12132716
000090 24 29 89 3d 52 ac e6 3c 13 04 01 bd 50 cc 9b bd
       0.066973 0.02815834 -0.031498026 -0.07607329
0000a0 88 aa 11 3a 3c 53 14 bd c8 c0 31 3e 3d db 61 bc
       0.0005556722 -0.03621219 0.17358696 -0.013785181
0000b0 69 70 bf 3d 7c fc 47 bc 92 f7 13 bd 7a fa fd 3d
       0.093476124 -0.012206193 -0.036124773 0.1240129
0000c0 b7 0c 14 be 20 38 1a be 37 f2 8a 3c d9 a1 50 3e
       -0.14457975 -0.15060472 0.0169612 0.2037424
0000d0 e2 c1 56 3e 2a c6 6b bc 7d 10 99 bc 8b c5 28 bc
       0.20972398 -0.014390508 -0.01868462 -0.010301004
0000e0 36 04 8a 3d fa 2f f8 3d e3 01 03 3d 70 cb a8 bc
       0.067390844 0.12118526 0.03198422 -0.020604819
0000f0 9d 08 19 bd 66 d3 3b be e7 a8 aa bd f6 b1 cc 3d
       -0.03736173 -0.18342361 -0.08332997 0.09994881
000100 69 51 87 bd 17 32 85 bd 6a fa 0e bd f0 9d bb 3d
       -0.06607325 -0.065036945 -0.034906782 0.091609836
000110 ec 53 e0 3d 0e b3 ba 3d d3 fa 84 bd e8 a4 1e be
       0.10953507 0.09116183 -0.064931534 -0.15492594
000120 96 27 61 3d ee 86 c6 3d 26 d5 99 3a 74 e5 bb bd
       0.054969393 0.096937045 0.0011736497 -0.09174624
000130 7b 08 76 bd 01 ec 19 3e 4a 1a 46 3e c4 5b 15 3e
       -0.06006668 0.15031435 0.19345966 0.14585787
000140 d2 40 c1 bb 0d e1 8c bc 3d 6b 5b bd 9d 04 79 bd
       -0.0058976198 -0.017197156 -0.053569067 -0.060795415
000150 4d a1 17 be 14 bd b6 bd 52 10 0b 3e 5d 1f 97 3e
       -0.14807625 -0.089227825 0.13580444 0.29516116
000160 0a 28 6a 3d c4 83 6f be bd 34 39 be 96 45 8c bb
       0.05716709 -0.23390108 -0.18086524 -0.004280756
000170 33 eb 0b 3e c3 be 3d 3e 02 58 ad bd e2 7f ff bd
       0.1366394 0.18529801 -0.08464052 -0.124755636
000180 c7 84 b1 bd 40 b9 4e 3d f3 64 00 be 61 0b e6 bd
       -0.086679034 0.050469637 -0.12538509 -0.11232639
000190 aa 9a 30 bd 89 10 22 3e d5 e0 36 3e 44 1c 68 3c
       -0.04311625 0.1582662 0.17859204 0.014166895
0001a0 0d 39 d8 bd 1a 62 d4 bd 85 af 44 3d 70 41 de 3d
       -0.105577566 -0.10370274 0.04801895 0.10852325
0001b0 00 da 0d bc a0 d5 45 bd b4 bd 75 bc 9f 16 4d bc
       -0.008657932 -0.04829943 -0.014998842 -0.0125176
0001c0 24 e3 1e 3e 6a 59 10 3e 6e e4 d4 3a a1 c1 01 be
       0.15516335 0.14096609 0.0016242394 -0.1267152
0001d0 8f e7 7c bc 8a ff 1f 3d ab 66 e2 3d 48 37 18 3a
       -0.015436067 0.03906206 0.110547386 0.00058065774
0001e0 e5 c6 8e bd f4 d6 d5 3c 2d 30 84 3d 82 1b 1f 3d
       -0.0697153 0.026103474 0.06454501 0.038844593
0001f0 e2 38 4c bc 90 9c d7 bc 6f c0 88 3d 6a f9 60 3d
       -0.012464734 -0.026319772 0.06677329 0.05492536
000200 bc 36 f7 3d a4 32 d1 3d b1 18 70 3c c0 08 d2 3d
       0.12070987 0.10214737 0.014654324 0.10255575
000210 d8 9f 82 be 02 f3 dc bd ac c7 6c be b7 7d be bd
       -0.25512576 -0.107885376 -0.23123044 -0.09301322
000220 28 5b 2b bd 0e a7 0f 3e 02 97 97 3d d7 52 a7 3c
       -0.04183498 0.1402857 0.07401849 0.020425243
000230 29 9a 9a 3c c0 eb 8f 3d bc 63 bc bd 33 4f 1d be
       0.018872337 0.070273876 -0.0919871 -0.15362243
000240 f4 3c 8c bc 4e fd ac bd 66 7e 1a 3c 8b d8 4c be
       -0.017118908 -0.084467515 0.00942955 -0.2000448
000250 c7 32 f6 bd 83 a5 a3 bc ac 6f 93 ba bb 51 ff 3c
       -0.12021404 -0.019976383 -0.0011248491 0.031166902
000260 99 3e 0f 3c 7e c2 f6 3c df a0 e1 3d 33 4e 3d 3d
       0.008742952 0.030122038 0.11017012 0.046217155
000270 b7 87 87 be 00 4b f7 bd 8b f4 7d 3b 43 ba 31 3b
       -0.2647073 -0.12074852 0.0038750495 0.0027119077
000280 11 b3 b7 3d e7 07 7c 3d 19 74 88 3d f4 e1 95 3d
       0.08969701 0.061530974 0.06662769 0.07318488
000290 47 95 8f 3d 94 1f e6 bd 09 02 2d 3d 99 23 7f 3d
       0.07010894 -0.11236492 0.04223827 0.062289808
0002a0 32 a3 9b be da fc b7 be 87 ab 9c be ad 96 af bc
       -0.30397946 -0.35935098 -0.30599615 -0.021434152
0002b0 98 25 c7 3c ad 42 08 3d 2a 32 c5 3c 03 11 09 3e
       0.024309918 0.033266712 0.024071772 0.13385396
0002c0 76 95 11 3e 65 35 5d 3e a1 d7 5f 3e ec b2 00 3e
       0.14217171 0.216024 0.218596 0.12568253
0002d0 1e 60 1e be 18 79 81 be b2 40 a5 be 8a 5c 1e be
       -0.15466353 -0.252877 -0.3227592 -0.15464988
0002e0 09 b0 0c be 56 46 0a be 56 76 c2 3c 6c 7a fa 3d
       -0.13739027 -0.13503394 0.023738068 0.12230381
0002f0 2d b7 9d 3d 45 51 01 3e 08 cc 15 3e 5e d1 0d 3e
       0.07700954 0.12628658 0.14628613 0.13849398
000300 69 b3 57 be e9 ce 88 be 67 f5 9c be 82 fd f9 be
       -0.21064533 -0.2672036 -0.30655977 -0.48826224
000310 8d 0e aa be 6a 85 76 be 62 38 a6 bd 7c cd 38 3a
       -0.33214226 -0.24074331 -0.08116223 0.00070496625
000320 b0 8a 9e 3c 93 0a fa 3d b9 d0 d7 3d f4 76 1c 3e
       0.01935324 0.12209048 0.105378576 0.15279752
000330 12 8f 23 3e 09 e5 2a 3e 5d e2 62 3e 58 2a 49 3e
       0.15972546 0.16688932 0.22156663 0.19645059
000340 c7 60 d1 3d d0 d1 c5 3d 8d 87 36 3c 56 0b ff 3c
       0.10223537 0.09659159 0.011140716 0.031133335
000350 7b 40 e9 bd ec d4 2b be 34 7d 04 be 34 c1 de bd
       -0.11389252 -0.16780442 -0.12938386 -0.10876694
000360 e2 9c 1c be f3 eb 23 bd 87 a0 aa 3d e1 f3 24 3d
       -0.15294221 -0.04001994 0.083313994 0.040271644
000370 ec 04 20 3e fa 47 2e 3e 2b 69 aa 3d 00 21 d7 bd
       0.15626878 0.17019644 0.083208404 -0.10504341
000380 0d 2c dc bd 7b f1 89 be 50 db 73 be 48 39 66 be
       -0.107505895 -0.26942047 -0.2381413 -0.22482789
000390 2f a8 b4 3d 17 ad bd 3d b1 b5 84 3d 48 e1 10 bd
       0.08821141 0.0926153 0.064799674 -0.035371095
0003a0 0c 9e 30 be b0 39 43 be 8d af 0e be 92 6d 1f be
       -0.1724779 -0.19064975 -0.13934155 -0.15569142
0003b0 5d 50 23 be 3c e4 8c bc 6f 8e b8 3c 47 fc f2 3c
       -0.15948625 -0.017198674 0.022528855 0.02966131
0003c0 b6 64 ed bd 30 86 f4 3c 37 48 12 bd 54 de 80 3d
       -0.11591475 0.029849142 -0.0357134 0.06292406
0003d0 7e 29 33 3d 2e 88 51 3d 70 43 96 3d b7 fe 16 3d
       0.043740742 0.05115526 0.073370814 0.03686401
0003e0 dc de b8 3d c2 c0 f3 3d 32 a2 21 3d 11 5a fe 3d
       0.09026882 0.11902 0.039461322 0.124195226
0003f0 91 6e 54 3d 09 21 26 3b 2f 88 41 3d 1d 41 e1 bd
       0.051863257 0.002534928 0.047249015 -0.109987475

resolve.2.layers.3.bias f4 [20]
000000 2d 46 36 bd f4 8c 54 bd d7 24 53 3d d7 1a 9b 3c
       -0.04450052 -0.051892236 0.051548805 0.018933697
000010 cb 9a 96 bd 77 ac a9 3d 24 03 f3 bc 64 37 28 3d
       -0.07353743 0.08284848 -0.029664584 0.04106845
000020 e7 49 0f 3d 78 a9 3f bd 4a c2 93 bb 39 bf 3f be
       0.03498259 -0.046792477 -0.004509245 -0.1872529
000030 e5 5c 3f be 4c de d6 bd cf 92 cc bb c2 b5 6a 3c
       -0.1868778 -0.104916185 -0.006243087 0.014325561
000040 aa 6f ee bc 1d 79 0d 3c 80 41 67 3d fc 7a 75 3c
       -0.02910598 0.008634833 0.05645895 0.014982935
