generators/n1x.ckpt (torch, 91865 bytes, 167 tensors)

resolve.0.weight f4 [1, 1, 7]
00000000: aaf3 933e 0e9f a03e f557 b5bd 84c4 b13e
00000010: 0e9a a9bd 4b33 9c3d 246e 3cbe
0.28896838 0.3137135 -0.08854667 0.34720242 -0.08281337 0.07626971 -0.1840139

resolve.2.layers.0.conv0.weight f4 [1, 1, 3]
00000000: 244b 023f e9dc d8be f977 003f
0.50895905 -0.4235604 0.50183064

resolve.2.layers.1.conv0.weight f4 [1, 1, 3]
00000000: 5289 8e3e 35f2 a6bd 5de0 e33e
0.27839142 -0.08151666 0.44507113

resolve.2.layers.2.conv0.weight f4 [1, 1, 3]
00000000: fe31 88be 3caa 8abd 9e1f 70be
-0.2660064 -0.06770751 -0.23449561

resolve.2.layers.3.weight f4 [2, 1, 12]
00000000: 1cf1 a6bd f7bc 31be 2133 df3c 0afb 91be
00000010: 257b 853e 0b1b 7bbe c036 643e b6c6 443d
00000020: adf7 bfbd 07ab 363e b047 383d 30d6 6e3e
00000030: d542 013d 6373 babd fbd8 9e3d b652 a0bd
00000040: 54d0 f83d eaf5 833e 57e0 2a3e cb3a 01be
00000050: 30a4 2a3e 9490 533d 231e 163e f62b 34be
-0.08151457 -0.1735724 0.02724606 -0.2851184 0.26070514 -0.24522035 0.2228651 0.048041068
-0.09373412 0.17838679 0.04499024 0.23323894 0.031557877 -0.091040395 0.077562295 -0.07828276
0.121491104 0.25773555 0.16687141 -0.12620084 0.16664195 0.051651552 0.14659934 -0.17594895

resolve.2.layers.3.bias f4 [2]
00000000: 644f 92be 3e6b e4bd
-0.28576195 -0.11153267

resolve.3.layers.0.conv0.weight f4 [2, 2, 3]
00000000: 5553 a0be f982 ab3e 23d2 f03d 1129 2d3e
00000010: 3936 043e dcb6 e8bb 4f95 a33e 8783 94be
00000020: f192 d23c acaa 8ebe c8e7 003e bdf7 0fbe
-0.31313577 0.33498362 0.117588304 0.16910197 0.1291131 -0.0071018767 0.3194985 -0.29006597
0.025704833 -0.27864587 0.12588418 -0.14059348

resolve.3.layers.0.conv0.bias f4 [2]
00000000: 9f18 003e 5831 aebd
0.12509392 -0.08505505

resolve.3.layers.0.bn0.weight f4 [2]
00000000: 0000 803f 0000 803f
1.0 1.0

resolve.3.layers.0.bn0.bias f4 [2]
00000000: 0000 0000 0000 0000
0.0 0.0

resolve.3.layers.0.bn0.running_mean f4 [2]
00000000: 0000 0000 0000 0000
0.0 0.0

resolve.3.layers.0.bn0.running_var f4 [2]
00000000: 0000 803f 0000 803f
1.0 1.0

resolve.3.layers.0.conv1.weight f4 [2, 2, 1]
00000000: ce22 163f bd94 d6be 4ceb d7be a3ee d7be
0.5864686 -0.41910353 -0.42171705 -0.42174253

resolve.3.layers.0.conv1.bias f4 [2]
00000000: 08d1 223f b14c 713e
0.63600206 0.23564412

resolve.3.layers.0.bn1.weight f4 [2]
00000000: 0000 803f 0000 803f
1.0 1.0

resolve.3.layers.0.bn1.bias f4 [2]
00000000: 0000 0000 0000 0000
0.0 0.0

resolve.3.layers.0.bn1.running_mean f4 [2]
00000000: 0000 0000 0000 0000
0.0 0.0

resolve.3.layers.0.bn1.running_var f4 [2]
00000000: 0000 803f 0000 803f
1.0 1.0

resolve.3.layers.1.conv0.weight f4 [2, 2, 3]
00000000: f621 c93e 7880 acbe 3753 cfbe 3988 a3be
00000010: 8a9b 8cbe 5553 293e 39b1 153e b3ae ad3e
00000020: c3e3 57be 587e 8ebe 64ce 5d3e e7f9 28be
0.39283723 -0.33691764 -0.40493175 -0.31939867 -0.27462417 0.16535695 0.14618386 0.33922347
-0.21082978 -0.27830768 0.21660763 -0.1650158

resolve.3.layers.1.conv0.bias f4 [2]
00000000: e4b8 7d3e c167 c6bd
0.24777561 -0.09687758

resolve.3.layers.1.bn0.weight f4 [2]
00000000: 0000 803f 0000 803f
1.0 1.0

resolve.3.layers.1.bn0.bias f4 [2]
00000000: 0000 0000 0000 0000
0.0 0.0

resolve.3.layers.1.bn0.running_mean f4 [2]
00000000: 0000 0000 0000 0000
0.0 0.0

resolve.3.layers.1.bn0.running_var f4 [2]
00000000: 0000 803f 0000 803f
1.0 1.0

resolve.3.layers.1.conv1.weight f4 [2, 2, 1]
00000000: 4d1a cf3e 6fa5 0cbf e6b3 b6be 0ec1 5c3e
0.40449753 -0.5493993 -0.35684127 0.2155802

resolve.3.layers.1.conv1.bias f4 [2]
00000000: 4e13 193e 1f9c 38be
0.1494877 -0.18028305

resolve.3.layers.1.bn1.weight f4 [2]
00000000: 0000 803f 0000 803f
1.0 1.0

resolve.3.layers.1.bn1.bias f4 [2]
00000000: 0000 0000 0000 0000
0.0 0.0

resolve.3.layers.1.bn1.running_mean f4 [2]
00000000: 0000 0000 0000 0000
0.0 0.0

resolve.3.layers.1.bn1.running_var f4 [2]
00000000: 0000 803f 0000 803f
1.0 1.0

resolve.3.layers.2.conv0.weight f4 [2, 2, 3]
00000000: 432f 793e 8a18 8e3e f893 97be 7e2e 5fbe
00000010: 0065 bf3e f90f 0dbe 4a34 14be ea3f cabe
00000020: 1467 6fbe e6db d03d 8eb7 5cbd 1aba 97be
0.24334435 0.27753097 -0.2960508 -0.21795079 0.37381744 -0.13775624 -0.14473072 -0.39501888
-0.23379165 0.10198192 -0.05388599 -0.29634172

resolve.3.layers.2.conv0.bias f4 [2]
00000000: 4ee5 1c3c a3c7 8ebe
0.009576155 -0.27886686

resolve.3.layers.2.bn0.weight f4 [2]
00000000: 0000 803f 0000 803f
1.0 1.0

resolve.3.layers.2.bn0.bias f4 [2]
00000000: 0000 0000 0000 0000
0.0 0.0

resolve.3.layers.2.bn0.running_mean f4 [2]
00000000: 0000 0000 0000 0000
0.0 0.0

resolve.3.layers.2.bn0.running_var f4 [2]
00000000: 0000 803f 0000 803f
1.0 1.0

resolve.3.layers.2.conv1.weight f4 [2, 2, 1]
00000000: 8293 19bf 755c c7be 296e 1ebf 1886 e6be
-0.59990704 -0.38937727 -0.6188684 -0.4502418

resolve.3.layers.2.conv1.bias f4 [2]
00000000: d3f2 343f 94c2 083e
0.7068302 0.13355476

resolve.3.layers.2.bn1.weight f4 [2]
00000000: 0000 803f 0000 803f
1.0 1.0

resolve.3.layers.2.bn1.bias f4 [2]
00000000: 0000 0000 0000 0000
0.0 0.0

resolve.3.layers.2.bn1.running_mean f4 [2]
00000000: 0000 0000 0000 0000
0.0 0.0

resolve.3.layers.2.bn1.running_var f4 [2]
00000000: 0000 803f 0000 803f
1.0 1.0

resolve.3.layers.3.weight f4 [4, 2, 8]
00000000: 1cc7 9d3d 66c4 6ebe 5422 28be 146c aabd
00000010: c01f 203d 8642 61be 649b dcbd 5842 19be
00000020: 009e 353a 5084 bebd f0ea 8dbc 2479 2dbe
00000030: 98b7 2fbe d259 15be 9c41 afbd 500e 4abe
00000040: f6a5 563e 283a 4bbd f642 5c3e b087 9f3d
00000050: b0c7 58be 3829 313e c8df 8cbd 5043 c4bd
00000060: 807f 54be 5081 7ebe 187d 923d c0af 5fbd
00000070: 5c55 c73d 0017 52be d60f 3e3e f2ea 3bbe
00000080: 48d1 30bd f0e1 553d 1429 043e e4ab 4e3e
00000090: a034 693e f2fc 4abe 88da 803d 7839 dcbd
000000a0: 006e e0bc 0c9d 3fbe 082e 693e 2ee4 3bbe
000000b0: ccd1 083e e4ef b33d a060 a63d ca67 0abe
000000c0: 0cb1 683e 4006 613d 38ba 033d ea99 61be
000000d0: 84ee d63d 009f 19bd 448f eabd ece3 5b3e
000000e0: b04c 643d 86a3 0dbe 5292 01be 809b 43bc
000000f0: c4f0 0e3e 54d5 82bd 3211 12be ac54 afbd
0.07703993 -0.23317108 -0.16419345 -0.083213955 0.03909278 -0.21998033 -0.10771826 -0.14966714
0.0006928146 -0.0930258 -0.017323941 -0.16940743 -0.17159879 -0.14585045 -0.08557436 -0.19732022
0.20961747 -0.04961601 0.21509919 0.07789552 -0.21169925 0.1730088 -0.068786204 -0.09583151
-0.20751762 -0.24854016 0.07152766 -0.054610968 0.09733078 -0.20516586 0.18560728 -0.18351343
-0.043168336 0.052217424 0.12906295 0.20182759 0.22773981 -0.19823053 0.062916815 -0.10753149
-0.027396202 -0.18712252 0.22771466 -0.18348762 0.13361281 0.0878599 0.081238985 -0.13516155
0.22723788 0.0549376 0.032160014 -0.2203137 0.10494712 -0.03750515 -0.11453107 0.21473664
0.055737197 -0.1383191 -0.12653473 -0.01193893 0.13959032 -0.06388345 -0.14264372 -0.08561072

resolve.3.layers.3.bias f4 [4]
00000000: 4c40 3fbe 8898 b63d 8027 463e 3c02 71be
-0.18676871 0.08915812 0.19351006 -0.23536009

resolve.4.layers.0.conv0.weight f4 [4, 4, 3]
00000000: e34e 893d cdb4 183e 0168 563d 138b d2bd
00000010: b049 1a3e ec57 1b3e 7a11 dd3d 7cc6 4fbd
00000020: 628d 9cbd c8fd fc3c cfe0 50bd 222e b0bd
00000030: a2f3 3c3e 970a 7e3e 911c eabc 8c5e 84bd
00000040: 6f08 8a3b 1b33 8dbc fc21 8e3d 0dad a53d
00000050: eb3d 86be 762d dabd b0ef 783e b84e e63d
00000060: d13d 6bbc 9038 32be 04da 34be 5565 84be
00000070: 0eb6 c0bd 29a7 c73d ab7b 3c3e b27a 083e
00000080: fea5 82be c7c3 31be c19a 3abd d3f9 8e3e
00000090: 820b 2b3d f01a 99bd 5997 f43d 012e e1bd
000000a0: b854 3fbe d1c1 573e 4f69 06be d908 6dbd
000000b0: a208 93be b0d6 453e 96f5 5f3e d676 d73d
0.067044996 0.1491272 0.05234528 -0.102804326 0.15067172 0.15170258 0.10794349 -0.0507264
-0.07644154 0.030882731 -0.050995644 -0.08602549 0.18452314 0.24808727 -0.028578075 -0.06463346
0.004212431 -0.017236283 0.06940076 0.080896474 -0.26219115 -0.10653202 0.24310184 0.11245483
-0.014358 -0.1740439 -0.17661291 -0.2585856 -0.09409724 0.0974868 0.1840655 0.13328055
-0.25517267 -0.1735984 -0.04555774 0.27924976 0.04175902 -0.07475841 0.1194293 -0.10995103
-0.18684661 0.21070029 -0.1312611 -0.057869766 -0.28717524 0.19320178 0.21871027 0.10520713

resolve.4.layers.0.conv0.bias f4 [4]
00000000: d81d 4ebe 12df 91be 3315 70be 756e 5c3e
-0.20128572 -0.28490502 -0.23445587 0.21526511

resolve.4.layers.0.bn0.weight f4 [4]
00000000: 0000 803f 0000 803f 0000 803f 0000 803f
1.0 1.0 1.0 1.0

resolve.4.layers.0.bn0.bias f4 [4]
00000000: 0000 0000 0000 0000 0000 0000 0000 0000
0.0 0.0 0.0 0.0

resolve.4.layers.0.bn0.running_mean f4 [4]
00000000: 0000 0000 0000 0000 0000 0000 0000 0000
0.0 0.0 0.0 0.0

resolve.4.layers.0.bn0.running_var f4 [4]
00000000: 0000 803f 0000 803f 0000 803f 0000 803f
1.0 1.0 1.0 1.0

resolve.4.layers.0.conv1.weight f4 [4, 4, 1]
00000000: 6cd0 753e d66c d73e 561c 863e 4c95 013e
00000010: 8071 a0bb 86b0 c2be 6c55 dbbe 0273 efbe
00000020: e497 513e 2860 7bbe 2815 cebd 5054 93be
00000030: d098 babd 862e b4be 4046 a7be 00d6 293e
0.24005288 0.42075223 0.26193494 0.12654608 -0.0048963428 -0.38025302 -0.4283861 -0.46767431
0.20468098 -0.245484 -0.10062629 -0.28775263 -0.09111178 -0.35191745 -0.32670784 0.16585541

resolve.4.layers.0.conv1.bias f4 [4]
00000000: 202a 18be 340a 9e3e 0c41 24be 10cb bbbe
-0.1485982 0.3086716 -0.16040438 -0.36678362

resolve.4.layers.0.bn1.weight f4 [4]
00000000: 0000 803f 0000 803f 0000 803f 0000 803f
1.0 1.0 1.0 1.0

resolve.4.layers.0.bn1.bias f4 [4]
00000000: 0000 0000 0000 0000 0000 0000 0000 0000
0.0 0.0 0.0 0.0

resolve.4.layers.0.bn1.running_mean f4 [4]
00000000: 0000 0000 0000 0000 0000 0000 0000 0000
0.0 0.0 0.0 0.0

resolve.4.layers.0.bn1.running_var f4 [4]
00000000: 0000 803f 0000 803f 0000 803f 0000 803f
1.0 1.0 1.0 1.0

resolve.4.layers.1.conv0.weight f4 [4, 4, 3]
00000000: ad9f 50bd ff4a 0fbe ecdf b4bd e0b4 8cbe
00000010: 2b63 253e e6cc 4dbe 5293 143e e023 063e
00000020: 4e30 533e 3fbe 62be d398 543e 38bf 0bbe
00000030: eb60 db3d 7fcd 8a3e 09c2 26bd 714e 12bb
00000040: 251d 88bd 00d3 76be 63dc 0d3e b1b9 92be
00000050: b182 373e 862d 5d3e e8c6 8b3e 1c74 8bbd
00000060: 4ee1 72be d1eb 843d a24c 233e b91b 93be
00000070: bb31 86bd 7733 31be 2ad6 cebc fd7f 11be
00000080: 87aa f1bd 0daf bbbd de74 8cbe 758b 723e
00000090: 42d0 773e eb7b 39bd daa7 06bd 8148 f1bd
000000a0: 6479 85be 16d5 8fbe 19ba db3d c54c 22be
000000b0: 5d09 3ebe e782 b8bc e0e0 c4bd 8444 bfbd
-0.05093353 -0.13993452 -0.08831772 -0.27481747 0.16151111 -0.20097694 0.14509323 0.13099623
0.20623896 -0.22142886 0.20761423 -0.13647163 0.10711845 0.27109906 -0.04071239 -0.0022324587
-0.06646184 -0.24103928 0.13853602 -0.28657296 0.17920949 0.21599397 0.2730019 -0.068092555
-0.2371876 0.06490291 0.15947202 -0.28732088 -0.06552454 -0.17304789 -0.025248606 -0.1420898
-0.11800104 -0.09164248 -0.27432913 0.23686011 0.24200538 -0.045284193 -0.03287492 -0.11781407
-0.26069176 -0.2809226 0.10728855 -0.15849598 -0.1855826 -0.022523357 -0.09613204 -0.0933924

resolve.4.layers.1.conv0.bias f4 [4]
00000000: 2bf8 173c f8cd 7abd 4f8f cbbd 6089 0dbe
0.009275476 -0.061231583 -0.09939443 -0.13821936

resolve.4.layers.1.bn0.weight f4 [4]
00000000: 0000 803f 0000 803f 0000 803f 0000 803f
1.0 1.0 1.0 1.0

resolve.4.layers.1.bn0.bias f4 [4]
00000000: 0000 0000 0000 0000 0000 0000 0000 0000
0.0 0.0 0.0 0.0

resolve.4.layers.1.bn0.running_mean f4 [4]
00000000: 0000 0000 0000 0000 0000 0000 0000 0000
0.0 0.0 0.0 0.0

resolve.4.layers.1.bn0.running_var f4 [4]
00000000: 0000 803f 0000 803f 0000 803f 0000 803f
1.0 1.0 1.0 1.0

resolve.4.layers.1.conv1.weight f4 [4, 4, 1]
00000000: fe56 d0be 68a8 d63e 54e5 4cbe 64ab 073e
00000010: 84a5 31be 506c 263d 3eab ee3e d8e3 6b3e
00000020: 7ad9 ddbe d836 4b3e 9401 f33e dcb2 063e
00000030: f4a0 ab3e 2063 fc3e 10e8 9cbd 2889 d43d
-0.4069137 0.4192536 -0.20009357 0.13248974 -0.17348295 0.04063064 0.46615022 0.23036134
-0.43329984 0.1984514 0.47462142 0.13154167 0.33521235 0.49294376 -0.0766145 0.10377723

resolve.4.layers.1.conv1.bias f4 [4]
00000000: d2ed b1be e005 d3bd e696 bd3e c23c 833e
-0.34751755 -0.10303855 0.3702919 0.25632292

resolve.4.layers.1.bn1.weight f4 [4]
00000000: 0000 803f 0000 803f 0000 803f 0000 803f
1.0 1.0 1.0 1.0

resolve.4.layers.1.bn1.bias f4 [4]
00000000: 0000 0000 0000 0000 0000 0000 0000 0000
0.0 0.0 0.0 0.0

resolve.4.layers.1.bn1.running_mean f4 [4]
00000000: 0000 0000 0000 0000 0000 0000 0000 0000
0.0 0.0 0.0 0.0

resolve.4.layers.1.bn1.running_var f4 [4]
00000000: 0000 803f 0000 803f 0000 803f 0000 803f
1.0 1.0 1.0 1.0

resolve.4.layers.2.conv0.weight f4 [4, 4, 3]
00000000: f60d 3bbe 360a 6dbe 2c01 4abe b7dc 91be
00000010: 5c19 64be 3134 92bd f67e 473e 3dea 453d
00000020: 67d6 60be db23 6dbe 2b0e 133e c8e1 5bbe
00000030: 6a96 11bd 7ecd 0d3e 0dcf 08be 24ee 00bd
00000040: 59d8 cdbc a2de 8bbd 62e1 15be 8ec1 83be
00000050: f9f3 6ebe c548 1ebe 9fc0 8e3e e0c7 0ebe
00000060: 8381 46be 194e 8f3d 52f1 a23d c5f6 213e
00000070: b2b1 603e 269d 243e a68b 92be b3bb d13c
00000080: 0810 333e f991 dabc 6131 2ebe bce7 8c3e
00000090: b520 ddbd d64c 28be 5840 85be 0244 533c
000000a0: dbfd 023e 06df 823d 69d2 693d 8e2e 60be
000000b0: b407 8abe 8392 a63b 46c5 863e 358a 2a3e
-0.18267044 -0.23148426 -0.1972701 -0.28488705 -0.22275299 -0.07138861 0.19482026 0.04831909
-0.21956788 -0.23158209 0.14360873 -0.21472847 -0.035543837 0.1384792 -0.13360234 -0.03147711
-0.025127577 -0.06829573 -0.14636758 -0.25733608 -0.23335256 -0.15457447 0.27881333 -0.13943434
-0.19385342 0.06997318 0.079561844 0.15816791 0.21942785 0.16075572 -0.28622168 0.025602197
0.17486584 -0.026680933 -0.17011024 0.2752055 -0.10797254 -0.1643556 -0.26025653 0.012894632
0.1279215 0.063901946 0.05708543 -0.21892759 -0.26959002 0.0050833835 0.26322383 0.16654284

resolve.4.layers.2.conv0.bias f4 [4]
00000000: 421c 2cbe c37c 19bd f7e9 59be 219b 0ebe
-0.16807655 -0.037472498 -0.21280657 -0.13926364

resolve.4.layers.2.bn0.weight f4 [4]
00000000: 0000 803f 0000 803f 0000 803f 0000 803f
1.0 1.0 1.0 1.0

resolve.4.layers.2.bn0.bias f4 [4]
00000000: 0000 0000 0000 0000 0000 0000 0000 0000
0.0 0.0 0.0 0.0

resolve.4.layers.2.bn0.running_mean f4 [4]
00000000: 0000 0000 0000 0000 0000 0000 0000 0000
0.0 0.0 0.0 0.0

resolve.4.layers.2.bn0.running_var f4 [4]
00000000: 0000 803f 0000 803f 0000 803f 0000 803f
1.0 1.0 1.0 1.0

resolve.4.layers.2.conv1.weight f4 [4, 4, 1]
00000000: d871 b93d e066 8b3e 0210 d43e 0009 ebbe
00000010: 5e2a ab3e 068e b4be 2cba 3f3e 88a3 d83e
00000020: 0012 e63b 3ee9 e83e 0c20 dabe 2890 43be
00000030: 1050 953e c018 dfbd f09c d1bd b865 55be
0.09054917 0.27226925 0.41418463 -0.45905304 0.3343076 -0.35264605 0.18723363 0.42312264
0.0070211887 0.4549045 -0.42602575 -0.1909796 0.29162645 -0.108933926 -0.102350116 -0.20839584

resolve.4.layers.2.conv1.bias f4 [4]
00000000: 5e76 b03e 3c23 7b3e 0812 243e dadc 8fbe
0.34465307 0.2452516 0.16022503 -0.28098184

resolve.4.layers.2.bn1.weight f4 [4]
00000000: 0000 803f 0000 803f 0000 803f 0000 803f
1.0 1.0 1.0 1.0

resolve.4.layers.2.bn1.bias f4 [4]
00000000: 0000 0000 0000 0000 0000 0000 0000 0000
0.0 0.0 0.0 0.0

resolve.4.layers.2.bn1.running_mean f4 [4]
00000000: 0000 0000 0000 0000 0000 0000 0000 0000
0.0 0.0 0.0 0.0

resolve.4.layers.2.bn1.running_var f4 [4]
00000000: 0000 803f 0000 803f 0000 803f 0000 803f
1.0 1.0 1.0 1.0

resolve.4.layers.3.weight f4 [8, 4, 4]
00000000: d2ce 4fbe 5083 dd3c dcb1 973d 8065 ecbd
00000010: a441 8fbd e6e4 2c3e a024 a33c 00ce 383c
00000020: c801 7cbd bad4 67be b6b4 70be 64be f4bd
00000030: 5a21 02be f483 9f3d 780c 95bd 444e c8bd
00000040: fa13 743e 6057 b23d c480 363e a0dd f7bd
00000050: 9022 d1bd 442e bc3d 0291 2abe 2659 27be
00000060: e0d5 45bc fc44 bbbd 96e9 3fbe 44d9 173e
00000070: 9edd 4d3e e01d 263d c04a 32bd 3a20 6dbe
00000080: 807d babd 0c59 823d 806c f13d 9873 01bd
00000090: b06b cabd 5ea6 0e3e dae0 4bbe eecb 213e
000000a0: 04a2 c6bd 80c3 7a3b d05b 4abd 204c f83c
000000b0: c0b9 9abd fe24 3a3e 00f8 d4bb 5ed5 473e
000000c0: 9623 763e 1871 f9bd 1cc1 3abe aa63 4d3e
000000d0: ec9a 483e d677 43be 3051 9ebc c672 7cbe
000000e0: b68f 51be 28c7 453d b035 883d 9011 593d
000000f0: 2c59 8bbd 0e2e 6c3e d068 123d cc0f 17be
00000100: e0e3 67bc a0e8 753d 744c b33d 4003 35be
00000110: 6ce4 bf3d 24c9 02be 82b8 54be 40d4 0bbe
00000120: 88e3 763e f6d7 5a3e 783e 653e 5e46 163e
00000130: 2465 413e e80f 09bd bcdb 0cbe fcd2 ff3d
00000140: a0a7 04be 02c4 2cbe c07f a3bd 58e5 563d
00000150: b6c9 033e 8cdd c6bd 48ac 16be 6821 0a3d
00000160: 18e5 16be f6ab 26be c470 053e 2804 2cbd
00000170: d0ed 693e 4808 793e 5c24 993d 7035 b03d
00000180: 80cf 6b3d 404b 803b c0f4 94bc 002f 613b
00000190: 8831 bf3d 7605 6e3e 80b0 84bd 346e d8bd
000001a0: 10fa 77bd 105c f7bd a01e 2e3d 3e17 3f3e
000001b0: ac2f 483e 8012 eb3d 0266 3cbe 7c65 09be
000001c0: 08fc 60bd 78bf 3cbd 8071 a83c 2e00 6bbe
000001d0: 785b 9f3d 964b 43be 8efb 21be 7cd5 54be
000001e0: ce0e 5f3e a66a 72be 2e1e 413e e0b1 09bc
000001f0: 102e eebc 5c1f 203e b04a bdbc 2c8d 203e
-0.2029374 0.027040154 0.07406971 -0.11542797 -0.06994942 0.16884193 0.019914925 0.011279583
-0.061525136 -0.22639742 -0.23506436 -0.11950377 -0.12708035 0.0778884 -0.07277769 -0.09780553
0.23835745 0.08708072 0.17822558 -0.121028185 -0.102116704 0.09188512 -0.16656879 -0.16342601
-0.012074918 -0.09144017 -0.1874145 0.14828974 0.20104071 0.040555835 -0.04352832 -0.23156825
-0.091059685 0.063646406 0.11788273 -0.03160438 -0.09883821 0.13930652 -0.19909993 0.15800449
-0.09698871 0.00382635 -0.049403965 0.030309737 -0.0755496 0.18178174 -0.0064992905 0.19514987
0.24037012 -0.12179774 -0.18237728 0.2005755 0.19590348 -0.19088683 -0.019325823 -0.24653158
-0.20464978 0.048285633 0.06650865 0.052995265 -0.068041176 0.23064443 0.03574449 -0.1475212
-0.014153451 0.0600363 0.08754817 -0.17677021 0.0936974 -0.12772042 -0.20773509 -0.13655186
0.24110234 0.21371445 0.22387111 0.1467528 0.18886238 -0.033462435 -0.13755697 0.12491414
-0.12954569 -0.16871646 -0.07983351 0.052464813 0.12869915 -0.097102255 -0.14714158 0.033723265
-0.1473583 -0.16276535 0.13031298 -0.04199615 0.22844625 0.24319565 0.07477638 0.086039424
0.057570934 0.0039152205 -0.018183112 0.003436029 0.09335619 0.2324427 -0.06478977 -0.105678946
-0.060541213 -0.120781064 0.042509675 0.1866121 0.19549435 0.11478138 -0.18398288 -0.1341762
-0.054927856 -0.046081036 0.020561934 -0.22949287 0.07781118 -0.19071802 -0.15818617 -0.20784563
0.21782991 -0.23673496 0.18859169 -0.008404225 -0.029074699 0.15636963 -0.023106903 0.15678853

resolve.4.layers.3.bias f4 [8]
00000000: 8217 393e 0443 5ebe 6802 c53d 484f 413d
00000010: 082c 5c3d c87e 153d 400c 8c3d 644e f6bd
0.18075374 -0.21705252 0.096195996 0.04719475 0.05375293 0.03649786 0.06838274 -0.120266706

resolve.5.weight f4 [8, 8, 3]
00000000: f6f0 d5bc d898 463e 9d6e 0c3e 1d49 fbbb
00000010: bc97 44be 8893 123c d756 0ebe d1f9 293e
00000020: 65ca fdbd 0a78 71bc 8a90 39bd 2fc9 143d
00000030: 51b2 443e c5e3 9e3c 0b1e f23d 8f3f 223e
00000040: 28bf 283e 765f 90bd 67ff 3abd e878 c93d
00000050: 8324 64bd 8ac1 c33d c3a8 36bd 3bc5 0dbe
00000060: b729 aa3d 2630 003d 9f62 ba3d 5ca9 4f3e
00000070: fcb4 0e3e 6526 463e 0900 333c e8cd 33be
00000080: aba2 12be f5d6 01be 8833 38be 6f8b d1bd
00000090: 826b 40be 12d9 40be 32ce f9bd e50f 4ebe
000000a0: 0e4d 00be 9867 9f3d 1a56 2e3e d9b4 78bd
000000b0: 9a33 73bd 9a37 df3d 7a40 cebd 77aa c5bd
000000c0: 0bc9 003e 491f 36be 4d77 cc3c b3a5 383e
000000d0: eb60 0f3d c55e 633d 6977 f3bd 3690 38bb
000000e0: 6be3 373c ad34 4d3d 226e a23d 43a0 353e
000000f0: 188c 1fbe 397f c83b ffde d0bd c559 25be
00000100: 97e7 85bc 68fd 37be 88e0 113e eea9 c13c
00000110: 354f e1bd 5576 da3d 49d3 45be 31b3 a1bd
00000120: f1e2 22bd 129e 31be 56ea 04be 4377 08bd
00000130: 7099 1e3e 15d8 493e 5afe 043e 1da0 f9bd
00000140: 53bf 08be be69 363e c9de 933d 55b4 b13b
00000150: e24c e23c c0fd 27be 5e94 8bbd 9f35 493e
00000160: 1535 4ebd 70c4 27bc f48e 2dbe a9db e9bd
00000170: d694 88bb 31d6 01be f55d cfbc b520 aa3d
00000180: 3176 4cbe 6054 783d 3235 0abe 2607 ccbd
00000190: f57d a03d d232 263e e582 64bd 0aa3 abbd
000001a0: 9701 3dbe 9a91 d7bd 4407 37be 5f5b 3fbd
000001b0: f69b 2a3d 25d4 43be 3c80 363e a323 033e
000001c0: 519f 4cbe 35ac c7bd 1459 883d 82c8 2bbd
000001d0: 963a b6bc 23c1 bcbd 37e4 273e e7af e9bd
000001e0: 8956 2d3e 4ec9 573c a412 283d cb10 233e
000001f0: 60c2 09bd 0903 eebd 8b39 07bd 6787 293e
00000200: af17 1bbe d3c6 3d3d 186d 4dbe bb2e db3d
00000210: 6174 9a3d 80c6 0d3c 2f6c b33d 2abd 7039
00000220: bc53 e73d 8d77 25be 8690 f5bc 9173 b93d
00000230: 1526 503e fef2 d43d 0cff 17be 50c2 203e
00000240: 7a72 3abd 9184 32bd b0fb 3dbe e99c 03bd
00000250: 00d9 133e 742d e93c 227e f3bd 01ae 803d
00000260: 500b 86bd 3dd6 3e3e 2f6c 35be f30c 84bd
00000270: c4d3 49be a5a3 a4bd c1c9 833d 6f35 493e
00000280: 2f6b 0c3d e8ea 4c3e 5295 233d d06f f13d
00000290: e290 273e 31ba 2e3e 8cfd e9bd 7c2c 403e
000002a0: ed3c fd3d 3b78 c3bd 3b7e c7bd 3e51 2fbe
000002b0: 57f9 513d 6d6c 29be d397 b03d 9e04 843d
000002c0: 8a99 35be 00d6 633d edff 87bc 90f8 be3d
000002d0: dfde ef3d a0cc 4fbe e4b1 3f3e ab4b 2f3e
000002e0: 7255 a63d fc09 3fbe b655 95bd 9a4e 72bd
000002f0: c2df 56bd f7be eb3d 44fd 973d 7195 253e
-0.026115876 0.19394243 0.1371407 -0.007668628 -0.19198507 0.008946307 -0.13900314 0.16599204
-0.12392119 -0.014738092 -0.04530386 0.036324676 0.19208647 0.019395718 0.118221365 0.15844558
0.1647917 -0.07049458 -0.045653727 0.09837514 -0.055698883 0.09558399 -0.044594537 -0.13844769
0.08308738 0.031295918 0.09100842 0.20279449 0.13936228 0.19350584 0.010925301 -0.17559016
-0.14319865 -0.12679656 -0.17988408 -0.10231673 -0.18791011 -0.18832806 -0.12197532 -0.20123251
-0.12529394 0.07783431 0.17025033 -0.060719345 -0.059375383 0.10899277 -0.10070892 -0.09651654
0.12576692 -0.17785372 0.02495923 0.18031959 0.035004538 0.0555103 -0.1188801 -0.0028162128
0.011223654 0.050099064 0.079311624 0.17736916 -0.15580785 0.0061186817 -0.10198783 -0.16147526
-0.016345782 -0.1796776 0.14245808 0.0236406 -0.11001436 0.10667101 -0.1931888 -0.07895506
-0.03976721 -0.17345455 -0.12980017 -0.03331686 0.1548822 0.19711335 0.12987652 -0.12188742
-0.13354234 0.17813775 0.07220227 0.0054231086 0.027624551 -0.16405392 -0.06815408 0.19649361
-0.05034359 -0.010239705 -0.16949064 -0.1141885 -0.0041681333 -0.12679364 -0.025313357 0.083070196
-0.19966961 0.06062734 -0.13496855 -0.09962301 0.078365244 0.16230324 -0.055788893 -0.083807066
-0.18457638 -0.10525818 -0.17873865 -0.046717998 0.041652642 -0.19123895 0.17822355 0.12806563
-0.1998265 -0.09749643 0.06657615 -0.041939266 -0.022244733 -0.092165254 0.16395651 -0.11410504
0.16927542 0.013170553 0.041033402 0.15924375 -0.033632636 -0.11621673 -0.03301386 0.16555558
-0.15145753 0.04633219 -0.20061147 0.107022725 0.07541729 0.008653283 0.08760869 0.00022958653
0.11295268 -0.16158886 -0.02997614 0.09055246 0.20327027 0.103979096 -0.14843386 0.15699124
-0.04551933 -0.043583456 -0.18553042 -0.032132063 0.14438248 0.028464057 -0.11889292 0.062831886
-0.065451264 0.18636413 -0.1771705 -0.06447782 -0.19709688 -0.08039025 0.06434966 0.1964929
0.034281906 0.20011485 0.039937325 0.11788905 0.16363862 0.17063214 -0.11425313 0.1876697
0.12365136 -0.095444165 -0.097408734 -0.17120835 0.05126318 -0.16545267 0.08622708 0.06446193
-0.17734352 0.05562401 -0.016601527 0.09324753 0.11712431 -0.20292902 0.18720204 0.17118709
0.08121766 -0.18656152 -0.07291739 -0.05915699 -0.052459486 0.11511033 0.074213535 0.16170289

resolve.5.bias f4 [8]
00000000: 6991 9cbd 6eb0 8c3d 24bd 943d df07 2ebe
00000010: afc1 4abe 6deb d8bd 1816 0f3e 6fc9 44be
-0.07644922 0.06869589 0.07262638 -0.1699519 -0.19800447 -0.10591779 0.13973272 -0.19217466

resolve.6.weight f4 [8, 8, 7]
00000000: 6737 eebd 2c50 993d e7a7 933d 9911 e13d
00000010: b59b cebd 934d c8bd 5364 8c3d 1aff ed3d
00000020: 2dc0 a33d c47c ab3c 9f64 343d 5ae0 013e
00000030: 9d93 b0bd fa80 78bd 4e6d bf3d 7742 bbbd
00000040: 7ae8 96bd dbc7 c73d 8ab3 2c3d 2dd5 303d
00000050: 4efd 67bd 10b8 f1ba 0f7a fa3d fa43 a4bd
00000060: 5cb5 893a f228 823d 00ef bcbd c7e4 043e
00000070: 2ebb 88bd 4f70 03bd cf18 14bd d457 b2bd
00000080: 2846 06be f84f 9a3d c06a 113d 9029 00be
00000090: 1825 b0bd fe3e 073e 7c37 513d 259f 5b3d
000000a0: 52bd a3bd e0f4 6fbd f23f a5bc f332 c8bc
000000b0: 2389 bbbd ba5f 343c ba99 593c be9c 8abc
000000c0: b2c2 973c 63f1 58bd fa72 0e3d 9d6d 4e3d
000000d0: d327 90bd 7aaf 07be 4d40 8f3d 3590 023d
000000e0: 2530 8bbd eede 033e d489 77bd 73ef b83d
000000f0: e8d7 8a3d a773 e5bd 3081 b03d 21a3 fbbd
00000100: c99e 97bd ce80 b6bc 5378 b8bd 9bad 053e
00000110: 2f93 dbbc f766 593d 3d5e f4bd ba8b 9d3d
00000120: 991b 2abd 562d d0bd 1012 a03c d895 843d
00000130: 86d6 ec3d b328 a7bd 49ad 86bd 7778 d23c
00000140: a079 143d f770 523d b536 963d 4e3a f8bc
00000150: ba0b 983d 55c7 c93d d9fa 0ebd 5bb5 c23d
00000160: 56b6 853d 7065 f13d cc85 9bbd b724 87bd
00000170: af42 1ebd e71e de3b 8042 a43d 2b3b 9cbd
00000180: 4904 893d 1129 44bd 7554 a53d cde4 cfbb
00000190: 77c3 efbd bd96 96bd bd12 c6bd 98bb 873d
000001a0: 3b83 b7bd d36a 36bc 3730 ec3c 0b15 96bd
000001b0: f5e4 1d3d 919c 05be 30d1 c3bd d9fb f7bd
000001c0: b18f 25bd 0766 47bd 0ac1 9c3c 1e6d cabc
000001d0: 63a6 803d 89e7 fa3d 7a62 443d 76a3 57bd
000001e0: 0622 00be 6840 463d 3d98 87bd 5944 8b3d
000001f0: adf2 b63d df1f 533d 7665 003e d0f7 013e
00000200: c7ca e73c f868 c7bd 5483 f43d 9ddb 81bd
00000210: 8845 81bd 7d01 e53d ee0b d43d 0162 253d
00000220: 7e3d 093c dd34 e6bd e744 63bc a43e 033e
00000230: 4463 0b3d d373 3b3c e550 e3bc 06e8 3ebd
00000240: e81d a33d 6e04 073c d50b b23d c0c2 c1bc
00000250: 8824 6f3d 16ee 613d d190 ae3c 66f8 ab3d
00000260: 657f ab3d 1bad fd3d 2865 d23d b1f4 0bbd
00000270: 00b3 e7bd 7221 c83c abe0 98ba 57c3 0ebd
00000280: 2250 b7bc a0f2 cd3b 8cae c73d c3a1 2a3d
00000290: 7a5c 42bd 9b15 61bd 8f8a 07bd 848d 53bd
000002a0: 6418 f63d 72f3 903d 511f f73d 6ebf df39
000002b0: 00c5 dc3c 50cd 3d3d 3286 01be 9c81 433c
000002c0: 0173 12bc f26f 99bd 975b d4bd 2647 f23d
000002d0: 2984 de3d 18ae 7d3d d093 023e 8d1e 5ebd
000002e0: 7314 bdbc be3c 4f3d b6df b4bc 94d1 d6bc
000002f0: aa35 e2bd 510d 133d ba63 a5bd a03d 9f3b
00000300: d969 053e a77b 28bd 4185 2cbd a91c a53d
00000310: 423c 49bd 3705 3cbc 968a ff3d 4866 60bd
00000320: 4eca c3bd 2929 99bd 2dc0 17bd d3db 81bd
00000330: d704 8ebd 7419 5d3d fb07 ba3c 9f2f 2fbd
00000340: 229f d4bd c056 2cbd e900 67bd 4f1e 32bd
00000350: 93e3 f6bd a5d4 eb3c 6b13 c9bd 6523 d5bd
00000360: 1b9a dfbd 9374 643d 8dc2 a4bd 6aeb 61bd
00000370: 9b84 d63d d94f 913d 52ec 9c3d a8ed 01be
00000380: ad40 c4bd 8ca1 4ebd 2b15 e23d 18fa 5f3c
00000390: 5fae ccbd cb5a 5b3a 478e d4bd 33d9 efbc
000003a0: 0482 16bd 0fe9 ec3d e388 293d 69e2 bebc
000003b0: 38ed b83c 5a00 1ebd ed0d 573d 2483 583d
000003c0: 2efd 123d 4558 55bd 887c e93d c60a 9ebc
000003d0: c717 55bd 2568 ab3d a10f df3d e92c 083e
000003e0: 4528 223d af96 3abd 63ff 8a3d 17cd ea3d
000003f0: 1337 06be 8a9e 87bc 23a3 babd 2702 cc3c
-0.11631661 0.07485995 0.07209759 0.109896846 -0.100882925 -0.09780421 0.06855073 0.116209224
0.07995639 0.020933516 0.044041272 0.1268324 -0.08621905 -0.060669877 0.0934702 -0.091435365
-0.0736856 0.09754916 0.04216341 0.04317205 -0.056638055 -0.0018441696 0.12230312 -0.08020778
0.001050632 0.06355466 -0.09225273 0.12977897 -0.06676327 -0.032089528 -0.03615647 -0.08708158
-0.131127 0.07534784 0.035502195 -0.12515855 -0.08600825 0.13207623 0.051078305 0.05361857
-0.07995094 -0.05858314 -0.020172093 -0.024438357 -0.09157016 0.011009151 0.01328128 -0.016920444
0.018525455 -0.05296458 0.03477762 0.050397504 -0.07038846 -0.13250533 0.06994686 0.031875808
-0.06796292 0.1287801 -0.060434178 0.09030046 0.06779462 -0.112036996 0.086183906 -0.12286974
-0.07403333 -0.022278216 -0.09007325 0.13054506 -0.026803581 0.05307671 -0.11932037 0.07692666
-0.041530225 -0.10164897 0.019539863 0.06473893 0.115643546 -0.0816206 -0.0657602 0.025692208
0.036248803 0.051377263 0.07334653 -0.03030124 0.07424112 0.09852473 -0.034907196 0.09507247
0.065289184 0.11786926 -0.07593879 -0.065988 -0.038637813 0.006778586 0.08020496 -0.07628473
0.066902705 -0.047890726 0.080727495 -0.006344414 -0.11707204 -0.0735297 -0.09671543 0.066275775
-0.08960577 -0.011133867 0.028831584 -0.073282324 0.03854843 -0.13048007 -0.09561384 -0.12108583
-0.040420238 -0.048681285 0.019135017 -0.024710234 0.06281736 0.12251193 0.047945477 -0.052646123
-0.12512979 0.048401266 -0.06620834 0.06800146 0.089330055 0.051544067 0.12538704 0.12692189
0.028294934 -0.09736818 0.11939111 -0.06340716 -0.0631209 0.111819245 0.10353838 0.040376667
0.008376477 -0.112405516 -0.013871408 0.12816864 0.034030214 0.011441189 -0.027748534 -0.046607994
0.079646885 0.008240802 0.08693663 -0.023652434 0.05838445 0.055158697 0.021309288 0.083969876
0.08373908 0.12386533 0.102732 -0.034168903 -0.113134384 0.02443001 -0.0011663636 -0.03485426
-0.022377077 0.0062850267 0.09750089 0.041658174 -0.047451474 -0.054952245 -0.033091124 -0.05164863
0.12016371 0.070776835 0.1206652 0.000426765 0.026949406 0.04633838 -0.12648848 0.011932757
-0.008938552 -0.07492055 -0.10369032 0.11829977 0.10865051 0.061933607 0.12751698 -0.054228354
-0.02308104 0.050595038 -0.02207933 -0.026222982 -0.11045392 0.03590137 -0.08075662 0.004859641
0.13028659 -0.04113355 -0.04211927 0.08062107 -0.049129732 -0.011475853 0.12477605 -0.054785043
-0.09560071 -0.07478554 -0.037048507 -0.06340756 -0.06934517 0.053979352 0.022708884 -0.042770024
-0.10381915 -0.04207492 -0.056397352 -0.043485936 -0.12055125 0.02878792 -0.09818157 -0.104071416
-0.10918065 0.055775236 -0.0804492 -0.05515615 0.10474511 0.07095308 0.07662262 -0.12688315
-0.095826484 -0.05044703 0.11039194 0.013670467 -0.09994196 0.0008367716 -0.103787 -0.029278373
-0.036745086 0.1156789 0.04139031 -0.02330132 0.022574052 -0.038574554 0.052503515 0.05285944
0.035885982 -0.052086134 0.114007056 -0.019292247 -0.05202463 0.08369473 0.10891653 0.13298382
0.039589185 -0.04555386 0.067869924 0.11464899 -0.13106947 -0.01655509 -0.09113147 0.02490337

resolve.6.bias f4 [8]
00000000: 9c15 2e3c 5749 e13c 46ae eebd 1176 dcbd
00000010: 4536 863c b726 56bd 41b3 20bb 6430 fbbc
0.010625269 0.027500791 -0.11654334 -0.10764707 0.0163833 -0.052283015 -0.0024520906 -0.030662723

resolve.8.layers.0.weight f4 [8, 4, 12]
00000000: c80e b83c fa52 c03d a411 44bd b1bc ec3d
00000010: a765 e93d 00e0 e2bd cc45 e4bd 4d2a efbd
00000020: 22ff a1bd 8924 66bd cdff 31bc dfc6 0fbd
00000030: 685a 95bd 94d2 3bbd a3dd 55bd c4ff 103e
00000040: 451e 5bbd faa6 d3bd 60c3 753d 9798 08bc
00000050: a24d e23d deb3 b83d 27ca 073e e87c d8bd
00000060: 5608 be3d ef14 f83d 6efa 91bd 38db 073e
00000070: d298 dd3d 482e cf3a a086 8e3d d6b2 4ebd
00000080: 04e9 00be fd71 153d ef40 303d b831 c1bd
00000090: 155e 8f3d d582 fcbd 4267 fe3d 3421 0f3e
000000a0: 03f6 203d 5478 b9bd 94dc 8f3d 7a80 c93c
000000b0: 9cc2 203d 534d 423d 2a0f e13d 321f 7ebd
000000c0: 31fd 04bd be39 213d 4ad6 803c 305e ee3d
000000d0: 2343 9bbd f63c acbb 0cf0 dc3c 9b04 1dbd
000000e0: 8984 c93d 8f55 813c 4d9a 08be 0719 80bc
000000f0: ac12 86bd 03cb 653c 506a 89bc 0a9c 12be
00000100: 3777 d7bc 5e80 62bc 8955 2ebd 1bcc 073e
00000110: 3300 01bd 92e6 bd3d cf73 123d 5087 f9bd
00000120: e2ec 0a3d 1dfa f43d b65a c1bd 1212 bfbd
00000130: efac 103e 2d85 ed3d 53ea a4bd b9e0 b13d
00000140: c244 97bc d5b8 11be 75ad 313c ed03 3f3d
00000150: bf56 31bd c8ab 4d3d 4ac5 fcbd 9adb cc3d
00000160: 1103 fc3d f103 a33d a568 c83c 99b6 423d
00000170: 16e2 d5bd 11ba 13bd a6c3 61bc c97f a4bd
00000180: ab56 dabd f7d3 c63d 1c9c c83d 533b 06be
00000190: 0621 3c3d 1181 703d 2b68 0c3e bc05 ab3d
000001a0: 26e1 073e 138e 41bd 5c09 cf3d b471 f03d
000001b0: c192 0bbe 6448 edbd b053 ef3c 1d69 a13d
000001c0: 0edc 92bd 7839 823c c6b7 5bb9 92a3 153d
000001d0: a3d7 9ebd 58bb a63d 3994 c43d 581b cdbd
000001e0: cb45 b73a 4ff7 d139 84d8 3d3d 93b0 093e
000001f0: 1a61 2d3d cc55 06bd dcbe 043e 3bf9 60bd
00000200: 73ab 2bbd 9675 213c c41a e1bd c5aa 803c
00000210: 438f c8bd 2a27 733c 7991 623c a5ab a33c
00000220: ee47 f9bd 3461 0cbe 2103 883d 1a82 fd3d
00000230: b627 03be c3fa 5a3d 9899 d9bd 0f41 143c
00000240: 2882 093e 1840 e03d 9a20 d8bd 17da b63d
00000250: 1166 9a3d 2026 68b9 ef2d 0f3e 08d0 6abd
00000260: 4a95 09bd f066 95bd 4125 aa3c 2e8b 1c3d
00000270: 0c6e 3c3c 4151 a6bd 1a12 85bd b619 493d
00000280: ae98 01be 8124 b8bc e789 51bb 1c89 6fbd
00000290: 9a26 573d 006c 183c 5b88 cf3d 1b06 52bc
000002a0: 0e91 babd ecdb d03d 631f a53c 0d52 29bd
000002b0: 3ed5 c2bd 8392 0a3d 5af7 0cbe f1b5 1b3d
000002c0: d628 923d d5a6 01be fa85 c1bd 5284 d4bd
000002d0: e074 f83d 6b4c fb3d 480a 143c cfc1 0a3e
000002e0: 8aa4 45bd 387d 0fbe 6781 4e3d 2872 513d
000002f0: f3e6 103e ce39 2fb8 9c8c e23d b331 b53d
00000300: cff2 d53d 18ab 12be bb6a f33d e8fc fbbd
00000310: 7e81 043e ecff c3bb fffb 02be 0869 243d
00000320: 29ad f0bc 25c1 04be c355 56bd 6ed3 733c
00000330: cb3a e63d 25c1 35bd 3294 af3d 6612 943c
00000340: 2e6d 9f3b b53f e23c c7fe c1bd 78b4 f5bd
00000350: 95c3 39bd c5ba 09be d3da 89bd 7a97 d93b
00000360: e5af c2bd ec3a 75bd b076 d4bc d037 88bc
00000370: 672d a3bd bb43 e33b cff6 a5bc 1f15 293d
00000380: 59a0 d53b 889d 93bd ff8a 4bbd 1c0d daba
00000390: bf73 b8bd 6221 393c 6af8 26bc 2160 653d
000003a0: 19eb 0b3d 8439 dd3d 3eea 9bbb 3f6c dabd
000003b0: 2923 843d a9c7 c7bd 8886 a2bc 306f 3fbd
000003c0: 8254 60bd a9bc 5abd 67d1 073e 5c38 a93d
000003d0: 71d8 233d 84c7 0a3e edf0 05be 9acd be3c
000003e0: 003d bd3d c75d c43d cc41 ebbd 7f67 523d
000003f0: ac66 a8bd 3fce b8bb 08bc f6bc 7cd1 f6bd
0.022467986 0.093908265 -0.047868386 0.115594275 0.11396342 -0.11077881 -0.11146125 -0.1167799
-0.07909991 -0.056187186 -0.01086421 -0.035101768 -0.07292634 -0.04585512 -0.052213322 0.14160067
-0.053495664 -0.103345826 0.060000777 -0.0083371615 0.110499635 0.09018682 0.13260709 -0.10570699
0.09278934 0.12113368 -0.07127844 0.13267219 0.10820164 0.001580664 0.069592714 -0.05046352
-0.12588888 0.03648566 0.043030676 -0.09433311 0.070003666 -0.12329642 0.124220386 0.1397751
0.039297115 -0.09056154 0.07024494 0.024597395 0.039248094 0.047437023 0.109892204 -0.06204147
-0.032468025 0.039361708 0.015727181 0.116390586 -0.07581165 -0.0052562905 0.026969932 -0.03833447
0.09839732 0.015787868 -0.13340111 -0.015636934 -0.0654653 0.014025453 -0.016774327 -0.14317337
-0.026301963 -0.01382455 -0.04256204 0.13261454 -0.03149433 0.092724934 0.035754975 -0.12184012
0.033917315 0.11961768 -0.0944113 -0.093296185 0.14128469 0.11597667 -0.08052506 0.086854406
-0.018465403 -0.14230664 0.010844578 0.046634603 -0.04329562 0.05021265 -0.123423174 0.10002823
0.12305272 0.07959736 0.02446396 0.04753742 -0.10443513 -0.03606612 -0.013779556 -0.080321856
-0.10661062 0.09708398 0.097954005 -0.13108568 0.04592993 0.058716837 0.13711612 0.08350703
0.13269481 -0.047254633 0.10109207 0.11740437 -0.13630201 -0.11586073 0.02921471 0.07881377
-0.07170878 0.015896544 -0.00020953928 0.036532946 -0.07755973 0.08141202 0.09598584 -0.10014981
0.0013982592 0.00040047846 0.046349064 0.13446264 0.04232893 -0.032796666 0.12963432 -0.054925185
-0.041911554 0.009854695 -0.10991433 0.01570643 -0.0979295 0.01484088 0.013828629 0.019979307
-0.121719226 -0.13708955 0.06641222 0.123783305 -0.12808117 0.0534618 -0.10624999 0.009048714
0.13428557 0.10949725 -0.10553093 0.08928316 0.07538999 -0.00022139447 0.13982366 -0.0573273
-0.03358964 -0.072950244 0.020769717 0.03821867 0.011500847 -0.08120967 -0.06497593 0.049096785
-0.12655899 -0.022478344 -0.0031973065 -0.058480367 0.052527048 0.009303093 0.101334296 -0.0128188385
-0.09109698 0.10198197 0.020156568 -0.041338015 -0.09513329 0.03383113 -0.13766232 0.03801531
0.07136695 -0.12661298 -0.09449382 -0.103768006 0.12131667 0.12270435 0.009035654 0.13550495
-0.04825262 -0.14012611 0.050416376 0.05113426 0.141506 -4.1777086e-05 0.11061975 0.0884737
0.10446703 -0.1432308 0.118855916 -0.123040974 0.12940022 -0.005981436 -0.12791441 0.040139228
-0.029379444 -0.12964304 -0.052327882 0.014881952 0.112416826 -0.04437365 0.08573188 0.01807518
0.00486531 0.027618269 -0.09472423 -0.11997312 -0.045352537 -0.13450153 -0.067311905 0.006640372
-0.095062055 -0.059870645 -0.0259355 -0.016628176 -0.07967644 0.0069355643 -0.02025929 0.04127991
0.006519359 -0.07207781 -0.049693104 -0.0016635987 -0.09006452 0.011299463 -0.010191062 0.05599988
0.034159753 0.10801986 -0.0047581485 -0.106651776 0.06452019 -0.09754879 -0.01983954 -0.046736896
-0.054768093 -0.053402577 0.13263474 0.08262703 0.040001336 0.13552672 -0.13080187 0.023291398
0.092401505 0.09588199 -0.11487159 0.051368233 -0.08222708 -0.005639821 -0.030118957 -0.12051675

resolve.8.layers.0.bias f4 [4]
00000000: 765f 33bd 7f44 b0bd ee7a 0b3d 1c01 8cbc
-0.04379221 -0.086068146 0.03405278 -0.017090373

resolve.8.layers.2.conv0.weight f4 [4, 4, 3]
00000000: a5ea 05be f148 f83d 1393 2b3b d6ff 2bbd
00000010: c618 0fbe b890 1bbd e35b 7bbe 697e 863d
00000020: def3 8d3b 0462 333e a7b2 983c bc12 bd3c
00000030: 690d a13d 89ef 603e 8bb0 0bbe 097a 303e
00000040: 2096 903d b233 45be b3d9 cd3d 8148 31be
00000050: bc19 babd a7e7 0cbe 671a 49be 0acf 683e
00000060: b41b 84be 5dce 133e f405 85be 25e8 0fbd
00000070: 200b 8d3c c525 523e 31f4 d5bd 602a aa3d
00000080: af29 373d b4ed 2d3e ba97 8c3c c85f dd3d
00000090: 3e92 32be 036b 4dbe e8b3 833e 7a65 57be
000000a0: 2e4b 49bd 26ee 0ebd 4688 903e 1b89 7fbd
000000b0: 4b0b 61be c8de 95bd 7b7a 183e 164a ea3d
-0.13077791 0.121232875 0.0026180192 -0.04199203 -0.13974294 -0.03797981 -0.24546771 0.065670796
0.0043320497 0.17517859 0.018639876 0.023080222 0.07863886 0.21966375 -0.13641565 0.17234053
0.07059884 -0.19258001 0.100512885 -0.17312814 -0.0908694 -0.13760243 -0.19638978 0.22735229
-0.25802386 0.1443419 -0.25981104 -0.0351335 0.017217219 0.2052222 -0.104469664 0.08308864
0.044717487 0.16985208 0.017162193 0.108092844 -0.174386 -0.20060353 0.25723195 -0.21034804
-0.049143963 -0.034895085 0.28228968 -0.062386613 -0.21976964 -0.07317883 0.14890473 0.11439912

resolve.8.layers.2.conv0.bias f4 [4]
00000000: e08c 743e 5d0f 72bd 1c3e 0b3e 5816 8bbe
0.23881865 -0.059096683 0.13597912 -0.27165484

resolve.8.layers.2.bn0.weight f4 [4]
00000000: 0000 803f 0000 803f 0000 803f 0000 803f
1.0 1.0 1.0 1.0

resolve.8.layers.2.bn0.bias f4 [4]
00000000: 0000 0000 0000 0000 0000 0000 0000 0000
0.0 0.0 0.0 0.0

resolve.8.layers.2.bn0.running_mean f4 [4]
00000000: 0000 0000 0000 0000 0000 0000 0000 0000
0.0 0.0 0.0 0.0

resolve.8.layers.2.bn0.running_var f4 [4]
00000000: 0000 803f 0000 803f 0000 803f 0000 803f
1.0 1.0 1.0 1.0

resolve.8.layers.2.conv1.weight f4 [4, 4, 1]
00000000: f81c 463e d43e 6b3e 6c24 a53e 1ccd 92be
00000010: 64b1 08be 70bc f73d d8ea b5be a4a4 cbbe
00000020: 7048 f6be 80a6 e43c 10f9 9e3e 2483 033e
00000030: 60b6 f93c e064 323e 18df a0be 90e9 573d
0.19346988 0.22973186 0.3225435 -0.2867211 -0.13348919 0.120964885 -0.35530734 -0.39774048
-0.4810214 0.027911425 0.31049395 0.12842995 0.030482471 0.17421293 -0.31420207 0.052712977

resolve.8.layers.2.conv1.bias f4 [4]
00000000: c062 febd 7883 7dbe 7cc4 dc3e 1a0e c6be
-0.12421179 -0.24757183 0.43118656 -0.38682634

resolve.8.layers.2.bn1.weight f4 [4]
00000000: 0000 803f 0000 803f 0000 803f 0000 803f
1.0 1.0 1.0 1.0

resolve.8.layers.2.bn1.bias f4 [4]
00000000: 0000 0000 0000 0000 0000 0000 0000 0000
0.0 0.0 0.0 0.0

resolve.8.layers.2.bn1.running_mean f4 [4]
00000000: 0000 0000 0000 0000 0000 0000 0000 0000
0.0 0.0 0.0 0.0

resolve.8.layers.2.bn1.running_var f4 [4]
00000000: 0000 803f 0000 803f 0000 803f 0000 803f
1.0 1.0 1.0 1.0

resolve.8.layers.3.conv0.weight f4 [4, 4, 3]
00000000: d747 2d3d 0ce0 81be 2f76 20bc db5a 03be
00000010: 1c98 c23d 14fe 25be a532 3d3e 51df 6fbe
00000020: c68c 313e 180d 5ebe 2252 1e3e f1ef f8bd
00000030: 514a 30ba 66cb 57bd ffda 3f3e 35c1 c13d
00000040: 543e 82be 646c d93c f5ec 4bbe 4efb 5c3e
00000050: 2b45 423d 090c 98bd cace 16be 3da2 cc3d
00000060: 3609 31be 8931 0c3e ae4d 213e 3c71 353e
00000070: 1072 9a3d 8761 81be eda1 543e fb67 b7bd
00000080: 28c8 aebd 0e13 febc 3c20 583e 1a4c 633e
00000090: 2f94 363d 350c 0d3e 2ec0 89be 17c3 323a
000000a0: f9c1 82be 8837 c93d 399a 52be 75b5 d2bd
000000b0: cea2 4e3e e240 8d3e 7679 31be 2610 24be
0.04230484 -0.25366247 -0.009793802 -0.12827627 0.09501669 -0.16210204 0.1847635 -0.23425032
0.17338857 -0.21684682 0.15461019 -0.1215514 -0.0006724941 -0.05268421 0.18735884 0.094606794
-0.25438178 0.026540942 -0.1991461 0.2158024 0.047429245 -0.074241705 -0.14727321 0.09991882
-0.1728867 0.13690771 0.15752289 0.17718977 0.07541287 -0.2526972 0.20764895 -0.089553796
-0.085342705 -0.031014945 0.21106046 0.22196999 0.044574913 0.13774188 -0.26904434 0.0006819232
-0.25538614 0.09825045 -0.20566644 -0.102885164 0.20179293 0.27588564 -0.1733149 -0.16021785

resolve.8.layers.3.conv0.bias f4 [4]
00000000: ee6f 123d 0d68 e83d 1895 40bd cca0 b8bd
0.035751276 0.11347971 -0.047017187 -0.090150446

resolve.8.layers.3.bn0.weight f4 [4]
00000000: 0000 803f 0000 803f 0000 803f 0000 803f
1.0 1.0 1.0 1.0

resolve.8.layers.3.bn0.bias f4 [4]
00000000: 0000 0000 0000 0000 0000 0000 0000 0000
0.0 0.0 0.0 0.0

resolve.8.layers.3.bn0.running_mean f4 [4]
00000000: 0000 0000 0000 0000 0000 0000 0000 0000
0.0 0.0 0.0 0.0

resolve.8.layers.3.bn0.running_var f4 [4]
00000000: 0000 803f 0000 803f 0000 803f 0000 803f
1.0 1.0 1.0 1.0

resolve.8.layers.3.conv1.weight f4 [4, 4, 1]
00000000: e826 a8be 748f 5a3e acd1 fa3e 38d9 77be
00000010: e87d 713e dc0e 7a3e a4c5 cd3e 302c 69bd
00000020: e003 813c 3a15 bc3e 38d2 a13e 60da fc3e
00000030: 50b9 12be 7097 4a3e 3ac2 b23e e2c6 adbe
-0.32842183 0.21343786 0.48988092 -0.24203956 0.23583186 0.24419731 0.4018985 -0.056926906
0.015748918 0.36734945 0.31605697 0.49385357 -0.14328504 0.19784331 0.34913808 -0.33940798

resolve.8.layers.3.conv1.bias f4 [4]
00000000: 386d cb3d 701f e5bd 2290 a43e 00f4 65be
0.09932941 -0.11187637 0.32141215 -0.2245636

resolve.8.layers.3.bn1.weight f4 [4]
00000000: 0000 803f 0000 803f 0000 803f 0000 803f
1.0 1.0 1.0 1.0

resolve.8.layers.3.bn1.bias f4 [4]
00000000: 0000 0000 0000 0000 0000 0000 0000 0000
0.0 0.0 0.0 0.0

resolve.8.layers.3.bn1.running_mean f4 [4]
00000000: 0000 0000 0000 0000 0000 0000 0000 0000
0.0 0.0 0.0 0.0

resolve.8.layers.3.bn1.running_var f4 [4]
00000000: 0000 803f 0000 803f 0000 803f 0000 803f
1.0 1.0 1.0 1.0

resolve.8.layers.4.conv0.weight f4 [4, 4, 3]
00000000: 96dd a53c d6dc 303e 5367 87be a598 79be
00000010: 3f67 17be e49a 3d3e d335 463e 63e3 49be
00000020: a178 613d 72a2 1cbe 8034 09be f8ee 7e3e
00000030: 73c7 0e3e 57af a1bd 950d 2e3d cd19 653d
00000040: 1f7c 8a3d 825b cabd 9713 2ebe 52b5 433e
00000050: 4ae2 1e3d 0873 f73d 53e8 dfbd 662e 0f3e
00000060: 4521 573e 32c7 333e 20bf a03d 666b 913e
00000070: 4580 25ba 7abb 7b3d 476e 8c3e e3a5 8f3e
00000080: 8d9e f9bd e623 853e d530 da3d 485b 04bd
00000090: 6d0d 813e 9421 19be 5e11 403e 9476 923e
000000a0: d5e0 4bbe f56e 2ebe 7175 92be 39ca 54bd
000000b0: e83b 86be 1202 c6bd cd7c b33d 96f4 503e
0.020247262 0.17271742 -0.26446018 -0.24374636 -0.14785479 0.18516117 0.1935647 -0.19715647
0.05504668 -0.15296343 -0.13398933 0.24895847 0.13943271 -0.078947715 0.04249342 0.05593281
0.067619555 -0.09880735 -0.1699966 0.19112137 0.038790025 0.12082487 -0.10932984 0.13982543
0.21008785 0.17556456 0.07848954 0.2840225 -0.0006313364 0.06145809 0.27427885 0.2805625
-0.12188444 0.2600395 0.10653845 -0.032313615 0.25205556 -0.14954215 0.18756625 0.28606093
-0.19909985 -0.17034514 -0.28605226 -0.051950667 -0.2621758 -0.09668364 0.08764038 0.20405802

resolve.8.layers.4.conv0.bias f4 [4]
00000000: 56a9 243e 7115 243e 3045 f53d d157 37be
0.16080222 0.16023804 0.11976087 -0.17904593

resolve.8.layers.4.bn0.weight f4 [4]
00000000: 0000 803f 0000 803f 0000 803f 0000 803f
1.0 1.0 1.0 1.0

resolve.8.layers.4.bn0.bias f4 [4]
00000000: 0000 0000 0000 0000 0000 0000 0000 0000
0.0 0.0 0.0 0.0

resolve.8.layers.4.bn0.running_mean f4 [4]
00000000: 0000 0000 0000 0000 0000 0000 0000 0000
0.0 0.0 0.0 0.0

resolve.8.layers.4.bn0.running_var f4 [4]
00000000: 0000 803f 0000 803f 0000 803f 0000 803f
1.0 1.0 1.0 1.0

resolve.8.layers.4.conv1.weight f4 [4, 4, 1]
00000000: 4043 cbbe 60cb a93c dc17 f33e e0a0 e63c
00000010: f025 30bd bcc1 adbe 84de 7dbe 5257 c5be
00000020: 9af8 cc3e 08d7 a6bd 1227 e2be d0b2 5b3d
00000030: a09e 143d 1007 7dbd 0c47 373e e6ab 893e
-0.39699745 0.02072686 0.4747914 0.028152883 -0.04300493 -0.3393687 -0.24791914 -0.38543183
0.40033418 -0.08146483 -0.44170433 0.053637326 0.03628409 -0.061774313 0.17898196 0.2688896

resolve.8.layers.4.conv1.bias f4 [4]
00000000: b8be f0be 961e c4be 80c5 c4bc e658 edbe
-0.47020507 -0.38304585 -0.024019957 -0.46356887

resolve.8.layers.4.bn1.weight f4 [4]
00000000: 0000 803f 0000 803f 0000 803f 0000 803f
1.0 1.0 1.0 1.0

resolve.8.layers.4.bn1.bias f4 [4]
00000000: 0000 0000 0000 0000 0000 0000 0000 0000
0.0 0.0 0.0 0.0

resolve.8.layers.4.bn1.running_mean f4 [4]
00000000: 0000 0000 0000 0000 0000 0000 0000 0000
0.0 0.0 0.0 0.0

resolve.8.layers.4.bn1.running_var f4 [4]
00000000: 0000 803f 0000 803f 0000 803f 0000 803f
1.0 1.0 1.0 1.0

resolve.9.layers.0.weight f4 [4, 2, 8]
00000000: 448a 68be 6c06 623e 10c5 9bbc bc20 fdbd
00000010: e89f afbd 6edd 47be 0cc6 473e 000b 5ebd
00000020: d4ee 0fbe 5827 42be 24a1 153e 888c 0dbd
00000030: 4028 d7bc b871 85bd 7427 f7bd e028 363d
00000040: 76f5 443e 5e5f 14be 2040 443c 00b1 42be
00000050: 4813 f0bd 88b5 603e 80c9 2b3b 149c 763e
00000060: b868 33bd 0488 0bbe fef4 18be 84e5 623e
00000070: 54dc 44be ec58 063e 588c 7e3d 4c18 973d
00000080: 0872 103e 70f3 85bd 4a67 1e3e 02f6 4bbe
00000090: 8c24 b4bd 1067 3b3e 84f3 973d 605e 08bd
000000a0: a822 6fbd 3c51 1cbe e6ab 1b3e e040 02bc
000000b0: 6095 0abc 582b 723d 2eea 3c3e 609b 02be
000000c0: dc54 b0bd 3a79 2d3e ee94 103e 18df fbbd
000000d0: 2640 7dbe b0f6 3d3d fea0 063e f896 743d
000000e0: a095 353e 1e21 4bbe e418 013e 6026 1fbe
000000f0: 1a14 103e 1064 3e3e 9c28 a23d 821f 4f3e
-0.22708994 0.22072762 -0.019014865 -0.12359759 -0.085754216 -0.19518062 0.19509143 -0.05420971
-0.1405595 -0.18960321 0.14612252 -0.03455785 -0.02626431 -0.06515831 -0.12068072 0.044472575
0.19234261 -0.14489505 0.011978179 -0.19012833 -0.117224276 0.21944249 0.0026212633 0.24082977
-0.04380104 -0.13626105 -0.14937207 0.22157866 -0.19224674 0.13119859 0.06214556 0.07377681
0.14106 -0.06540573 0.15469089 -0.19918063 -0.08796033 0.18301034 0.07419494 -0.033293128
-0.05838266 -0.15265363 0.15202293 -0.007950038 -0.008458465 0.059123367 0.18448707 -0.12754583
-0.08609936 0.16940776 0.14119312 -0.12298411 -0.24731502 0.046377838 0.13147351 0.059714288
0.17732859 -0.19836852 0.12607151 -0.15541983 0.14070168 0.18592858 0.07917902 0.20226863

resolve.9.layers.0.bias f4 [2]
00000000: 28be 28be d0f5 64be
-0.16478789 -0.22359395

resolve.9.layers.2.conv0.weight f4 [2, 2, 3]
00000000: 11fa c8be 363b 833e 1e72 123e 8a0f 99be
00000010: a873 4a3e 1cb7 be3e 421d cebe 3aa1 973e
00000020: e23b 803d 568c 1b3d dc13 bc3e 0f4a bd3e
-0.39253286 0.25631112 0.14301345 -0.29894668 0.19770682 0.37249076 -0.40256697 0.29615194
0.06261422 0.03797563 0.36733902 0.36970565

resolve.9.layers.2.conv0.bias f4 [2]
00000000: f024 303e 0f28 a53e
0.1720159 0.32257125

resolve.9.layers.2.bn0.weight f4 [2]
00000000: 0000 803f 0000 803f
1.0 1.0

resolve.9.layers.2.bn0.bias f4 [2]
00000000: 0000 0000 0000 0000
0.0 0.0

resolve.9.layers.2.bn0.running_mean f4 [2]
00000000: 0000 0000 0000 0000
0.0 0.0

resolve.9.layers.2.bn0.running_var f4 [2]
00000000: 0000 803f 0000 803f
1.0 1.0

resolve.9.layers.2.conv1.weight f4 [2, 2, 1]
00000000: ef9d 963e f0f6 eb3d 351e 1fbf c13e 073e
0.2941737 0.11521709 -0.6215547 0.13207532

resolve.9.layers.2.conv1.bias f4 [2]
00000000: 19c9 00bf 40eb 5e3e
-0.5030685 0.21769428

resolve.9.layers.2.bn1.weight f4 [2]
00000000: 0000 803f 0000 803f
1.0 1.0

resolve.9.layers.2.bn1.bias f4 [2]
00000000: 0000 0000 0000 0000
0.0 0.0

resolve.9.layers.2.bn1.running_mean f4 [2]
00000000: 0000 0000 0000 0000
0.0 0.0

resolve.9.layers.2.bn1.running_var f4 [2]
00000000: 0000 803f 0000 803f
1.0 1.0

resolve.9.layers.3.conv0.weight f4 [2, 2, 3]
00000000: dc83 933d 6c44 163c 29ea 8ebe 226b 7dbe
00000010: 337f 9a3e b498 4b3e 1f69 5c3e df22 f9bd
00000020: d6f8 8fbd 9845 d6bd 6bbe 8f3e 2a77 34be
0.072028846 0.0091715865 -0.27913025 -0.24747899 0.3017517 0.1988247 0.21524476 -0.12164854
-0.070298836 -0.10462493 0.28074965 -0.17623582

resolve.9.layers.3.conv0.bias f4 [2]
00000000: 04a8 833e c21e 903e
0.25714123 0.28148466

resolve.9.layers.3.bn0.weight f4 [2]
00000000: 0000 803f 0000 803f
1.0 1.0

resolve.9.layers.3.bn0.bias f4 [2]
00000000: 0000 0000 0000 0000
0.0 0.0

resolve.9.layers.3.bn0.running_mean f4 [2]
00000000: 0000 0000 0000 0000
0.0 0.0

resolve.9.layers.3.bn0.running_var f4 [2]
00000000: 0000 803f 0000 803f
1.0 1.0

resolve.9.layers.3.conv1.weight f4 [2, 2, 1]
00000000: 658d 25bf 407e 8d3b 30e7 09be a024 c8be
-0.64668876 0.0043180287 -0.13467097 -0.39090443

resolve.9.layers.3.conv1.bias f4 [2]
00000000: 664c 9c3e 8df1 afbd
0.30527037 -0.08590994

resolve.9.layers.3.bn1.weight f4 [2]
00000000: 0000 803f 0000 803f
1.0 1.0

resolve.9.layers.3.bn1.bias f4 [2]
00000000: 0000 0000 0000 0000
0.0 0.0

resolve.9.layers.3.bn1.running_mean f4 [2]
00000000: 0000 0000 0000 0000
0.0 0.0

resolve.9.layers.3.bn1.running_var f4 [2]
00000000: 0000 803f 0000 803f
1.0 1.0

resolve.9.layers.4.conv0.weight f4 [2, 2, 3]
00000000: 6000 b73e 12d4 82be c93c 423e 6176 b2be
00000010: aa88 51be 2521 e43c d325 a53e 6831 5c3e
00000020: 38a0 abbe 6838 393d 1c6f 76be 1ee9 903c
0.35742474 -0.25552422 0.189685 -0.3485594 -0.2046229 0.027847836 0.3225542 0.21503222
-0.33520675 0.04521981 -0.24065822 0.017689284

resolve.9.layers.4.conv0.bias f4 [2]
00000000: af21 aebe 9149 f5bd
-0.34010074 -0.11976922

resolve.9.layers.4.bn0.weight f4 [2]
00000000: 0000 803f 0000 803f
1.0 1.0

resolve.9.layers.4.bn0.bias f4 [2]
00000000: 0000 0000 0000 0000
0.0 0.0

resolve.9.layers.4.bn0.running_mean f4 [2]
00000000: 0000 0000 0000 0000
0.0 0.0

resolve.9.layers.4.bn0.running_var f4 [2]
00000000: 0000 803f 0000 803f
1.0 1.0

resolve.9.layers.4.conv1.weight f4 [2, 2, 1]
00000000: 684f f83e 7f17 26bf 8396 2cbf f5e2 033e
0.48498082 -0.648796 -0.6741716 0.12879546

resolve.9.layers.4.conv1.bias f4 [2]
00000000: f584 c63d 5b6c 04be
0.09693328 -0.1293196

resolve.9.layers.4.bn1.weight f4 [2]
00000000: 0000 803f 0000 803f
1.0 1.0

resolve.9.layers.4.bn1.bias f4 [2]
00000000: 0000 0000 0000 0000
0.0 0.0

resolve.9.layers.4.bn1.running_mean f4 [2]
00000000: 0000 0000 0000 0000
0.0 0.0

resolve.9.layers.4.bn1.running_var f4 [2]
00000000: 0000 803f 0000 803f
1.0 1.0

resolve.10.layers.0.weight f4 [2, 1, 4]
00000000: d48a df3e 8022 9abe 9c69 9bbe 985a bfbe
00000010: e896 bebd 38aa 02be 3266 9e3e 80fc e5bc
0.43660605 -0.30104446 -0.3035401 -0.37373805 -0.09306127 -0.12760246 0.30937344 -0.028074503

resolve.10.layers.2.conv0.weight f4 [1, 1, 3]
00000000: 0cae 75be 8aca ef3e fc32 f93e
-0.23992175 0.46834213 0.4867171

resolve.10.layers.3.conv0.weight f4 [1, 1, 3]
00000000: 1529 7b3e c021 01bf c7c3 8bbe
0.2452739 -0.50442123 -0.27297804

resolve.10.layers.4.conv0.weight f4 [1, 1, 3]
00000000: 46c7 473d eb5f ec3e fa03 96be
0.048774026 0.4616693 -0.2929991

resolve.11.weight f4 [1, 1, 7]
00000000: 0715 843e a6f1 b7be 82de 9bbe 76e4 ba3e
00000010: de69 68be 377d 8bbe 4a64 97bc
0.25797293 -0.3592655 -0.30443197 0.36502427 -0.22696635 -0.2724397 -0.018480439
