generators/n2.ckpt (torch, 113070 bytes, 235 tensors)

resolve.0.weight f4 [2, 1, 7]
000000 23 13 ec 3e 24 b0 12 3f 6d 36 94 3e 41 a4 5b 3f
       0.4610835 0.5730002 0.28947774 0.85797507
000010 1e d8 8e 3e b4 91 7f be bf 43 a2 bf 99 f3 f4 3e
       0.2789926 -0.24957925 -1.2676924 0.478421
000020 29 c6 15 3f 9f 76 22 3e 55 5b 83 3f d8 43 10 3f
       0.58505493 0.15865563 1.0262247 0.5635352
000030 de 30 61 be d1 45 a6 bf
       -0.21991298 -1.2990056

resolve.0.bias f4 [2]
000000 e2 94 64 3e 87 a8 33 39
       0.2232242 0.00017133552

resolve.2.layers.0.conv0.weight f4 [2, 2, 3]
000000 0e 80 f4 3e 29 ad 93 3e 87 01 b0 3c a6 a4 a5 3e
       0.47753948 0.28843048 0.021485103 0.3235218
000010 e2 d4 77 3e 01 32 7b 3e 33 15 89 be 23 63 03 3e
       0.24202302 0.24530794 -0.26773986 0.12830786
000020 10 68 e4 be 14 9c 1c bd 34 8e 27 be 18 4d 87 be
       -0.44610643 -0.038234785 -0.1636284 -0.26426005

resolve.2.layers.0.conv0.bias f4 [2]
000000 28 b4 ac 3d e8 99 d3 be
       0.084327996 -0.4132836

resolve.2.layers.0.bn0.weight f4 [2]
000000 00 00 80 3f 00 00 80 3f
       1.0 1.0

resolve.2.layers.0.bn0.bias f4 [2]
000000 00 00 00 00 00 00 00 00
       0.0 0.0

resolve.2.layers.0.bn0.running_mean f4 [2]
000000 00 00 00 00 00 00 00 00
       0.0 0.0

resolve.2.layers.0.bn0.running_var f4 [2]
000000 00 00 80 3f 00 00 80 3f
       1.0 1.0

resolve.2.layers.0.conv1.weight f4 [2, 2, 1]
000000 77 10 3f 3f 6b 41 29 bf a0 fd 44 3f d8 5f ac 3c
       0.746345 -0.66115445 0.769495 0.021041796

resolve.2.layers.0.conv1.bias f4 [2]
000000 53 8d 4c be bf b3 ed 3e
       -0.19975786 0.46426198

resolve.2.layers.0.bn1.weight f4 [2]
000000 00 00 80 3f 00 00 80 3f
       1.0 1.0

resolve.2.layers.0.bn1.bias f4 [2]
000000 00 00 00 00 00 00 00 00
       0.0 0.0

resolve.2.layers.0.bn1.running_mean f4 [2]
000000 00 00 00 00 00 00 00 00
       0.0 0.0

resolve.2.layers.0.bn1.running_var f4 [2]
000000 00 00 80 3f 00 00 80 3f
       1.0 1.0

resolve.2.layers.1.conv0.weight f4 [2, 2, 3]
000000 7e aa cf 3d 8c 3a f3 3d f4 c9 48 bc 82 ad 17 be
       0.10139941 0.11876401 -0.012255181 -0.14812282
000010 4f c6 86 3c ea 11 18 be fb 48 a7 3d da 01 2f 3f
       0.016451983 -0.14850584 0.08168217 0.683622
000020 f8 bb 9a 3e 73 e7 13 be 47 dd cf 3e 5a d0 00 3e
       0.30221534 -0.1444376 0.4059851 0.1257948

resolve.2.layers.1.conv0.bias f4 [2]
000000 e5 6e 5f 3e e0 91 24 be
       0.21819647 -0.16071272

resolve.2.layers.1.bn0.weight f4 [2]
000000 00 00 80 3f 00 00 80 3f
       1.0 1.0

resolve.2.layers.1.bn0.bias f4 [2]
000000 00 00 00 00 00 00 00 00
       0.0 0.0

resolve.2.layers.1.bn0.running_mean f4 [2]
000000 00 00 00 00 00 00 00 00
       0.0 0.0

resolve.2.layers.1.bn0.running_var f4 [2]
000000 00 00 80 3f 00 00 80 3f
       1.0 1.0

resolve.2.layers.1.conv1.weight f4 [2, 2, 1]
000000 78 a0 20 bf 38 fa 2e be 54 01 ba be 73 84 64 3f
       -0.62744856 -0.17087638 -0.36329138 0.892646

resolve.2.layers.1.conv1.bias f4 [2]
000000 7e d5 33 3e 85 39 a5 3e
       0.1756191 0.32270446

resolve.2.layers.1.bn1.weight f4 [2]
000000 00 00 80 3f 00 00 80 3f
       1.0 1.0

resolve.2.layers.1.bn1.bias f4 [2]
000000 00 00 00 00 00 00 00 00
       0.0 0.0

resolve.2.layers.1.bn1.running_mean f4 [2]
000000 00 00 00 00 00 00 00 00
       0.0 0.0

resolve.2.layers.1.bn1.running_var f4 [2]
000000 00 00 80 3f 00 00 80 3f
       1.0 1.0

resolve.2.layers.2.conv0.weight f4 [2, 2, 3]
000000 d8 51 0d 3e a8 25 1e 3e 1d 29 a9 3e 3c f1 91 be
       0.13800752 0.15444052 0.3303918 -0.2850436
000010 09 ee e9 3d c3 1e 95 be 1e 21 80 3d 59 ac b8 be
       0.11422355 -0.29125032 0.062563166 -0.3606899
000020 b8 c0 cb 3d 2e 0f 11 be c3 b3 38 3e e3 60 80 be
       0.099488676 -0.14165947 0.18037324 -0.2507392

resolve.2.layers.2.conv0.bias f4 [2]
000000 33 e2 7f be b3 c6 b0 be
       -0.24988632 -0.34526595

resolve.2.layers.2.bn0.weight f4 [2]
000000 00 00 80 3f 00 00 80 3f
       1.0 1.0

resolve.2.layers.2.bn0.bias f4 [2]
000000 00 00 00 00 00 00 00 00
       0.0 0.0

resolve.2.layers.2.bn0.running_mean f4 [2]
000000 00 00 00 00 00 00 00 00
       0.0 0.0

resolve.2.layers.2.bn0.running_var f4 [2]
000000 00 00 80 3f 00 00 80 3f
       1.0 1.0

resolve.2.layers.2.conv1.weight f4 [2, 2, 1]
000000 65 71 35 3f 0d 28 a5 3e cb d0 31 3f 24 40 0d bf
       0.7087615 0.3225712 0.6945922 -0.55175996

resolve.2.layers.2.conv1.bias f4 [2]
000000 84 a9 43 bf 5a 53 07 bf
       -0.76430535 -0.5286156

resolve.2.layers.2.bn1.weight f4 [2]
000000 00 00 80 3f 00 00 80 3f
       1.0 1.0

resolve.2.layers.2.bn1.bias f4 [2]
000000 00 00 00 00 00 00 00 00
       0.0 0.0

resolve.2.layers.2.bn1.running_mean f4 [2]
000000 00 00 00 00 00 00 00 00
       0.0 0.0

resolve.2.layers.2.bn1.running_var f4 [2]
000000 00 00 80 3f 00 00 80 3f
       1.0 1.0

resolve.2.layers.3.weight f4 [4, 2, 12]
000000 22 0c e8 bd 9a 78 2e 3e 99 a2 2a 3e 2d f9 74 3e
       -0.11330439 0.17038193 0.16663589 0.23923178
000010 79 65 56 bd fa 6a 6b bd aa 40 50 3e 81 db 72 3c
       -0.052342866 -0.057475068 0.20337167 0.014822842
000020 3e 94 6d 3e 99 5b 95 3d e2 a2 82 3e 1a d9 38 bd
       0.23201081 0.072928615 0.25514895 -0.04512892
000030 ba f7 d6 bc 8c 99 7c 3e aa c7 a2 3e 99 de 43 3e
       -0.026241172 0.24667948 0.31792957 0.19127883
000040 f5 35 9a 3e e5 65 9e 3e 1e 4c 9b 3c 57 5d 92 3d
       0.3011929 0.30937114 0.018957194 0.071467094
000050 5f bd c1 3e 97 1b 22 3e d6 63 28 3e ce 49 3a 3c
       0.3783979 0.15830837 0.16444334 0.0113701355
000060 92 84 83 be b6 64 da bd 38 9f 35 be 09 d1 93 be
       -0.2568708 -0.1066374 -0.17736518 -0.2887042
000070 ea 1c 11 be fe 12 a5 be 10 dc ca be d4 73 b6 be
       -0.14171186 -0.32241052 -0.3962102 -0.35635245
000080 5a 6f ce be 69 18 ba be a4 85 83 bc d6 d7 36 be
       -0.4031933 -0.36346748 -0.016054936 -0.17855772
000090 97 45 1e 3e 17 28 2b be 9d f2 29 be e2 2a b2 bd
       0.15456234 -0.16714512 -0.16596456 -0.086995855
0000a0 21 a0 93 3c d4 c0 7f be a7 fc 66 be a0 48 9a be
       0.018020691 -0.24975902 -0.22557317 -0.30133533
0000b0 af 7d f5 bd 23 9f f9 bd 26 32 d9 bc 1f 2f 11 be
       -0.11986863 -0.12188556 -0.02651317 -0.14178132
0000c0 f1 13 30 3d 54 f6 b4 3d 4b b0 13 3e 55 1e 82 3d
       0.042987768 0.08836046 0.14422719 0.063534416
0000d0 aa 00 db 3e f8 e9 81 3e 7d cc ed 3e c4 e8 a1 3e
       0.42773944 0.25373816 0.46445075 0.316229
0000e0 21 20 83 3d 8b 94 cf 3e 28 29 55 3e fa 11 13 3e
       0.064026125 0.40543017 0.20816481 0.14362326
0000f0 fe ee e9 bc 03 56 40 bd d7 bd 8e 3e 68 d7 56 3e
       -0.028556343 -0.046957027 0.2787921 0.20980608
000100 0a 5d b5 3e 37 26 d0 3d 75 be ac 3e 64 89 ac bc
       0.35422546 0.10163539 0.33739057 -0.021061607
000110 49 7e b9 3d fc 23 4e 3e 0c 0e 85 3e ee ca 78 3e
       0.0905729 0.20130914 0.2598728 0.24296162
000120 30 04 51 3e 42 13 6c 3d 76 66 a4 3e 86 01 6f bc
       0.20411754 0.057635553 0.32109421 -0.014587766
000130 d1 b3 f8 bd ae 0d a2 be 43 c2 ae 3d c0 c9 54 be
       -0.12143672 -0.31651062 0.08533146 -0.20780087
000140 6a 21 3c bd 92 fe 50 be b2 ce 23 be e4 d0 1b be
       -0.045930304 -0.20409611 -0.15996817 -0.15216404
000150 86 64 24 3e 4c 49 ed 3e 28 7f cc 3e 09 ea e9 bd
       0.16053972 0.46344984 0.39940763 -0.11421592
000160 f4 4b 4b be bf 8f a7 be 7d 4f c3 bd b7 65 c9 3e
       -0.19853193 -0.32726857 -0.095366456 0.39335415
000170 3f 6f ff 3d 26 67 97 be ba ff a7 be 48 1c 56 bb
       0.124723904 -0.29570884 -0.3281229 -0.0032670666

resolve.2.layers.3.bias f4 [4]
000000 c8 fb fb 3d 30 8c 95 3d 9d 6c 5f be c3 81 ce bd
       0.12303883 0.07302129 -0.21818776 -0.10083344

resolve.3.layers.0.conv0.weight f4 [4, 4, 3]
000000 fe b0 b3 be bb c9 b1 3d 0d c1 ca bc 8b 7a 44 3e
       -0.35095972 0.08681055 -0.024750257 0.19187371
000010 d3 66 9b 3e 4d 77 24 3e d3 f9 64 be bb 7c 68 be
       0.30351886 0.16061135 -0.22360925 -0.22703831
000020 dd ec 73 3d 92 14 8b 3e 6e 17 ce 3e 47 c8 fa bc
       0.059552062 0.2716413 0.4025225 -0.030613078
000030 01 07 d9 3d a9 fe 3c bd a1 dd 58 bd 5b 7a ce bd
       0.10597039 -0.0461413 -0.052945737 -0.10081931
000040 d6 68 06 3f dd 7b 5d 3e db fc 0b 3c 41 15 40 be
       0.52503717 0.21629281 0.008544172 -0.18758108
000050 4c 74 13 3e 84 81 eb 3d 94 f3 9a 3d 61 ea 60 3c
       0.14399832 0.114993125 0.0756599 0.013727755
000060 fe d0 3d bd 70 25 2c bd 5c 7c 4e 3e c5 5e 1d 3e
       -0.04634189 -0.04202789 0.20164627 0.15368183
000070 7b 2b 6d 3d c9 bb a2 be f3 fd 6e bd 24 77 b7 be
       0.057902794 -0.31783894 -0.058347654 -0.35833085
000080 ee 24 e1 bb fb 2f 97 3d be f1 ad 3e dc 64 04 3e
       -0.0068708574 0.073821984 0.33973497 0.129291
000090 c8 a7 3d 3e 1e f6 e3 be 8a 3c 1d be 52 f4 0e be
       0.18521035 -0.4452371 -0.15355125 -0.13960388
0000a0 75 cd f6 3e 53 d9 2a be aa e5 12 3f 6c 91 2c 3e
       0.48203626 -0.16684465 0.5738169 0.16852349
0000b0 fb 1e 23 3d a4 5a ce 3e 20 b4 3a bf 70 79 b3 be
       0.039824467 0.40303528 -0.729311 -0.35053587

resolve.3.layers.0.conv0.bias f4 [4]
000000 ff de ff be dc fb 83 3e 69 15 59 3e 0e 44 3a 3e
       -0.4997482 0.2577809 0.21199574 0.18190023

resolve.3.layers.0.bn0.weight f4 [4]
000000 00 00 80 3f 00 00 80 3f 00 00 80 3f 00 00 80 3f
       1.0 1.0 1.0 1.0

resolve.3.layers.0.bn0.bias f4 [4]
000000 00 00 00 00 00 00 00 00 00 00 00 00 00 00 00 00
       0.0 0.0 0.0 0.0

resolve.3.layers.0.bn0.running_mean f4 [4]
000000 00 00 00 00 00 00 00 00 00 00 00 00 00 00 00 00
       0.0 0.0 0.0 0.0

resolve.3.layers.0.bn0.running_var f4 [4]
000000 00 00 80 3f 00 00 80 3f 00 00 80 3f 00 00 80 3f
       1.0 1.0 1.0 1.0

resolve.3.layers.0.conv1.weight f4 [4, 4, 1]
000000 b2 51 9e bd a5 8b 1f bf b1 5c 59 bf dd a5 5a 3f
       -0.07730426 -0.62322456 -0.8490706 0.8540934
000010 78 4a be 3e d5 fa 25 3f 67 24 cc 3d e3 14 91 3f
       0.3716619 0.64835864 0.09967881 1.1334499
000020 1d 25 38 3e ab 85 d2 be b2 9e d2 be a1 c6 b1 bf
       0.17982908 -0.41117606 -0.411367 -1.3888742
000030 bd e1 04 3f a6 e1 d9 bc af e0 5c 3e 25 7e f0 be
       0.5190695 -0.026596855 0.21570085 -0.4697124

resolve.3.layers.0.conv1.bias f4 [4]
000000 ed ee 96 be fe 81 e6 be e8 45 b5 be 3e da 1a 3e
       -0.2947916 -0.4502105 -0.35404897 0.15122315

resolve.3.layers.0.bn1.weight f4 [4]
000000 00 00 80 3f 00 00 80 3f 00 00 80 3f 00 00 80 3f
       1.0 1.0 1.0 1.0

resolve.3.layers.0.bn1.bias f4 [4]
000000 00 00 00 00 00 00 00 00 00 00 00 00 00 00 00 00
       0.0 0.0 0.0 0.0

resolve.3.layers.0.bn1.running_mean f4 [4]
000000 00 00 00 00 00 00 00 00 00 00 00 00 00 00 00 00
       0.0 0.0 0.0 0.0

resolve.3.layers.0.bn1.running_var f4 [4]
000000 00 00 80 3f 00 00 80 3f 00 00 80 3f 00 00 80 3f
       1.0 1.0 1.0 1.0

resolve.3.layers.1.conv0.weight f4 [4, 4, 3]
000000 32 f1 a3 3e 32 d4 35 3e 63 7a 07 3e 6a f3 8d be
       0.32019955 0.17756727 0.1323028 -0.27724773
000010 a8 f1 05 be 02 9f 85 3d be b1 42 3d ad c4 e5 be
       -0.13080466 0.06524469 0.04753279 -0.44876614
000020 f3 f4 66 3c 34 74 16 3e 27 ed 23 3d fc 22 f7 3e
       0.014096486 0.14692765 0.040021088 0.48268878
000030 9c 5e 0f 3f ef 3c 34 be c4 c7 89 3e 6d 0b 94 be
       0.5600374 -0.1760137 0.26910222 -0.28914967
000040 b4 66 1c 3f 21 f4 92 3e 08 b2 11 3e 92 d6 60 be
       0.6109421 0.2870188 0.1422807 -0.21956852
000050 67 63 38 be b0 e4 af bd 9c b8 f0 3e 22 a0 4c be
       -0.18006669 -0.085885406 0.47015846 -0.19982961
000060 c0 93 94 3d 21 26 73 3e 74 bd e6 bb 1d be 1c be
       0.072547436 0.23745014 -0.0070416275 -0.15306897
000070 e9 7c ca be a3 3b 87 3e b6 d3 f9 3d d5 8f 30 3d
       -0.39548424 0.26412687 0.12198584 0.04310592
000080 ae f6 9a 3d 9e 6d 2b be c5 bb 1c 3f d9 d6 15 3e
       0.07566582 -0.16741034 0.61224014 0.14632739
000090 d6 fe 9d be 6c 1e ec 3d fa 03 95 be ad f1 ed bd
       -0.30858487 0.1152924 -0.29104596 -0.116183616
0000a0 92 68 a4 3c 4b 8c 9c be 92 b7 87 be 45 08 fa 3d
       0.020069394 -0.30575785 -0.2650724 0.122086085
0000b0 29 9c 9b be 82 fd 03 be 1d 7e 1d 3f 35 cc 0e be
       -0.30392578 -0.12889674 0.6152056 -0.13945086

resolve.3.layers.1.conv0.bias f4 [4]
000000 2c 49 d6 3d f2 51 1b 3e 33 3c af 3d c9 42 27 3e
       0.10463175 0.15167978 0.08556404 0.1633407

resolve.3.layers.1.bn0.weight f4 [4]
000000 00 00 80 3f 00 00 80 3f 00 00 80 3f 00 00 80 3f
       1.0 1.0 1.0 1.0

resolve.3.layers.1.bn0.bias f4 [4]
000000 00 00 00 00 00 00 00 00 00 00 00 00 00 00 00 00
       0.0 0.0 0.0 0.0

resolve.3.layers.1.bn0.running_mean f4 [4]
000000 00 00 00 00 00 00 00 00 00 00 00 00 00 00 00 00
       0.0 0.0 0.0 0.0

resolve.3.layers.1.bn0.running_var f4 [4]
000000 00 00 80 3f 00 00 80 3f 00 00 80 3f 00 00 80 3f
       1.0 1.0 1.0 1.0

resolve.3.layers.1.conv1.weight f4 [4, 4, 1]
000000 98 18 1b be 51 fe 61 bd a2 8d 1f bf 24 06 d7 be
       -0.151461 -0.055174176 -0.6232549 -0.41996872
000010 db 88 89 be f8 44 52 3f 0d cf 10 bf 78 9f 47 3e
       -0.26862225 0.8213649 -0.56565934 0.19494426
000020 22 b3 c2 be f3 fd 8a be 62 c3 d4 3e 38 62 d6 3e
       -0.38027292 -0.27146873 0.41555315 0.4187181
000030 42 85 41 bf 3f 6d f5 3e 94 10 d2 3e 7a 11 8a 3e
       -0.7559396 0.4793491 0.41028273 0.2696646

resolve.3.layers.1.conv1.bias f4 [4]
000000 c6 c1 8e 3e 6b a3 f7 3e e7 67 5c bd a2 71 68 3d
       0.27882212 0.48366866 -0.053810026 0.056748994

resolve.3.layers.1.bn1.weight f4 [4]
000000 00 00 80 3f 00 00 80 3f 00 00 80 3f 00 00 80 3f
       1.0 1.0 1.0 1.0

resolve.3.layers.1.bn1.bias f4 [4]
000000 00 00 00 00 00 00 00 00 00 00 00 00 00 00 00 00
       0.0 0.0 0.0 0.0

resolve.3.layers.1.bn1.running_mean f4 [4]
000000 00 00 00 00 00 00 00 00 00 00 00 00 00 00 00 00
       0.0 0.0 0.0 0.0

resolve.3.layers.1.bn1.running_var f4 [4]
000000 00 00 80 3f 00 00 80 3f 00 00 80 3f 00 00 80 3f
       1.0 1.0 1.0 1.0

resolve.3.layers.2.conv0.weight f4 [4, 4, 3]
000000 89 03 05 bf d0 0d e1 3d a4 fc 29 3e cb f1 d7 3d
       -0.5195852 0.10988963 0.16600281 0.10544165
000010 f0 27 4c be 46 54 4b be 0b c7 52 be af 53 8c be
       -0.1993711 -0.19856367 -0.20583741 -0.27407596
000020 51 2e 85 be ac 55 6e bd 70 ef ae 3e 3e d1 5e 3d
       -0.260119 -0.05818717 0.3416705 0.054398768
000030 de 7d 5b 3e 72 53 75 3e b6 e1 50 3d 44 af 39 be
       0.21434733 0.23957613 0.050996505 -0.18133265
000040 e3 50 54 be 8c 8e 73 bd 21 97 2c be 7a b8 89 be
       -0.20733981 -0.059462115 -0.16854526 -0.26898557
000050 3d 44 7e bd 7e 7d 45 be d2 a1 2a be c7 e6 8e be
       -0.062076796 -0.19286153 -0.16663292 -0.27910444
000060 22 f3 2c be c0 16 f9 bd 67 bb 11 3d c2 06 ec bc
       -0.16889623 -0.12162542 0.03557911 -0.028811816
000070 49 88 19 be 19 6c 2d bd 18 fd 3f 3b 99 bc 6e 3d
       -0.14993395 -0.042339418 0.0029295143 0.05828533
000080 4f 70 41 bb 5e 81 3d 3d 23 e8 c8 be 39 86 fb bc
       -0.0029516404 0.046265952 -0.39239606 -0.03070365
000090 51 cb 94 bd 6f 3e 0c 3e c1 8a 11 bd cc 2b 0b be
       -0.07265342 0.13695692 -0.035532717 -0.13590926
0000a0 ee c9 d6 bb 17 31 bf bd 86 cc b8 bd fa 63 1a 3f
       -0.0065548336 -0.09335535 -0.09023385 0.603088
0000b0 57 49 a9 3d c1 c8 b7 bb 1c 09 1a 3c 9f 58 87 be
       0.082659416 -0.0056086485 0.009401586 -0.264348

resolve.3.layers.2.conv0.bias f4 [4]
000000 fc f0 5b be c8 53 37 bc 03 2b 89 3e ca d2 08 3e
       -0.21478647 -0.011189409 0.26790628 0.1336166

resolve.3.layers.2.bn0.weight f4 [4]
000000 00 00 80 3f 00 00 80 3f 00 00 80 3f 00 00 80 3f
       1.0 1.0 1.0 1.0

resolve.3.layers.2.bn0.bias f4 [4]
000000 00 00 00 00 00 00 00 00 00 00 00 00 00 00 00 00
       0.0 0.0 0.0 0.0

resolve.3.layers.2.bn0.running_mean f4 [4]
000000 00 00 00 00 00 00 00 00 00 00 00 00 00 00 00 00
       0.0 0.0 0.0 0.0

resolve.3.layers.2.bn0.running_var f4 [4]
000000 00 00 80 3f 00 00 80 3f 00 00 80 3f 00 00 80 3f
       1.0 1.0 1.0 1.0

resolve.3.layers.2.conv1.weight f4 [4, 4, 1]
000000 45 d3 09 bf 08 73 f8 bd e6 6a 21 bf 26 e5 8f bd
       -0.53837997 -0.121313155 -0.6305374 -0.070261285
000010 bd b6 98 be 50 de 08 3d c7 59 cd 3e db b1 c8 be
       -0.29826918 0.03341514 0.40107557 -0.39198193
000020 1c fe 44 3e 20 3f 0f bf 73 d9 86 3e de 7d fb 3e
       0.1923756 -0.55955696 0.26337776 0.49119467
000030 2a 3f 0d bd d1 5e 9b 3e cd f8 b3 be 04 a1 d1 bd
       -0.034484066 0.30345777 -0.35150757 -0.102357894

resolve.3.layers.2.conv1.bias f4 [4]
000000 1c 4f 63 3e 01 24 65 be 6d 88 71 bd ed ff 6e be
       0.22198147 -0.22377016 -0.058967996 -0.23339815

resolve.3.layers.2.bn1.weight f4 [4]
000000 00 00 80 3f 00 00 80 3f 00 00 80 3f 00 00 80 3f
       1.0 1.0 1.0 1.0

resolve.3.layers.2.bn1.bias f4 [4]
000000 00 00 00 00 00 00 00 00 00 00 00 00 00 00 00 00
       0.0 0.0 0.0 0.0

resolve.3.layers.2.bn1.running_mean f4 [4]
000000 00 00 00 00 00 00 00 00 00 00 00 00 00 00 00 00
       0.0 0.0 0.0 0.0

resolve.3.layers.2.bn1.running_var f4 [4]
000000 00 00 80 3f 00 00 80 3f 00 00 80 3f 00 00 80 3f
       1.0 1.0 1.0 1.0

resolve.3.layers.3.weight f4 [8, 4, 8]
000000 1b a8 25 3e ea 5a 66 3c cd 23 8c bd c5 c4 31 3e
       0.16177408 0.014059762 -0.06842766 0.17360218
000010 6e 8f 58 be 1f 52 0b 3c b2 20 97 3d e3 da ce bd
       -0.21148464 0.008503466 0.07379283 -0.10100343
000020 22 13 fd 3d 18 e2 59 bd 0c 07 a6 bd 33 4e 0f be
       0.12357165 -0.053194135 -0.08106813 -0.13994674
000030 0f 51 8a 3d 11 db bf bc 57 77 8f bd 78 6f 66 3e
       0.06753742 -0.023419889 -0.07005184 0.2250346
000040 a0 f3 44 bc a3 7b 82 3c 8f b5 3e 3d 2e e3 cb bc
       -0.012020975 0.015928095 0.046559867 -0.024888601
000050 44 8b 8c 3c 9e 2e c9 3d d4 df a4 3d 7b ad 41 be
       0.01715625 0.09823345 0.08050504 -0.18913834
000060 d3 57 bd be 2d 91 2b be 9f 61 9d 3e cd f3 af be
       -0.36981067 -0.16754599 0.3073854 -0.34365693
000070 1d da b0 3e 58 45 1c be f4 1c a1 be 15 9d 0e 3e
       0.34541407 -0.15260828 -0.31467402 0.1392711
000080 af 63 86 3e ad 64 61 3d 89 b5 c3 3d 93 4f c9 3e
       0.26247928 0.055027653 0.095561095 0.39318523
000090 98 f7 04 3e c0 cb ae bb 91 5b 73 3e e5 49 67 bd
       0.12985075 -0.0053343475 0.23765399 -0.056466956
0000a0 82 07 17 bd ed 66 58 3d e0 ff 82 3e 90 26 14 be
       -0.036872394 0.052832533 0.25585842 -0.14467835
0000b0 8f 57 1d 3e 96 f0 00 3f c4 9e 06 3d 1c 75 da 3d
       0.15365432 0.50367105 0.032866254 0.10666868
0000c0 48 cc ac 3e 13 b3 dd 3e 1c 06 77 3d 7c 65 21 3f
       0.33749604 0.43300685 0.06030856 0.6304548
0000d0 57 69 6f 3e c6 b1 24 be f1 08 04 3e e2 7e f5 3c
       0.23380028 -0.1608344 0.12894036 0.029967729
0000e0 59 9e 3f be 2c 5f f8 3d 1c b9 1c 3e 6c fe da be
       -0.18712749 0.121275276 0.15304989 -0.42772233
0000f0 4b 21 d1 3d 1d 92 a6 3d c8 67 f7 b8 43 a2 7e 3e
       0.10211428 0.08133338 -0.000117972086 0.24866585
000100 7c a9 51 3c 48 b4 25 3e 67 54 28 3e de 89 76 bc
       0.012796756 0.16182053 0.16438447 -0.015047519
000110 45 2f 88 3c 0d 68 6e bd d4 a0 ed 3d 35 4f e4 bc
       0.016624102 -0.0582047 0.11602941 -0.0278698
000120 bd 51 e6 bd ea 2e 94 bd 9a e0 c6 3c 74 32 a4 3c
       -0.11246059 -0.07235511 0.02427702 0.02004359
000130 46 0f d6 3e a0 3f fb 3e 42 35 08 3e d0 51 00 3e
       0.41808528 0.4907198 0.13301566 0.12531209
000140 69 c6 e7 ba 51 fe e5 bd 0f 55 a2 bc 27 02 55 3e
       -0.0017683032 -0.11230148 -0.01981595 0.20801602
000150 62 9f d4 bd f9 7b fb bd 1c de 98 3d 34 1b 1d 3e
       -0.10381962 -0.12279505 0.07464239 0.15342408
000160 6c 6c de 3e e4 62 9b 3e 36 bb 0e 3d da 00 43 bc
       0.43442094 0.30348885 0.034846507 -0.0119020585
000170 85 af 3c be 81 ad 70 3e a7 36 84 3e ec 90 f6 3d
       -0.1842633 0.23503686 0.25822946 0.120393604
000180 82 cf 4b bd 5b 05 2c 3e bb 3d 18 3f f7 03 64 3e
       -0.04975844 0.16798918 0.59469193 0.22267137
000190 b8 cc c6 3e 15 58 75 3e 8d 48 70 3e ad 71 cd 3c
       0.38828063 0.23959382 0.23465176 0.025078619
0001a0 2a 0a 52 3e 76 1a e2 3d bf 81 ce be 12 56 37 3e
       0.2051169 0.11040203 -0.40333363 0.17903927
0001b0 75 16 8b 3e 79 bc 74 3d a1 b6 6a 3e bc 50 4f 3e
       0.2716557 0.059750054 0.2292123 0.20245641
0001c0 1d 15 e1 3d 46 68 88 3e 15 df 24 3f f8 a2 b3 3e
       0.10990355 0.26642054 0.64402896 0.35085273
0001d0 42 37 70 3e a9 2a ec 3e 9c 8d 9b 3d 23 41 07 3e
       0.23458579 0.46126297 0.07595369 0.13208441
0001e0 89 ed 6e 3e 23 f9 4f 3d e4 8a 00 be 8c 8c da 3d
       0.233328 0.050774705 -0.12552983 0.106713384
0001f0 9f 3a c5 be db a7 d9 bd 80 87 7b 3e f7 9c 49 3e
       -0.38521287 -0.10627719 0.24563408 0.19688784
000200 25 a8 fd 3d 04 c9 0a 3e d5 d6 2a bd bf 83 4d 3c
       0.12385587 0.13553244 -0.041708786 0.012543618
000210 0a e0 ca bd 7b c8 cf bd d4 77 86 3d 8a 2d 2f 3e
       -0.09906013 -0.101456605 0.06565824 0.17107216
000220 cb 64 41 3d 99 a6 c9 3d b2 76 c1 3e fc c6 1d 3f
       0.047215264 0.09846229 0.3778587 0.6163175
000230 bc 0a c7 3e 1f fd 43 3e 5b de f8 3d 9a 02 02 3c
       0.38875377 0.19139527 0.12151786 0.007935191
000240 74 dc af 3e fc ae 02 3f f3 6b 92 3e 41 c0 23 3d
       0.3434788 0.51048255 0.28597984 0.03997827
000250 6a 31 89 3d f8 d7 52 3e 5d a4 cb 3d 18 6d 36 3e
       0.06698878 0.20590198 0.09943459 0.17815053
000260 f8 54 fa 3d bc 20 92 3c f2 d0 aa 3d d8 7c 6b 3e
       0.12223238 0.017837875 0.083406344 0.22996843
000270 2e bf 05 3e 00 a9 90 bd e0 55 60 3d 39 c7 86 3d
       0.1306121 -0.07063484 0.054769397 0.065809675
000280 16 c1 0c 3e 42 96 87 3e c1 58 f2 3d e0 c7 78 3e
       0.13745531 0.26481825 0.11833335 0.24294996
000290 6c 81 52 3e 79 4f bf 3d c2 5c 7d 3e c5 34 d3 3e
       0.20557183 0.0934133 0.24742416 0.41251197
0002a0 92 50 63 3e d2 96 d6 3d 31 01 a0 ba 39 8e b7 bd
       0.22198704 0.104779854 -0.0012207386 -0.08962674
0002b0 c5 d1 12 be 3e 50 4e 3e 83 81 88 bd f2 43 42 bd
       -0.14337833 0.20147797 -0.066653274 -0.04742808
0002c0 df 0c e8 3c 30 87 52 3d 96 05 d6 3e 9a 7c dd 3e
       0.02832645 0.051398456 0.41801137 0.43259126
0002d0 c5 4c d4 3e 0d d6 40 3e 7b 8d c1 3e d0 64 94 3e
       0.4146482 0.18831654 0.37803254 0.28983164
0002e0 9b 0a 84 be e4 dc 4e be 15 63 c6 3d 7b 4a 17 3e
       -0.2578934 -0.2020145 0.09686867 0.14774506
0002f0 a8 e4 42 3f eb ed 37 3e 25 68 8f be 66 7d 59 3d
       0.7613015 0.17961852 -0.28009143 0.053098105
000300 96 48 49 3e 65 21 85 3e ed a8 a6 3d 91 91 42 3d
       0.19656596 0.2600204 0.08137689 0.047502104
000310 14 06 9a 3e a7 ea af 3e 35 e0 da 3e b8 a5 2e 3e
       0.30082762 0.34358713 0.4274918 0.17055404
000320 c8 05 10 be 9e e1 6e 3d a2 24 fc 3e 99 4f b6 3e
       -0.14064705 0.058320634 0.492467 0.35607603
000330 c3 cd 00 3d b0 1f c4 bd ff 65 e3 bc c5 27 cd 3d
       0.03144623 -0.095763564 -0.027758596 0.10017351
000340 81 81 94 3e ae db 25 3e a1 f1 ad bd 57 fa 7b 3e
       0.29005054 0.16197082 -0.08493353 0.24607216
000350 f5 a6 c0 3e 47 3d dd 3e 0a 81 6a 3e 82 33 52 3e
       0.37627378 0.43210813 0.22900787 0.20527461
000360 e9 e4 92 3e 61 88 a2 3e 0c 10 c2 3d 7d d1 fb bd
       0.2869027 0.31744674 0.09475717 -0.12295816
000370 e8 2d db be 0f bf 07 3e 8c b3 a4 3e 0c 28 48 3e
       -0.4280846 0.13256477 0.32168233 0.19546527
000380 81 ab 2a 3e c5 da 77 bd e7 4e c0 3c ec 58 81 3e
       0.16666986 -0.06051137 0.023475124 0.25263155
000390 ee de eb 3d ac 79 8d 3e a9 43 f9 bc 5b f9 e9 3e
       0.1151713 0.2763189 -0.03042777 0.45698056
0003a0 58 c1 50 bd 9d 78 86 bd a2 5c 82 bd 49 09 40 be
       -0.050965637 -0.06565974 -0.063653246 -0.18753542
0003b0 98 74 e9 3c 62 63 26 be c8 f5 62 3e 5e 91 bf be
       0.028497979 -0.16248849 0.2216407 -0.37415594
0003c0 91 79 c6 3c a2 7d ab 3d 3d 07 43 be e4 8e b8 bc
       0.02422789 0.08373572 -0.1904573 -0.022529073
0003d0 f2 71 17 be 8d 3d 82 3e 5d 29 c1 bd 62 f0 7f 3e
       -0.1478956 0.25437585 -0.094317175 0.24994043
0003e0 b4 71 a1 be 73 97 10 be cb 81 a9 3e 4f 2f c9 3d
       -0.3153206 -0.14120273 0.33106837 0.098234765
0003f0 e3 31 d0 3e 8e 4c f0 bc 6b e9 ab 3d a4 5b 5a be
       0.4066306 -0.02933338 0.0839413 -0.2132402

resolve.3.layers.3.bias f4 [8]
000000 09 b1 e8 3d c7 13 18 bd eb 0e 32 3e c4 f4 0a 3d
       0.11361892 -0.037128236 0.17388503 0.033924833
000010 06 8e 70 3e 24 95 86 3d 02 fb 92 3d 98 cd 12 3e
       0.23491678 0.06571415 0.07176782 0.1433624

resolve.4.layers.0.conv0.weight f4 [8, 8, 3]
000000 94 e7 98 3e 53 e9 4b be c8 be d5 3d 8a 17 2c bd
       0.2986418 -0.19913225 0.10436779 -0.042014636
000010 9a a4 cc be 0b 3c 7e bd bf e2 c6 be 03 ca 3c 3e
       -0.3996933 -0.06206898 -0.3884487 0.18436436
000020 d0 82 59 3e eb 2c ff 3c 0f 75 aa 3d 83 e4 56 3e
       0.21241307 0.031149348 0.083231084 0.20985608
000030 e0 63 c4 3d 48 18 31 be 2f 71 d5 bd 1f c8 c4 3e
       0.09589362 -0.17294419 -0.10421979 0.3843393
000040 b6 ed 19 3e ea db 30 3e cd 5e 93 bd 6f 06 bb 3e
       0.15032086 0.1727139 -0.07195816 0.36528346
000050 5f 2c 2b 3e 27 72 ac 3e ff e0 a0 be b1 d6 15 3c
       0.16716145 0.3368084 -0.31421658 0.009145425
000060 f5 b4 2f 3e 05 ff f6 3d 68 7e 91 bc 8d d6 91 3e
       0.17158873 0.1206036 -0.01776047 0.28484002
000070 13 e4 87 3e 12 28 93 3e 3a 05 e9 be e7 c9 16 be
       0.26541194 0.2874151 -0.455118 -0.14725457
000080 91 04 87 bd 62 51 3c be c6 b5 b3 3e 31 8e 15 3f
       -0.06592668 -0.1839042 0.3509962 0.5842009
000090 fa 45 80 3d b1 87 40 3e 6d 08 ea bd 88 71 0b 3f
       0.06263347 0.18801762 -0.11427388 0.5447011
0000a0 48 34 14 bd 06 d5 93 3d af 95 74 be 34 27 69 3e
       -0.03618267 0.07218365 -0.23885225 0.22768861
0000b0 aa 17 b7 3d df 6c 8f be 81 8c e2 be ed fa a2 bd
       0.089400604 -0.2801275 -0.4424782 -0.079580165
0000c0 1d 20 0e bf 3a ff 7a 3d 19 28 d5 3d 06 59 91 be
       -0.5551775 0.06127856 0.10408039 -0.28388232
0000d0 97 51 5a 3d 45 5a 16 3e 27 a8 4f bd 31 af 61 be
       0.053300466 0.14682873 -0.050697472 -0.22039486
0000e0 c0 ad 4f 3e 6f 12 fe be 41 d4 af 3e 50 06 79 3e
       0.20281124 -0.4962344 0.34341624 0.24318814
0000f0 8e fd 78 3d b7 39 e0 be ae 5a 2e be ff 7e 2d 3d
       0.060788684 -0.43794033 -0.17026779 0.04235744
000100 0a f6 f8 3d e1 63 40 bd 9e a0 ee bb 04 24 1b 3e
       0.12156303 -0.046970252 -0.0072823307 0.15150458
000110 e3 db 31 bd 71 12 c6 3d 6d 62 6e 3e b0 ee c1 bd
       -0.04342259 0.09671486 0.23279734 -0.09469354
000120 3e a2 e2 3d c0 0e f8 bd 7d 36 b5 3e 86 e9 b1 be
       0.110661015 -0.12112188 0.35393134 -0.34748477
000130 15 a1 9c bd a4 ae 27 be 42 50 e0 bd b4 91 15 3e
       -0.076479115 -0.16375214 -0.10952808 0.14606363
000140 3c 3b 37 bd e0 49 ed bd 85 29 45 3e e6 51 db 3e
       -0.044734225 -0.11586356 0.1925412 0.4283592
000150 51 87 97 3e c3 10 16 3e f0 ff 19 3e f1 7f ce 3e
       0.29595426 0.14654832 0.15039039 0.40331987
000160 bf 53 b0 be 0e ff bc bd 38 67 3a bd b9 27 d0 bd
       -0.34438893 -0.09228335 -0.045508593 -0.101638265
000170 fd 5f f7 bd 44 21 87 3e 7b 94 2b be 93 20 68 3d
       -0.12078855 0.26392567 -0.1675586 0.05667169
000180 cc 2c 23 3e 27 22 41 3c 8c a4 00 3f 2d 76 41 bd
       0.15935057 0.011787928 0.5025108 -0.04723184
000190 16 62 5e 3e dd b1 77 3e 34 4c ee bd b5 8d 92 3e
       0.21717104 0.24188943 -0.11635628 0.2862374
0001a0 cf 0c 33 be e5 a2 33 bc 39 a6 e6 3d 17 62 c6 bd
       -0.17485355 -0.01096413 0.11262173 -0.09686678
0001b0 8f 3b 94 bd ac cb c4 3d 8f a1 f1 bd ec c9 95 bd
       -0.072379224 0.0960916 -0.11798393 -0.07313904
0001c0 c2 3e 29 be 6f 67 c4 3e 80 e2 b2 3d ff d1 6e 3d
       -0.16527846 0.38360164 0.08734608 0.058305737
0001d0 8f 35 4e be 5a 06 1c 3d 1e f9 1e be cd 4c 1a 3e
       -0.20137618 0.038091995 -0.15524718 0.1506836
0001e0 7d 17 d5 3e f9 8c 22 be da a2 06 3e 8e 1e 36 bd
       0.41619483 -0.1587409 0.1314806 -0.044462733
0001f0 ef 7a 32 be e0 e4 31 3e 1e 43 da 3c ee c7 0b 3e
       -0.17429708 0.17372465 0.026643332 0.13650486
000200 e3 63 22 be ff 57 3d 3d e3 af 2b 3e 72 ac f7 bc
       -0.15858416 0.046226498 0.16766314 -0.030233596
000210 7f 08 b4 3c 2e a5 21 3e 78 d7 e9 bd 38 eb c0 3e
       0.021976708 0.15785667 -0.114180505 0.37679458
000220 bc 73 97 3e 59 50 ea 3d 06 60 e0 3d 80 52 22 be
       0.29580486 0.11441106 0.10955815 -0.15851784
000230 25 05 f6 3c 5e 7e 01 3e 5f 74 ae be 3c eb 99 3e
       0.03003175 0.12645862 -0.3407316 0.30062282
000240 e4 99 9b 3d e7 96 d2 3c 6c cb f3 be a7 14 20 3e
       0.07597712 0.025706721 -0.47616136 0.15632878
000250 f0 59 d8 3e b1 43 1c 3e fe df 3b 3d d7 ea 60 3e
       0.42256117 0.15260197 0.045867912 0.21964584
000260 c0 92 7c 3e 98 8e 80 3e db a2 b4 bd b0 19 78 3e
       0.24665356 0.2510879 -0.08820125 0.24228549
000270 1c a9 82 3d 8a 3c 36 3e 2d 2e 8f bd 80 db 0e 3e
       0.06379911 0.17796531 -0.06991229 0.1395092
000280 09 bf 92 3c ea fc 29 3e 43 92 dd bd 96 64 71 bd
       0.017913358 0.16600385 -0.10818913 -0.058933817
000290 cf d0 5b 3d 25 1f 6e bd 60 da f5 bd 69 08 95 bd
       0.053665932 -0.05813517 -0.12004542 -0.07276995
0002a0 8f 2b e5 be 04 d6 92 3e 7f 89 50 3d eb d3 7c 3e
       -0.44759795 0.28678906 0.050912376 0.24690215
0002b0 fb f8 d0 3d 9e 0f 7b bd 0e 75 ac 3e 9c 15 c8 be
       0.10203739 -0.06129419 0.33683056 -0.39078987
0002c0 1e a9 45 be 03 d5 28 3d 52 ae 8d be 35 74 a6 3e
       -0.19302794 0.04121877 -0.27672058 0.32510534
0002d0 32 05 97 bc 26 2c 0c 3d 2a 73 97 bc bf f5 62 be
       -0.018435095 0.03422179 -0.018487532 -0.22164057
0002e0 36 6c 81 3d 84 69 11 bd bb 44 47 be 31 a2 7c bb
       0.06319468 -0.03550102 -0.19459812 -0.0038548822
0002f0 da 85 ca bd f8 e4 1b be 49 0d a3 3d d6 c0 28 3e
       -0.098888114 -0.15224063 0.07961518 0.16479811

resolve.4.layers.0.conv0.bias f4 [8]
000000 3a 57 83 3e 1d e1 2c 3e e6 b4 bc 3d fd 01 4a bd
       0.25652486 0.16882749 0.09214191 -0.049318302
000010 e9 51 99 be b7 5a b6 3d ff 55 05 be 63 db a3 3d
       -0.29945305 0.08904021 -0.13021086 0.08000829

resolve.4.layers.0.bn0.weight f4 [8]
000000 00 00 80 3f 00 00 80 3f 00 00 80 3f 00 00 80 3f
       1.0 1.0 1.0 1.0
000010 00 00 80 3f 00 00 80 3f 00 00 80 3f 00 00 80 3f
       1.0 1.0 1.0 1.0

resolve.4.layers.0.bn0.bias f4 [8]
000000 00 00 00 00 00 00 00 00 00 00 00 00 00 00 00 00
       0.0 0.0 0.0 0.0
000010 00 00 00 00 00 00 00 00 00 00 00 00 00 00 00 00
       0.0 0.0 0.0 0.0

resolve.4.layers.0.bn0.running_mean f4 [8]
000000 00 00 00 00 00 00 00 00 00 00 00 00 00 00 00 00
       0.0 0.0 0.0 0.0
000010 00 00 00 00 00 00 00 00 00 00 00 00 00 00 00 00
       0.0 0.0 0.0 0.0

resolve.4.layers.0.bn0.running_var f4 [8]
000000 00 00 80 3f 00 00 80 3f 00 00 80 3f 00 00 80 3f
       1.0 1.0 1.0 1.0
000010 00 00 80 3f 00 00 80 3f 00 00 80 3f 00 00 80 3f
       1.0 1.0 1.0 1.0

resolve.4.layers.0.conv1.weight f4 [8, 8, 1]
000000 d1 ea 8a 3e a9 62 bb 3c d7 d3 18 3f 75 b7 0e 3e
       0.27132276 0.022874193 0.5969824 0.13937171
000010 1e 5d 3a be 36 38 92 be b4 f1 a9 3e 96 20 de 3d
       -0.18199584 -0.2855851 0.33192217 0.10846059
000020 8e 30 96 bd ae 35 09 3f f5 8e 9c 3e 20 02 ae 3d
       -0.0733348 0.53597534 0.30577818 0.08496499
000030 f4 68 0e be c8 f4 37 be 61 de 76 3d aa 9d e8 3e
       -0.13907224 -0.1796447 0.06027067 0.45432788
000040 79 38 ed 3d 50 65 e3 3d b9 1e 13 be 19 a8 f3 3e
       0.11583037 0.11103308 -0.14367189 0.47589186
000050 52 8d cb 3e 82 d0 19 3d 7c 17 b6 3e fa 18 64 be
       0.39756256 0.037552364 0.35564792 -0.22275153
000060 db a4 cc 3e 63 5e 1d 3e 1c 22 85 3c 6c 09 f8 3e
       0.39969525 0.15368037 0.016251616 0.48444688
000070 bc 2c 19 3e 38 b4 c9 3e 5b fa cc 3d 92 1e ef 3d
       0.14958471 0.39395308 0.10008689 0.11675753
000080 46 31 c2 be 76 5a 4c 3e 27 03 9d 3d ff d3 f7 bc
       -0.37928218 0.19956383 0.07666617 -0.030252455
000090 28 a1 21 bd 94 69 2c 3e 7f 44 c1 3e da 34 b0 3e
       -0.03946033 0.1683715 0.3774757 0.34415323
0000a0 71 37 5f be 87 14 34 be 1a fa 95 be 39 14 e3 be
       -0.21798493 -0.17585956 -0.29292375 -0.44351366
0000b0 ac 1a dc 3e 6b c3 d2 3d 5d 59 b4 3e 0c 89 21 be
       0.429891 0.10291179 0.3522443 -0.15774935
0000c0 b8 84 89 3e 11 b0 61 3e e4 99 25 be b4 ff 9f 3e
       0.2685907 0.2203982 -0.16171986 0.31249774
0000d0 61 f3 46 3e d3 90 44 be 8f 27 b9 bd 72 6a 4e bd
       0.19428779 -0.19195871 -0.09040748 -0.050394483
0000e0 b4 ff e4 3e 7f 21 55 3e cc bd 59 3e 7f b5 f6 be
       0.44726336 0.20813559 0.21263808 -0.48185346
0000f0 30 ce c9 3d 50 d7 08 3f 57 7e 44 bc a1 ee cf bd
       0.0985378 0.5345354 -0.011993012 -0.10152937

resolve.4.layers.0.conv1.bias f4 [8]
000000 27 65 53 be 6a 8c 0d 3e 4f 02 1b be d0 25 fb 3d
       -0.20644055 0.13823095 -0.151376 0.122630715
000010 d0 09 a7 3e 8f b1 0e be 97 1b 9c bd f3 68 39 3e
       0.32624674 -0.1393492 -0.0762245 0.18106441

resolve.4.layers.0.bn1.weight f4 [8]
000000 00 00 80 3f 00 00 80 3f 00 00 80 3f 00 00 80 3f
       1.0 1.0 1.0 1.0
000010 00 00 80 3f 00 00 80 3f 00 00 80 3f 00 00 80 3f
       1.0 1.0 1.0 1.0

resolve.4.layers.0.bn1.bias f4 [8]
000000 00 00 00 00 00 00 00 00 00 00 00 00 00 00 00 00
       0.0 0.0 0.0 0.0
000010 00 00 00 00 00 00 00 00 00 00 00 00 00 00 00 00
       0.0 0.0 0.0 0.0

resolve.4.layers.0.bn1.running_mean f4 [8]
000000 00 00 00 00 00 00 00 00 00 00 00 00 00 00 00 00
       0.0 0.0 0.0 0.0
000010 00 00 00 00 00 00 00 00 00 00 00 00 00 00 00 00
       0.0 0.0 0.0 0.0

resolve.4.layers.0.bn1.running_var f4 [8]
000000 00 00 80 3f 00 00 80 3f 00 00 80 3f 00 00 80 3f
       1.0 1.0 1.0 1.0
000010 00 00 80 3f 00 00 80 3f 00 00 80 3f 00 00 80 3f
       1.0 1.0 1.0 1.0

resolve.4.layers.1.conv0.weight f4 [8, 8, 3]
000000 31 3b ee be c4 97 4e be 49 ca 2d 3e ea 68 fd 3e
       -0.46529534 -0.20175081 0.16971697 0.49494106
000010 46 61 41 be a4 8f 3e be 54 b5 3e be 02 63 65 bf
       -0.18884763 -0.18609482 -0.18623859 -0.896042
000020 e5 7a 46 be 10 08 09 be 1b e2 de 3b 65 35 77 be
       -0.19382818 -0.13381982 0.006801856 -0.24141462
000030 e0 4e ee bd e6 7b 05 bd f9 95 60 3e 58 f7 a2 be
       -0.11636138 -0.032588862 0.2193221 -0.31829333
000040 d1 d8 1e bf de 1c 30 3c 78 fa 93 be 6c 47 9a 3e
       -0.62049586 0.01074907 -0.2890203 0.30132616
000050 62 22 cf 3d 66 fc f6 bc 3e ee b6 be e0 ec af bd
       0.1011398 -0.03014965 -0.3572864 -0.08590102
000060 ca c1 bf 3e ac 51 83 3e 62 5f 81 3e 76 c9 b9 3e
       0.37452537 0.25648248 0.25268084 0.36286515
000070 5e a2 4b 3e 51 5a 39 3e 82 b3 35 be ee 2d 6f be
       0.19886157 0.18100859 -0.17744258 -0.23357365
000080 df 11 a4 bd 1e 4d e9 3c 62 f5 71 be 77 41 c3 bc
       -0.08011221 0.028479155 -0.23628762 -0.023834927
000090 80 cf 4a 3b b2 f1 8a 3e 6d 77 cb 3d f3 60 48 be
       0.0030946434 0.27137524 0.09934888 -0.19568233
0000a0 16 91 72 be 4a f5 b8 bd 3e 64 24 b9 93 85 10 3d
       -0.23688158 -0.0903116 -0.00015677602 0.035283636
0000b0 cb 26 ec bd a5 48 c7 bc 43 63 fb 3d 6c 98 83 3d
       -0.11530837 -0.024326632 0.12274792 0.064255565
0000c0 c7 8f 19 3e e3 83 7a be 8d 2d 1c 3f 70 a1 24 3e
       0.14996253 -0.24464373 0.61007005 0.16077209
0000d0 be fc 30 bf 77 50 21 be 36 4c cf 3d 62 15 66 3d
       -0.69135654 -0.15753351 0.10121958 0.056172736
0000e0 b1 f7 df be 4e 5c 13 be 0e 38 b8 be d9 e6 3f 3c
       -0.4374366 -0.1439068 -0.35980266 0.011712753
0000f0 ae 66 b3 3b b4 d4 94 3d 81 c0 97 be 85 e9 02 be
       0.005474887 0.072671324 -0.29639056 -0.12784393
000100 c7 3b e2 3b 22 44 da bd 5d 70 94 bb 4d 97 1e be
       0.0069040987 -0.106575266 -0.0045299963 -0.15487404
000110 be 71 41 be 9c af 92 3d ec b2 7d bd 70 3b 6d 3e
       -0.18891045 0.07162401 -0.06193821 0.23167205
000120 2d 0f fd 3e 00 d2 bb 3e ec 6a 5a be 3f 52 4f bd
       0.4942564 0.36683655 -0.2132985 -0.050615545
000130 97 12 11 3e fe 83 30 bc dd c3 29 bd a9 6e 09 3e
       0.14167248 -0.010773657 -0.041446555 0.1342112
000140 1d 30 37 be 5d 40 2a 3b b7 65 c6 bc 83 38 81 be
       -0.17889448 0.0025978305 -0.024218423 -0.25238428
000150 a7 e3 29 be 79 b0 c9 3d 21 fc 68 3e 9b d0 e6 3d
       -0.16590749 0.098481126 0.2275243 0.11270257
000160 b6 3a 9a 3c 24 12 29 be de f6 50 3e d6 96 33 3d
       0.018826824 -0.16510826 0.20406672 0.04384502
000170 e1 9f d5 be 1c 1d 90 3e f6 b4 82 be 55 11 7f be
       -0.4172354 0.2814721 -0.25528687 -0.24908955
000180 f5 88 8b bd fc 76 64 be 80 22 a1 3d d3 c6 34 3c
       -0.06813232 -0.22311014 0.078679085 0.0110337315
000190 aa c1 0e bb 53 17 d6 bd 50 db bb 3d 4e e5 c4 bb
       -0.0021782913 -0.104536675 0.0917269 -0.0060087806
0001a0 1b 92 ef bd 4c ff 9f bb 85 4b d8 3d a7 d6 0f 3e
       -0.11697789 -0.0048827287 0.10561279 0.14046727
0001b0 df 02 8d 3d 88 0d e1 bd 43 0d 56 bc 99 f8 0d bd
       0.06885313 -0.10988909 -0.013064685 -0.03466091
0001c0 5b 27 23 be fc 24 24 3e e8 0a ab 3d 99 20 f9 3d
       -0.15932982 0.16029733 0.083516896 0.12164421
0001d0 1f 1f 55 bd b1 49 d8 bb 52 4a 78 3c 5e 76 fe 3c
       -0.052031633 -0.0066005816 0.015154438 0.031062301
0001e0 5d 12 1b bb 50 c8 15 bf 17 bb a5 bd 01 4b b8 be
       -0.0023662068 -0.5850878 -0.08092325 -0.35994723
0001f0 63 ba a8 be bb ea 95 be 33 86 1c 3d 97 56 c4 be
       -0.32954702 -0.29280648 0.03821392 -0.38347313
000200 78 43 a5 be 22 9a 23 be 03 91 6a bd 2f 52 b0 bd
       -0.32278037 -0.15976766 -0.0572672 -0.08609425
000210 4d dc dc be 05 67 4d be a1 ae 30 be f7 49 ee 3e
       -0.43136826 -0.2005883 -0.17254116 0.46540806
000220 62 ca 6b 3d 58 cf c2 3d 4e 84 11 bd 0e 4c 2c 3e
       0.057566054 0.09512204 -0.035526566 0.16825888
000230 0a 78 e7 3d 16 a7 93 3e a5 30 2d 3e 7c 55 2f 3e
       0.113021925 0.28838414 0.16913088 0.17122453
000240 cf e4 e9 bd 1e c3 ce 3e 59 3b dc 3d 59 68 37 be
       -0.11420595 0.40383238 0.10753507 -0.17910899
000250 64 db bc 3e 13 85 20 3d 50 18 37 be 22 3e 63 be
       0.36886132 0.03918941 -0.17880368 -0.2219167
000260 82 26 d0 be 72 a7 6c 3d e4 eb 6b be 4e c5 a7 bd
       -0.4065438 0.057776876 -0.23039204 -0.0819193
000270 cf 7b 3a bd 21 01 e8 3d 51 43 77 3d 6c 47 23 bc
       -0.04552823 0.1132834 0.060366932 -0.009965759
000280 4b 2d e7 be 69 35 8b be e3 b8 4b bd 2a 89 51 be
       -0.45151743 -0.27189186 -0.04973687 -0.2046248
000290 22 24 8f bd 31 48 1e bd 24 df 32 3c 8b 54 01 3d
       -0.06989314 -0.038643066 0.010917459 0.031574767
0002a0 46 89 94 bd 85 d1 0a bd 08 24 0f bd 21 a4 01 3e
       -0.07252745 -0.03389122 -0.03494647 0.12660266
0002b0 1c bf 53 be 2e 10 1b 3e 88 62 3c 3d 8a 6b af 3d
       -0.20678371 0.15142891 0.045992404 0.08565433
0002c0 e1 17 fc bc 50 d5 8d 3d fc 9b 99 3d 94 ff 8e 3c
       -0.030773105 0.06925452 0.07500455 0.017455854
0002d0 d9 40 01 bb 91 02 e6 3d 38 64 49 3d 4e 20 1c be
       -0.001972249 0.11230958 0.04916784 -0.15246698
0002e0 57 3a 0f be 88 8f 9b bc e5 72 84 bd b9 9c 2d be
       -0.13987099 -0.01898934 -0.06467227 -0.16954316
0002f0 98 77 a3 bd cc e3 b7 3d c6 41 7d 3e 45 91 1e 3d
       -0.07981795 0.08978996 0.24732122 0.03871276

resolve.4.layers.1.conv0.bias f4 [8]
000000 f3 2f a8 3b 60 90 19 be 15 5f ce bc 30 44 b6 bd
       0.005132669 -0.14996481 -0.025191823 -0.088997245
000010 27 68 64 3e da c1 64 be fd c6 b6 3d 1e 05 7a 3e
       0.22305356 -0.22339574 0.08924673 0.24416015

resolve.4.layers.1.bn0.weight f4 [8]
000000 00 00 80 3f 00 00 80 3f 00 00 80 3f 00 00 80 3f
       1.0 1.0 1.0 1.0
000010 00 00 80 3f 00 00 80 3f 00 00 80 3f 00 00 80 3f
       1.0 1.0 1.0 1.0

resolve.4.layers.1.bn0.bias f4 [8]
000000 00 00 00 00 00 00 00 00 00 00 00 00 00 00 00 00
       0.0 0.0 0.0 0.0
000010 00 00 00 00 00 00 00 00 00 00 00 00 00 00 00 00
       0.0 0.0 0.0 0.0

resolve.4.layers.1.bn0.running_mean f4 [8]
000000 00 00 00 00 00 00 00 00 00 00 00 00 00 00 00 00
       0.0 0.0 0.0 0.0
000010 00 00 00 00 00 00 00 00 00 00 00 00 00 00 00 00
       0.0 0.0 0.0 0.0

resolve.4.layers.1.bn0.running_var f4 [8]
000000 00 00 80 3f 00 00 80 3f 00 00 80 3f 00 00 80 3f
       1.0 1.0 1.0 1.0
000010 00 00 80 3f 00 00 80 3f 00 00 80 3f 00 00 80 3f
       1.0 1.0 1.0 1.0

resolve.4.layers.1.conv1.weight f4 [8, 8, 1]
000000 5a 38 dc 3d fb 34 d7 3e 8b 84 43 be e0 e2 93 3e
       0.10752936 0.42032608 -0.1909353 0.2888403
000010 9b 03 ff bb d7 be ab be 25 14 0f 3f 3b c3 de bd
       -0.007782412 -0.33544037 0.55890113 -0.10877081
000020 8e 76 a1 be 6e 4c d1 3e 72 82 55 3e 58 4e 86 3e
       -0.31535763 0.40878624 0.20850542 0.26231647
000030 91 10 75 3d 45 c0 03 bf b1 6e b9 3d 08 09 85 be
       0.059830252 -0.51465255 0.09054316 -0.25983453
000040 60 73 54 3e 3c 6b e0 bd c5 1d 9e be 4d f7 3a be
       0.20747137 -0.10957953 -0.30882087 -0.182584
000050 28 43 86 3e 98 06 f8 bd 7c aa 05 3d 7e ac 63 3e
       0.2622311 -0.12110633 0.03263329 0.2223377
000060 c7 01 eb 3d 1e 2f 05 3d 2a 67 77 3c ed 60 e2 3d
       0.114749484 0.032515638 0.01510028 0.110536434
000070 2c ce af 3e e3 e5 4f 3e e1 a9 8e be 73 ed fd 3e
       0.34336984 0.20302539 -0.27863982 0.49595222
000080 fe cf 34 be 37 f4 a5 3e 73 71 d2 3e 3c 45 9c 3e
       -0.17657468 0.32412884 0.4110218 0.30521572
000090 e7 41 26 be b0 5f 27 3e fb c1 be be 2d 59 d4 3d
       -0.16236077 0.16345096 -0.3725737 0.103685714
0000a0 fc 7e 87 be 87 b1 a4 bc bf d1 7a be ec 1a 8a bd
       -0.2646407 -0.020104183 -0.24494074 -0.06743416
0000b0 ea 9e e8 bb 51 60 38 3e 5b df 74 3e 85 18 1c 3e
       -0.007099022 0.18005492 0.23913328 0.15243728
0000c0 2a 66 74 3e b5 7b ba bb f6 cc 4d be a0 52 84 bd
       0.23867097 -0.0056910166 -0.20097718 -0.06461072
0000d0 f2 e9 30 3e b6 e8 fd 3d d6 28 b5 bd 7c d7 fc bd
       0.17276743 0.12397902 -0.088456795 -0.12345788
0000e0 93 3f 10 3d 27 1d d2 bb 88 ed f6 3c 69 a5 10 3d
       0.03521688 -0.0064121666 0.03014256 0.035313997
0000f0 d2 c5 bc 3d 60 fb 81 3e 0d 1d c1 be 9c 64 a2 3e
       0.09217419 0.25387096 -0.37717476 0.31717384

resolve.4.layers.1.conv1.bias f4 [8]
000000 56 c3 a9 3e 54 24 cf bd 70 46 86 be 7f 35 6e be
       0.33156842 -0.10114351 -0.26225615 -0.23262595
000010 3c a7 83 be c9 87 0e bc 4d 88 58 3c 93 10 47 be
       -0.25713527 -0.008699366 0.01321609 -0.19439916

resolve.4.layers.1.bn1.weight f4 [8]
000000 00 00 80 3f 00 00 80 3f 00 00 80 3f 00 00 80 3f
       1.0 1.0 1.0 1.0
000010 00 00 80 3f 00 00 80 3f 00 00 80 3f 00 00 80 3f
       1.0 1.0 1.0 1.0

resolve.4.layers.1.bn1.bias f4 [8]
000000 00 00 00 00 00 00 00 00 00 00 00 00 00 00 00 00
       0.0 0.0 0.0 0.0
000010 00 00 00 00 00 00 00 00 00 00 00 00 00 00 00 00
       0.0 0.0 0.0 0.0

resolve.4.layers.1.bn1.running_mean f4 [8]
000000 00 00 00 00 00 00 00 00 00 00 00 00 00 00 00 00
       0.0 0.0 0.0 0.0
000010 00 00 00 00 00 00 00 00 00 00 00 00 00 00 00 00
       0.0 0.0 0.0 0.0

resolve.4.layers.1.bn1.running_var f4 [8]
000000 00 00 80 3f 00 00 80 3f 00 00 80 3f 00 00 80 3f
       1.0 1.0 1.0 1.0
000010 00 00 80 3f 00 00 80 3f 00 00 80 3f 00 00 80 3f
       1.0 1.0 1.0 1.0

resolve.4.layers.2.conv0.weight f4 [8, 8, 3]
000000 ca 7e 67 3c d1 7d 18 bf dc 56 64 3c 23 60 15 bd
       0.01412935 -0.5956698 0.0139367245 -0.036468636
000010 53 58 2e bf 4c 51 d1 bc 8c e8 ce 3c 72 df c2 bd
       -0.6810352 -0.02555146 0.025257371 -0.09515275
000020 f3 cd 9f 3c 56 bb 9c bc a8 98 c1 be 31 b2 c5 bc
       0.019507384 -0.019132297 -0.3781178 -0.02413282
000030 55 ea a8 bc a9 c7 b8 3d e1 49 a1 bc 09 60 a0 3c
       -0.02061955 0.09022457 -0.019688549 0.019577043
000040 02 3a fe 3d 0a 0b bd bb 3b 5b bc 3b 57 fd c1 be
       0.12413408 -0.005769138 0.00574818 -0.37888595
000050 65 3f ee 3c 60 7d 2b 3d 3c 01 3c be cc 94 98 3c
       0.029082963 0.041867614 -0.18359846 0.01862564
000060 28 fa 18 3d 10 0e 58 bd c7 bf 8d 3d 90 e0 1e bd
       0.037347943 -0.052747786 0.06921344 -0.03878838
000070 09 7a 26 3e 72 4e 71 bd c7 a2 20 3d 15 79 dc 3d
       0.1625749 -0.058912702 0.039217737 0.10765282
000080 e8 3e 35 3d 8e 15 43 3d c4 dd f8 3d 3d 8c 1c 3b
       0.044249445 0.047627978 0.121516734 0.00238873
000090 93 f9 2c bd b7 64 f4 bd 83 21 67 bd 4e e4 2e 3d
       -0.0422302 -0.11933272 -0.056428444 0.042698197
0000a0 5f a2 82 bc 34 b8 8a 3d 46 75 5e 3d ab 8e ac bc
       -0.015946565 0.06773415 0.05431106 -0.021064123
0000b0 29 01 81 3d 44 63 de ba 2b c8 85 be 59 6e c7 bc
       0.062990494 -0.0016966839 -0.2612928 -0.02434461
0000c0 44 5b 9f bc f9 f2 83 be 49 4d 87 bd 0d 61 bf be
       -0.019452699 -0.2577131 -0.06606538 -0.3737873
0000d0 7d 2b 21 bf 5a 03 c6 be 54 0b b5 3d 52 2b c4 3e
       -0.6295698 -0.38674432 0.08840051 0.383143
0000e0 12 a2 04 3e 03 af a8 bd e2 f0 6f bd 2f 62 84 3d
       0.1295245 -0.08236506 -0.058579333 0.064640395
0000f0 ba 63 95 be a8 d1 ff be 67 2c 5c be d7 d6 c9 3e
       -0.29177648 -0.49964643 -0.21501313 0.39421722
000100 02 f0 7d 3e 73 cd cd 3e d2 e2 62 3e bd bd da 3d
       0.24798587 0.40195808 0.22156838 0.10680721
000110 7b 46 75 3e 5c 92 ac be 6e 39 ff bd 29 b8 63 be
       0.23952667 -0.33705413 -0.12462126 -0.2223822
000120 31 5b 9c bc c7 75 82 bd 0c b5 15 be 30 7b ae 3c
       -0.019086452 -0.063701205 -0.14619845 0.021298975
000130 f1 85 87 3e 2c a1 11 3e 14 9b 87 3d 35 d3 06 3e
       0.26469377 0.14221638 0.06621376 0.13166507
000140 d4 4d fd bc ac f1 61 bd 06 36 42 bd e8 eb 14 bd
       -0.0309209 -0.055162117 -0.047414802 -0.03635779
000150 19 f3 02 bd 32 dd 55 3e 87 2e 72 3c c4 b7 b0 3d
       -0.031970117 0.2088516 0.014781601 0.086288005
000160 bd ff 8a 3e d2 42 30 bd 2e 4c 87 3d 25 e8 9a bd
       0.27148238 -0.043032475 0.06606327 -0.07563809
000170 d6 ca 9c 3d 9e 77 42 be a5 55 ae 3d dd 29 16 be
       0.076558754 -0.18990943 0.08512429 -0.14664407
000180 41 d2 80 3b 24 ac 4a be af b9 6a b7 b8 60 97 3c
       0.003931314 -0.19792229 -1.399072e-05 0.018478736
000190 f7 55 25 be 30 5f 35 bb ae 7f e0 3c 2a 89 7b 3e
       -0.16146074 -0.0027675144 0.027404632 0.24564043
0001a0 51 54 da 3b 0f 3f e9 3c e6 38 97 3e ab 16 cd 3b
       0.0066628833 0.028472451 0.29535598 0.0062588057
0001b0 15 8d 67 bc ca 1f 21 3d 4a 70 39 ba 25 6d 27 3c
       -0.014132758 0.039336957 -0.00070739223 0.010218893
0001c0 b6 c7 1d be 53 6c 0e bd 89 b9 a7 3c a6 ba 8d bb
       -0.15408215 -0.034771275 0.020474212 -0.0043252287
0001d0 7b 38 9a bb 85 bc 0f bc b3 cb 91 be f9 b5 cc 3c
       -0.00470644 -0.008772974 -0.28475723 0.024989115
0001e0 4f 42 4a bc d2 4b 88 bd c7 91 2a bd 1a 18 c3 be
       -0.012344911 -0.066550866 -0.04164293 -0.38104326
0001f0 29 9c 40 bf a5 da c3 be 34 c3 b5 3d a1 30 58 3e
       -0.7523828 -0.3825275 0.08875123 0.211123
000200 30 8f 09 3e fb 42 1b be 39 47 bc be 56 24 0d 3d
       0.13433528 -0.1516227 -0.3677309 0.03445848
000210 c0 99 a3 be b3 d3 d5 bc d3 69 53 be f1 e6 a6 3e
       -0.3195324 -0.026101923 -0.20645837 0.3259807
000220 5f 0b d2 3e f3 1a bd 3e 74 7a 42 3e a1 53 f7 3d
       0.410243 0.36934623 0.18992025 0.12076498
000230 15 d3 50 3e 1c 04 18 be 26 24 22 3d fe 02 1a be
       0.20393021 -0.14845318 0.039585255 -0.15040204
000240 0d 80 ab bc 85 6d 05 3d a2 8c 14 bd 13 72 a1 bd
       -0.020935083 0.03257515 -0.03626693 -0.07883086
000250 e2 1b 8e bd 20 33 9f bc 6c b4 08 3e 83 90 1a 3e
       -0.06938912 -0.019433558 0.13350075 0.1509419
000260 83 46 e7 3a 7d 0a b7 bc 78 4b 36 3e 64 b4 e1 bc
       0.0017644915 -0.022343868 0.17802227 -0.027551837
000270 52 6a 08 be 52 1e 3c 3e 9e 58 bc bd af dd 17 3e
       -0.13321808 0.18370941 -0.0919659 0.1483066
000280 3c 31 52 bd 98 49 77 3e cb dd 3b 3e bc c6 4e 3e
       -0.051316485 0.24149168 0.18346326 0.20192999
000290 ac 2a 72 3e 73 2c 07 be 04 92 8d be 40 5c 86 be
       0.2364909 -0.1320055 -0.27650464 -0.26242256
0002a0 79 35 a1 bd ef 61 12 3f f2 e7 5f 37 d1 e6 04 3f
       -0.07871527 0.57180685 1.334584e-05 0.519147
0002b0 94 36 8f 3e 61 ad 7b 3d ff 96 ce be ef 40 f7 be
       0.27971327 0.061444644 -0.40349576 -0.48291728
0002c0 2a 08 c3 bd 61 0b a8 bd dd 86 02 3d e7 18 88 bd
       -0.095230415 -0.08205295 0.031866897 -0.06645375
0002d0 7a f6 11 3e 76 76 df bd 62 4d ac 3e 73 fe 6d bf
       0.1425418 -0.109112665 0.33652788 -0.92966384
0002e0 da 61 b0 3e 2a b5 10 bf 6a 21 0d bf 95 59 2a be
       0.34449655 -0.56526434 -0.5512911 -0.16635735
0002f0 89 77 ac be be ab de bd 4a 93 b6 bc df 91 3f 3d
       -0.33684948 -0.10872601 -0.02228703 0.046769973

resolve.4.layers.2.conv0.bias f4 [8]
000000 59 db 2e 3e 13 28 3a be ed 51 09 3e f3 d6 1c bd
       0.17075862 -0.1817935 0.13410158 -0.03829093
000010 88 28 42 3c 29 43 23 3e 4a 15 93 be 2a ee 7b 3c
       0.011850484 0.15943588 -0.2872718 0.015376607

resolve.4.layers.2.bn0.weight f4 [8]
000000 00 00 80 3f 00 00 80 3f 00 00 80 3f 00 00 80 3f
       1.0 1.0 1.0 1.0
000010 00 00 80 3f 00 00 80 3f 00 00 80 3f 00 00 80 3f
       1.0 1.0 1.0 1.0

resolve.4.layers.2.bn0.bias f4 [8]
000000 00 00 00 00 00 00 00 00 00 00 00 00 00 00 00 00
       0.0 0.0 0.0 0.0
000010 00 00 00 00 00 00 00 00 00 00 00 00 00 00 00 00
       0.0 0.0 0.0 0.0

resolve.4.layers.2.bn0.running_mean f4 [8]
000000 00 00 00 00 00 00 00 00 00 00 00 00 00 00 00 00
       0.0 0.0 0.0 0.0
000010 00 00 00 00 00 00 00 00 00 00 00 00 00 00 00 00
       0.0 0.0 0.0 0.0

resolve.4.layers.2.bn0.running_var f4 [8]
000000 00 00 80 3f 00 00 80 3f 00 00 80 3f 00 00 80 3f
       1.0 1.0 1.0 1.0
000010 00 00 80 3f 00 00 80 3f 00 00 80 3f 00 00 80 3f
       1.0 1.0 1.0 1.0

resolve.4.layers.2.conv1.weight f4 [8, 8, 1]
000000 e6 3a 07 bf a9 2a be be dc d3 4a be 1e 23 0a be
       -0.52824247 -0.37141922 -0.1980738 -0.13489959
000010 29 0a 39 3e 86 2a 8c be 9a e0 62 be 3e d9 6e 3e
       0.18070282 -0.27376193 -0.22155991 0.23325059
000020 d8 c4 00 bc 5c 38 e6 3d ce 2e aa be 9c 9c 16 bd
       -0.007859431 0.112412184 -0.33238834 -0.036770448
000030 d4 4e 18 3e b1 2d c8 be 5a 76 a0 be 9a b8 be 3e
       0.1487382 -0.3909736 -0.31340295 0.37250215
000040 a4 9a 0b bf e9 23 ac 3d bc 51 26 bd 3e be 7a bd
       -0.5453284 0.08405287 -0.04060529 -0.061216585
000050 c8 83 2a 3d 91 74 ba 3e 1c da bd 3e 1a 51 70 be
       0.041629583 0.36417058 0.37080467 -0.23468438
000060 88 61 1e be ed fd bf 3a 43 13 1d be 01 eb a1 bd
       -0.15466893 0.0014647819 -0.15339379 -0.079061516
000070 e4 7f 4f 3e 98 cf e4 bd 47 00 ab bd ec 16 4a 3e
       0.2026363 -0.11172408 -0.08349662 0.19735307
000080 4b 37 11 3e 5f dd 37 3e 31 f1 2c bf f4 96 9c 3d
       0.14181249 0.1795554 -0.6755553 0.076459795
000090 ad 66 cf 3d 7f a1 6e bd 5b 6e 10 bf 0b df 03 3f
       0.10127006 -0.058259483 -0.5641839 0.5151221
0000a0 8e 1b 46 3b 8c ed 8d 3d 21 19 d3 3d 48 4d cd bc
       0.0030228826 0.06930074 0.10307527 -0.025061265
0000b0 c9 fa 7d be d9 ea 43 be c1 51 28 bd 58 d6 3d 3d
       -0.24802698 -0.19132556 -0.04109359 0.046346992
0000c0 20 f0 a9 be 0e 89 20 bd b4 3b 8f bd a3 fc cc bd
       -0.33191013 -0.039193206 -0.06993809 -0.10009124
0000d0 cd fe 29 3e 9f ed b7 3d 9b 3d 42 3e 62 7b 54 bd
       0.16601105 0.089808695 0.18968813 -0.05187548
0000e0 c0 ea 28 be b3 12 4b 3e 5e a0 1d 3e d9 81 2e bc
       -0.164958 0.19831352 0.15393206 -0.010651075
0000f0 7e d0 31 be 67 88 8f bd 0e d0 07 3e 57 4b 5f bd
       -0.1736469 -0.070084386 0.1326296 -0.05451521

resolve.4.layers.2.conv1.bias f4 [8]
000000 84 d5 9b 3d c3 05 b7 3c ba 1a 70 3e 5a c7 25 bd
       0.07609084 0.022341615 0.23447695 -0.04047332
000010 3e 36 3e 3e b6 a8 b3 3e 24 20 18 3d 95 e6 91 3d
       0.18575379 0.35089654 0.037140027 0.07124058

resolve.4.layers.2.bn1.weight f4 [8]
000000 00 00 80 3f 00 00 80 3f 00 00 80 3f 00 00 80 3f
       1.0 1.0 1.0 1.0
000010 00 00 80 3f 00 00 80 3f 00 00 80 3f 00 00 80 3f
       1.0 1.0 1.0 1.0

resolve.4.layers.2.bn1.bias f4 [8]
000000 00 00 00 00 00 00 00 00 00 00 00 00 00 00 00 00
       0.0 0.0 0.0 0.0
000010 00 00 00 00 00 00 00 00 00 00 00 00 00 00 00 00
       0.0 0.0 0.0 0.0

resolve.4.layers.2.bn1.running_mean f4 [8]
000000 00 00 00 00 00 00 00 00 00 00 00 00 00 00 00 00
       0.0 0.0 0.0 0.0
000010 00 00 00 00 00 00 00 00 00 00 00 00 00 00 00 00
       0.0 0.0 0.0 0.0

resolve.4.layers.2.bn1.running_var f4 [8]
000000 00 00 80 3f 00 00 80 3f 00 00 80 3f 00 00 80 3f
       1.0 1.0 1.0 1.0
000010 00 00 80 3f 00 00 80 3f 00 00 80 3f 00 00 80 3f
       1.0 1.0 1.0 1.0
