generators/n3.ckpt (torch, 150062 bytes, 235 tensors)

resolve.0.weight f4 [3, 1, 7]
00000000: 5b95 203f d272 8e3f 37e8 773f b943 983f
00000010: 811a 513d f32e 3fbf 5f6f bebf 72ac 3a3f
00000020: b94b ec3e 1967 03bf b504 d53e 1c66 4a3f
00000030: 70ea 9e3f 20bb 8e3e ca93 a9bc 8a5e ed3e
00000040: bf17 8b3f da5d 5c3f 20c3 7a3d 6e2d 09bf
00000050: 01b1 a1bf
0.627279 1.112879 0.96838707 1.1895667 0.051050667 -0.74681014 -1.4877738 0.7291938
0.46151522 -0.5132919 0.41605154 0.79062057 1.2415295 0.2787714 -0.020700354 0.4636119
1.0866622 0.86080706 0.061221242 -0.53584945 -1.2632142

resolve.0.bias f4 [3]
00000000: a888 963d 7a18 5aba db00 973e
0.07350284 -0.00083196873 0.2949284

resolve.2.layers.0.conv0.weight f4 [3, 3, 3]
00000000: 3095 953d d346 3d3f bade 473f 4192 e0be
00000010: 826d ecbe f3f4 79bf b9cc 7b3e db0e 94be
00000020: ff24 823e b2ae 833f 4673 453f a681 8f3f
00000030: 9cbf 1c3f b1bc 2f3f a704 523e 2f56 e63c
00000040: ea76 493e 6c13 fe3c 8ca7 c2bd d548 753f
00000050: d327 523f e221 54be 172f 183e 9960 133e
00000060: d8a9 bfbd c8c0 adbe 5c9f c8be
0.07303846 0.73936194 0.7807423 -0.43861583 -0.46177298 -0.9763939 0.24589814 -0.28917584
0.2541885 1.0287688 0.7712902 1.121144 0.6122987 0.68647295 0.20509587 0.028117267
0.19674268 0.03101512 -0.09504613 0.9581426 0.82092017 -0.2071605 0.14861713 0.14392318
-0.09358567 -0.33936143 -0.39184082

resolve.2.layers.0.conv0.bias f4 [3]
00000000: 6d8a 3cbe 9e88 51be 0aa7 4a3e
-0.1841218 -0.20462272 0.19790283

resolve.2.layers.0.bn0.weight f4 [3]
00000000: 0000 803f 0000 803f 0000 803f
1.0 1.0 1.0

resolve.2.layers.0.bn0.bias f4 [3]
00000000: 0000 0000 0000 0000 0000 0000
0.0 0.0 0.0

resolve.2.layers.0.bn0.running_mean f4 [3]
00000000: 0000 0000 0000 0000 0000 0000
0.0 0.0 0.0

resolve.2.layers.0.bn0.running_var f4 [3]
00000000: 0000 803f 0000 803f 0000 803f
1.0 1.0 1.0

resolve.2.layers.0.conv1.weight f4 [3, 3, 1]
00000000: 42ce 8c3e 7867 af3e 180e b43e df86 58be
00000010: f80c 823e cdf7 14bf 880d ec3d 712d efbe
00000020: 1e2c 163f
0.27501112 0.34258628 0.35167003 -0.21145199 0.2540052 -0.58190614 0.115260184 -0.46714357
0.5866107

resolve.2.layers.0.conv1.bias f4 [3]
00000000: f934 e0bd c096 7d3d b06f 9bbc
-0.10947604 0.061911345 -0.018974155

resolve.2.layers.0.bn1.weight f4 [3]
00000000: 0000 803f 0000 803f 0000 803f
1.0 1.0 1.0

resolve.2.layers.0.bn1.bias f4 [3]
00000000: 0000 0000 0000 0000 0000 0000
0.0 0.0 0.0

resolve.2.layers.0.bn1.running_mean f4 [3]
00000000: 0000 0000 0000 0000 0000 0000
0.0 0.0 0.0

resolve.2.layers.0.bn1.running_var f4 [3]
00000000: 0000 803f 0000 803f 0000 803f
1.0 1.0 1.0

resolve.2.layers.1.conv0.weight f4 [3, 3, 3]
00000000: 48b7 60be 274e 383f 9643 91be 94cf c33e
00000010: 6e72 603e 6c64 8dbe 3f50 ab3e 22d5 f4bd
00000020: 5d56 92be c821 ab3e 0d1d 31be 2573 003f
00000030: 4e79 72bb 3985 08be 2f8e 20bf 3bd5 68be
00000040: 673c e03d 0e3b 12be 954e 8b3b 6acd 55bf
00000050: 4d21 7e3e d755 61bf db2f 00bf 81ea e63d
00000060: 0da9 b13d d382 99be d2a7 4a3e
-0.21944916 0.7199425 -0.28371876 0.38244307 0.21918651 -0.27615678 0.3345966 -0.11954714
-0.28581515 0.3342421 -0.17296238 0.50175697 -0.0036998573 -0.1333207 -0.62716955 -0.22737591
0.10949021 -0.1428034 0.004251311 -0.8351656 0.2481739 -0.88021606 -0.5007302 0.11275197
0.08674822 -0.29982623 0.19790581

resolve.2.layers.1.conv0.bias f4 [3]
00000000: 6417 433e 07d8 56be 4ade 2bbd
0.19051892 -0.20980845 -0.04196004

resolve.2.layers.1.bn0.weight f4 [3]
00000000: 0000 803f 0000 803f 0000 803f
1.0 1.0 1.0

resolve.2.layers.1.bn0.bias f4 [3]
00000000: 0000 0000 0000 0000 0000 0000
0.0 0.0 0.0

resolve.2.layers.1.bn0.running_mean f4 [3]
00000000: 0000 0000 0000 0000 0000 0000
0.0 0.0 0.0

resolve.2.layers.1.bn0.running_var f4 [3]
00000000: 0000 803f 0000 803f 0000 803f
1.0 1.0 1.0

resolve.2.layers.1.conv1.weight f4 [3, 3, 1]
00000000: 926b f73e f977 5ebe c35f a6be edd8 3abe
00000010: 25e9 0cbe d7e7 6b3f fdfb 513e c0c2 d4be
00000020: ece9 20be
0.48324257 -0.21725453 -0.32494935 -0.18246813 -0.13760813 0.92150635 0.20506282 -0.41554832
-0.15714234

resolve.2.layers.1.conv1.bias f4 [3]
00000000: dca0 7fbe 3f04 d9be 97db 57be
-0.24963707 -0.42386052 -0.2107986

resolve.2.layers.1.bn1.weight f4 [3]
00000000: 0000 803f 0000 803f 0000 803f
1.0 1.0 1.0

resolve.2.layers.1.bn1.bias f4 [3]
00000000: 0000 0000 0000 0000 0000 0000
0.0 0.0 0.0

resolve.2.layers.1.bn1.running_mean f4 [3]
00000000: 0000 0000 0000 0000 0000 0000
0.0 0.0 0.0

resolve.2.layers.1.bn1.running_var f4 [3]
00000000: 0000 803f 0000 803f 0000 803f
1.0 1.0 1.0

resolve.2.layers.2.conv0.weight f4 [3, 3, 3]
00000000: 5bff a2bd 7d6d 82bf 3b31 103e 3986 713c
00000010: 82c5 8b3d f69e 60be 724a 04bd c901 693e
00000020: e444 7d3c 3412 9abd caac f1be f2d3 433e
00000030: 7b54 71be 334d e0bd 4ad7 99be d87b c2bd
00000040: c252 c7bf b86c 023e 004f 9cbd 68a7 02be
00000050: 1476 7f3e 0dfd 3bbe 3662 013e 1f83 2b3d
00000060: f7a0 93bc f648 813f 6c3a c43e
-0.079588614 -1.0189663 0.1408128 0.014741474 0.06824781 -0.21935639 -0.03229756 0.22754587
0.015458319 -0.07523003 -0.4720214 0.1912382 -0.23567383 -0.109522246 -0.30047065 -0.094962776
-1.5572131 0.12736785 -0.076322556 -0.12759173 0.24947387 -0.1835825 0.12635121 0.041873094
-0.01802109 1.0100391 0.38325822

resolve.2.layers.2.conv0.bias f4 [3]
00000000: f6b7 2ebe 7300 1abd 890a a9be
-0.17062363 -0.037598085 -0.3301585

resolve.2.layers.2.bn0.weight f4 [3]
00000000: 0000 803f 0000 803f 0000 803f
1.0 1.0 1.0

resolve.2.layers.2.bn0.bias f4 [3]
00000000: 0000 0000 0000 0000 0000 0000
0.0 0.0 0.0

resolve.2.layers.2.bn0.running_mean f4 [3]
00000000: 0000 0000 0000 0000 0000 0000
0.0 0.0 0.0

resolve.2.layers.2.bn0.running_var f4 [3]
00000000: 0000 803f 0000 803f 0000 803f
1.0 1.0 1.0

resolve.2.layers.2.conv1.weight f4 [3, 3, 1]
00000000: d3a2 efbd d5d1 8ebc 000d 8fbe e581 13bf
00000010: 9871 613f cd53 97bf bdbf 04be 3a04 e93d
00000020: abb3 68be
-0.11700978 -0.01743404 -0.27939606 -0.5762008 0.88063955 -1.1822449 -0.12963767 0.11377759
-0.22724788

resolve.2.layers.2.conv1.bias f4 [3]
00000000: 7720 c53e 56c8 0a3f eaa3 21bf
0.3850133 0.5421194 -0.6314074

resolve.2.layers.2.bn1.weight f4 [3]
00000000: 0000 803f 0000 803f 0000 803f
1.0 1.0 1.0

resolve.2.layers.2.bn1.bias f4 [3]
00000000: 0000 0000 0000 0000 0000 0000
0.0 0.0 0.0

resolve.2.layers.2.bn1.running_mean f4 [3]
00000000: 0000 0000 0000 0000 0000 0000
0.0 0.0 0.0

resolve.2.layers.2.bn1.running_var f4 [3]
00000000: 0000 803f 0000 803f 0000 803f
1.0 1.0 1.0

resolve.2.layers.3.weight f4 [6, 3, 12]
00000000: 03e9 9abd e8fc 4ebe 01a6 85be 17bd ccbe
00000010: b960 4cbd 658d 94be 0d30 5cbe c991 963c
00000020: 023f cc3e 54ac dc3e 2db1 1f3f 5bba f33e
00000030: 7f3c 11bd a200 13be 7288 c6bd 79ef 73bd
00000040: 8003 e8ba c9fb 4f3d 042d 1e3e 6a17 0b3e
00000050: 9437 233e 6217 d23d 7d63 e73d d1ae 29be
00000060: ba79 8ebe 0eeb 76be 43a3 c9be 500c bdbe
00000070: 4d7d c6be a277 b8be 4313 25be a896 b33d
00000080: 0097 8b3e 297b cd3e d949 1c3f 0095 1a3f
00000090: bc14 1f3e 2903 563d 1e1d 8b3d c9b4 543e
000000a0: a552 9e3e 7836 d93e 55e6 1d3f 2c3e 1b3f
000000b0: a1a8 cd3e cca0 a23e babc 3c3e e133 9b3d
000000c0: 1c51 03bc 8fd8 4c3d 7f12 b6bd 40ef 423d
000000d0: 7f6c fe3d 8d3c 633e cff3 6fbd c870 093d
000000e0: e1d0 97bd c1ae 50be 2440 35bc 6bd9 413e
000000f0: 7076 3a3d 8651 f23d 7783 93bd e1ee 4dbe
00000100: b49a bcbc ff95 a33e 3024 8e3e 2ab7 613e
00000110: ceae 583e 1d85 e33b 4497 643d 3fae 433e
00000120: 9fbc dfbe df6f 37be 6048 1ebe a3ea 8a3e
00000130: f7fc 973e 5609 0d3e 297f 3ebe a899 d5be
00000140: 8d6e 01bf 8428 4dbe 9729 2abd b970 c73d
00000150: 7d74 bc3e a90c 4b3e ac84 4f3f dfef b43d
00000160: 57f4 6bbf 1b3d 54bf 42f5 253f f58c c03f
00000170: c1ac ef3f 3368 4e3f 0c0e 3fbf 1471 5fbf
00000180: ecf9 a1be bec7 bbbd 1955 b5bd a5d7 773e
00000190: c2d2 363e 36b5 00be 7adf 51be 7bef 84be
000001a0: a7a1 023d 6112 6e3e 4e5c 133f 76dc 103e
000001b0: a2ff f83d 6a57 c63d 0988 ac3d 2cb7 89be
000001c0: 34d7 aabc 1d3d acbd 6c2d 693e 41de f73e
000001d0: 6a2d b23e 5af7 953e 3a13 0dbe ddca e3be
000001e0: 39c2 94bd 4116 69bf bfb2 a3be 53b2 f23e
000001f0: 79b5 bf3f 947a a83f a825 6abd 4395 36bf
00000200: 45a0 67bf 2850 f9be 2e09 203f c8f0 d43f
00000210: 2e7a 17bf c627 c6be 15f8 57be e303 7d3d
00000220: a549 cdbd f119 503e 8f8a 703e 62c1 cc3d
00000230: 19f2 1b3d d647 d8bd 8f5d 92be 706a b9be
00000240: 90fe df3d 0c08 e2bd 0651 1abe e515 17be
00000250: 4fc2 82be 44ee a4be 267c 97be c007 62be
00000260: 4b16 00be 17b9 32be a4be d8be 5317 b0be
00000270: 0913 573e 928c bd3d d8a0 723e 5b94 443f
00000280: ec9a 9d3f 711d 773f cdb3 ce3e 7f1c a43e
00000290: b1b0 223e dc05 0ebe 3648 483e df04 ab3e
000002a0: d3ba 6f3d 99a3 803d 644d 2cbe 35f3 70be
000002b0: b715 79be 28ae 33be 3c39 91be 517a ecbd
000002c0: b401 a03c 0aea a6bd 0979 78be 230a 0abe
000002d0: 4117 6abe 3fab 9dbe 1211 b5be 4038 8ebe
000002e0: dade 81be 78e3 19bf 0f82 efbe 3341 aabe
000002f0: 8b7b 02bf fef6 02bf 9a06 dcbe 0773 f7be
00000300: 4188 48be 49b2 31be 05ec 28be 4b0b 0ebc
00000310: e44a ac3e d44d d63e bd49 133f 971f 6b3f
00000320: e9e6 543f 02df e33e 00ec d43d 0aff 7b3e
00000330: adbd 18bd f1e4 163e 58d9 833e 1c49 073d
00000340: 71d0 47be 0acd f1bc 64cb 7cbe 5f86 88be
00000350: 9ffe 9abe a1a4 16be f133 fdbd 01eb 09be
-0.07563975 -0.20213664 -0.26103213 -0.39988014 -0.04989693 -0.29014125 -0.21502705 0.018380063
0.3989182 0.43100226 0.62379724 0.47603115 -0.035458084 -0.1435571 -0.09693994 -0.05955455
-0.0017701238 0.05077723 0.1544686 0.1358315 0.1593917 0.10258366 0.11298273 -0.16570593
-0.27827245 -0.24113104 -0.3938237 -0.36923456 -0.38767472 -0.36028773 -0.16120629 0.0876897
0.2726364 0.40133026 0.6105018 0.60383606 0.15535253 0.052249108 0.06792663 0.20772089
0.30922428 0.4242437 0.61679584 0.6064174 0.40167716 0.31763303 0.18431368 0.075782545
-0.008014943 0.050011214 -0.088902466 0.047591448 0.12423038 0.22191067 -0.058582123 0.033554822
-0.07412887 -0.20379163 -0.011062656 0.18930595 0.045523107 0.118319556 -0.07202809 -0.20110656
-0.023022987 0.31950375 0.27761984 0.22042528 0.21160433 0.0069433586 0.05580832 0.19109438
-0.43698594 -0.17913769 -0.15457296 0.2713214 0.29685184 0.13773093 -0.18603195 -0.41718793
-0.5055931 -0.20034987 -0.04154357 0.09738297 0.36807624 0.19829048 0.81061816 0.08834814
-0.9216971 -0.8290574 0.6482736 1.5043017 1.8724595 0.80627745 -0.7463081 -0.8728192
-0.31635988 -0.09168957 -0.08854122 0.24203356 0.17853835 -0.12569126 -0.20495406 -0.2596396
0.031892445 0.23249198 0.5756272 0.14146599 0.12158133 0.09684642 0.08424384 -0.26897562
-0.02085457 -0.08410094 0.22771233 0.48411754 0.34800273 0.29290277 -0.13776866 -0.4449071
-0.072636075 -0.9104958 -0.3197231 0.47401676 1.4977256 1.3162408 -0.057164818 -0.71321505
-0.90478927 -0.48693967 0.6251401 1.6635981 -0.59170806 -0.3870222 -0.2109073 0.061771285
-0.10023812 0.20322396 0.23490356 0.09997822 0.03807268 -0.105605766 -0.28587005 -0.36214018
0.10937226 -0.11036691 -0.1506997 -0.14754446 -0.2553887 -0.32213032 -0.29586905 -0.22073269
-0.12508504 -0.17453419 -0.42332947 -0.34392795 0.21003355 0.09255327 0.2369417 0.7678887
1.2312903 0.965293 0.40371552 0.3205299 0.15887715 -0.13869423 0.19558796 0.33402154
0.05852778 0.06281204 -0.16826397 -0.23530276 -0.2432469 -0.17546904 -0.2836398 -0.115467675
0.019532062 -0.08150108 -0.24264921 -0.1348043 -0.22860433 -0.30794713 -0.35364586 -0.2777729
-0.25365335 -0.60112715 -0.46778914 -0.33252868 -0.5096976 -0.5115813 -0.42973787 -0.48329946
-0.19583227 -0.17353167 -0.16496284 -0.008669685 0.33650887 0.41856253 0.5753439 0.9184508
0.8316484 0.4450608 0.10396576 0.24609008 -0.037290264 0.14735772 0.25751758 0.033028707
-0.19513108 -0.029516716 -0.24686962 -0.26665017 -0.30272385 -0.14711238 -0.12363423 -0.13468553

resolve.2.layers.3.bias f4 [6]
00000000: fe4e 3ebe 1d74 9bbe dc81 153e a098 bbbd
00000010: 3e4f c7be 986c 163e
-0.1858482 -0.30362025 0.14600319 -0.0915997 -0.38927644 0.14689863

resolve.3.layers.0.conv0.weight f4 [6, 6, 3]
00000000: a88d 6abf 37f7 7d3f 2826 b73e 47d0 94be
00000010: 53df a4be e98f bb3e 519d 76be c05f 67ba
00000020: 991b 32be be0f 4cbe 8233 34be 64e0 6f3c
00000030: d209 03be d7cc d53e 4018 d3be e5d6 b23d
00000040: 43b7 1a3f 3937 72be 3038 1fbe 611d 5ebd
00000050: 742b 0c3e 65b6 84bd 8e2c 603e 95ab 55be
00000060: 8bb3 3bbe 3e05 cc3d 3522 bfbd 60c1 0fbd
00000070: c8e6 82bc 791e dabc f78c 3d3e f5b6 7d3e
00000080: ce17 663e 0882 d4bd bdc6 f8be 6b09 053c
00000090: 5882 4abf 8d0e 423e ba15 72be 29cf 0b3e
000000a0: d0f3 0e3e 82d3 9f3e ee6a 8ab9 fbc2 c73c
000000b0: 2b79 63bd 8599 413e f190 0fbe aee8 9cba
000000c0: b22d a8be 8325 953e a00f 2fbe 9e68 8a3e
000000d0: da48 fa3e 3e43 f03a db00 023e eebf c2be
000000e0: 94ba 4ebe bef2 f03d 6b3f bbbc 36c9 793d
000000f0: 8c3e 703e 9a73 393f db84 7e3e 320c 523e
00000100: 4ebf d93a 9100 0f3e 6c65 97be 1701 ffbe
00000110: 4f32 98be 563b 0cbe 781a a4be cf88 f6bd
00000120: 0e39 db3f df30 98bf c859 debe 8e87 733e
00000130: e3eb b13e b7f0 fabe ecea 763e a611 d3be
00000140: f01c f83d 3c3c de3c 5bd1 423e 6dea f2bd
00000150: 63b9 6dbd 18f7 d1be fa16 bc3e 879b f4bd
00000160: 3a75 a8be efb1 f03e 427e ea3c 25ea 3abf
00000170: 29f1 863e 0ed6 14bc 516f 7dbe a52b d4bd
00000180: 9f50 fa3d 8158 933f 208c 4a3d dcf0 323e
00000190: ead9 1a3e e0b0 0c3d 380d cebc 03f3 fdbe
000001a0: 994f 883d 38fd 8abe 2515 19be be0a 5e3d
-0.916224 0.99205345 0.35771298 -0.29065153 -0.32201633 0.36633232 -0.24083449 -0.00088262185
-0.1739334 -0.1992788 -0.17597774 0.014640901 -0.12796715 0.41757843 -0.4122944 0.08732394
0.60435885 -0.23653878 -0.15548778 -0.054227237 0.13688451 -0.064801015 0.21891996 -0.20866235
-0.18330209 0.09961937 -0.09332696 -0.035096526 -0.015979186 -0.026625859 0.18510805 0.24776824
0.22470018 -0.10376364 -0.48589125 0.008119921 -0.7910514 0.18950863 -0.236411 0.13653244
0.13960195 0.31216055 -0.0002640108 0.024384966 -0.055535477 0.1890622 -0.14020135 -0.00119712
-0.32847363 0.29130182 -0.17095804 0.27032942 0.48883706 0.0018330587 0.12695639 -0.38037056
-0.20188361 0.117650494 -0.022857388 0.060982905 0.2346136 0.7244202 0.24855368 0.20512465
0.0016612799 0.1396506 -0.29569566 -0.4980552 -0.29725882 -0.1369451 -0.32051444 -0.12037813
1.7126787 -1.1889914 -0.43427873 0.23782179 0.3475028 -0.49011776 0.24113053 -0.41224402
0.121148944 0.027128331 0.19025175 -0.118611194 -0.058038127 -0.4100883 0.3673628 -0.11943727
-0.32901937 0.47010753 0.028624658 -0.73013526 0.26355866 -0.009084238 -0.24749495 -0.10359887
0.122224085 1.1511384 0.04945004 0.17474693 0.1512219 0.03434837 -0.025152788 -0.49599466
0.06655807 -0.27146316 -0.14949472 0.054209463

resolve.3.layers.0.conv0.bias f4 [6]
00000000: 9173 c1bd 8b06 1abe 1c83 ef3d d06e 4f3d
00000010: 378c 6cbe 266a adbe
-0.09445871 -0.15041558 0.11694929 0.05064279 -0.23100363 -0.33870047

resolve.3.layers.0.bn0.weight f4 [6]
00000000: 0000 803f 0000 803f 0000 803f 0000 803f
00000010: 0000 803f 0000 803f
1.0 1.0 1.0 1.0 1.0 1.0

resolve.3.layers.0.bn0.bias f4 [6]
00000000: 0000 0000 0000 0000 0000 0000 0000 0000
00000010: 0000 0000 0000 0000
0.0 0.0 0.0 0.0 0.0 0.0

resolve.3.layers.0.bn0.running_mean f4 [6]
00000000: 0000 0000 0000 0000 0000 0000 0000 0000
00000010: 0000 0000 0000 0000
0.0 0.0 0.0 0.0 0.0 0.0

resolve.3.layers.0.bn0.running_var f4 [6]
00000000: 0000 803f 0000 803f 0000 803f 0000 803f
00000010: 0000 803f 0000 803f
1.0 1.0 1.0 1.0 1.0 1.0

resolve.3.layers.0.conv1.weight f4 [6, 6, 1]
00000000: 9781 26be 2aa2 fe3d 4e1a 853d 66cc de3e
00000010: 37dc 40be 7771 89be d378 9d3c 34a1 eb3d
00000020: d6ba 5ebc cbbc 9cbe 8f97 d33e 4482 cc3e
00000030: 8941 a73d 9429 8ebe 2f12 4dbe df35 b23d
00000040: b8f6 043e a7e4 d63e 09ba c5bd 10bc 023f
00000050: 84f9 7ebe 84cc 13bf c1ca 9a3e 0380 bbbe
00000060: ac66 883e a71d 07bf 5126 c73e e909 85be
00000070: 23e6 ab3d 24cb 813e ce81 d33e 924b 9dbe
00000080: 2658 093e 7ac9 3c3f 5184 a33e ea8c 133f
-0.16260372 0.12433274 0.06499158 0.4351532 -0.18834005 -0.2684438 0.019222653 0.115053564
-0.01359435 -0.30612788 0.41326568 0.39943135 0.08166797 -0.27766097 -0.20026468 0.08701681
0.1298474 0.41971323 -0.09654624 0.5106821 -0.2489987 -0.5773394 0.30232814 -0.36621103
0.26640832 -0.5277962 0.3889642 -0.25984123 0.083935045 0.25350296 0.4130997 -0.30721718
0.13412532 0.7374493 0.31936887 0.5763689

resolve.3.layers.0.conv1.bias f4 [6]
00000000: 77fb 55be 65e8 ef3d a049 9c3e 38a7 08be
00000010: 52e9 003f 5ebe 2a3e
-0.20896707 0.117142476 0.3052492 -0.13345039 0.5035602 0.16674182

resolve.3.layers.0.bn1.weight f4 [6]
00000000: 0000 803f 0000 803f 0000 803f 0000 803f
00000010: 0000 803f 0000 803f
1.0 1.0 1.0 1.0 1.0 1.0

resolve.3.layers.0.bn1.bias f4 [6]
00000000: 0000 0000 0000 0000 0000 0000 0000 0000
00000010: 0000 0000 0000 0000
0.0 0.0 0.0 0.0 0.0 0.0

resolve.3.layers.0.bn1.running_mean f4 [6]
00000000: 0000 0000 0000 0000 0000 0000 0000 0000
00000010: 0000 0000 0000 0000
0.0 0.0 0.0 0.0 0.0 0.0

resolve.3.layers.0.bn1.running_var f4 [6]
00000000: 0000 803f 0000 803f 0000 803f 0000 803f
00000010: 0000 803f 0000 803f
1.0 1.0 1.0 1.0 1.0 1.0

resolve.3.layers.1.conv0.weight f4 [6, 6, 3]
00000000: 5090 d4be 01b0 b83e 8ad8 0fbf 858d 3abd
00000010: 9d61 98bc 0a16 d03e 8233 15bf 0e7e 843f
00000020: eced 59bf 641c 7c3d 22e8 b0bf e46c 193e
00000030: a709 023e 2981 1dbf 7461 3f3e 70fb 15bf
00000040: c9a4 c93e b358 02bf ac35 593d 8de3 033f
00000050: c7eb a9bd 65c3 b23d 91bf f8be 1772 b13e
00000060: 59fb 41be a143 9b3e 71fa e1be e0b3 4cbe
00000070: 049c a6bf f7a4 c7be a9c4 14be 44bd ec3e
00000080: 9b4d 80be ac53 50bd 2981 0fbd 0545 bfb9
00000090: 2c9a 233e 35a0 e0bd 452d 783d f138 49bd
000000a0: 95aa a0be 1642 233e e6b3 233c 9e22 84bd
000000b0: 0ec0 173e f9e7 7b3b a31c 0c3f 3b18 cf3b
000000c0: 1fe6 bb3d c2f7 d9bd 5f99 ba3d 167b 4ebc
000000d0: b86b 10bc 5f4b babd e9ba 393e ab7c 28be
000000e0: d895 e33b d30b c43d 6064 b9be 16a3 be3c
000000f0: c384 063d 4428 cebe c0fa 78bc c838 8abb
00000100: 861d 593e 555b efba 194c 0b38 dc16 8abf
00000110: 572d 97bd 801b 8ebd 529e 9b3e 6c93 433b
00000120: b007 7cbd d53e 803e 4793 c43c 8d28 64bc
00000130: d90d 83be 82d1 323d 33eb e1bd c1b1 b6bf
00000140: 3357 093d f7e5 ebbd 8ed7 9b3f 2476 18be
00000150: 5cd3 08be 501c 473e be60 9c3c d251 44bd
00000160: 4fb1 cabd 2bef 07be 2e32 d0be 8553 03be
00000170: ebe3 e0bd 166b 96bc 3da7 b03d 50b6 213e
00000180: 81ee 5ebe 24af 433f f435 01bf 686d 3fbe
00000190: 8a3f 9f3e 3f86 f3be e37b 9bbe dfdc 37bf
000001a0: 5969 46be d3ff 81be 991e 14bf 8e07 6cbe
-0.41516352 0.3607178 -0.5618979 -0.04554512 -0.018601233 0.40641814 -0.5828172 1.0350969
-0.85128665 0.061550513 -1.3820841 0.14982945 0.12698995 -0.6152521 0.18689519 -0.5858679
0.39383534 -0.50916594 0.0530297 0.5151909 -0.08296924 0.08728675 -0.48583654 0.34657356
-0.18943538 0.30325034 -0.44136384 -0.19990492 -1.3016362 -0.38993046 -0.14528145 0.46238148
-0.25059208 -0.050861046 -0.035035286 -0.00036481782 0.1597678 -0.10968057 0.060590047 -0.04912657
-0.31380144 0.15943179 0.009991622 -0.06451915 0.14819357 0.0038437827 0.54731196 0.006320027
0.091747515 -0.10642959 0.091112845 -0.012602588 -0.008814745 -0.09096407 0.18137707 -0.16453807
0.006945353 0.09572568 -0.36209393 0.023271125 0.032841455 -0.40265095 -0.015196502 -0.0042181946
0.21202669 -0.0018261472 3.3211054e-05 -1.0788226 -0.07381695 -0.06938839 0.30394226 0.002984251
-0.06153077 0.25047937 0.023996009 -0.013925684 -0.25596502 0.043656833 -0.11031189 -1.4272996
0.033530425 -0.11518472 1.2175157 -0.14888817 -0.13361877 0.19444394 0.019089099 -0.047929592
-0.098971 -0.13274829 -0.40663284 -0.12824829 -0.10980972 -0.01836161 0.08625648 0.15792203
-0.2177067 0.7643912 -0.5047295 -0.18694079 0.31103164 -0.4756336 -0.30367956 -0.718214
-0.19376124 -0.2539049 -0.5785919 -0.23049757

resolve.3.layers.1.conv0.bias f4 [6]
00000000: 7d9e 9a3e c90f 3a3d e221 2ebe 2154 013d
00000010: a96a 1cbd b6fa 263c
0.30199042 0.04542521 -0.17005113 0.031574372 -0.038187657 0.01019161

resolve.3.layers.1.bn0.weight f4 [6]
00000000: 0000 803f 0000 803f 0000 803f 0000 803f
00000010: 0000 803f 0000 803f
1.0 1.0 1.0 1.0 1.0 1.0

resolve.3.layers.1.bn0.bias f4 [6]
00000000: 0000 0000 0000 0000 0000 0000 0000 0000
00000010: 0000 0000 0000 0000
0.0 0.0 0.0 0.0 0.0 0.0

resolve.3.layers.1.bn0.running_mean f4 [6]
00000000: 0000 0000 0000 0000 0000 0000 0000 0000
00000010: 0000 0000 0000 0000
0.0 0.0 0.0 0.0 0.0 0.0

resolve.3.layers.1.bn0.running_var f4 [6]
00000000: 0000 803f 0000 803f 0000 803f 0000 803f
00000010: 0000 803f 0000 803f
1.0 1.0 1.0 1.0 1.0 1.0

resolve.3.layers.1.conv1.weight f4 [6, 6, 1]
00000000: 5eea 92be cdf7 9a3e 168d 5cbf b1ec 15be
00000010: f44b 313e 2462 4b3d 805f 413d 84a3 1a3e
00000020: 33e2 2b3e 2506 30bf 0c79 a53e a93d 97bd
00000030: 517f a4bd 9960 573e ce27 b9be 1ee3 22bf
00000040: adc3 923c 5c7f e33e cf9c 82bf 2a30 713f
00000050: a855 09bf e108 23be 6bd9 5e3f 774b 693e
00000060: 63ca abbc dace e63d 292b 903d 15db 41be
00000070: 522e 973e 18da 9e3a 1935 9c3e d37d dc3e
00000080: ddf8 31be 4e71 3d3d 82f0 c13d ddc3 bdbe
-0.28694433 0.30267182 -0.8615278 -0.14641072 0.1731413 0.04965414 0.047210217 0.15101439
0.16785507 -0.68759376 0.32318914 -0.073848076 -0.08032096 0.21032943 -0.3616318 -0.63627803
0.017915571 0.44433105 -1.0204104 0.9421412 -0.53646326 -0.15921356 0.87050503 0.22782694
-0.020970529 0.112699226 0.07039482 -0.1893123 0.29527527 0.001211944 0.3050926 0.43064746
-0.1738009 0.046250634 0.09469701 -0.37063494

resolve.3.layers.1.conv1.bias f4 [6]
00000000: c21d b3be 5590 fabd 7aa7 ed3e 863b b0bc
00000010: 74c2 4f3e 658d 133e
-0.3498364 -0.122345604 0.46416837 -0.021512758 0.20289022 0.14409406

resolve.3.layers.1.bn1.weight f4 [6]
00000000: 0000 803f 0000 803f 0000 803f 0000 803f
00000010: 0000 803f 0000 803f
1.0 1.0 1.0 1.0 1.0 1.0

resolve.3.layers.1.bn1.bias f4 [6]
00000000: 0000 0000 0000 0000 0000 0000 0000 0000
00000010: 0000 0000 0000 0000
0.0 0.0 0.0 0.0 0.0 0.0

resolve.3.layers.1.bn1.running_mean f4 [6]
00000000: 0000 0000 0000 0000 0000 0000 0000 0000
00000010: 0000 0000 0000 0000
0.0 0.0 0.0 0.0 0.0 0.0

resolve.3.layers.1.bn1.running_var f4 [6]
00000000: 0000 803f 0000 803f 0000 803f 0000 803f
00000010: 0000 803f 0000 803f
1.0 1.0 1.0 1.0 1.0 1.0

resolve.3.layers.2.conv0.weight f4 [6, 6, 3]
00000000: a396 9d3e db70 d83e 7f32 153e 988a b8bd
00000010: 440c f3be 328d 99be a668 443e 693e e5bd
00000020: 066d 223e df5e de3e 43c7 c4be 53ec eb3e
00000030: e951 1cbe adf4 2f3f 2b06 24be bbfb 66be
00000040: b8f6 c83d 6e52 5cbe 25ce 953d 0c2f 81bf
00000050: 8a78 58bd 55dc 16bd e42c e63d 0966 8f3c
00000060: d801 a3bd 3dab cd3e fe0c 7ebd 5248 a1bd
00000070: bcf5 793f 7364 ccbd 9eec d23d 3801 74be
00000080: 0994 e63d 602a 9dbd db4a 37bf f50d a6bd
00000090: a79f 9dbb a690 9a3f 2453 2fbd 4ad4 adba
000000a0: 8a6b 82bf 99b9 623d 1cd3 80bd 9b3f dabe
000000b0: 1076 a1bd e5a1 6abd 4460 0a3f 841a cfbd
000000c0: e172 8dbc 5258 1f3f 514c 25bc 10eb 62bc
000000d0: 07fd 973e a5b2 71bd 4b21 8bbd 7585 ad3b
000000e0: 23e6 97bb 4e08 ab3d 76c1 a83e 423c ca3d
000000f0: 3133 393d 388a ccbc b02c 383e b5ac efbc
00000100: ff0b 81bf 783e 77bd 79a1 643d 4cba 32bf
00000110: a2ab b33d ccff 023e 1f8d 1abd d139 803d
00000120: cdf2 fa3d e2bc 80bf c212 e03c cc4f 0ebe
00000130: c4b2 103f 9625 8ebd f492 edbc 263e 4dbe
00000140: 26c5 d8bd f2c1 dd3c 8a16 373f b71b aabc
00000150: e782 9ebd 2dc8 31bf ed1f 25bd a6ea c1bd
00000160: b3e3 43bf b3c4 66bd 6ead 903d 6d54 dd3e
00000170: 2c15 11be b23b 8b3e f3c7 04bf 1fab 5b3e
00000180: 6a31 6dbe dc9d 8c3c 6a43 b4bc f3c7 a0be
00000190: 72bd f1be 7302 80be 628d 993b 8569 2f3e
000001a0: d1c2 80bc c9ee a73e 83d8 4f3e dfe0 8f3e
0.3077899 0.42273602 0.14570044 -0.0901081 -0.47470295 -0.29990536 0.19180545 -0.111935444
0.15861902 0.43431756 -0.38433275 0.4607874 -0.15265621 0.6873272 -0.16017978 -0.22556965
0.09812683 -0.2151582 0.073147096 -1.0092483 -0.05284933 -0.03683122 0.11239031 0.017504709
-0.07959336 0.40169707 -0.06202411 -0.07875122 0.97640586 -0.09980097 0.102990374 -0.2382859
0.11258704 -0.07674098 -0.71598595 -0.08108131 -0.004810292 1.2075393 -0.0428039 -0.001326212
-1.0189068 0.05535278 -0.06290266 -0.42626652 -0.07883847 -0.0572833 0.5405314 -0.10112479
-0.017266693 0.6224414 -0.010088996 -0.013849989 0.29685232 -0.05900826 -0.067934595 0.0052954503
-0.0046355887 0.08351193 0.329601 0.098747745 0.045214836 -0.024968252 0.17985797 -0.029257158
-1.0081786 -0.06036231 0.055818055 -0.69815516 0.08772971 0.12792891 -0.03773224 0.062610276
0.12253342 -1.0057642 0.027352694 -0.13897628 0.56522775 -0.06940763 -0.029000737 -0.20043239
-0.10584478 0.02707002 0.71518767 -0.020765169 -0.077398114 -0.6944607 -0.04031365 -0.09468584
-0.76519316 -0.05633993 0.07064329 0.43228474 -0.14168233 0.2719398 -0.518676 0.21451996
-0.23163381 0.017165117 -0.022004802 -0.3140255 -0.47214848 -0.2500187 0.0046860436 0.17130096
-0.015717896 0.32799366 0.20297436 0.2810125

resolve.3.layers.2.conv0.bias f4 [6]
00000000: 460b 48bd 3f02 d0bd f685 ea3d 3e13 23be
00000010: 188d d0be 50f9 47be
-0.048838876 -0.101566784 0.11451332 -0.15925309 -0.40732646 -0.19528699

resolve.3.layers.2.bn0.weight f4 [6]
00000000: 0000 803f 0000 803f 0000 803f 0000 803f
00000010: 0000 803f 0000 803f
1.0 1.0 1.0 1.0 1.0 1.0

resolve.3.layers.2.bn0.bias f4 [6]
00000000: 0000 0000 0000 0000 0000 0000 0000 0000
00000010: 0000 0000 0000 0000
0.0 0.0 0.0 0.0 0.0 0.0

resolve.3.layers.2.bn0.running_mean f4 [6]
00000000: 0000 0000 0000 0000 0000 0000 0000 0000
00000010: 0000 0000 0000 0000
0.0 0.0 0.0 0.0 0.0 0.0

resolve.3.layers.2.bn0.running_var f4 [6]
00000000: 0000 803f 0000 803f 0000 803f 0000 803f
00000010: 0000 803f 0000 803f
1.0 1.0 1.0 1.0 1.0 1.0

resolve.3.layers.2.conv1.weight f4 [6, 6, 1]
00000000: b635 34be d48b fabd 75f6 a3be 0df8 0dbd
00000010: 7720 b7be 1f29 463e a06b aa3d 2c99 2abe
00000020: 280d 8a3e af13 9e3e 8b64 983e 725f b8bd
00000030: 3446 a9bd 4b45 c3be 19af 92bc 2e7b ed3e
00000040: 0c1d 183f fda7 aebd 83b4 0fbf 1dfa 433f
00000050: 0504 3a3f 3a77 5a3f 1f6f c6bd 94e0 053f
00000060: 2d1d 283d bef3 50be 1210 083e 7156 a23e
00000070: 8da3 ab3e 8a66 9ebd 5f92 033e 8d82 f53d
00000080: 2acc 373f 6f38 59bd 8bd5 b3be f1c3 4e3d
-0.17598614 -0.12233701 -0.3202397 -0.034660388 -0.35766956 0.19351624 0.08321309 -0.16659993
0.26963162 0.30874392 0.29764208 -0.0900258 -0.08265343 -0.38138804 -0.017905759 0.4638304
0.5941932 -0.08528135 -0.56134814 0.7655352 0.72662383 0.85338175 -0.096891634 0.52295804
0.04104345 -0.2040548 0.1328738 0.31706575 0.33523217 -0.077344015 0.12848805 0.11987791
0.71795905 -0.053032335 -0.35123858 0.050479833

resolve.3.layers.2.conv1.bias f4 [6]
00000000: e5f3 cfbd 625d 853e 8cf8 85be c889 a83e
00000010: 1d4b 293d 1618 67bd
-0.10153941 0.26047808 -0.2616619 0.3291762 0.0413314 -0.056419455

resolve.3.layers.2.bn1.weight f4 [6]
00000000: 0000 803f 0000 803f 0000 803f 0000 803f
00000010: 0000 803f 0000 803f
1.0 1.0 1.0 1.0 1.0 1.0

resolve.3.layers.2.bn1.bias f4 [6]
00000000: 0000 0000 0000 0000 0000 0000 0000 0000
00000010: 0000 0000 0000 0000
0.0 0.0 0.0 0.0 0.0 0.0

resolve.3.layers.2.bn1.running_mean f4 [6]
00000000: 0000 0000 0000 0000 0000 0000 0000 0000
00000010: 0000 0000 0000 0000
0.0 0.0 0.0 0.0 0.0 0.0

resolve.3.layers.2.bn1.running_var f4 [6]
00000000: 0000 803f 0000 803f 0000 803f 0000 803f
00000010: 0000 803f 0000 803f
1.0 1.0 1.0 1.0 1.0 1.0

resolve.3.layers.3.weight f4 [12, 6, 8]
00000000: ae39 57bd 9999 6ebe f0b9 13be deb8 0e3d
00000010: 4442 b43d 7729 943d c88f 28be ee3c a6be
00000020: 78d2 1ebe 5a7b a63d e19e 403d cd84 d53e
00000030: 061c d9be e7e8 0fbf f358 febd ca28 553e
00000040: 7906 233e 6ecb edbb d249 26bc 356d 123e
00000050: 356b 1f3f d68c 5d3d b96c 7b3e 8a64 55be
00000060: 99e7 d23e aa29 a53e e184 cc3e 400c 7c3e
00000070: 6a61 a53e 2f4d 233e e48a 7a3e 17ae 503e
00000080: edf6 11bd 67d6 2c3e 9325 883e 9982 d43d
00000090: ad71 8fbe c380 7e3f 8e25 37be 0462 ef3e
000000a0: 147c 013e 691a 113d ea81 823e 38b0 133d
000000b0: 7590 013f d35b 0e3f f431 713e f16d f3bc
000000c0: 0d30 e0bc 1957 5b3d bc84 2bbd be6f 27bb
000000d0: 8aa2 7fbc 1471 0dbd 0d35 0dbd c9eb abbd
000000e0: f7f7 2e3d 2dd9 293e b2de 723d 95a7 d1bd
000000f0: c5cb 05bd 9e2e 133f bd0b 4a3e 9a82 1e3e
00000100: 62f5 c9bc 45c6 bdbc 9230 463d e7c4 363c
00000110: db3b 363d f52c 2ebe 9d31 d53d 234b 873d
00000120: 9320 6d3d 0820 863d 1907 153d c482 8f3d
00000130: d72a 963d 440f e23d cb2e 7c3b 85d7 2d3d
00000140: 132e f5bb c847 46bd 55bc 2d3d 1420 963e
00000150: 9d6d 133e 967c 86be 9f45 69be 7fa0 91bd
00000160: d3a8 603d 4172 8c3d 8440 dc3d 08bf e93d
00000170: 9441 433e 99a8 82bd 4116 173e eef2 113d
00000180: c2ca 61bd 89ed 0e3e ae40 b9bc ad91 b43c
00000190: af50 1fbd afe7 96bd d49c fdbd 3d1b 1fbe
000001a0: 03b3 193d 7570 783e 4b6f f2bd d2a1 203c
000001b0: 2604 103e dd67 bdbc 7d8e 083e 8932 dc3c
000001c0: 5f2c 0cbd 5c25 4bbe bff3 debd a6d8 1dbd
000001d0: e7a5 7fbc 3812 80bd 9279 9cbc c007 73bd
000001e0: 9528 d6bc a4d1 7c3c fb88 01bd cd35 503d
000001f0: 87d9 333d 0a8d cc3b ce5e cb3b 4f28 2a3d
00000200: f23e 0c3e 71cf 363e 3e0e e73e 3b59 8a3e
00000210: 6815 d63e b181 b73e c089 2d3e f7a5 983e
00000220: b04a fa3d ee9f 243e f679 603e acb8 573e
00000230: 32d5 803e 4f9c 673e 1863 603e 15ea 0e3e
00000240: 6f32 e9bc 2824 8abd a531 77bd 4cb2 85bd
00000250: 6608 563b 705c b0bc cbe2 09be c8ae 6abe
00000260: f6e0 3abd ea89 88bd 2045 b4be 4b20 e8bd
00000270: 5018 113f 4c64 e43e 7603 6dbe 4277 a13d
00000280: d6d6 85bd 4716 d83d ee3b aa3d 705a 883e
00000290: 5019 b2be e241 9d3e 06b3 d53d 2e91 cd3c
000002a0: 7019 3a3e 1097 743e 12fc d33d 6ce1 323e
000002b0: 3aee 8b3e c216 5a3e 2dc0 0b3d 1b82 0f3e
000002c0: aae8 e73c fb83 b53c 0b60 433f 7df1 103e
000002d0: 3d01 c2bc 0e61 35bf 09a0 b23e 189c 353e
000002e0: 4d98 013e 4347 c93d 91e3 a83e dbeb 4f3e
000002f0: c00b c53d 0922 413e 95e6 7f3e d262 5a3d
00000300: 82e6 2cbd de59 813d 1aae 5ebd 4b6e 98bd
00000310: e365 58bd 11db ba3c a829 d2bd c380 36be
00000320: b401 833d 139b 3a3e 2cb7 073f ed82 adbe
00000330: 11a9 c2bc 1252 253c 499a 36be 8d54 b23d
00000340: 507c b5bd 5864 ff3d df66 0f3e 46e4 383e
00000350: f602 a6be dda5 2e3e b33e 4a3e 1cfb 90bd
00000360: 0274 123e f724 193e f9a5 c03d dad8 033e
00000370: c484 553e 457b 173e 565b 283c 8851 f43d
00000380: deb7 2dbd 1089 8ebe 4205 c4be 3f78 cd3e
00000390: 3e79 053f f031 c4bd 5c88 b93d b653 5f3e
000003a0: 7a40 693d 8deb e93d d576 273d 5cd8 513e
000003b0: 0d10 ef3d 27d2 5a3e 2835 593e 927b 13bb
000003c0: 2486 e7bc e559 bbbc 054d 273c 3d3b f5bc
000003d0: 9dc6 04be e8c6 83bc a53c bdbd 5959 94bd
000003e0: 8417 8bbd 6b9e 53be 020f 443e a314 943e
000003f0: 529a 64be 6d56 03bd 1bc3 603e 293d 53be
-0.052545242 -0.2330078 -0.14426398 0.03484427 0.08801702 0.07234471 -0.16461098 -0.3246836
-0.15509975 0.08128996 0.04702652 0.4170288 -0.42404193 -0.56214756 -0.124193095 0.20816341
0.15920438 -0.0072569167 -0.010149436 0.14299472 0.6227296 0.05408939 0.24553193 -0.20839134
0.4119232 0.3225835 0.3994513 0.24614048 0.32300884 0.15947412 0.24467045 0.2037891
-0.035635877 0.16878663 0.26591167 0.10376472 -0.28016415 0.99415225 -0.1788542 0.46754467
0.12644988 0.035425577 0.25489742 0.036056727 0.5061105 0.5560886 0.23554212 -0.02971551
-0.027366662 0.05354986 -0.041874632 -0.0025548781 -0.015602717 -0.034531668 -0.03447442 -0.08394582
0.042716946 0.16586752 0.05929441 -0.10237042 -0.032665033 0.5749301 0.1973104 0.15479508
-0.02465314 -0.023165831 0.048386164 0.011155344 0.044490676 -0.17009337 0.104098536 0.06606128
0.057892393 0.06549078 0.036383722 0.070073634 0.0733239 0.11038068 0.003848004 0.042441864
-0.007482299 -0.0484083 0.042415936 0.2932135 0.14397283 -0.26266927 -0.22780465 -0.0711069
0.054848503 0.0685773 0.10754493 0.114133894 0.19067985 -0.06379814 0.14754583 0.035632066
-0.055125006 0.139578 -0.02261385 0.02204212 -0.038895305 -0.07368409 -0.12383428 -0.15537734
0.037524235 0.24261649 -0.11837634 0.009804206 0.14064083 -0.023120815 0.13335605 0.026879566
-0.034222003 -0.1983847 -0.10886335 -0.03853669 -0.015603519 -0.06253475 -0.019100938 -0.059333563
-0.026142398 0.015430842 -0.031624775 0.05083256 0.043908622 0.006242399 0.00620637 0.041542348
0.13695887 0.1785257 0.45128053 0.27021202 0.41813207 0.35841134 0.16947079 0.2981412
0.12221277 0.16076633 0.21921524 0.2106654 0.25162655 0.22618221 0.21912801 0.13956483
-0.028466431 -0.067451775 -0.06035008 -0.06528148 0.0032658814 -0.021528453 -0.13465421 -0.22918236
-0.045624696 -0.0666693 -0.35208988 -0.113342844 0.5667772 0.4460777 -0.23145851 0.07884075
-0.06535117 0.10551124 0.08312212 0.26631498 -0.34784937 0.30714327 0.10434537 0.025093641
0.18173766 0.23885751 0.10350813 0.17468804 0.2733019 0.21297744 0.03411882 0.14014475
0.028309185 0.02215766 0.76318425 0.1415462 -0.023682231 -0.7085122 0.34887722 0.17735326
0.12655754 0.09828045 0.3298612 0.20304815 0.09621382 0.1886064 0.24990304 0.0533169
-0.042212017 0.06315969 -0.054365255 -0.07442912 -0.05283154 0.022809537 -0.102618515 -0.17822556
0.06396809 0.18223219 0.53013873 -0.3388895 -0.023762258 0.010090368 -0.17832293 0.08707533
-0.08861601 0.12470311 0.14004086 0.1805583 -0.32424134 0.1705546 0.1975048 -0.07079145
0.14302066 0.14955507 0.09406657 0.12875691 0.20851427 0.14793117 0.010275682 0.11929613
-0.042411678 -0.27838945 -0.3828526 0.40130803 0.52138126 -0.09579837 0.090592116 0.21809277
0.056946255 0.11421881 0.04088481 0.20492691 0.11672983 0.2136923 0.21211684 -0.0022504074
-0.028262205 -0.022870013 0.010211234 -0.029935474 -0.1296639 -0.016086057 -0.09240083 -0.07243604
-0.067915946 -0.206659 0.1914635 0.28921995 -0.22324494 -0.032064844 0.21949427 -0.206288

resolve.3.layers.3.bias f4 [12]
00000000: c023 0a3f cad5 18bd 76f9 603a 7c34 213e
00000010: 481b 8e3d bb20 21bb d24a 0a3d 8174 2b3e
00000020: 7f6b 43be 2fdc 0540 9e95 43bb 1415 483d
0.539608 -0.03731326 0.00085820945 0.15742677 0.06938797 -0.002458616 0.03376276 0.16743661
-0.19083975 2.091564 -0.0029843817 0.048848227

resolve.4.layers.0.conv0.weight f4 [12, 12, 3]
00000000: 1b6b d5bb bc72 b83e b4d6 823d 9d6b 8e3e
00000010: cfa0 97be 77e0 133e f7ec adbd 0bb3 9a3e
00000020: ab69 e63e 3e22 413e 5862 3bbf 188e d33e
00000030: ca27 19be bba4 db3e c450 00bf b560 58be
00000040: 80c1 99bd 49e0 22be 7607 0dbe dbd6 c5bd
00000050: e505 c8bd e9ef 1ebe 3471 21be 7c9f aabe
00000060: c5d3 383e 646d b7bc 5823 3cbe 5344 29bd
00000070: ee45 ad3b b0a2 083d f493 113d ea4a 91be
00000080: 91eb dfbe f62c 803e c2f2 953e 954d 73be
00000090: bec0 44bb 7246 633e 1445 483e de07 153f
000000a0: a25f 2b3f a8f7 473e 70f6 983e 8a3e 593e
000000b0: cffb 883e c159 a1bb 6594 d9bd ab28 ea3e
000000c0: 1eb0 e1bd 6aa4 803e 50ac cb3d 896e 8c3f
000000d0: fd91 613f bac1 763f 7ff0 263e 87f8 713c
000000e0: 379c e73e 3f31 533f f1cd 2c3f 8cc4 073f
000000f0: f46c cfbe 4f5f 573f a6a7 1abf 8555 dabe
00000100: 6f1b ffbe 7094 9fbe 5e7d 143f 4b84 b73e
00000110: 3fb2 e0bd 0540 59be 44a5 78bf 09f6 47be
00000120: 8074 cc3d 6b75 af3d e83f 013e 16f9 49bd
00000130: 1d87 543e a5d1 1bbe 23da 19bd 5915 803d
00000140: 316e 313d a5b2 4bbd 3916 f5bd e742 ea3d
00000150: 026a d43c 4bb9 a03e be15 993d 19f9 783e
00000160: be15 783d f757 51bd 0dfc 6abd 8235 82bd
00000170: 8359 463e de2a abbe ec4c 103e 8909 473e
00000180: 9aa0 8a3d 3164 f93d ed5f 1b3e d06f 20bc
00000190: 4ee5 36be b5ba 41be 8add 03bd 7d47 0f3d
000001a0: 3e53 2abe 1893 32bd 87a7 f1bc 7f9b 14be
000001b0: 1990 8abd 43c0 4cbc 99d4 15bc f6da 2bbe
000001c0: 4146 8d3e 5afb dabc 87cd 113c 86a9 47bd
000001d0: 6f1f abbe b408 793e ae26 81bb b948 ecbc
000001e0: 86bf b7be 5372 ee3e d711 333e 80e7 6ebc
000001f0: 51cb a2be 3654 d4bd 2273 96bb b45c 0a3d
00000200: 6b53 553e dfef 07be 670f 4ebf e265 28be
00000210: 2937 a0be 605c 2abd 2287 3ebf 5d6e 9f3d
00000220: fd14 223e 3628 d23d 4420 093f 934b 3c3e
00000230: 9c09 bb3c 1ce4 73bd fa57 dcbe 781f 1ebe
00000240: 60e1 053e eac2 a5be 5374 7d3e dee0 15bd
00000250: 5f25 89be 235b b1bd 4a78 a23d 5fa0 a13e
00000260: db2f 203e 26ad 26be 8608 063d df4a 86bd
00000270: 49dd aa3c 4695 34bd 4d8f 1cbe 71cb 27be
00000280: 03a2 833e cc6d e63d fbab f63c e73c 1a3d
00000290: e83b a5be ee20 ab3c c7b2 be3a cde2 36bd
000002a0: 55b4 c1be 30a5 b83e 5531 6dbe a366 6cbd
000002b0: fe67 0dbe 6a13 0a3d 763a 62be 18da a1be
000002c0: 0047 cb3d d093 a43c 8122 b73e 9e38 04bd
000002d0: b80f 453d 28e7 973d bbfe 9bbc 4112 a8be
000002e0: a57c 5ebd bdcf c93c 03af b23e 545e 7a3d
000002f0: 8a9e f9bd c94b 65bd 9c92 833d c831 98be
00000300: b034 3fbe 658b b73d 2830 c3bc 091b 8bbd
00000310: 0a11 0ebe 8f59 df3d 620a 14be 1c59 99be
00000320: 3503 24bd 8901 a9bd deed 7dbd ea09 8a3c
00000330: db80 303e c833 4ebd 9c1b d43e b384 aa3d
00000340: b372 903d 7db3 013e 729f 543e 6a51 ac3d
00000350: 34b8 623d 5751 c4bd 78b0 acbe 61c3 20bf
00000360: 41a8 e43e 6594 163e 358a f43e 095a edbd
00000370: e331 073d 928f b2bd b4f8 263e 3266 9abd
00000380: 95dc 893d d4f1 d7bd 3111 22be 8e22 fbbd
00000390: b7b0 a53c e075 c0be 6fc0 28be 964e d3bb
000003a0: 73a8 383e 58c2 97bd 2529 e6bd d5c3 b33d
000003b0: bbc0 3cbe 9c49 943d 6098 d43d e27e 5d3e
000003c0: a19b 0b3e 21de 8cbe 1f36 8b3c 6fd6 b73d
000003d0: de56 f2bc 4fc8 17bd 121e 84bd 2a4f 60be
000003e0: 59be cc3e ca1f cfbe 4014 d83d 6237 d1be
000003f0: 2203 283d 1135 c7be 833d b23d 3e03 783d
-0.006513012 0.36025035 0.063886076 0.27816477 -0.29614875 0.14441095 -0.08492463 0.30214724
0.45002493 0.18860719 -0.73196936 0.41319346 -0.14956585 0.42899117 -0.5012324 -0.21130641
-0.0750761 -0.1590587 -0.13772377 -0.09660121 -0.09766749 -0.15521206 -0.1576584 -0.33324802
0.18049534 -0.022391029 -0.18372858 -0.041324925 0.0052878773 0.033358276 0.03554149 -0.28377467
-0.4373441 0.25034302 0.29286772 -0.23760064 -0.003002211 0.22194842 0.19557601 0.5821513
0.669428 0.19528067 0.29875517 0.21215263 0.26754615 -0.0049240296 -0.10624007 0.45734152
-0.1101992 0.25125438 0.099449754 1.0971233 0.88113385 0.96389353 0.1630268 0.014768726
0.4523637 0.8249702 0.6750174 0.5303428 -0.40512812 0.84129804 -0.6041206 -0.4264337
-0.49825618 -0.31167936 0.58003795 0.3584312 -0.10971498 -0.21215828 -0.97127175 -0.19527449
0.09983158 0.085673176 0.12622035 -0.049309812 0.20754667 -0.15216692 -0.037561547 0.06254072
0.043317977 -0.049730916 -0.11967129 0.11438542 0.025929455 0.31391367 0.0747485 0.24313773
0.06056761 -0.05110928 -0.05736928 -0.06357862 0.19370084 -0.33431143 0.14091843 0.19437231
0.067689136 0.12177313 0.15173312 -0.009792283 -0.1786091 -0.1891888 -0.032193698 0.034980286
-0.16633317 -0.04359731 -0.029498829 -0.14512442 -0.06765766 -0.012497011 -0.0091449255 -0.16782746
0.27592662 -0.026731182 0.008899099 -0.048745655 -0.3342242 0.24319726 -0.0039413786 -0.02884327
-0.35888308 0.46571597 0.17487274 -0.014581561 -0.31795743 -0.103676245 -0.0045913616 0.033779815
0.20832603 -0.13275097 -0.8049225 -0.16445115 -0.31292084 -0.041592002 -0.74424946 0.07784722
0.15828319 0.10261576 0.5356486 0.18388204 0.02283173 -0.059543714 -0.4303587 -0.15441692
0.13074255 -0.3237527 0.24751405 -0.036591403 -0.26786324 -0.08659961 0.079330996 0.31567666
0.15643255 -0.16276988 0.032722972 -0.06557249 0.02085747 -0.04408767 -0.1528904 -0.163862
0.25709543 0.11251411 0.030111304 0.037655737 -0.32272267 0.020889726 0.0014549129 -0.044649888
-0.37832895 0.36063528 -0.2316335 -0.05771507 -0.13809201 0.03370992 -0.22092614 -0.31611705
0.099256516 0.020090014 0.35768512 -0.032280557 0.048110694 0.074171364 -0.019042363 -0.32826427
-0.05431809 0.02463519 0.34899148 0.061125115 -0.12188442 -0.055980477 0.06424448 -0.2972548
-0.18672442 0.08962134 -0.023826674 -0.06792266 -0.13873687 0.10905754 -0.14457086 -0.29950798
-0.04004212 -0.08252246 -0.061994426 0.01685043 0.17236654 -0.05034235 0.41427314 0.083260916
0.07053127 0.12666126 0.20763949 0.08413966 0.05535145 -0.09585827 -0.33728385 -0.62798125
0.44659618 0.14705046 0.47761694 -0.115894385 0.03300656 -0.0871879 0.1630581 -0.075390235
0.06731526 -0.10544172 -0.1582687 -0.1226245 0.020225866 -0.3758993 -0.16479658 -0.006448577
0.18033008 -0.07410115 -0.112383164 0.08777586 -0.18432896 0.072406024 0.10380626 0.21630433
0.13633586 -0.2751322 0.01699358 0.08976447 -0.029582437 -0.037056264 -0.06451048 -0.21905199
0.39988974 -0.4045394 0.105507374 -0.40862566 0.041018613 -0.38907674 0.08703139 0.060549967

resolve.4.layers.0.conv0.bias f4 [12]
00000000: 27c7 0abc 0ab1 df3f 5d2c c23d c355 dc3e
00000010: c9b3 fdbe d8ba 1dbe 7e5f be3d 1643 0bbe
00000020: 880f df3d ec87 903e ce48 91be 85d9 01bf
-0.008470333 1.7475903 0.09481118 0.4303418 -0.49551228 -0.15403306 0.092955574 -0.1359981
0.10891634 0.282287 -0.28375858 -0.50722533

resolve.4.layers.0.bn0.weight f4 [12]
00000000: 0000 803f 0000 803f 0000 803f 0000 803f
00000010: 0000 803f 0000 803f 0000 803f 0000 803f
00000020: 0000 803f 0000 803f 0000 803f 0000 803f
1.0 1.0 1.0 1.0 1.0 1.0 1.0 1.0
1.0 1.0 1.0 1.0

resolve.4.layers.0.bn0.bias f4 [12]
00000000: 0000 0000 0000 0000 0000 0000 0000 0000
00000010: 0000 0000 0000 0000 0000 0000 0000 0000
00000020: 0000 0000 0000 0000 0000 0000 0000 0000
0.0 0.0 0.0 0.0 0.0 0.0 0.0 0.0
0.0 0.0 0.0 0.0

resolve.4.layers.0.bn0.running_mean f4 [12]
00000000: 0000 0000 0000 0000 0000 0000 0000 0000
00000010: 0000 0000 0000 0000 0000 0000 0000 0000
00000020: 0000 0000 0000 0000 0000 0000 0000 0000
0.0 0.0 0.0 0.0 0.0 0.0 0.0 0.0
0.0 0.0 0.0 0.0

resolve.4.layers.0.bn0.running_var f4 [12]
00000000: 0000 803f 0000 803f 0000 803f 0000 803f
00000010: 0000 803f 0000 803f 0000 803f 0000 803f
00000020: 0000 803f 0000 803f 0000 803f 0000 803f
1.0 1.0 1.0 1.0 1.0 1.0 1.0 1.0
1.0 1.0 1.0 1.0

resolve.4.layers.0.conv1.weight f4 [12, 12, 1]
00000000: d8d8 fdbe 9692 8d3d 61aa 44be f9f9 27be
00000010: bf16 5a3e a4a1 c3be 8b0b 1dbd 581e 4d3e
00000020: d2d9 55be 7444 a5be fe1b 7c3e be3b 3dbd
00000030: 0c88 813d acc4 463d bea6 933c 90c2 8a3c
00000040: c327 9f3d 65c6 28bd 1539 00bd eb5b 353d
00000050: 837d cc3c 3e4d d5bd d681 f4bd 1e9c 633d
00000060: b03f e43e 46e9 dc3d c26e 523e 2eb9 313e
00000070: 64b5 9a3b 4285 b33d 60f3 b7bd 38c4 3a3b
00000080: 4fdb 303e 7a23 fdbc df18 dfbe 9c48 fc3d
00000090: d237 15be 4563 7b3d b66d ecbd 443a d4bd
000000a0: 83e1 873e 30f0 65be 7783 b2bc 6441 163e
000000b0: 258b 583d d3cd b3be 799c f9bc e4bc bc3d
000000c0: 1f5b d2bd fd8d 3c3d 6052 adbd e65a 98bd
000000d0: b2b2 4e3e be9f 27be cef8 5ebc 8e29 dd3d
000000e0: ca78 723b bd68 85be 6099 e9bc 6ae8 8e3d
000000f0: 4751 fbbd 32d1 c03c 72b4 f3bd 509c dfbd
00000100: 42b9 633e 3376 1ebe 5798 c93b 2cfe d83d
00000110: 6c99 8c3d 8df5 9cbe a5f8 d3bb f10c de3d
00000120: 4dbb 48be 12c8 e53c 0a92 19be 20f2 0cbe
00000130: a2a5 8f3e f3d9 4cbe 9202 d93b dbf0 033e
00000140: 35d0 083d 95f3 afbe 32e0 ea3c b6de c03d
00000150: e63f b73d d175 893d a80f 843c 4288 193c
00000160: 9610 193e f9aa 8cbd 47c2 1cbd 4d55 8f3d
00000170: 7aa6 393d e5a3 39be d5ce 34be db3a b33d
00000180: e9fd e63e 9caa 1a3f f0b6 483d d006 be3e
00000190: 6381 a6be fc51 143d e39b 43bd a078 5e3c
000001a0: 6c64 2ebe 0614 a93d 3d91 4b3d ffde f33e
000001b0: 9e8c 6bbe fbce fc3d 8117 aa3e 2fa1 4f3e
000001c0: f9f4 ad3e baee b6bd e4d0 77be 3942 cfbd
000001d0: 3feb 953b adb6 7a3f d435 9abb 183b 9abf
000001e0: 409a 293e eae8 8d3d 3cf3 663d ae41 673d
000001f0: 77bb 1c3d bdab d7bc 2cde 5dbd db1d 3f3d
00000200: 01e1 723e 5765 01be 7088 54be ed9f 073e
00000210: 0e9f 133f c53a 30bf daf8 2dbd b0b7 c5be
00000220: 2018 de3e 1624 a43e 33ff 423f f684 02bf
00000230: 3c19 03bc e384 4abf fb26 7ebd 03a4 86be
-0.495795 0.06912725 -0.1920562 -0.16403951 0.2129774 -0.3820926 -0.038341086 0.20031106
-0.20883873 -0.32278788 0.24620053 -0.046199553 0.06324777 0.048527405 0.018023845 0.016938478
0.07771256 -0.04120483 -0.031304438 0.044277113 0.024962192 -0.104151234 -0.11938827 0.055568807
0.4457984 0.10786681 0.20550063 0.17355797 0.0047213305 0.08765651 -0.08981967 0.0028498303
0.1727116 -0.030900706 -0.43573663 0.12318537 -0.14572075 0.061373968 -0.11544363 -0.10362676
0.2653924 -0.22454906 -0.021791203 0.14673382 0.052867074 -0.3511797 -0.03047012 0.092157155
-0.10271286 0.046033848 -0.084629774 -0.074392125 0.20185354 -0.1636953 -0.013609124 0.107989416
0.0036998265 -0.2605647 -0.028515518 0.06977923 -0.12271362 0.023537252 -0.118996516 -0.10918486
0.22238639 -0.15474777 0.0061521935 0.105953544 0.068652004 -0.3065609 -0.0064688497 0.10842312
-0.196027 0.028049503 -0.14997116 -0.13764238 0.28056055 -0.20005016 0.006622621 0.12884848
0.033401687 -0.34365526 0.028671358 0.09417479 0.089477345 0.06711925 0.016120747 0.009370865
0.14947733 -0.06868548 -0.038271215 0.06998692 0.04532478 -0.18128927 -0.17657025 0.0875146
0.45115593 0.6041658 0.049002588 0.37114573 -0.3252059 0.036211 -0.047756087 0.013578564
-0.17030495 0.08255772 0.049699057 0.4763107 -0.2300286 0.12344166 0.33221057 0.2027633
0.33975962 -0.08932252 -0.24200779 -0.10120053 0.0045751627 0.9793499 -0.004706124 -1.2049284
0.16562748 0.069291905 0.05638431 0.05645912 0.038264718 -0.026327008 -0.054166958 0.04665933
0.23718645 -0.12636314 -0.20755172 0.132446 0.57664573 -0.68839675 -0.04247365 -0.38616705
0.4337778 0.3205878 0.76170653 -0.5098413 -0.008001622 -0.7910902 -0.062048893 -0.26297006

resolve.4.layers.0.conv1.bias f4 [12]
00000000: 41dc 143e 7a8d 2ebc d0c6 483e e8f3 0a3e
00000010: 586f ee3d 18d2 7b3e e0eb 9b3e 22b0 48be
00000020: 438a a03e a4a1 edbd 872d d4bd 2d83 f1bc
0.14537145 -0.010653848 0.19607091 0.13569605 0.11642331 0.24591863 0.30453396 -0.1959844
0.31355485 -0.11603096 -0.10360246 -0.029481495

resolve.4.layers.0.bn1.weight f4 [12]
00000000: 0000 803f 0000 803f 0000 803f 0000 803f
00000010: 0000 803f 0000 803f 0000 803f 0000 803f
00000020: 0000 803f 0000 803f 0000 803f 0000 803f
1.0 1.0 1.0 1.0 1.0 1.0 1.0 1.0
1.0 1.0 1.0 1.0

resolve.4.layers.0.bn1.bias f4 [12]
00000000: 0000 0000 0000 0000 0000 0000 0000 0000
00000010: 0000 0000 0000 0000 0000 0000 0000 0000
00000020: 0000 0000 0000 0000 0000 0000 0000 0000
0.0 0.0 0.0 0.0 0.0 0.0 0.0 0.0
0.0 0.0 0.0 0.0

resolve.4.layers.0.bn1.running_mean f4 [12]
00000000: 0000 0000 0000 0000 0000 0000 0000 0000
00000010: 0000 0000 0000 0000 0000 0000 0000 0000
00000020: 0000 0000 0000 0000 0000 0000 0000 0000
0.0 0.0 0.0 0.0 0.0 0.0 0.0 0.0
0.0 0.0 0.0 0.0

resolve.4.layers.0.bn1.running_var f4 [12]
00000000: 0000 803f 0000 803f 0000 803f 0000 803f
00000010: 0000 803f 0000 803f 0000 803f 0000 803f
00000020: 0000 803f 0000 803f 0000 803f 0000 803f
1.0 1.0 1.0 1.0 1.0 1.0 1.0 1.0
1.0 1.0 1.0 1.0

resolve.4.layers.1.conv0.weight f4 [12, 12, 3]
00000000: c72c 573c e4d0 0cbd 1f44 233c 977c 4b3c
00000010: 6a90 83be 4df8 a4bd 4d03 e33c f98d febc
00000020: 55ee dc3c ef18 103d d7cd 023c 6f86 4e3d
00000030: 4d2f 8bbd 8475 cb3d 64ab 3bbd 4fc9 43bc
00000040: 34d8 2bbd 1505 eebc 76ee b3bb 2d17 f23d
00000050: 3206 2ebc 3cda 2ebd bed6 1d3e b398 033d
00000060: d7c3 0c3d e7fc 003d e8c9 0839 98dc 27ba
00000070: 3a89 2d3c 368e 0a3d 2c21 0dbc 1791 ecbd
00000080: 7499 b9bc 386a 8b3c 0c49 0e3c 3855 363c
00000090: 5994 ae3e fe02 56bd 20d7 8d3e f688 75bd
000000a0: 2a49 c23e 7e89 fcbd 4eeb 893a 45a3 5cbe
000000b0: e6b1 37be b289 bdbc 77ad e33d 7678 49be
000000c0: 6b45 ac3c e447 07bb f8f0 fc3c f4c5 febd
000000d0: b7aa aabd dbb6 5ebe 8d4e 40be 523e 8abd
000000e0: a176 92be 8f61 063e e05b a3bd 7ede 1f3b
000000f0: f957 7abf ed26 c4bf 00b3 fcbe 78c8 2dbc
00000100: b8ff eabd 1b85 003f 3e1b 9f3d fc2f 373e
00000110: 9090 823e fc7d ec3e d801 023f ff0f 9a3e
00000120: beb7 3cbd 2754 4a3b 03e9 0fba 97b4 1a3d
00000130: 0eb8 4abe 5437 ce3d e422 393e 018b bd3d
00000140: 706c b03b 6178 17bd e3b8 a93d 9087 b73c
00000150: beb8 bcbb 81bf a6bd 034e f1bc 5131 c6bb
00000160: de40 4d3e 21e5 98bd 9973 61bd d014 973d
00000170: b566 ccbc b305 2cbd 57ae 813d 5773 0e3e
00000180: 4f3a aabc 70a8 593d 05d3 9abc e480 fdbb
00000190: 1c51 bebd dd5e f0bb ec67 8ebc 4231 16bd
000001a0: 8fbd 2bbb 4081 1bbd 7932 29bd 56e2 22bd
000001b0: cb2a 6abc e987 72be 7e1c 6c3d 9ebd 863c
000001c0: 2b89 953e 55f7 ca3d bf60 083d 5157 a53e
000001d0: e2e8 3bbd 01ec 0fbd 3a74 2dbe 6c5c 38bc
000001e0: 3418 20bd 4b31 4a3c 67fb d83d f83a 7abd
000001f0: 6b4f 8cbd fdba 40bd 0acb a83d f693 9dbd
00000200: c731 013e b9c5 c13d f81c 05be 0ce9 473d
00000210: ca60 353d 973c 0ebd d265 afbc 1298 c13b
00000220: 6dad d43e aea6 66bd 3daa bbbc b5d7 363d
00000230: f3b4 d33a a339 0cbc fb5f 84bd 036f dabb
00000240: 322c bfbc 1f67 653e 5d8b 023d fc25 98bd
00000250: 2971 123f e4e5 883e a447 b23d ae7b 20bd
00000260: e9b9 cebc 9b07 b3bc b4ad f3bd 16c4 cdbd
00000270: f864 c1bc b4df 84bc 9b22 26bc 8c79 013d
00000280: 4669 05be 4519 9ebd b7bc 11bd 01e2 58bd
00000290: 5a84 e8bc de7c 7a3d f1e3 10bb 8304 033d
000002a0: a8a8 1a3d 1eb8 aebd ca8c f4bb dc3c 4b3c
000002b0: 7aac 2fbd f913 e73c 8a0f 88bd 738f e73b
000002c0: 23e7 ad3c c110 223c 9050 9b3c a9b6 bc3b
000002d0: e1b5 103d 92fe 16be 2b92 903d 02ee 983d
000002e0: c54e 8e3d af0c 473e 2b1d e7be eefa 10be
000002f0: 22bc 7fbd b12e 6d3c c012 97bc 8f40 263d
00000300: d316 ea3c fc33 8d3d 00c6 163b 78e0 92bb
00000310: c782 45bd a43b a8bd efb6 2b3e 99e7 3e3e
00000320: a14a 493e 6285 77bd ab7c 403e 7b10 68bd
00000330: 059c 8f3e f7fe a73d 54ac bd3d 62ed 12be
00000340: b31e 0f3d 5979 b1ba 01a4 22be 28f5 f0be
00000350: 30d4 44be e5f0 873d 6311 85bb bfe5 983c
00000360: 367a 523e a0db 1fbe 821b fc3d dcf1 d43e
00000370: df5b 433e 3879 c33d 2696 8bbd ef6a d3be
00000380: c856 4dbe a2a8 d1bd a06d c53d c805 b63d
00000390: 8609 2e3e 686c ae3e 91ba 9abd d13d 0ebf
000003a0: 7fa4 32bd 4044 81be b56d d1be d03d dcbc
000003b0: 0d4e 93be 6262 f63e 4017 803e 6638 023e
000003c0: 503c 2bbf 90da 15bf 8ec5 05be f831 8b3e
000003d0: 0973 66bd 235d 043e abd6 863e 36f2 793e
000003e0: fb99 743e be6d 41be c4d9 643e 41b6 163d
000003f0: e405 83be e5dc 6dbf b384 ca3d 5dc8 81be
0.013133234 -0.0343789 0.009964972 0.012419841 -0.25696117 -0.08055172 0.027711535 -0.031073557
0.026969114 0.03518003 0.007983646 0.050421175 -0.06796131 0.09934524 -0.045817748 -0.011949851
-0.041954234 -0.029055158 -0.0054910732 0.11820827 -0.010621594 -0.042688593 0.15413949 0.032128047
0.034366455 0.031491186 0.00013045187 -0.00064034155 0.010591799 0.03382703 -0.008613866 -0.11551111
-0.02265618 0.017018422 0.008684408 0.011128716 0.34097555 -0.052248947 0.2770319 -0.05994507
0.37946445 -0.12330912 0.0010522397 -0.21546657 -0.17938957 -0.023136947 0.1111707 -0.19674858
0.021029195 -0.0020642215 0.030876622 -0.124401 -0.083333425 -0.21749441 -0.18779965 -0.06750168
-0.28606132 0.13123153 -0.07976508 0.002439409 -0.97790486 -1.5324379 -0.49355316 -0.0106068775
-0.11474556 0.502031 0.07768868 0.17889398 0.25500917 0.46189868 0.50784063 0.3009033
-0.046073668 0.0030872913 -0.00054897385 0.03776988 -0.19796774 0.10069147 0.18079716 0.092550285
0.0053840205 -0.036980037 0.082872175 0.022403508 -0.0057593277 -0.08141995 -0.029456144 -0.0060483594
0.20044276 -0.07465578 -0.055041883 0.073770165 -0.024951318 -0.041997623 0.06332081 0.13911186
-0.020779757 0.05313915 -0.01889945 -0.007736312 -0.09292814 -0.0073355273 -0.017383538 -0.03666807
-0.0026205515 -0.03796506 -0.0413079 -0.039766632 -0.014292429 -0.23684658 0.05764436 0.016447838
0.29206213 0.09910456 0.03329539 0.3229318 -0.04587639 -0.03513718 -0.16938868 -0.011252504
-0.039085582 0.012340854 0.10594826 -0.061091393 -0.06851085 -0.047053326 0.08241852 -0.07694237
0.12616645 0.09461541 -0.12999332 0.048806235 0.04428176 -0.03472575 -0.021410856 0.005908021
0.41538563 -0.056311302 -0.022908324 0.044639308 0.001615195 -0.008558664 -0.06463619 -0.0066660657
-0.023336504 0.22402619 0.03187119 -0.0742912 0.5720392 0.26737893 0.087050706 -0.03918045
-0.025235133 -0.021854213 -0.118983656 -0.10047166 -0.023607716 -0.016219951 -0.0101400865 0.031610057
-0.1302844 -0.077196635 -0.035580363 -0.05294991 -0.028383423 0.06115424 -0.002210852 0.031986725
0.0377585 -0.08531211 -0.0074630724 0.012404647 -0.042889096 0.028207766 -0.06643589 0.007066661
0.021228379 0.00989169 0.018959314 0.0057590795 0.035329703 -0.14745548 0.07059129 0.074672714
0.06948618 0.19438432 -0.4513944 -0.14158222 -0.062435277 0.014476464 -0.018441558 0.04058891
0.028575337 0.06894681 0.00230062 -0.004482325 -0.048220422 -0.082145005 0.16769002 0.18643035
0.19657375 -0.06042994 0.18797557 -0.056656342 0.2804872 0.082029276 0.092613846 -0.14348367
0.034941386 -0.0013540193 -0.15882875 -0.4706204 -0.19221568 0.06637744 -0.0040609105 0.018664239
0.20554432 -0.15611124 0.12309934 0.41590774 0.19078015 0.09544605 -0.06815748 -0.4129252
-0.20052636 -0.10237242 0.0964005 0.088878214 0.1699582 0.34067082 -0.07555116 -0.55563074
-0.043613907 -0.25247383 -0.40904012 -0.026884943 -0.28770486 0.48121935 0.25017738 0.12716827
-0.66888905 -0.58536625 -0.13063642 0.2718656 -0.05626205 0.12926154 0.26335654 0.24408802
0.23886864 -0.1888952 0.22348696 0.036794905 -0.25590432 -0.92915183 0.098885916 -0.25348178

resolve.4.layers.1.conv0.bias f4 [12]
00000000: e275 523d 1f06 793e 5a8b b83d 2e33 703e
00000010: f85d 5fbe 1be0 3a3e 73a7 b9be 4593 333e
00000020: 0080 eb3e 92b3 cdbd c5a9 fcbd 37bf a63d
0.051381953 0.24318741 0.09010954 0.23457024 -0.2181319 0.18249552 -0.36260566 0.17536648
0.45996094 -0.10044016 -0.123370685 0.0814194

resolve.4.layers.1.bn0.weight f4 [12]
00000000: 0000 803f 0000 803f 0000 803f 0000 803f
00000010: 0000 803f 0000 803f 0000 803f 0000 803f
00000020: 0000 803f 0000 803f 0000 803f 0000 803f
1.0 1.0 1.0 1.0 1.0 1.0 1.0 1.0
1.0 1.0 1.0 1.0

resolve.4.layers.1.bn0.bias f4 [12]
00000000: 0000 0000 0000 0000 0000 0000 0000 0000
00000010: 0000 0000 0000 0000 0000 0000 0000 0000
00000020: 0000 0000 0000 0000 0000 0000 0000 0000
0.0 0.0 0.0 0.0 0.0 0.0 0.0 0.0
0.0 0.0 0.0 0.0

resolve.4.layers.1.bn0.running_mean f4 [12]
00000000: 0000 0000 0000 0000 0000 0000 0000 0000
00000010: 0000 0000 0000 0000 0000 0000 0000 0000
00000020: 0000 0000 0000 0000 0000 0000 0000 0000
0.0 0.0 0.0 0.0 0.0 0.0 0.0 0.0
0.0 0.0 0.0 0.0

resolve.4.layers.1.bn0.running_var f4 [12]
00000000: 0000 803f 0000 803f 0000 803f 0000 803f
00000010: 0000 803f 0000 803f 0000 803f 0000 803f
00000020: 0000 803f 0000 803f 0000 803f 0000 803f
1.0 1.0 1.0 1.0 1.0 1.0 1.0 1.0
1.0 1.0 1.0 1.0
