generators/n4.ckpt (torch, 200238 bytes, 235 tensors)

resolve.0.weight f4 [4, 1, 7]
00000000: c7b9 f33f 8edd 1b40 9e64 2e40 02c4 b93f
00000010: fb1e a0be 6ba4 77bf 2ce9 30bf 2b6f 38bf
00000020: 81a7 68bf ee6e ebbf b9cc 0bc0 5bae e6bf
00000030: 94aa 3fbf 7b3e 673f f704 f5bd 6bc9 fe3e
00000040: 44a9 213f 7138 663f a2fb 1b3e 1e97 08bf
00000050: c84a 693f f86f d43f 09bb febc 6c31 debf
00000060: e7f5 d0bf f679 c1be 45db 863f 01cb 823f
1.904107 2.4353976 2.7248912 1.4512942 -0.31273636 -0.96735257 -0.6910579 -0.7204463
-0.9088059 -1.8393228 -2.1843703 -1.8021959 -0.74869657 0.9032971 -0.119638376 0.49763045
0.63148904 0.8992987 0.15232709 -0.53355587 0.9112973 1.659667 -0.031095045 -1.7358832
-1.6325043 -0.3778836 1.0535666 1.0218202

resolve.0.bias f4 [4]
00000000: a7b3 3a3e 9a38 993d d16b 273f 2c59 d53b
0.18232594 0.07481499 0.6539889 0.0065108743

resolve.2.layers.0.conv0.weight f4 [4, 4, 3]
00000000: f9d8 b83d 909d 83be ec46 3abe 6b40 153f
00000010: ed13 aa3e d852 883d 73be 033d 72b1 0c3d
00000020: 6b38 4cbe cd6a 8d3f 1623 0040 9357 1d3e
00000030: 3086 27bf 564e 0bbf 826f 94bf b997 c43e
00000040: cb0b 4b3f cd55 3a3f e634 9c3e a819 693e
00000050: 32e5 2c3d 5cac d6be df5e 443f 96c4 ff3f
00000060: c40e 1f3e cdd6 863e 3b3e 083f b5b7 113e
00000070: ada0 58bd b346 0c3e ade9 fb3e f4d0 ee3e
00000080: 3e61 7f3e e342 e53d ac20 343e 390c 333d
00000090: 8f93 bb3e e28c 10bc 2ae2 d5bd 6af6 6ebc
000000a0: e07e 6cbb 5a5d 70be d0d3 1fbe a92f 713e
000000b0: d03c 4fbe 034a f33f 3e2f 3d40 5293 c1be
0.09025759 -0.25706148 -0.18191117 0.5830142 0.33218327 0.06656426 0.03216405 0.034348913
-0.19943397 1.1048218 2.0021415 0.15365438 -0.6543913 -0.54416406 -1.159653 0.38397005
0.7931487 0.7278717 0.30509108 0.22763693 0.042210765 -0.41928375 0.7670726 1.9981868
0.15532976 0.26335755 0.53219956 0.14230235 -0.052887607 0.13698845 0.49201718 0.46643794
0.24939439 0.11194398 0.17590588 0.04371283 0.36636016 -0.008822652 -0.10443528 -0.014585117
-0.0036086366 -0.23473111 -0.15608144 0.23553337 -0.20238042 1.9006962 2.9560084 -0.3780771

resolve.2.layers.0.conv0.bias f4 [4]
00000000: e816 063d 237d e3bd 52b2 f23c 9454 3d3e
0.03273669 -0.11107852 0.029626045 0.18489295

resolve.2.layers.0.bn0.weight f4 [4]
00000000: 0000 803f 0000 803f 0000 803f 0000 803f
1.0 1.0 1.0 1.0

resolve.2.layers.0.bn0.bias f4 [4]
00000000: 0000 0000 0000 0000 0000 0000 0000 0000
0.0 0.0 0.0 0.0

resolve.2.layers.0.bn0.running_mean f4 [4]
00000000: 0000 0000 0000 0000 0000 0000 0000 0000
0.0 0.0 0.0 0.0

resolve.2.layers.0.bn0.running_var f4 [4]
00000000: 0000 803f 0000 803f 0000 803f 0000 803f
1.0 1.0 1.0 1.0

resolve.2.layers.0.conv1.weight f4 [4, 4, 1]
00000000: eaca d7be 5dec 9f3e 1b5e ff3d f4ee 71bf
00000010: ea49 de3e 6dd5 403f bb65 293c bf45 47be
00000020: 3822 bcbe cd06 a73d d42d 9cbe 4248 8cbf
00000030: 9a5b 233f 24e1 babd eb38 a0bd efcd 6e3f
-0.42147 0.31235018 0.12469121 -0.9450524 0.43415767 0.7532566 0.010339196 -0.194602
-0.36744857 0.08155594 -0.30503714 -1.0959551 0.6381165 -0.091249734 -0.07823356 0.9328298

resolve.2.layers.0.conv1.bias f4 [4]
00000000: 99e5 afbd d3ca d73c d428 4dbd 409e 8a3e
-0.08588714 0.026341831 -0.050087765 0.2707386

resolve.2.layers.0.bn1.weight f4 [4]
00000000: 0000 803f 0000 803f 0000 803f 0000 803f
1.0 1.0 1.0 1.0

resolve.2.layers.0.bn1.bias f4 [4]
00000000: 0000 0000 0000 0000 0000 0000 0000 0000
0.0 0.0 0.0 0.0

resolve.2.layers.0.bn1.running_mean f4 [4]
00000000: 0000 0000 0000 0000 0000 0000 0000 0000
0.0 0.0 0.0 0.0

resolve.2.layers.0.bn1.running_var f4 [4]
00000000: 0000 803f 0000 803f 0000 803f 0000 803f
1.0 1.0 1.0 1.0

resolve.2.layers.1.conv0.weight f4 [4, 4, 3]
00000000: cc28 bebe eb7a 243e d71e c9bc 007f 9abe
00000010: 4f5f 2fbf 6dc8 f9bd 2e5a 06bf de74 cdbd
00000020: ef9a cdbe 2c0f b0be 4d35 b0be 601d 27be
00000030: 90e5 e33e 8d60 8cbf 1e6d 5e3f e1a7 d8bd
00000040: 5523 0f3e 9a19 893b a17c 3d3e 4aa8 85be
00000050: 7b78 1a3f 30bc ebbe b0e9 4f3e 1aa6 e6bd
00000060: 5083 ac3e a264 2dbf 1306 0d3f 49fa 163d
00000070: 09db ae3d 9b10 09be 49fc 1b3f 314d 0a3f
00000080: 48e8 173f c606 37be e346 bc3b 4acc 353c
00000090: 2ac0 0b3f e50d 13bf 6b3d 95bd 595a 49be
000000a0: b281 9d3e 89b9 10be e755 203f 5830 813e
000000b0: 318e 613d 0a37 4f3d 60aa 9a3e 5cf9 1bbe
-0.371405 0.16062514 -0.024550838 -0.30175018 -0.68504804 -0.12196431 -0.52481353 -0.10032056
-0.40157267 -0.34386575 -0.34415665 -0.163198 0.4451108 -1.0966965 0.8688525 -0.10578895
0.13978322 0.00418396 0.18504573 -0.26104957 0.6034009 -0.46042013 0.20303988 -0.1126215
0.33693933 -0.6773168 0.55087394 0.036859784 0.085378714 -0.1338524 0.6093183 0.54024035
0.5933881 -0.17873678 0.005745755 0.01109607 0.54590094 -0.57443076 -0.07287105 -0.19663371
0.30763012 -0.14133276 0.62631077 0.25232196 0.055067245 0.0505896 0.3020811 -0.15231842

resolve.2.layers.1.conv0.bias f4 [4]
00000000: e2e5 b3be e283 9abe 45ed 9fbd 1de7 30be
-0.35136324 -0.30178744 -0.078089274 -0.17275663

resolve.2.layers.1.bn0.weight f4 [4]
00000000: 0000 803f 0000 803f 0000 803f 0000 803f
1.0 1.0 1.0 1.0

resolve.2.layers.1.bn0.bias f4 [4]
00000000: 0000 0000 0000 0000 0000 0000 0000 0000
0.0 0.0 0.0 0.0

resolve.2.layers.1.bn0.running_mean f4 [4]
00000000: 0000 0000 0000 0000 0000 0000 0000 0000
0.0 0.0 0.0 0.0

resolve.2.layers.1.bn0.running_var f4 [4]
00000000: 0000 803f 0000 803f 0000 803f 0000 803f
1.0 1.0 1.0 1.0

resolve.2.layers.1.conv1.weight f4 [4, 4, 1]
00000000: b798 f03e 42bf 0e3d cd39 40be 8f73 933d
00000010: 5a9f 093d 1f14 7d3d 5b7a bbbe 38bc c33e
00000020: eb03 1abe d006 a5bf 638a 20bf 47d8 62bf
00000030: ce75 7e3e ec48 bf3e 8a2e 013f e992 c9bc
0.46991512 0.034850366 -0.18772049 0.071997754 0.033599235 0.061786767 -0.36616787 0.38229537
-0.15040557 -1.2892704 -0.6271116 -0.88611263 0.24849626 0.37360322 0.5046164 -0.024606185

resolve.2.layers.1.conv1.bias f4 [4]
00000000: aa7f 573e e8d0 82bd 9bed f6be c30c b8be
0.21044794 -0.06387502 -0.48228154 -0.35947236

resolve.2.layers.1.bn1.weight f4 [4]
00000000: 0000 803f 0000 803f 0000 803f 0000 803f
1.0 1.0 1.0 1.0

resolve.2.layers.1.bn1.bias f4 [4]
00000000: 0000 0000 0000 0000 0000 0000 0000 0000
0.0 0.0 0.0 0.0

resolve.2.layers.1.bn1.running_mean f4 [4]
00000000: 0000 0000 0000 0000 0000 0000 0000 0000
0.0 0.0 0.0 0.0

resolve.2.layers.1.bn1.running_var f4 [4]
00000000: 0000 803f 0000 803f 0000 803f 0000 803f
1.0 1.0 1.0 1.0

resolve.2.layers.2.conv0.weight f4 [4, 4, 3]
00000000: 7a06 c43e 855f 2b3f bd47 653f d393 d8bd
00000010: db65 d1bd ae16 11bd cb0e 96be 556b f13d
00000020: d1a0 f0bd f7af fb3e 075b 9d3e f31b 483d
00000030: c9a7 40bb 2282 36bd cc96 793e 59d8 8cbe
00000040: 4a86 bc3e 6e24 de3d 2803 dcbe d94a 193f
00000050: 2be6 c23d 8250 0d3f a95b 25bf 6f4d 0dbf
00000060: a569 d6be 7088 1a3f b3e1 bbbe 3312 af3d
00000070: 8ae9 083c 9e29 ffbc 266b c53d ead5 a93d
00000080: 1273 89ba 68f9 83be 5ed8 183d 7021 31be
00000090: 17b3 ab3e c114 2e3d 8b7f ae3e 7229 9d3d
000000a0: 49a3 983e 6875 92bd 6311 9ebd ba8c c33e
000000b0: bb03 f2bd eeca d13c bf43 85be f33d 8abc
0.3828619 0.66942626 0.8956259 -0.1057507 -0.102245055 -0.03542202 -0.2930816 0.1178805
-0.11749423 0.49157688 0.3073351 0.04885478 -0.0029396883 -0.044557698 0.2437393 -0.2750881
0.36821204 0.10846792 -0.42971158 0.59879833 0.09516557 0.5520097 -0.6459299 -0.5519628
-0.41877475 0.6036444 -0.36695632 0.08548393 0.008356461 -0.031147774 0.096395776 0.08292754
-0.0010486564 -0.2577622 0.03731572 -0.17297912 0.33535072 0.04250026 0.34081683 0.07673921
0.29812077 -0.071513 -0.0771816 0.38193303 -0.11817118 0.02560946 -0.2602825 -0.016875243

resolve.2.layers.2.conv0.bias f4 [4]
00000000: 871a 2ebb 212a a2be be1d ffbd 7096 573e
-0.0026566104 -0.31672767 -0.12456845 0.21053481

resolve.2.layers.2.bn0.weight f4 [4]
00000000: 0000 803f 0000 803f 0000 803f 0000 803f
1.0 1.0 1.0 1.0

resolve.2.layers.2.bn0.bias f4 [4]
00000000: 0000 0000 0000 0000 0000 0000 0000 0000
0.0 0.0 0.0 0.0

resolve.2.layers.2.bn0.running_mean f4 [4]
00000000: 0000 0000 0000 0000 0000 0000 0000 0000
0.0 0.0 0.0 0.0

resolve.2.layers.2.bn0.running_var f4 [4]
00000000: 0000 803f 0000 803f 0000 803f 0000 803f
1.0 1.0 1.0 1.0

resolve.2.layers.2.conv1.weight f4 [4, 4, 1]
00000000: c007 143e 0510 c23c 1b99 ed3e a8bd b3be
00000010: 9b35 453e 8b68 bd3b 3b55 acbd aaaa 3e3e
00000020: d75b dc3e ce82 1c3f 2306 0c3f b394 693f
00000030: 238c acbd c48c 463e 9766 7c3e 920e 013e
0.14456081 0.02368928 0.46405873 -0.35105634 0.1925873 0.0057802848 -0.08414694 0.1861979
0.43038818 0.6113709 0.54696864 0.9124252 -0.084251665 0.19389635 0.2464851 0.12603214

resolve.2.layers.2.conv1.bias f4 [4]
00000000: fe3f 13b9 6be7 bb3e 61b0 d43d b55e 993e
-0.00014042851 0.36699995 0.10385204 0.29955068

resolve.2.layers.2.bn1.weight f4 [4]
00000000: 0000 803f 0000 803f 0000 803f 0000 803f
1.0 1.0 1.0 1.0

resolve.2.layers.2.bn1.bias f4 [4]
00000000: 0000 0000 0000 0000 0000 0000 0000 0000
0.0 0.0 0.0 0.0

resolve.2.layers.2.bn1.running_mean f4 [4]
00000000: 0000 0000 0000 0000 0000 0000 0000 0000
0.0 0.0 0.0 0.0

resolve.2.layers.2.bn1.running_var f4 [4]
00000000: 0000 803f 0000 803f 0000 803f 0000 803f
1.0 1.0 1.0 1.0

resolve.2.layers.3.weight f4 [8, 4, 12]
00000000: c513 45bd 2892 24be 9315 51bd fd28 163e
00000010: 1939 2f3e d57a 8e3e 1d92 b43e b571 923d
00000020: 4ccf b03d cd63 3fbd bd31 2fbe b574 803d
00000030: 9133 f63d b6c0 87bd 12a1 803d 9710 11bd
00000040: 2571 debd 8436 e53d e6eb 293e c059 12be
00000050: 33e2 0e3d aa19 90bc b7b8 52bd b7fa 18be
00000060: 2b11 bb3d 392c b5bb e97f 1abe 7344 60bc
00000070: 2710 cc3d 47df 263e 20c5 46bc b8a4 013d
00000080: cbc2 04be 892e 4b3e 213a acbc 5f6d 29be
00000090: 9472 453e 582d b53d c004 6e3e de0b 273d
000000a0: 0228 47bd 36e9 febc 11ce 593e 21eb 5c3e
000000b0: 111e 433e a4ec 0a3e a784 283e fcde f33d
000000c0: deae 803e 8d5f 5a3e bd2c 0fbd 8695 0c3e
000000d0: 3db7 993e eea7 4c3e 5bf1 bbbc 7be9 54be
000000e0: 2888 c5bd 7201 7a3d ea32 ea3c fdab 1bbe
000000f0: 730b 9bbd 301c 1d3e b95f b9bc f258 6cbd
00000100: ea38 1a3d ab5c 103e ac69 5b3e df67 093d
00000110: 325a 18bd b9a8 31be 68dc e8bd c9d2 a2bc
00000120: 0c3b a33d 6aad 92bd 4854 c5bd 1ce0 5d3e
00000130: b9c1 c83d fc29 eabc 727b 91be 19bb afbe
00000140: 9ad3 f0bd 69d4 cb3e fcbd c33e 5cf8 1e3e
00000150: 6f78 9fbe 145e 4abe b4d1 18be 564d 573d
00000160: 88f0 5a3e 60b5 723e 3155 a93e a9e0 053f
00000170: 0551 d63e b4be cb3e 8466 233e 9e24 323e
00000180: 8d77 b9bd a174 913e c44c 953e 3a51 8b3d
00000190: 15ce c7be fd9b 34bf 6bf8 52be 6bef e53d
000001a0: ad31 763e a74c b33d 8c60 35be 57e4 1bbd
000001b0: 8a26 0cbf fb65 fabd e46e ee3d 1d00 813e
000001c0: 6fa8 4d3e b6a4 cd3d 75a8 123b 2def ba3d
000001d0: 0a4c 3b3d ff7a aa3d 5dd5 d73d 86eb 5abd
000001e0: a6dd 84be 83e7 223f 9486 393f aee0 7a3e
000001f0: 1f5f 2ebf bf21 a3bf 86b4 edbd 10e3 743f
00000200: c060 443f cf57 a33e e885 4abf 88f7 afbe
00000210: 1973 febd 11ac a9be 69f5 e9be d5cb a53d
00000220: cc9a d63e 2e5a 8d3e f42c 0c3d 40d9 14bf
00000230: 2a6a fdbe 4812 19bf 97b1 2dbf dcf0 41bf
00000240: 97ff 20bd b19b 603d 9556 cb3d db65 5d3d
00000250: fe77 22bd e9e1 0abc 7918 ffbd 450a 1ebe
00000260: e0e3 28be 8ad1 d8bd 7063 9ebd 2268 91bd
00000270: 4d73 6c3c b98b febd 4ca8 953d 8696 053e
00000280: 1192 49bd 25ed e83d 00b7 103e f005 fb3d
00000290: a7ad f73d a916 96bd 7e24 a33d 3ad5 fcbc
000002a0: 6398 273c a9d0 0ebc 02e3 d6bc 155b 2cbd
000002b0: cbc3 f3b9 ddeb 8ebd 963e b23c 8afc 1e3d
000002c0: d2de bc3c 3d29 fe3c 6a0c 3b3c ee41 b63d
000002d0: e1c5 7c3d 18e5 e13d 9f87 453d a0cd b83d
000002e0: 73d6 443e f4ed 0e3e 6d12 453e 28c0 513d
000002f0: 6d3c f83d 27d3 fd3d 976d 8fbc f269 e5bc
00000300: f5e5 0a3e 10ac d9bd e33c 14bd 2746 80bd
00000310: 6852 c2bb 505f 84be 1463 75be 80a0 46be
00000320: 88b1 c8bc a440 083d 2c9e 533d 49e9 3b3e
00000330: 2046 9cbd 975a 69bd fce4 763d 57d8 9a3b
00000340: 959b c63a e98f 3abd 41aa 16be 2771 12be
00000350: a24d 68bd 9736 dd3c 9501 8d3d e602 0c3d
00000360: 735f dd3d 1511 2c3e ee16 9abd e533 13be
00000370: 55e3 0ebd 302c 793d 7717 0a3e 509a 183d
00000380: 8618 5d3d 2c78 0f3e 9be8 e93d b100 a9bd
00000390: e7b9 ea3c 8e40 5a3e 29d9 8d3e 5784 133e
000003a0: f968 b93d a200 5b3e 21f4 573e 4b69 25bd
000003b0: 601b 8bbe a68a 7dbe 333d 46be 00fc c73d
000003c0: 74c2 7fbd bc83 6fbc 315d a93d bcd2 a63c
000003d0: 915a 193e 7209 833e 1c4d 493e 4f08 2b3e
000003e0: ad2d 803e f5c6 893e b5aa 53bb fc94 40bd
000003f0: ea3d f53c a83c f0bc efc7 73bc 7c48 05be
-0.048114557 -0.16071379 -0.051045965 0.14664073 0.17111625 0.27828088 0.35267726 0.07150594
0.08633289 -0.046726037 -0.17108817 0.0627226 0.12021554 -0.066285536 0.06280722 -0.035416212
-0.10861424 0.11192039 0.16593894 -0.1429205 0.03488369 -0.017590363 -0.05144569 -0.1493939
0.09134134 -0.0055289534 -0.15087856 -0.013688195 0.09964018 0.16296111 -0.012131959 0.03165123
-0.12964933 0.1984197 -0.021023812 -0.16545628 0.1928199 0.08846539 0.23244 0.0407828
-0.04862214 -0.031117063 0.21270014 0.2157407 0.19054438 0.13566834 0.16456853 0.11907765
0.25133413 0.21325512 -0.034954775 0.13728914 0.30022612 0.19985935 -0.022942236 -0.2079219
-0.0964511 0.061036535 0.02858873 -0.15202327 -0.07570543 0.15342784 -0.022628652 -0.057702012
0.037651934 0.1409785 0.2142703 0.033546325 -0.037195392 -0.17349519 -0.11370164 -0.0198759
0.07970247 -0.07161982 -0.09635216 0.21667522 0.09802575 -0.028584473 -0.28414494 -0.34322432
-0.1175911 0.39810494 0.38230884 0.15524429 -0.3114657 -0.1976245 -0.14923745 0.052563988
0.21380818 0.23702002 0.33072808 0.5229593 0.41858688 0.39793932 0.15957075 0.17396781
-0.090560056 0.28409293 0.2916013 0.06802602 -0.39024416 -0.7055052 -0.20602576 0.11227306
0.24042387 0.08754855 -0.17712611 -0.03805956 -0.54746306 -0.122264825 0.116422445 0.251954
0.20083784 0.10041182 0.002237824 0.091276504 0.045726813 0.08324241 0.10538743 -0.05344727
-0.25950354 0.6363451 0.72470975 0.24499771 -0.68113893 -1.2744673 -0.11606698 0.9565897
0.7671013 0.3190293 -0.79110575 -0.3436854 -0.12424297 -0.3313909 -0.45695046 0.080955185
0.41914976 0.27607864 0.03422256 -0.58144 -0.4949506 -0.5979352 -0.67849106 -0.7575815
-0.03930625 0.05483598 0.099286236 0.054052215 -0.039665215 -0.008476713 -0.1245584 -0.15433605
-0.16493177 -0.105868414 -0.0773381 -0.0709994 0.014431787 -0.12428994 0.07307491 0.13045701
-0.049211565 0.11373357 0.14132309 0.12256992 0.120936684 -0.07328541 0.07965945 -0.030863393
0.010229203 -0.008716741 -0.026231293 -0.04207905 -0.0004649445 -0.06978581 0.021758359 0.03881506
0.023055468 0.031025523 0.011416534 0.08899294 0.06171215 0.11030024 0.04822504 0.09023595
0.19222431 0.1395796 0.1924531 0.051208645 0.121209 0.1239379 -0.017508311 -0.02800462
0.13564284 -0.106285214 -0.03619088 -0.062633805 -0.0059302337 -0.25853968 -0.23963577 -0.19397163
-0.024498716 0.03326477 0.051664516 0.1835071 -0.07630563 -0.05697116 0.06027697 0.0047254968
0.0015152568 -0.0455474 -0.14713384 -0.14300977 -0.05671466 0.02700357 0.068850674 0.03418245
0.10809221 0.16803391 -0.07523905 -0.14375265 -0.03488477 0.060833156 0.13485514 0.03725654
0.053978465 0.14010686 0.11421319 -0.08252085 0.028653098 0.21313688 0.27704743 0.14405952
0.09053225 0.2138696 0.21089222 -0.04038362 -0.27169323 -0.24759921 -0.19359283 0.09764862
-0.062441304 -0.01461881 0.08269728 0.020364158 0.14975955 0.25593144 0.19658321 0.16702388
0.25034848 0.26909605 -0.0032297794 -0.047017083 0.02993675 -0.029325798 -0.014879211 -0.13015932

resolve.2.layers.3.bias f4 [8]
00000000: 99e1 533e d25d adbe b073 193e 2d9c 89bd
00000010: b639 32be 42e4 a03d 38a4 593c b97e 143f
0.20691527 -0.33860642 0.14985538 -0.06719241 -0.17404827 0.07856037 0.013283782 0.58005863

resolve.3.layers.0.conv0.weight f4 [8, 8, 3]
00000000: 32bb 563e e6f7 2b3f 65ce 32be 9e3b 66bc
00000010: 701e 0b3e d178 0ebd 1307 983d 8b00 503d
00000020: 39a4 24bc d682 f1be ca07 5f3d 9e3a b0bd
00000030: 15e9 383e 006a 9fbe f918 f03d d24e 0a3f
00000040: ee1f ae3e 8522 fb3d 5011 083e 453e b33d
00000050: 70b0 51be 461d 0f3f 34af a63d 1b46 ec3d
00000060: fa57 0dbe 044c 46bd 6091 573c 4b54 12bd
00000070: cc10 093e b191 b03d ead9 3bbc 2bd2 5a3e
00000080: 29bc 93ba 85db fe3e f129 b83e 3647 dabe
00000090: 6aa6 963d 61ae 04bf ff8a 93be 4356 2d3f
000000a0: 908b 24bf 2455 f0bc b909 163e 8e0f 11bd
000000b0: 2ea3 c1bd 1370 e8be 3c8e 643e 8980 923d
000000c0: cdef 413e 6205 263d cd06 b3bd f2ab d83d
000000d0: 0225 8c3e 1a7a 633b b74c 683d 59f1 ab3d
000000e0: 3058 3bbd 28dd 173e e255 113f 0e95 32bd
000000f0: 6770 813d c465 39bc ff8b 203f caf5 2b3f
00000100: 1c3e 953e 8c43 87bd 60c0 2a3e 7632 113f
00000110: b2cd a1bd 821d 64be 28fc e7be 33e1 2e3e
00000120: b267 7abf 80a6 2cbe 451e 393f 436a 923e
00000130: e868 373f f666 fbbe 2914 9fbe 594c e7bf
00000140: 05ae 51bf 27e1 b73e cdf1 97be 8ebb 09bf
00000150: 42c0 e1bd 1d43 f8be 5490 73bf f3e8 4f3e
00000160: fdcb d93c c5e3 5e3e 5cf2 4e3d aa1d 123f
00000170: 8841 ba3e 9045 803e 0a93 1abe a5a9 d83d
00000180: 06f1 c4be e0cc d53e 8ffe 2b3e f758 69bb
00000190: 3435 5dbe e394 b2bd 8fd3 71bd 048d bcbd
000001a0: d034 ae3d 4154 aabe 4839 323c 3641 243f
000001b0: ea10 8cbd f7a4 abbe d8e3 313f 8922 09bf
000001c0: c069 233f ca4d f1be fd85 59be d831 dabe
000001d0: 4339 253e 443b 483e ec9e f43e 61d3 1a3e
000001e0: 472d 273e dacf 813d f6d4 fdbc 8c3b 82bc
000001f0: 9a2d 9c3d 4ae7 123e c4a2 003c 72f4 883d
00000200: 0ef2 213c e797 dabc 8089 a4be 4105 a1be
00000210: a686 963d 5142 6dbd 67a8 453d 07bc 6cbe
00000220: 5b41 7a3c 0b65 0abe 2d3e ca3d a1b8 243d
00000230: 7bc3 1c3e 847b 753d 1150 30be d1a8 2dbc
00000240: 7c42 9c3e c623 2cbe 835f 8d3e 701f af3d
00000250: 333c 4ebe c113 9a3d 06f7 03bd c17d c23d
00000260: 2974 e33d 2a50 a6be 038d 8b3e 36cd 61be
00000270: 6a99 5b3e 8958 083f ef4f 953e f1eb 82be
00000280: 495c 7d3d 5e0f 3dbe b82e 22be 8373 7a3d
00000290: 9f7a 353e 8502 64be d637 013e 506e a83e
000002a0: f07f cabe 2444 023e b6ba 363e 52b1 dbbd
000002b0: 57bc b53e 63eb fcbc b67b 1a3e 0b6e 64bf
000002c0: f42c a1bd 545e 493e 1426 4ebe ae61 ebbe
000002d0: 07f3 1ebe 9adc 013f d840 983e e491 373f
000002e0: 1937 073f c521 ecbe e8e0 143d 9e38 fd3d
000002f0: ad39 b53e 599c 5cbe 07e9 3bbe 6f0c 9bbe
0.20969847 0.6717514 -0.17461546 -0.0140523 0.1358583 -0.03478319 0.07423224 0.050781768
-0.010048919 -0.47170132 0.054450788 -0.0860493 0.18057664 -0.3113556 0.11723513 0.5402652
0.34008735 0.122624435 0.13287854 0.08752111 -0.20477462 0.5590404 0.08138886 0.11536809
-0.13803092 -0.048412338 0.013157219 -0.03572492 0.13385314 0.086215384 -0.011465529 0.21369235
-0.0011271286 0.49776855 0.359695 -0.42632455 0.0735596 -0.5182858 -0.28816983 0.6770975
-0.64275455 -0.029337473 0.14652146 -0.035415225 -0.09454952 -0.45398006 0.22319883 0.071534224
0.18939133 0.040532477 -0.087415315 0.10579671 0.27371985 0.003471023 0.056713786 0.08395643
-0.0457384 0.14830458 0.5677167 -0.04359918 0.06320267 -0.011315767 0.6271362 0.6717192
0.29148948 -0.066046804 0.16674948 0.5671762 -0.079005614 -0.22276881 -0.45309567 0.17078094
-0.97814476 -0.1686039 0.7231181 0.28596696 0.7164445 -0.4910199 -0.31070068 -1.8070174
-0.8190616 0.35913965 -0.29676667 -0.5380181 -0.110229984 -0.48488703 -0.951421 0.20303707
0.026586527 0.21766575 0.0505241 0.57076514 0.3637812 0.25053072 -0.15095153 0.10579232
-0.38465136 0.4175787 0.16796325 -0.0035606006 -0.21602327 -0.08719804 -0.05903965 -0.09206584
0.08506167 -0.33267406 0.010877915 0.64162004 -0.068391636 -0.33524296 0.69488287 -0.5356832
0.63833237 -0.4712966 -0.21242519 -0.42616153 0.16135125 0.19553858 0.47777498 0.15119697
0.16325866 0.06338473 -0.030985337 -0.015897535 0.07625885 0.14346042 0.007851306 0.06687249
0.0098843705 -0.02668376 -0.32136154 -0.3144932 0.07349901 -0.057924572 0.048256304 -0.23118602
0.015274371 -0.13515107 0.0987514 0.04021514 0.15308945 0.059932247 -0.17218043 -0.010599331
0.30519474 -0.16810521 0.27611932 0.08550918 -0.20140152 0.07523299 -0.032218 0.09496642
0.1110614 -0.32483035 0.2725602 -0.22050938 0.21445242 0.53260094 0.29162547 -0.25570634
0.061855588 -0.18462893 -0.15838134 0.061145317 0.17722557 -0.22266586 0.12618956 0.32896662
-0.39550734 0.12721306 0.17844662 -0.107271805 0.35495254 -0.03087396 0.15086254 -0.8923041
-0.07869902 0.1966489 -0.20131713 -0.4597296 -0.15522395 0.50727236 0.29736972 0.71706986
0.5281845 -0.46119514 0.0363473 0.123643145 0.35395566 -0.21544017 -0.18350612 -0.30282924

resolve.3.layers.0.conv0.bias f4 [8]
00000000: 6464 9a3c 3cef 70be 12cd eabb 6292 e83d
00000010: 2931 a2be 91eb 903e 2f11 d23e ddfe 1e3f
0.018846698 -0.2352876 -0.0071655596 0.11356045 -0.3167813 0.28304723 0.41028735 0.6210764

resolve.3.layers.0.bn0.weight f4 [8]
00000000: 0000 803f 0000 803f 0000 803f 0000 803f
00000010: 0000 803f 0000 803f 0000 803f 0000 803f
1.0 1.0 1.0 1.0 1.0 1.0 1.0 1.0

resolve.3.layers.0.bn0.bias f4 [8]
00000000: 0000 0000 0000 0000 0000 0000 0000 0000
00000010: 0000 0000 0000 0000 0000 0000 0000 0000
0.0 0.0 0.0 0.0 0.0 0.0 0.0 0.0

resolve.3.layers.0.bn0.running_mean f4 [8]
00000000: 0000 0000 0000 0000 0000 0000 0000 0000
00000010: 0000 0000 0000 0000 0000 0000 0000 0000
0.0 0.0 0.0 0.0 0.0 0.0 0.0 0.0

resolve.3.layers.0.bn0.running_var f4 [8]
00000000: 0000 803f 0000 803f 0000 803f 0000 803f
00000010: 0000 803f 0000 803f 0000 803f 0000 803f
1.0 1.0 1.0 1.0 1.0 1.0 1.0 1.0

resolve.3.layers.0.conv1.weight f4 [8, 8, 1]
00000000: 5689 d5bd 276c 8abe b7c9 483e 2793 da3d
00000010: 9e62 0e3e d406 abbe 4f07 90bd b9a3 343f
00000020: 1539 9b3d ceba 333f 2005 abbe 1fcc 8e3d
00000030: fd00 01bf 9611 f3be 9457 573f 0dab da3c
00000040: 3b35 033c 1397 03bf 5f36 e23d 6cee 3fbf
00000050: 0117 433f bb6c 6fbf 9334 59bd 6242 12bf
00000060: 6509 bebc b7fe e93e 0419 e73d 6f27 edbc
00000070: da7a 533e 9c58 4ebe 11d0 1bbe a62c fb3c
00000080: 0a3b 5cbb ff33 e63e a0ed ccbe aac3 a63d
00000090: 30df 023e e178 88be 9168 8fbd 6142 e13c
000000a0: 474a 143f 3449 063f 7440 ccbe 50cd 9ebb
000000b0: 2cca f93e bd1f 393e d4d1 8dbe 37f1 72bb
000000c0: ffa7 f23d 5be5 f8bc b097 9e3e bd0d 723d
000000d0: 6bba e3bd 8dab 313e eccb 1d3e 104d e439
000000e0: 6936 11be 565e febe 0c56 953e 0aa0 86bd
000000f0: 7508 0cbe 7120 693f 6e4b 8f3e 81ca ec3d
-0.104265854 -0.2703564 0.19608198 0.10672598 0.13904807 -0.33403647 -0.07032644 0.7056232
0.07579247 0.70206916 -0.33402348 0.06972527 -0.50392133 -0.47474355 0.8411801 0.026692891
0.008008297 -0.51402396 0.11045527 -0.7497318 0.76206976 -0.93525285 -0.053028654 -0.5713254
-0.023197839 0.45702145 0.11284068 -0.028949467 0.20652333 -0.2015099 -0.1521609 0.030660938
-0.0033604526 0.44961545 -0.40025043 0.08142789 0.12780452 -0.26654723 -0.07002366 0.027497472
0.5792584 0.5245545 -0.39892924 -0.0048462525 0.48787057 0.18078513 -0.2769915 -0.0037070045
0.11848449 -0.030382803 0.30975103 0.059095133 -0.11119541 0.17350598 0.15409821 0.00043544965
-0.14180912 -0.49681348 0.2916721 -0.06573494 -0.13675101 0.91065127 0.27987236 0.11562062

resolve.3.layers.0.conv1.bias f4 [8]
00000000: bbac 95be 68b0 67bd 8c9f c9be de5c 9c3b
00000010: cb06 0f3e b381 163d 7f64 cc3c 0723 b83d
-0.29233345 -0.05656472 -0.39379537 0.004771813 0.13967435 0.036744785 0.024950264 0.08991056

resolve.3.layers.0.bn1.weight f4 [8]
00000000: 0000 803f 0000 803f 0000 803f 0000 803f
00000010: 0000 803f 0000 803f 0000 803f 0000 803f
1.0 1.0 1.0 1.0 1.0 1.0 1.0 1.0

resolve.3.layers.0.bn1.bias f4 [8]
00000000: 0000 0000 0000 0000 0000 0000 0000 0000
00000010: 0000 0000 0000 0000 0000 0000 0000 0000
0.0 0.0 0.0 0.0 0.0 0.0 0.0 0.0

resolve.3.layers.0.bn1.running_mean f4 [8]
00000000: 0000 0000 0000 0000 0000 0000 0000 0000
00000010: 0000 0000 0000 0000 0000 0000 0000 0000
0.0 0.0 0.0 0.0 0.0 0.0 0.0 0.0

resolve.3.layers.0.bn1.running_var f4 [8]
00000000: 0000 803f 0000 803f 0000 803f 0000 803f
00000010: 0000 803f 0000 803f 0000 803f 0000 803f
1.0 1.0 1.0 1.0 1.0 1.0 1.0 1.0

resolve.3.layers.1.conv0.weight f4 [8, 8, 3]
00000000: aff0 8bbd cd7d 9b3e aeef 87bd dcd3 a33b
00000010: ab25 00be 5ead cfbb b3c0 10bd c63e 7c3e
00000020: 6d7e 66bc 792a 8c3d 072b 3c3c 398f ea3d
00000030: dc43 913d 66f1 13be 055b 6dbd 5943 c23d
00000040: 28f7 22bd afa2 27bd 327a af3c c569 00bd
00000050: d78c 3ebd ab47 ac3c d7ce 38be 52a8 e83d
00000060: 5597 16bf 3d7f 3bbf 1cfb 80be e2fc 2bbe
00000070: adda 50bf 452d b1bd 4136 31be cb14 95be
00000080: 435e 95be 2780 9b3e 72d8 263f 9187 c93d
00000090: c3e6 8bbe 0a0b 083f a2aa b63c bc34 be3d
000000a0: 499e bb3e a64e cd3d fd69 6f3e 0a09 dcbe
000000b0: ccf4 2bbe 81f1 ab3d a33d 49be 7f2f 563e
000000c0: 545f ccbe b8a0 96be b65f a7be d7a3 99be
000000d0: f463 223f 9dbc 53be 1475 29be 98f9 a6bd
000000e0: 6ac4 1ebe d6a9 113e b1bb 02bf f31e 643d
000000f0: b623 bebc 8b02 d83e 4662 13be be6e a03d
00000100: 486c 973d a101 ca3c 950a c8bd 6462 da3e
00000110: 263e 91bd 48ba 69bd 9eaa 03bd 9cca ae3d
00000120: a9db 4dbe 1a6f f73d be11 aabd 3c4e e1bd
00000130: 9d0a 84bf 3e71 2abd a351 b2bd 6881 21bc
00000140: d97a ccbd 8e46 b53d 8593 f1be 8f90 ca3c
00000150: 0791 2e3d 8ded 06bf 9b34 633d 1ce3 583d
00000160: dbf3 333e 9265 f7bc 84a8 82bc a98a e1be
00000170: 4d56 8abe e1be 40be 83d5 dc3d bd69 80be
00000180: e103 65be 13e8 b5be c0a5 84be ed00 70be
00000190: 8bdd 2a3f 1372 1ebe 783f b0bd 126e 20be
000001a0: 862d f9bd a163 9abd 799e 63be 7a10 41bd
000001b0: c2d9 8abd 2039 393f ae25 29be 8ee6 9a3c
000001c0: 640b 3e3e bfba 04bd 3559 1abe 4050 96bf
000001d0: b9c1 c4bd 9450 c8bd a871 a13e 3733 c7bc
000001e0: 9764 e0be 2f01 653f 729c 86be ab53 77be
000001f0: 10e2 8b3e ad15 1abe 87ef 3cbe 46aa 02bf
00000200: 8f62 42be 8ed8 1f3e 81c5 29bf 0c70 363e
00000210: 077b 293e 7334 303f 4d80 e6bd 0dc9 953e
00000220: 125b c83e 1dd5 b53c 6abc 73be 92ff c2be
00000230: 1e7a e9be ce6e cdbe 7e90 6bbf d168 d1bc
00000240: 8f5b cfbe 1ccc 80bf 0541 cfbe d195 78be
00000250: c1c9 e5ba 77fd 22be d742 3fbe e282 9cbd
00000260: 2a40 82be 6974 f53e 458f 383f ab50 f33c
00000270: 6d6d 813e 2688 8a3e 8423 aa3d f90d ca3d
00000280: e675 eebd 02c6 b33e dcae c83e ce7d 083d
00000290: e48d c73e e135 923e e5ef 2e3d d1e7 e03c
000002a0: a90a a2bd 3df9 e23d 947f 51bd 9643 013c
000002b0: db8a 9fbe 91a1 c93c f517 b9bd bc07 ec3b
000002c0: 25ce ddbc ef3c da3d e22f f6bc 469c 6c3d
000002d0: f30f 92bc d000 633e 1b1f aebd 442d 99bc
000002e0: dcce b1be d317 923d 1be1 e33a 1296 e03e
000002f0: b91a 543d d6f9 cd3d 76cb a5be 7a66 5e3e
-0.06833016 0.30369416 -0.06637512 0.004999621 -0.12514369 -0.0063378057 -0.035340022 0.24633321
-0.014068228 0.068440385 0.011484868 0.11453099 0.07093021 -0.14447555 -0.05794813 0.09485502
-0.039786488 -0.04092663 0.021420572 -0.03135087 -0.046521034 0.021030268 -0.18047653 0.113602296
-0.58824664 -0.73241025 -0.2519158 -0.16795686 -0.8158367 -0.086512126 -0.17305852 -0.29117426
-0.29173478 0.3037121 0.6517402 0.0984031 -0.27324495 0.53141844 0.022298161 0.09287402
0.366442 0.100247666 0.23380275 -0.42975646 -0.16792601 0.083956726 -0.19652419 0.20916556
-0.3991648 -0.29419494 -0.3269021 -0.30007812 0.63433766 -0.20677419 -0.16548568 -0.08153075
-0.15504614 0.14224944 -0.51067644 0.055693578 -0.023210388 0.4218944 -0.14392957 0.078336224
0.073937 0.02465898 -0.09767643 0.4265319 -0.07091932 -0.057062417 -0.032145135 0.085347384
-0.20103325 0.12081738 -0.08304165 -0.1100125 -1.0315739 -0.041611902 -0.08706977 -0.009857513
-0.09984369 0.08851348 -0.4718286 0.024727134 0.042618778 -0.52706224 0.05547009 0.052950963
0.17573492 -0.0301998 -0.015949495 -0.44051102 -0.27018967 -0.18822815 0.10782912 -0.25080672
-0.22364761 -0.3552862 -0.25907707 -0.23437853 0.667443 -0.15473203 -0.08605856 -0.15666988
-0.12166886 -0.07538534 -0.22228421 -0.047134854 -0.06779815 0.7235279 -0.1651828 0.018908765
0.18559033 -0.032404657 -0.15073092 -1.174324 -0.09607262 -0.09780994 0.31532025 -0.024316413
-0.43826744 0.8945493 -0.26291233 -0.2415301 0.2732091 -0.15047331 -0.18450747 -0.51041067
-0.1898291 0.15609953 -0.6631699 0.1781618 0.16550837 0.6883003 -0.1125494 0.29254952
0.3913198 0.022196347 -0.23802343 -0.3808561 -0.4560098 -0.401236 -0.9201735 -0.025562676
-0.4049954 -1.0062289 -0.40479293 -0.242759 -0.0017531441 -0.15917002 -0.18677841 -0.076421514
-0.25439578 0.47940376 0.7209361 0.029701551 0.25278798 0.27056998 0.08307555 0.09865946
-0.11643581 0.35112005 0.39195907 0.0333231 0.3897544 0.2855673 0.04270925 0.027454289
-0.079121895 0.11082695 -0.05114706 0.007889649 -0.31160626 0.024613174 -0.090377726 0.0072030704
-0.027075836 0.106561534 -0.03005213 0.05776622 -0.01782987 0.22168279 -0.08502027 -0.018698342
-0.34728134 0.0713345 0.0017385812 0.43864495 0.051783297 0.10057418 -0.3238179 0.21718779

resolve.3.layers.1.conv0.bias f4 [8]
00000000: 28ba 933e da69 ef3e c891 aa3d f3e8 3d3e
00000010: f298 15be e5d8 8cbe e30f c53e e883 923e
0.28852963 0.46760446 0.08328587 0.18545894 -0.14609125 -0.27509227 0.38488683 0.2861626

resolve.3.layers.1.bn0.weight f4 [8]
00000000: 0000 803f 0000 803f 0000 803f 0000 803f
00000010: 0000 803f 0000 803f 0000 803f 0000 803f
1.0 1.0 1.0 1.0 1.0 1.0 1.0 1.0

resolve.3.layers.1.bn0.bias f4 [8]
00000000: 0000 0000 0000 0000 0000 0000 0000 0000
00000010: 0000 0000 0000 0000 0000 0000 0000 0000
0.0 0.0 0.0 0.0 0.0 0.0 0.0 0.0

resolve.3.layers.1.bn0.running_mean f4 [8]
00000000: 0000 0000 0000 0000 0000 0000 0000 0000
00000010: 0000 0000 0000 0000 0000 0000 0000 0000
0.0 0.0 0.0 0.0 0.0 0.0 0.0 0.0

resolve.3.layers.1.bn0.running_var f4 [8]
00000000: 0000 803f 0000 803f 0000 803f 0000 803f
00000010: 0000 803f 0000 803f 0000 803f 0000 803f
1.0 1.0 1.0 1.0 1.0 1.0 1.0 1.0

resolve.3.layers.1.conv1.weight f4 [8, 8, 1]
00000000: f75f e23e 6903 0c3f dc60 6a3e d6a5 2bbe
00000010: 0e76 9f3e 3a8d 243f 2766 89be 573c 483e
00000020: 1344 38bd 70d4 9dbe 1101 883e 4831 e63d
00000030: 3569 a3bb 316a 5a3d beac d2bd 01ee 483f
00000040: 644b fbbe e37c 8bbe 7695 2a3e 3b49 6a3f
00000050: 8906 c03e 9eb7 78be ea8b b93e 7430 193e
00000060: 0de5 59be d14c 293d a751 00bd bf22 29be
00000070: c57e 9c3d 3204 5a3c 070d 7cbd d80b a63c
00000080: 2bdc 0f3f 02ac a2ba 3040 c7be 1b51 003f
00000090: 38e8 ac3e d181 773e 70a5 bb3b f74c 813d
000000a0: 9d9c b8be 1eb8 a0bd 44e8 d53d e122 5ebd
000000b0: bff1 56bd dc1d e3bd 734d c9bd 42f5 533d
000000c0: 0684 603e 4903 e4bb 2612 63be 10d5 253f
000000d0: 91fc 7fbd d5f3 3f3e 5df8 ecbb 9506 fe3e
000000e0: c4d1 19be d680 2b3e cfa9 c5be 584f c4bd
000000f0: 6580 f13e f0ec a33e 0c80 a6bc 6797 703d
0.4421384 0.54692703 0.22888511 -0.1676248 0.31144756 0.64277995 -0.2683575 0.19554268
-0.044986796 -0.3082614 0.26563314 0.112398684 -0.004986907 0.05332393 -0.10286854 0.78488165
-0.49080956 -0.27243719 0.16658577 0.9151799 0.37504986 -0.24288794 0.36239558 0.1495989
-0.21278782 0.041333023 -0.03132787 -0.16517161 0.07641367 0.013306664 -0.06153586 0.02026932
0.56195325 -0.0012410881 -0.3891616 0.5012376 0.3377092 0.24170615 0.005726509 0.06313508
-0.36056986 -0.078476176 0.10444692 -0.054232482 -0.05247664 -0.110896796 -0.098292254 0.051747568
0.21925363 -0.0069583994 -0.22174892 0.6477823 -0.062496725 0.18745358 -0.0072317556 0.49614397
-0.15021425 0.16748366 -0.38606116 -0.09585446 0.4716827 0.32016706 -0.02032473 0.05873814

resolve.3.layers.1.conv1.bias f4 [8]
00000000: 7c04 13bf 5318 e83d 89e0 04be 02d7 53be
00000010: 72dd a03e cbec bd3d 39e8 85bd ef6f c8be
-0.5742872 0.113327645 -0.12976278 -0.20687488 0.3141895 0.0927368 -0.065384336 -0.391479

resolve.3.layers.1.bn1.weight f4 [8]
00000000: 0000 803f 0000 803f 0000 803f 0000 803f
00000010: 0000 803f 0000 803f 0000 803f 0000 803f
1.0 1.0 1.0 1.0 1.0 1.0 1.0 1.0

resolve.3.layers.1.bn1.bias f4 [8]
00000000: 0000 0000 0000 0000 0000 0000 0000 0000
00000010: 0000 0000 0000 0000 0000 0000 0000 0000
0.0 0.0 0.0 0.0 0.0 0.0 0.0 0.0

resolve.3.layers.1.bn1.running_mean f4 [8]
00000000: 0000 0000 0000 0000 0000 0000 0000 0000
00000010: 0000 0000 0000 0000 0000 0000 0000 0000
0.0 0.0 0.0 0.0 0.0 0.0 0.0 0.0

resolve.3.layers.1.bn1.running_var f4 [8]
00000000: 0000 803f 0000 803f 0000 803f 0000 803f
00000010: 0000 803f 0000 803f 0000 803f 0000 803f
1.0 1.0 1.0 1.0 1.0 1.0 1.0 1.0

resolve.3.layers.2.conv0.weight f4 [8, 8, 3]
00000000: 2229 2b3d 272b 383f ad65 1e3e 4315 febd
00000010: dd57 853f c841 20be 8d1e f03c 1d0f 40bf
00000020: 4ce6 a4bc 3296 943d f076 eebd 2377 273e
00000030: 7a11 fcbd 3c5c c13e 4988 43be 4e34 13bd
00000040: 24aa 5abe a74a c33c 1b3d efbb d200 0b3f
00000050: cc03 c1bd 233f 043d 1130 b93d ba45 323d
00000060: 97d3 443e 5dc7 51bf 5c54 e63d 95bb 0ebe
00000070: b77e 9f3d d77f c6bd 0dc0 d93d 907e 253f
00000080: 4c55 3f3d 4a07 563b 42e0 37bc b33a 9fbc
00000090: d0c4 0b3e f4bc d1bf 81f4 243e 7f83 3ebc
000000a0: 5da1 a33d d7bf 46bd 6a2f 16bd 21e5 343c
000000b0: 5005 02be 72c8 96bd da02 efbe b043 453d
000000c0: b46e a73b bbf1 b43d e7d4 21bb 6255 0e3c
000000d0: e719 38be 2967 2f3c 5bc8 a33b 98e3 21bd
000000e0: b844 e93b 12ff a13c 5a78 aa3e 09d6 bb3c
000000f0: b48b b83b 2186 413e bebf 8c3c 5f8a 87bc
00000100: 8393 fe3c f82f 25bc 36c9 fe3b 3d43 843c
00000110: a680 793c aa52 85bc e341 573e aba7 1abd
00000120: 58c0 9e3e a95c 953e 786e c93d 17e7 4abe
00000130: 5e9a d6be 05bd bc3c a152 903c a8e8 dbbe
00000140: 6b54 b13a f49b 6ebe 8c89 45bf 1023 7d3c
00000150: 624e 9ebe 20ff dfbd 6ed7 7dbd b2ce 69be
00000160: e908 84be 8f3e c7bd bd6e b0be 91c2 7cbf
00000170: d2c1 ddbd 8dba d7bd 9ac1 bebe 20e7 c7bd
00000180: ab68 03bd ca6c 813e 9121 aabd a7b9 d0bc
00000190: c384 8bbe 1771 c93c 8175 613d 063a 8cbf
000001a0: 4139 e3bb d95a e33c ef3d e63d ee7e 1dbd
000001b0: 7144 9b3d 0b6d 603f f71f ef3d d1b8 0d3d
000001c0: 08ed 943d f628 7abd ec95 11bd e9c8 34be
000001d0: 40b8 89bd 6551 8ebc d49f e6bb aa6a 8abb
000001e0: 6402 de3c e213 0fbc 878d 4d3b f7a9 cd3b
000001f0: 4ca2 1a3e 3abf 5f3d 6ae5 673d 386d 043e
00000200: 8d81 663d 16a4 103c f1b4 c3be 8529 b9bd
00000210: 7120 cb3d 8c86 f13e a1b9 c73d 56bb 7d3c
00000220: 75be f13d d027 873d 5902 003d f602 ec3e
00000230: 794d 713d 53eb 1dbd 83ae 17bf b91b 1ebe
00000240: 4fe6 3a3c 8ae5 373e 4747 15bd b1d4 0ebd
00000250: e33c 48bf ca82 95bd 5a82 23bd ab3e e63d
00000260: 1ecd 99bd 91ef 75bd 882b 243d d8cd 003c
00000270: 6cf9 acbe 32d9 193f 1f24 19be 8c28 f0bd
00000280: 851f c1bd e79d c2bd fe1b 2cbe 4b9a b53d
00000290: be7f 80bd 3238 ea3d b77e 933e 96bf 0c3e
000002a0: b1cb 113d 99f5 1c3e b7a6 a13c cb94 98bc
000002b0: be72 983d 8ae0 e3bc 26dd b2bc 49e1 dbbd
000002c0: f538 a3bc 7f1a 5d3a 0ad4 b1bd 4a2f d03c
000002d0: d940 1dbd fd5f 813e 3aa7 9dbc e3a3 fcbc
000002e0: 33a3 b43d 8772 e5bb cc97 d9bc dbda 00bd
000002f0: 5baa ffbc a815 8f3b c1d9 54be a380 893d
0.041787274 0.71940845 0.15468474 -0.12406399 1.0417439 -0.15650094 0.029311443 -0.7502306
-0.020129345 0.0725521 -0.11643779 0.16354041 -0.12308021 0.37765682 -0.19094957 -0.035938554
-0.21353966 0.023839308 -0.0073009855 0.54298127 -0.09424552 0.032286774 0.09042371 0.043523528
0.1922134 -0.8194483 0.11246559 -0.13938744 0.07787841 -0.09692352 0.10632334 0.64646244
0.046712205 0.0032658153 -0.011222901 -0.01943717 0.13649297 -1.6385789 0.16108896 -0.011628031
0.07989762 -0.048522796 -0.03666631 0.011040957 -0.12697339 -0.07362451 -0.46681863 0.048160255
0.0051096324 0.08835169 -0.002469355 0.008687349 -0.17978631 0.010705748 0.0049982495 -0.03952369
0.0071187876 0.019774947 0.33294946 0.022929208 0.0056318883 0.18898822 0.017181274 -0.016545473
0.031076198 -0.010082237 0.007775451 0.016145343 0.015228426 -0.016274769 0.21021228 -0.037757557
0.31006122 0.29172257 0.09835523 -0.19814716 -0.41914648 0.02303935 0.017617526 -0.4295094
0.0013529187 -0.23301679 -0.77163005 0.015450254 -0.30919176 -0.10937333 -0.061973028 -0.22832754
-0.25788048 -0.09728729 -0.34459487 -0.98734385 -0.10827984 -0.105336286 -0.3725708 -0.097608805
-0.03208224 0.25278312 -0.083071835 -0.025479151 -0.27249727 0.024590058 0.0550437 -1.0955207
-0.0069343154 0.02775328 0.11242282 -0.038451128 0.075814135 0.87666386 0.11676019 0.034600083
0.072717726 -0.06107422 -0.035543367 -0.17654766 -0.06724596 -0.017372796 -0.007038096 -0.004224141
0.02710075 -0.008732768 0.0031364874 0.006276365 0.15100974 0.054625727 0.05661527 0.12932289
0.056275893 0.008828184 -0.38223985 -0.09041122 0.09918297 0.47172964 0.09752203 0.015486559
0.11803905 0.065993905 0.03125224 0.4609601 0.058911774 -0.0385545 -0.5925066 -0.15440263
0.011407449 0.17958656 -0.03644493 -0.034870807 -0.78217906 -0.07300337 -0.039919235 0.11242422
-0.07509826 -0.06004292 0.040080577 0.007861577 -0.33784044 0.6009704 -0.14955185 -0.11726484
-0.0942984 -0.09502774 -0.16807553 0.0886732 -0.06274365 0.114365 0.28807613 0.13744959
0.035594646 0.15328063 0.019732816 -0.018625638 0.0744376 -0.02781703 -0.021833967 -0.10736329
-0.01992462 0.0008434429 -0.08683021 0.025413174 -0.03839192 0.25268546 -0.019244779 -0.030839866
0.0882019 -0.007002178 -0.02656164 -0.031458717 -0.031209162 0.0043665953 -0.20786192 0.06713989

resolve.3.layers.2.conv0.bias f4 [8]
00000000: 2cff c6be e67f 1c3e 7af5 363d 4137 52be
00000010: dd37 11bc 45b9 4b3e aec7 0c3d 1a66 bd3e
-0.38866556 0.15283164 0.0446677 -0.2052889 -0.0088634165 0.19894893 0.034370117 0.3699196

resolve.3.layers.2.bn0.weight f4 [8]
00000000: 0000 803f 0000 803f 0000 803f 0000 803f
00000010: 0000 803f 0000 803f 0000 803f 0000 803f
1.0 1.0 1.0 1.0 1.0 1.0 1.0 1.0

resolve.3.layers.2.bn0.bias f4 [8]
00000000: 0000 0000 0000 0000 0000 0000 0000 0000
00000010: 0000 0000 0000 0000 0000 0000 0000 0000
0.0 0.0 0.0 0.0 0.0 0.0 0.0 0.0

resolve.3.layers.2.bn0.running_mean f4 [8]
00000000: 0000 0000 0000 0000 0000 0000 0000 0000
00000010: 0000 0000 0000 0000 0000 0000 0000 0000
0.0 0.0 0.0 0.0 0.0 0.0 0.0 0.0

resolve.3.layers.2.bn0.running_var f4 [8]
00000000: 0000 803f 0000 803f 0000 803f 0000 803f
00000010: 0000 803f 0000 803f 0000 803f 0000 803f
1.0 1.0 1.0 1.0 1.0 1.0 1.0 1.0

resolve.3.layers.2.conv1.weight f4 [8, 8, 1]
00000000: 647e ea3e 7c93 f93e 9a7d 04bf 0ba0 c2be
00000010: c3db 783e 9212 b03e 4430 583e 7f07 8b3c
00000020: 2e40 2d3e c612 a83e 8be0 e93e 32bf 54be
00000030: 49bd 6cbd 5a91 78be d236 8a3d 301c 1abc
00000040: 3fd1 e5be b779 a63e 58e9 083f 594c e3bc
00000050: e192 f1bd d6ea 3bbd 6476 d6bd 33f1 dd3e
00000060: f173 663d 30b5 0c3e 83f7 e43e 5523 33be
00000070: 3dba 5f3d f449 0a3e 0895 af3d 955a 513e
00000080: a9cc a9bd af8e dabe a776 9e3e 692f 503d
00000090: cfff c9be 4add 333e 8bbb f63e bce4 5cbb
000000a0: bd28 b73a c0ea b73c 90e9 613d 55c0 d53c
000000b0: 80b0 a7bd fdf5 fc3d 1241 0a3e 4018 273e
000000c0: 8e59 4bbd 5570 8e3e e289 56bd c9f6 38be
000000d0: a32c 82bd 785a 62be 425a 2dbe d55e a7be
000000e0: d6a0 033e c255 b93e ce65 d23d e201 f5be
000000f0: 32aa 513e 9ceb 333e b7c2 70bd 1a4c 933e
0.45799553 0.48745334 -0.5175415 -0.38012728 0.24302582 0.34389168 0.21112162 0.016971348
0.16919014 0.32826823 0.45679125 -0.2077606 -0.057797704 -0.24274197 0.067487374 -0.0094061345
-0.44886205 0.32514736 0.53481054 -0.027746366 -0.11795593 -0.045878254 -0.104718 0.43348083
0.056262914 0.13740993 0.44720086 -0.17493947 0.05462097 0.13504773 0.08573347 0.2044471
-0.08290989 -0.42686984 0.309499 0.050826464 -0.3945298 0.17564884 0.4818996 -0.0033705672
0.0013973933 0.022450805 0.055154383 0.026092688 -0.081879616 0.12351606 0.13501385 0.16317844
-0.049645953 0.27820078 -0.05237759 -0.18062891 -0.0635617 -0.22104824 -0.16928962 -0.3268954
0.12854323 0.3619824 0.10273324 -0.47853 0.2047508 0.17570347 -0.058779445 0.28768998

resolve.3.layers.2.conv1.bias f4 [8]
00000000: 73fa 053f b174 ad3e 75f3 64bd 989e 94bd
00000010: 81a7 9abe 581b 35be b003 9b3d 770a bcbe
0.5233528 0.3387809 -0.05589624 -0.07256812 -0.3020592 -0.17686212 0.07569063 -0.36726734

resolve.3.layers.2.bn1.weight f4 [8]
00000000: 0000 803f 0000 803f 0000 803f 0000 803f
00000010: 0000 803f 0000 803f 0000 803f 0000 803f
1.0 1.0 1.0 1.0 1.0 1.0 1.0 1.0

resolve.3.layers.2.bn1.bias f4 [8]
00000000: 0000 0000 0000 0000 0000 0000 0000 0000
00000010: 0000 0000 0000 0000 0000 0000 0000 0000
0.0 0.0 0.0 0.0 0.0 0.0 0.0 0.0

resolve.3.layers.2.bn1.running_mean f4 [8]
00000000: 0000 0000 0000 0000 0000 0000 0000 0000
00000010: 0000 0000 0000 0000 0000 0000 0000 0000
0.0 0.0 0.0 0.0 0.0 0.0 0.0 0.0

resolve.3.layers.2.bn1.running_var f4 [8]
00000000: 0000 803f 0000 803f 0000 803f 0000 803f
00000010: 0000 803f 0000 803f 0000 803f 0000 803f
1.0 1.0 1.0 1.0 1.0 1.0 1.0 1.0

resolve.3.layers.3.weight f4 [16, 8, 8]
00000000: 5fc3 353d aaee 0e3e 9907 6e3b 132f a83d
00000010: cf7b 62bd b65e 2b3d 4696 a43c a459 9cbc
00000020: 1757 063e ca20 9abd ee10 3a3e 3cf7 293e
00000030: 50b5 8b3e 3a74 273e e2d9 de3d 8327 a43d
00000040: 82eb cbbc a0e8 53bc aa44 a93d 2597 9f3b
00000050: f93c 723d 963d 383b e207 94bb 63d8 11bc
00000060: 41e5 c93e e5bd 0d3a be6f 4a3d 1d2a 953e
00000070: 121e ea3e a93b 213e 140a 8e3c 181d 5c3d
00000080: f871 f13c c108 f33d 89aa 493d ef5f 593b
00000090: 22a4 ea3d 6c6e 04bd 09e7 89bb 3262 423d
000000a0: 5afa f6bd 1768 973e ba41 ce3d 9e76 a63d
000000b0: 4feb 51be 8ae8 933c b514 693d 8dbd e73c
000000c0: 8115 023e a338 503e de3d 03be 7436 633e
000000d0: f991 7fbd 1753 1b3e 28fc ac3d 1688 173d
000000e0: 569c 36be eee1 a23d b9f6 d43e 8e85 43bd
000000f0: da34 233e e11d 433d 29a0 4a3c 2e6b 1f3d
00000100: d9b3 a83d 97a2 5b3e 7c9b 513e 4ba2 9fbd
00000110: 93f9 303d 7b2b 37bc 6700 53bd 79d1 3bbd
00000120: 84ac 383e 8a34 cdbc 9b74 683d ce82 863e
00000130: 361e 913e dadb 883e 3898 9e3e 9477 0c3e
00000140: 33c5 94bd 5f00 7ebd b555 2d3d 3bd4 083e
00000150: 858e 983b ba33 4b3d 0bfc d33c d14e 22bd
00000160: ef87 973e 1235 7fbb 8df3 0abe a894 2fbe
00000170: a6f7 633e 529c d63e f0ce 183e ae3b 3f3d
00000180: c22e 073e 2d2a 363e 9094 cb3d 637c 553e
00000190: 3350 543e e555 743d 8a81 363c ffe7 1f3e
000001a0: 61d6 ec3d f3b8 c93e 19fe 223f 1348 e43e
000001b0: dafa 803e 5494 28bd 77c8 a2bb 6701 f13d
000001c0: deaa 8e3e d206 913e 7c9f 943e eb9b 98be
000001d0: b144 9c3e 3241 0d3e 65c6 503d 1798 983d
000001e0: e070 4ebe 1295 753d 567d 9e3e d184 333f
000001f0: ffa9 613d 65d4 ad3d ccb8 7fba c187 b03b
00000200: 0f58 023e b979 1b3d ed58 233e a1c5 7c3d
00000210: ec33 133e 08eb 9b3e 644a 313e cbd1 ab3d
00000220: 8b09 60be 774b 223e 4fd1 b1bc ae85 663e
00000230: c13f 963e 1d5b b43d cb36 b83b f4ad 1b3d
00000240: 5684 8d3d 3fda 153e aba4 e03d fb94 1d3e
00000250: 7566 023b 834d aebd 3c8f 6fbd 7e7d 343c
00000260: d2cd e23c 2fca 6b3e 158b 7d3e f0f5 3d3e
00000270: feb5 113d 161e 493d d0a0 043e cb8f 093a
00000280: 897c 07bc 8bd3 8cbd 1650 b1bd fc80 91be
00000290: f224 32be c38a d2be e5f7 1cbe cd41 6bbe
000002a0: 4920 4c3e b539 18be d2b0 46bd b26f 823d
000002b0: eaee 1bbe 9d64 08bb 20e4 70bd d943 98bd
000002c0: ce6b 17bd 0ef9 9abe a3c2 33bd b9a9 5dbe
000002d0: 68df 0dbe 9861 ad3e 8bf8 7bbc 4824 3f3d
000002e0: fd43 8a3e 928d 753e f7c2 713e 9e86 df3e
000002f0: a73e bd3e 8557 e53d 16a0 2a3e 0110 693e
00000300: 504d 143e b01d a33e 2550 0b3f 787d 853e
00000310: 043a db3d c08c ec3d 1db1 dbbb 9c1b a63c
00000320: 1299 953e 3daf 883d 23e1 cd3e bc23 a4bb
00000330: 9d84 eabd a2c1 71bd 30a7 3bbe b3c6 97bd
00000340: 3d2f c7bd 7f2e 32be 1f06 80bd 8ee2 5dbd
00000350: c69f 5cbc 2b77 cf3d 6821 4a3c d7e7 ca3d
00000360: 5272 f93d ba48 09be 1eb6 1b3e 772e 743e
00000370: 84fc 7e3e 9713 4ebe cf68 523c 40c9 4dbc
00000380: fc28 38be 1d32 333e 4099 25bf ef5d 833e
00000390: 54a0 693e 4bbc babd 7011 2bbe f851 adbb
000003a0: 8e61 14bc b83d 803e 86d9 ff3d 7d9b 9c3e
000003b0: 8cde cfbd 1130 983d 922e 753d d808 60bc
000003c0: 9ea4 79bd 520c bc3e 9b2c 453f 3b48 0abe
000003d0: 645a 4f3e 751e 213e 7b96 053d 28ca 0dbe
000003e0: 2aaf 483e fd2d 233e f7a5 81be ee19 ce3d
000003f0: 6096 85bd f66e e63d 407e f53d d831 b73d
0.044375774 0.1395823 0.0036320447 0.08212104 -0.055293854 0.04183837 0.020091187 -0.019085713
0.1311916 -0.07525785 0.1817052 0.16598219 0.27286768 0.1635293 0.108814016 0.08015349
-0.024892572 -0.01293388 0.0826505 0.0048703128 0.05914018 0.002811288 -0.0045175413 -0.008901688
0.3943272 0.00054070196 0.049422972 0.29133692 0.45726067 0.15745415 0.01733879 0.053738683
0.02947329 0.11866904 0.0492349 0.0033168753 0.11457087 -0.03233187 -0.0042084497 0.047456928
-0.120594695 0.29571602 0.1007113 0.08128093 -0.2049992 0.01805522 0.056904513 0.028288627
0.12703516 0.20334105 -0.12816569 0.22188741 -0.06239507 0.15168415 0.084465325 0.036995016
-0.17833075 0.07953249 0.41594484 -0.04773479 0.1593813 0.047635917 0.012367287 0.038920574
0.08237428 0.21448742 0.20469469 -0.07794627 0.043206763 -0.0111798 -0.051514056 -0.045854066
0.1803456 -0.025049467 0.05675183 0.2627167 0.28343362 0.26730233 0.3097551 0.1371749
-0.07264175 -0.062012073 0.042318065 0.1336221 0.0046556615 0.049609877 0.02587702 -0.039625946
0.29595897 -0.0038941544 -0.1356947 -0.17146552 0.22262439 0.41916138 0.1492269 0.046687774
0.1320143 0.17789526 0.099404454 0.20848231 0.20733719 0.059652228 0.011139283 0.15615843
0.11564327 0.39398918 0.6366897 0.44586238 0.25191385 -0.04115708 -0.004967745 0.117678456
0.27864736 0.28325516 0.29027927 -0.29806456 0.30521157 0.13794401 0.050970454 0.07450884
-0.20160246 0.059956618 0.30955 0.70124537 0.05509376 0.08487777 -0.0009755015 0.005387277
0.12728904 0.03795788 0.15951891 0.06171191 0.14375275 0.30452752 0.17313534 0.08389624
-0.2187864 0.158491 -0.021706251 0.22511932 0.29345515 0.08806441 0.005621766 0.03800769
0.06910007 0.14634036 0.10968908 0.15388863 0.0019897495 -0.08510878 -0.05848621 0.011016248
0.027686033 0.23026346 0.24760087 0.18550849 0.035573952 0.049100958 0.1295197 0.0005247562
-0.008269438 -0.06876286 -0.08657853 -0.2841872 -0.17396906 -0.41121492 -0.1532894 -0.2297432
0.19934191 -0.14865763 -0.048508473 0.063689604 -0.15227857 -0.0020811923 -0.058811307 -0.07434816
-0.036968045 -0.3026814 -0.043886792 -0.21646775 -0.13854754 0.3386352 -0.0153790815 0.04666546
0.27004996 0.23979786 0.2360953 0.43657392 0.36961862 0.11198334 0.1666263 0.22760011
0.14482617 0.31858587 0.54419166 0.26072288 0.10704425 0.115502834 -0.006704463 0.020276837
0.29218346 0.06674049 0.40210828 -0.0050091427 -0.11451075 -0.059022553 -0.18325496 -0.07410946
-0.09725807 -0.1740055 -0.062511675 -0.054171138 -0.013465827 0.10130151 0.012337066 0.09907501
0.12180008 -0.13406649 0.15206191 0.2384585 0.24901015 -0.2012466 0.012842371 -0.012560189
-0.17984384 0.17499585 -0.64686966 0.25657603 0.22815067 -0.09117945 -0.1670587 -0.0052893125
-0.009056462 0.25047088 0.12492661 0.30587378 -0.10149869 0.07431043 0.059858866 -0.0136739835
-0.060948007 0.3672815 0.7702119 -0.13504116 0.20249325 0.15734275 0.032614212 -0.13846648
0.1959807 0.15935512 -0.25321934 0.100635394 -0.065228224 0.11251633 0.11986971 0.08945054

resolve.3.layers.3.bias f4 [16]
00000000: 1062 42be 452a 953e 6f10 d0bd d72d 3dbf
00000010: fc17 273f 4ad8 ec3c 7b59 ccba 7cc0 713e
00000020: 008f 1c3e b568 8e3e 56ce b73d 0a8d dfbd
00000030: 46c9 933d 73e8 ef3e 17fd 643e 8e49 bbbe
-0.1898272 0.29133812 -0.101593845 -0.7389807 0.6527097 0.028911728 -0.0015590632 0.23608583
0.15288925 0.2781426 0.08974902 -0.10915573 0.07216124 0.46857032 0.22362171 -0.36579555

resolve.4.layers.0.conv0.weight f4 [16, 16, 3]
00000000: 1f91 2c3d 81b1 73be 39ea 25be 27b8 303d
00000010: b177 52be 01ac 973d 3739 8ebd 7fba dfbe
00000020: 2651 d4bd 72f1 963e f5c2 913d 912b c13e
00000030: 105c 0d3e 9638 c4bc 3f03 5fbb 2a00 fe3c
00000040: d10a c6bd 4119 413c 5d8f dbbd 643c e3be
00000050: 8189 c43b c6e1 9a3b 2ce5 0fbe 19c2 dbbd
00000060: 0c8b 453e 3c9e 133d ca03 9e3d 1f09 983e
00000070: 363d 1f3e a3e7 a53e 76ee 8e3d 412e 34be
00000080: 5967 373e 8fe0 9b3d 3612 c83e ede8 693d
00000090: ae91 adbd b5fa 0fbd 601c aebd c976 f9bd
000000a0: ad31 063e c0d0 90bd 1077 54be 6eba 953e
000000b0: fa7c 2c3a aa95 0f3e 6022 57be 39a4 063e
000000c0: c66c 3d3e f945 8ebd 87ee 793e 41c1 48be
000000d0: 251a 5ebe 2406 87be c8d3 c33e 61f1 8f3e
000000e0: 7eb1 033f b05e ed3e fca4 053f f60e 083f
000000f0: 4dc5 15bd 8f7b 9fbe b09a b9bd 861b 07be
00000100: e16b 0bbe 18cd 58bd 7a04 60be 5741 293e
00000110: b20e e3bd 74f9 0e3e 726f e63d 9fd4 59bd
00000120: 62d1 b3bd 09ba 753e 5775 903b 4ebb fabc
00000130: 5a58 e0bc 9722 a3bd 16c6 53bd 2d82 babd
00000140: 33f6 363d 4fb6 573d 55ab a0bd 57fc c43c
00000150: 67f2 06be a2fe 39bd 74f5 183e 4b70 023e
00000160: d585 123d ca13 8f3d d136 57bd 74d6 923d
00000170: ddad cdbc f23f e23d a393 2f3e 04ca b13c
00000180: 3a12 bbbe 6cdf 08bf 39a2 fc3e 9d57 edbd
00000190: cbbd 233f b87c 6a3d 3f33 1cbf 6cd1 00bf
000001a0: 25bc 8cbe 95fe c33d 2d00 25be a728 4b3e
000001b0: f3a5 823d 3592 26be a62c 943e 74e2 af3d
000001c0: 8a6c 6ebe 6e80 52be 5d64 5c3d 4d42 4a3a
000001d0: 7b02 ccbe d0bf 153e a3ac 9d3d 2893 993e
000001e0: 28c1 39be 5f36 4cbd 93f4 843d 8d70 fe3b
000001f0: 5575 aa3d a317 01bd d0e2 9d3d 1c3e 973e
00000200: 2a01 20be 7641 b33d e8f9 853d f69b a63d
00000210: e372 b4be 495d 8bbe 13b4 063f b45c 6bbf
00000220: 4154 fc3e 029a afbe 58c9 c43e f2be a23e
00000230: f5df 68bf 4b7c 2d3e b5a2 2fbe 3267 423e
00000240: f99a d63c 083d 34be 9c33 db3d 482a f63c
00000250: 3958 f9be 8110 133e 5ea6 a43c c98e bc3d
00000260: 9bb7 c43b 6bc0 e83e 3daf acbe 3d55 88bc
00000270: a4ee f5bd 494d 2d3e 5f95 ccbd ed03 493e
00000280: 18be 17bd 9115 a339 367b 86bf 610a 023c
00000290: 32fa 4dbd 01c3 30b9 f4d0 e33b 9590 34be
000002a0: 861c 493e 6692 f7bd 6e04 133d dccf 0d3d
000002b0: a822 b7be afb5 93bd 2b96 5bbd d313 783d
000002c0: b753 57be 8f6f 8fbe 3b0c 813e eeeb 95bb
000002d0: 3e17 e03e 9ca9 25bf 86c9 c83d 47f1 ed3d
000002e0: f30e 313d 2a70 cb3e b7a8 d93e c2da 723e
000002f0: 3ec4 aa3e 1dbd c9bd 8cfe 04bf 98ef 2fbe
00000300: c542 34bf 95f6 10be f39a 893d f6f9 2b3e
00000310: b296 943d 79b9 093d 29b4 7bbe 680f 44be
00000320: deb3 3abe 6b8d c93e 1b61 49bd fb5a 1c3e
00000330: 4b4d 763e f7cd 963d d325 463d 5aca 963e
00000340: 03b5 c7be 910c bb3d d47a 37be 842d a83e
00000350: d4f5 713d c65c 07bd 7bc9 2b3d 69de 2ebe
00000360: 3b1c c03e 3214 983e 29ff f2bd 11f8 8bbe
00000370: b684 0e3f 7d0a 8bbd 8a4f 78be ac98 d8bd
00000380: 0a03 0a3e 5e49 be3d 8850 73bf 8010 ccbd
00000390: 2cbe 78be 1688 dd3b 1d7f 873e ed1a f53d
000003a0: 6377 333d ec16 163d ad49 90be 9821 cd3e
000003b0: 5ebe 43be 7c34 343e cae9 bbbd c611 8abd
000003c0: 17af e33d f7fb 903d 54c7 0bbe 6cf4 183e
000003d0: 164d 833d b3e5 f93b 2500 88bd 45fc afb9
000003e0: 7a5a 4c3e fc50 da3d c318 d53d 7792 333e
000003f0: 6828 e83d b18d d53c c0e0 2d3e b007 62bd
0.042130586 -0.23798181 -0.1620263 0.04314437 -0.20553471 0.07405854 -0.069445066 -0.43696973
-0.1036704 0.29481083 0.07117263 0.3772855 0.1380465 -0.023952764 -0.0034029034 0.031005938
-0.09670032 0.011785806 -0.10720704 -0.44382012 0.005997837 0.0047266213 -0.14052266 -0.107303806
0.19291323 0.036039576 0.077155665 0.2969446 0.15550694 0.32403287 0.069790766 -0.1759577
0.17910518 0.076111905 0.39076394 0.0571069 -0.08475052 -0.035151202 -0.08501506 -0.121808596
0.13104887 -0.07071066 -0.20748544 0.29243797 0.0006579902 0.14021936 -0.21009207 0.13148583
0.18498525 -0.0694694 0.24407397 -0.1960497 -0.21689661 -0.26371872 0.38247514 0.28113845
0.51442707 0.46361303 0.5220487 0.5314783 -0.036565114 -0.31148955 -0.090627074 -0.13194093
-0.13615371 -0.052929968 -0.21876708 0.16528831 -0.11086787 0.13962346 0.11251725 -0.053181287
-0.08780171 0.23996748 0.0044085192 -0.030606892 -0.02738588 -0.07965582 -0.05170258 -0.0910686
0.044668388 0.052664097 -0.07845179 0.024046106 -0.13178407 -0.045408852 0.14937383 0.12738149
0.035772163 0.06986196 -0.05254251 0.0716981 -0.025107319 0.11047353 0.17146163 0.021702774
-0.36537343 -0.53465915 0.49342516 -0.115889765 0.63961476 0.057247847 -0.61015695 -0.5031955
-0.27487293 0.09570042 -0.16113348 0.19839726 0.063793086 -0.16266711 0.28940314 0.085881144
-0.23283592 -0.20556805 0.05380665 0.0007715568 -0.39845642 0.14623952 0.076989435 0.29995084
-0.1814009 -0.04985654 0.06491961 0.007764882 0.083231606 -0.031516682 0.07709277 0.29539573
-0.15625444 0.0875272 0.065418065 0.08135216 -0.35243902 -0.27219608 0.5261852 -0.9193833
0.4928303 -0.34297186 0.38434863 0.31786305 -0.9096673 0.16941945 -0.17151912 0.18984678
0.026196944 -0.17601407 0.10703203 0.030049458 -0.4870012 0.14361764 0.020098861 0.092069216
0.006003333 0.45459303 -0.33727446 -0.016642207 -0.12008408 0.16924013 -0.09989428 0.19630404
-0.037046522 0.0003110585 -1.0506351 0.007937045 -0.050287433 -0.00016857313 0.0069523994 -0.17633279
0.19639787 -0.1208847 0.035892896 0.03462206 -0.35768628 -0.07212388 -0.05361001 0.06056578
-0.21028028 -0.280148 0.25204644 -0.004575244 0.43767732 -0.6471193 0.098040625 0.116182856
0.043227147 0.39734012 0.42511532 0.23716262 0.33352846 -0.098505236 -0.5195091 -0.17181242
-0.7041438 -0.14156564 0.06719007 0.16794571 0.07255305 0.033624146 -0.24580444 -0.19146502
-0.18232676 0.39365706 -0.049164873 0.15269081 0.24052922 0.073635034 0.048375916 0.29451257
-0.39005288 0.09133256 -0.17917949 0.32847226 0.05907233 -0.03304746 0.041940194 -0.1707703
0.37521538 0.29702908 -0.11865074 -0.27337697 0.5567125 -0.0678911 -0.24249092 -0.10575995
0.13477722 0.092913374 -0.95044756 -0.099640846 -0.24291295 0.0067606075 0.26464167 0.11968026
0.043815028 0.036642954 -0.2818121 0.40064692 -0.19115588 0.17598146 -0.09175451 -0.06741671
0.1111738 0.070793085 -0.13650256 0.1493699 0.06411187 0.0076262592 -0.066406526 -0.00033566557
0.19956389 0.10659978 0.104051135 0.1753634 0.11335832 0.02606854 0.16980267 -0.055183113

resolve.4.layers.0.conv0.bias f4 [16]
00000000: f989 b5bd c778 d0be 67a3 22bd aede 04be
00000010: 6eda 60be e20e 81bc 6dc7 1d3e 9a2a 86be
00000020: 1857 353d cc08 d23d 4698 1cbe bca2 0f3d
00000030: 8213 a73e e26d 4d3d df47 73bd 24a4 483a
-0.08864207 -0.40717146 -0.039706614 -0.1297557 -0.21958324 -0.015754167 0.15408106 -0.26204377
0.044272512 0.10255584 -0.15292463 0.035067305 0.3263207 0.05015362 -0.059394713 0.00076538534
