generators/n4x.ckpt (torch, 200578 bytes, 235 tensors)

resolve.0.weight f4 [4, 1, 7]
00000000: 6046 f03f 6119 1740 4677 2840 95c8 b13f
00000010: 6b6b adbe 1817 7dbf 0bba 3bbf 3d01 2cbf
00000020: c099 62bf e12b e9bf 8b6a 0ac0 bc56 e5bf
00000030: 3882 45bf 178e 573f 403a 1cbe 575f e13e
00000040: 3a9a 0e3f 7465 553f 3023 dc3d 2322 17bf
00000050: 5803 4d3f 9cdb ca3f 8eab a8bd 0e66 d9bf
00000060: 824b c8bf e5df babe 7f19 803f d39e 843f
1.8771477 2.360924 2.6322799 1.3889338 -0.33871016 -0.98863363 -0.73330754 -0.6718939
-0.88515854 -1.8216516 -2.1627529 -1.7917094 -0.77151823 0.84201187 -0.15256596 0.4401805
0.5570408 0.8335793 0.10748899 -0.59036463 0.8008323 1.584827 -0.082358465 -1.698427
-1.5648043 -0.36498943 1.0007781 1.0360969

resolve.0.bias f4 [4]
00000000: 4717 423e b126 a23d e2ba 1c3f 5f4e 5f3c
0.18954192 0.07917536 0.6122266 0.013629525

resolve.2.layers.0.conv0.weight f4 [4, 4, 3]
00000000: be48 b33d 5871 82be 9f97 39be 510e 113f
00000010: 3658 a93e a5a6 9e3d f7f4 bb3c 077b 1f3c
00000020: 8db8 61be 9c73 843f 305d f33f 097e 4c3e
00000030: 2d68 25bf 841d 08bf c41b 91bf 1ac2 c53e
00000040: d954 4a3f 8a1a 393f 0eb2 a13e 8111 7f3e
00000050: 1c00 743d a9e7 a6be 09bb 5f3f b69c f33f
00000060: 4056 283e 825c 893e 50b9 083f ac6f 043e
00000070: 1c4d 8bbd 7bd7 ed3d 8e67 fa3e 7bd5 ec3e
00000080: 1d28 7c3e d3c1 a33d 9df5 0b3e e562 a1bb
00000090: 68c9 c53e 4da4 a13c 7c0c afbd d69f d138
000000a0: ad90 143c eaa1 88be c6f7 32be 8e24 373e
000000b0: 7616 7ebe ad3f e93f 4da5 3340 5db4 59be
0.08754109 -0.254771 -0.18124245 0.5666247 0.33075112 0.07746629 0.022943957 0.009733922
-0.22043057 1.0347781 1.9012814 0.19969954 -0.64612085 -0.5317004 -1.1336598 0.3862465
0.7903572 0.7230612 0.31581157 0.24909021 0.059570417 -0.32598618 0.8739477 1.9032199
0.16439152 0.2682839 0.53407764 0.12933224 -0.06801817 0.11613365 0.4890713 0.46256623
0.24624677 0.079959534 0.13667913 -0.004925119 0.38630223 0.019731665 -0.08547303 9.9956684e-05
0.0090676965 -0.2668603 -0.1747733 0.17885038 -0.24813256 1.8222557 2.8069642 -0.2126021

resolve.2.layers.0.conv0.bias f4 [4]
00000000: 04c0 193d 44dd eebd f9cf b33c 9165 483e
0.037536636 -0.11663297 0.021949755 0.19569995

resolve.2.layers.0.bn0.weight f4 [4]
00000000: 0000 803f 0000 803f 0000 803f 0000 803f
1.0 1.0 1.0 1.0

resolve.2.layers.0.bn0.bias f4 [4]
00000000: 0000 0000 0000 0000 0000 0000 0000 0000
0.0 0.0 0.0 0.0

resolve.2.layers.0.bn0.running_mean f4 [4]
00000000: 0000 0000 0000 0000 0000 0000 0000 0000
0.0 0.0 0.0 0.0

resolve.2.layers.0.bn0.running_var f4 [4]
00000000: 0000 803f 0000 803f 0000 803f 0000 803f
1.0 1.0 1.0 1.0

resolve.2.layers.0.conv1.weight f4 [4, 4, 1]
00000000: dfb3 cabe 0da9 ab3e ba7b 093e 6ac9 6abf
00000010: 57e6 d73e 6197 3a3f 7707 98b9 abe2 36be
00000020: 93ca bdbe 80bc 9a3d 42c4 a1be 8f96 89bf
00000030: e1b2 293f fd9c d1bd 9a4c b7bd ee7a 6b3f
-0.39590356 0.33527413 0.13426104 -0.91713583 0.42167923 0.72887236 -0.0002899726 -0.17859904
-0.37068614 0.07555485 -0.31595045 -1.0749072 0.6628857 -0.10235021 -0.089501575 0.9198445

resolve.2.layers.0.conv1.bias f4 [4]
00000000: 1f07 b1bd 0dd4 b53c 0ce9 4abd fc5d 993e
-0.08643936 0.02219584 -0.049538657 0.29954517

resolve.2.layers.0.bn1.weight f4 [4]
00000000: 0000 803f 0000 803f 0000 803f 0000 803f
1.0 1.0 1.0 1.0

resolve.2.layers.0.bn1.bias f4 [4]
00000000: 0000 0000 0000 0000 0000 0000 0000 0000
0.0 0.0 0.0 0.0

resolve.2.layers.0.bn1.running_mean f4 [4]
00000000: 0000 0000 0000 0000 0000 0000 0000 0000
0.0 0.0 0.0 0.0

resolve.2.layers.0.bn1.running_var f4 [4]
00000000: 0000 803f 0000 803f 0000 803f 0000 803f
1.0 1.0 1.0 1.0

resolve.2.layers.1.conv0.weight f4 [4, 4, 3]
00000000: 3541 c4be e612 f23d 2514 17bd 9377 88be
00000010: 4ea2 25bf b07b dabd c433 10bf 6c6e f2bd
00000020: cb2e afbe 2672 adbe 02a3 a9be 74c2 45be
00000030: d631 b93e 038d 7ebf f54b 5a3f ce6c bfbd
00000040: b491 103e b5ea 083c e3ca 713e 46dd 9ebe
00000050: b036 313f aeda debe a955 353e 9aa2 64bd
00000060: ef60 b73e 4956 22bf 4bf0 093f b413 3a3d
00000070: 995f a53d 64cf 1abe 6bbc 253f e47e 003f
00000080: 9c4c 1f3f d067 2cbe 0249 a73c 0db2 103d
00000090: e9e1 0e3f ed66 f8be 98ff fbbd 0977 58be
000000a0: 1075 923e 49d6 06be d88b 2c3f 7e3d 633e
000000b0: 8e9b 903d c14f 3c3d f234 943e f206 d4bd
-0.38331 0.11820011 -0.036884446 -0.26653728 -0.6470078 -0.10668123 -0.5632899 -0.118374676
-0.34215388 -0.3387615 -0.33132178 -0.19312459 0.36170834 -0.99433917 0.8527215 -0.09346925
0.14118081 0.00835674 0.23612551 -0.31028193 0.6922407 -0.43526214 0.17708458 -0.05581913
0.35816142 -0.6341291 0.5388228 0.045428947 0.080748744 -0.15118176 0.6474063 0.5019362
0.6222627 -0.16836476 0.020420555 0.035326052 0.5581346 -0.48516026 -0.1230461 -0.21139158
0.28604937 -0.13167681 0.67400885 0.22191426 0.0706092 0.045974497 0.28946644 -0.10352887

resolve.2.layers.1.conv0.bias f4 [4]
00000000: 8bed b0be 6e69 a2be 82a0 91bd 4066 2abe
-0.3455623 -0.3172106 -0.071106926 -0.16640568

resolve.2.layers.1.bn0.weight f4 [4]
00000000: 0000 803f 0000 803f 0000 803f 0000 803f
1.0 1.0 1.0 1.0

resolve.2.layers.1.bn0.bias f4 [4]
00000000: 0000 0000 0000 0000 0000 0000 0000 0000
0.0 0.0 0.0 0.0

resolve.2.layers.1.bn0.running_mean f4 [4]
00000000: 0000 0000 0000 0000 0000 0000 0000 0000
0.0 0.0 0.0 0.0

resolve.2.layers.1.bn0.running_var f4 [4]
00000000: 0000 803f 0000 803f 0000 803f 0000 803f
1.0 1.0 1.0 1.0

resolve.2.layers.1.conv1.weight f4 [4, 4, 1]
00000000: a8a9 ed3e c90e 343d c063 61be 93a1 fc3c
00000010: 64db 163d 0055 a73c da4a acbe 7184 da3e
00000020: 9e40 20be b8e6 a0bf ebfd 15bf f5cd 50bf
00000030: 7aa7 823e e596 b43e 9063 053f cdc6 66bd
0.464185 0.043959413 -0.22010708 0.030838763 0.03683032 0.020426273 -0.33650857 0.4267917
-0.1564965 -1.257041 -0.58590573 -0.81564265 0.255184 0.35271373 0.52105045 -0.056341935

resolve.2.layers.1.conv1.bias f4 [4]
00000000: cef8 5e3e 0170 43bd feb4 edbe cdd2 a9be
0.21774599 -0.047714237 -0.4642715 -0.3316864

resolve.2.layers.1.bn1.weight f4 [4]
00000000: 0000 803f 0000 803f 0000 803f 0000 803f
1.0 1.0 1.0 1.0

resolve.2.layers.1.bn1.bias f4 [4]
00000000: 0000 0000 0000 0000 0000 0000 0000 0000
0.0 0.0 0.0 0.0

resolve.2.layers.1.bn1.running_mean f4 [4]
00000000: 0000 0000 0000 0000 0000 0000 0000 0000
0.0 0.0 0.0 0.0

resolve.2.layers.1.bn1.running_var f4 [4]
00000000: 0000 803f 0000 803f 0000 803f 0000 803f
1.0 1.0 1.0 1.0

resolve.2.layers.2.conv0.weight f4 [4, 4, 3]
00000000: 3f28 ba3e 5203 293f a853 553f 2236 13be
00000010: bc40 a8bd 726d 923c 566b b3be a1a5 123e
00000020: 2b9a 20be 6ef9 063f 2924 a23e d868 ab3d
00000030: 2797 e1bc f785 03bd 88ae 723e 738c 86be
00000040: 5ed6 c43e 368d ba3d e8ac b7be e003 1c3f
00000050: a4cc 9f3d 4256 113f 22ca 1abf 2f53 02bf
00000060: 5ca4 cbbe 14a8 1b3f 541c b9be 5928 e13d
00000070: b1af adbc bfa8 c0bc db73 8b3d 1df6 e33d
00000080: b365 ecba a7f8 80be 5e53 4e3d 7668 35be
00000090: 1859 9d3e 834e 8a3d 9bdc b43e 34d3 d13d
000000a0: b034 873e 0071 9fbd 1e3a eebd e3f9 b63e
000000b0: 03cf dabd 79bf 533d c619 87be 1e98 93bb
0.3635883 0.6602069 0.83330774 -0.14376119 -0.08215472 0.017874453 -0.35042828 0.14320995
-0.1568381 0.5272435 0.31668213 0.08369607 -0.027537895 -0.03211018 0.23699391 -0.2627903
0.384448 0.09108965 -0.35874104 0.6094341 0.07802704 0.56772244 -0.6046468 -0.5090818
-0.39773834 0.6080334 -0.36154425 0.10994024 -0.02120194 -0.023517964 0.06809207 0.11130927
-0.001803568 -0.25189707 0.050372474 -0.1771563 0.30732036 0.06753256 0.3532456 0.10245362
0.26407385 -0.07785225 -0.11632179 0.35737523 -0.106840156 0.051696274 -0.2638685 -0.0045042178

resolve.2.layers.2.conv0.bias f4 [4]
00000000: a73d 76bb 74b3 98be 6721 ffbd e43d 5f3e
-0.0037573369 -0.29824412 -0.12457543 0.21800953

resolve.2.layers.2.bn0.weight f4 [4]
00000000: 0000 803f 0000 803f 0000 803f 0000 803f
1.0 1.0 1.0 1.0

resolve.2.layers.2.bn0.bias f4 [4]
00000000: 0000 0000 0000 0000 0000 0000 0000 0000
0.0 0.0 0.0 0.0

resolve.2.layers.2.bn0.running_mean f4 [4]
00000000: 0000 0000 0000 0000 0000 0000 0000 0000
0.0 0.0 0.0 0.0

resolve.2.layers.2.bn0.running_var f4 [4]
00000000: 0000 803f 0000 803f 0000 803f 0000 803f
1.0 1.0 1.0 1.0

resolve.2.layers.2.conv1.weight f4 [4, 4, 1]
00000000: 1b82 073e 7498 653d ffc0 ea3e 229a b0be
00000010: 5c8e 313e 1166 70bc ed3b bbbd 6e51 5b3e
00000020: 9b2b eb3e f8e9 163f f1f2 113f e4bc 563f
00000030: 04f1 a2bd 5801 683e 2c0a 6f3e e969 1e3e
0.13233225 0.056053594 0.4585037 -0.34492594 0.17339462 -0.014672772 -0.09142289 0.21417782
0.45931706 0.5895076 0.57011324 0.83881974 -0.07956126 0.22656763 0.23343724 0.15470089

resolve.2.layers.2.conv1.bias f4 [4]
00000000: f1f4 853a 1fec c43e 087f b73d 97f0 a43e
0.0010220093 0.38461396 0.08959776 0.32214805

resolve.2.layers.2.bn1.weight f4 [4]
00000000: 0000 803f 0000 803f 0000 803f 0000 803f
1.0 1.0 1.0 1.0

resolve.2.layers.2.bn1.bias f4 [4]
00000000: 0000 0000 0000 0000 0000 0000 0000 0000
0.0 0.0 0.0 0.0

resolve.2.layers.2.bn1.running_mean f4 [4]
00000000: 0000 0000 0000 0000 0000 0000 0000 0000
0.0 0.0 0.0 0.0

resolve.2.layers.2.bn1.running_var f4 [4]
00000000: 0000 803f 0000 803f 0000 803f 0000 803f
1.0 1.0 1.0 1.0

resolve.2.layers.3.weight f4 [8, 4, 12]
00000000: c8bd 59bd a0a6 22be 48ce 2ebd 3a10 2c3e
00000010: 3708 433e a160 9c3e 7c50 bc3e 1530 cb3d
00000020: efe2 fb3d e918 32bc 39b4 12be 54fe 663d
00000030: a030 103e 2ff1 64bd e57f 833d 83c8 04bd
00000040: 2310 e9bd 7bc8 c83d e535 203e d107 1cbe
00000050: 90ea ce3c 5be7 dbbc 2d9a 6bbd 7c2b 23be
00000060: 92fa 013e a007 60bb bf86 09be c000 3dbb
00000070: eef1 b63d e35d 233e 6e7c cbbc e9d5 ac3c
00000080: 4803 11be 49b9 3d3e 3c7a f6bc 5eef 2bbe
00000090: b269 4a3e 9c30 8d3d 943e 473e 408b 223d
000000a0: c965 56bd 44fa b8bc b288 423e 8cd4 533e
000000b0: 7ca8 523e 31a6 fb3d 7c3f 273e a415 fc3d
000000c0: e271 a43e 3d00 823e e41c 96bc 7afe 163e
000000d0: 9621 9c3e 4289 4d3e 9b55 58bc b286 49be
000000e0: 4b21 a2bd c8ce b53d 6319 853d 9f88 bcbd
000000f0: 7450 92bd bbad 143e 4e92 11bd bbd1 99bd
00000100: c63c 9b3c f141 f73d 7cd8 433e 1372 553c
00000110: 0f9a 52bd e8ee 3dbe 3975 04be c4f8 05bd
00000120: c619 0e3e d7a7 9cbd 76b3 cabd 9fb6 743e
00000130: 5955 0c3e 98c6 343b 32a7 8dbe 7b94 d2be
00000140: 1d4e 10be dbd8 c03e 8012 b53e 63ae 3d3e
00000150: c6a0 8dbe dea3 31be fd82 0abe 8bdf 433d
00000160: cab1 543e 66dc 673e ac3d a63e 443c 033f
00000170: bc08 dd3e c427 ed3e 40a9 5c3e 6e02 583e
00000180: 925f c2bd 7d8d 8c3e 4766 8d3e e5b5 483d
00000190: d5bf cdbe 8cd6 35bf 83ec 56be 26ba de3d
000001a0: 9027 753e 71c0 ad3d 7a7d 39be 1d03 31bd
000001b0: 05dd 09bf d6cd e4bd 2204 003e 5ab9 843e
000001c0: ae44 553e a454 e13d 380c 8d3c c2d1 e03d
000001d0: fe19 7b3d 9b41 be3d c160 dc3d e5a5 6abd
000001e0: 754d 59be 691b 253f d250 2e3f d247 4f3e
000001f0: f63e 2ebf d747 9fbf af70 b1bd 4092 753f
00000200: a24b 473f f2d1 ab3e 5c97 44bf 7512 b2be
00000210: 1995 11be 1278 a7be 80ea e3be 2c75 9a3d
00000220: 1d47 c53e 1929 6f3e 1af6 5e3c 6943 15bf
00000230: e3c0 fdbe be9c 1cbf 35f7 31bf 7928 46bf
00000240: 335f 0abd f8a9 693d 3d55 cb3d 41d9 6f3d
00000250: e216 35bd fc52 9cbc 3dfd e1bd 4ab5 23be
00000260: 2c9b 31be 0bb1 f5bd ad69 b9bd 087c 6ebd
00000270: c5b0 b03c c1e4 fcbd 9236 943d 07d3 f93d
00000280: e7d2 6cbd 49d0 e53d e956 0d3e 27a7 003e
00000290: ace0 fc3d e13e 92bd 13ac a13d 0e8e 08bd
000002a0: f945 ce3b 5082 56bc 1374 f9bc f871 14bd
000002b0: d6a0 6ebb 0016 86bd f3a7 cc3c 9b2a 1d3d
000002c0: fc96 943c 04fb 293d c5b4 763c 8aa9 bb3d
000002d0: b1eb 5d3d 3f39 d53d 68f1 283d 7ea5 993d
000002e0: b794 273e 7d41 e13d f34b 393e 2f4f 6a3d
000002f0: da40 073e 973d 0c3e 1498 aa3b 9926 55bc
00000300: c903 9f3d 441a 2bbe 4012 8cbd 81fc 94bd
00000310: 0470 02bd 04ad 93be 8f5f 82be 6f4a 45be
00000320: d5c0 82bc d769 153d 55c8 3b3d b47c 0e3e
00000330: 1e69 bebd d189 92bd 0b74 2d3d 94a0 45bc
00000340: 6355 25bc bd23 6bbd 042b 22be e5c7 1dbe
00000350: 4e5c 6bbd 36d2 253d 6e49 a73d 13a9 243d
00000360: 06dc ee3d ab64 283e 8082 3fbd 1a87 dbbd
00000370: 1106 d1bc 53b0 8d3d 6ba7 cd3d ff9f 9b3b
00000380: 0317 303d d088 073e afe9 063e c483 bcbd
00000390: 522b cd3c 227b 5d3e d65a 8c3e 43dc 0c3e
000003a0: cbdb cf3d be6a 563e 896d 323e 6338 acbd
000003b0: e278 92be 848c 5ebe 3b36 41be 0124 b03d
000003c0: c5a3 86bd 2a0b 39bc 5846 ca3d 28a7 163d
000003d0: 52e3 273e f516 873e 591e 463e 94ad 313e
000003e0: e681 703e e14a 853e 930a 0fbb 4466 48bd
000003f0: 0899 b73c 6603 d2bc 70a3 27bc c2ac f5bd
-0.053159505 -0.15883875 -0.042677194 0.16803065 0.19046102 0.30542472 0.36780155 0.0992128
0.122991435 -0.010870197 -0.14326562 0.05639489 0.14081049 -0.055894073 0.06420878 -0.032417785
-0.11380031 0.098038636 0.15645559 -0.15237357 0.025258332 -0.026843717 -0.05752008 -0.15934557
0.12693241 -0.0034184232 -0.13430308 -0.0028839558 0.08932863 0.15953784 -0.024839606 0.021098094
-0.14161408 0.18527712 -0.030087583 -0.1679053 0.19766882 0.06894037 0.19457465 0.03968358
-0.052343164 -0.022580273 0.18997458 0.20686549 0.20572084 0.12287558 0.16332811 0.12308815
0.32118136 0.25390807 -0.018324323 0.14745513 0.30494374 0.20071891 -0.013204004 -0.19680288
-0.079165064 0.08877331 0.06498983 -0.09205746 -0.071442515 0.14519398 -0.035539918 -0.07510706
0.018949877 0.12073124 0.19125551 0.013027686 -0.051416453 -0.18548167 -0.12935342 -0.032707945
0.1387702 -0.076492004 -0.09897511 0.2389779 0.13704433 0.0027584191 -0.27666622 -0.41128907
-0.14092298 0.37665448 0.35365677 0.18523555 -0.27661723 -0.17347667 -0.1352653 0.04782061
0.20770946 0.22642669 0.32468927 0.51263833 0.43170726 0.463194 0.21548939 0.21094677
-0.09490885 0.27451697 0.27617094 0.049001593 -0.4018542 -0.710305 -0.2098866 0.10875349
0.23940873 0.08483971 -0.18114272 -0.04321586 -0.53852874 -0.111720726 0.12501577 0.25922662
0.2082698 0.11002472 0.01721774 0.10977508 0.061304085 0.09289857 0.10760642 -0.057287116
-0.21220954 0.6449495 0.6809207 0.20242241 -0.6806482 -1.2443799 -0.08664071 0.95926285
0.7784978 0.33558613 -0.76793456 -0.34779707 -0.14217032 -0.32708794 -0.44514847 0.0754188
0.38530818 0.23355521 0.01360848 -0.58305985 -0.49561223 -0.6117667 -0.69517833 -0.77405506
-0.033782195 0.05704686 0.09928367 0.0585568 -0.044211276 -0.019082539 -0.110346295 -0.15987125
-0.1734435 -0.11996659 -0.09053359 -0.058223754 0.021568665 -0.12348319 0.07236971 0.121984534
-0.05781832 0.11221368 0.13802685 0.12563764 0.1234754 -0.071408994 0.07894149 -0.0333386
0.0062949625 -0.013092592 -0.030450856 -0.0362415 -0.0036411784 -0.06547165 0.024982428 0.03837071
0.018138401 0.041499153 0.015057747 0.091631964 0.05417985 0.104113095 0.041245848 0.07502268
0.16365324 0.10998819 0.18095379 0.05720442 0.13208333 0.1369537 0.0052061174 -0.013009691
0.07764394 -0.16709238 -0.068394184 -0.07274724 -0.031845108 -0.28842938 -0.2546353 -0.19266675
-0.01596109 0.03647789 0.04584535 0.13914758 -0.09297393 -0.07155193 0.042346995 -0.012062211
-0.010091159 -0.05740713 -0.15836722 -0.15408285 -0.057461075 0.040483676 0.081683025 0.040200304
0.1166306 0.16444652 -0.046755314 -0.10719128 -0.025515588 0.06918397 0.10041698 0.0047492976
0.042990696 0.13235784 0.1317508 -0.0920482 0.02504507 0.21629003 0.27413052 0.13755898
0.10149344 0.20939156 0.17424597 -0.084091924 -0.2860785 -0.2173329 -0.18868344 0.08600617
-0.06574205 -0.011294166 0.09876698 0.036780506 0.1639531 0.26384702 0.19347514 0.17351371
0.23487052 0.2603369 -0.002182637 -0.048925653 0.022411838 -0.025636386 -0.010231838 -0.119958416

resolve.2.layers.3.bias f4 [8]
00000000: 9cd3 353e 8615 babe 10df 223e c52e 9ebd
00000010: e99a 95bd 1c99 513d 4898 f73c 4cb4 103f
0.17756504 -0.36344546 0.15905404 -0.07723764 -0.073049374 0.051171407 0.03022398 0.5652511

resolve.3.layers.0.conv0.weight f4 [8, 8, 3]
00000000: 3fc4 473e 42d9 2d3f 94f6 3fbe f2da b23c
00000010: 06a9 293e 292c a7bb 2b1f c93d bf60 c43c
00000020: 5b21 c7bc 703f 03bf 2a3a 823d 0223 d3bd
00000030: d656 233e dc6c b0be b232 8e3d 65ae 103f
00000040: 7229 b03e 79e4 0f3e fde5 8f3d 0aa9 573e
00000050: e9d7 42be 5aef 113f c42f 833d 8dea d63d
00000060: d58a 03be 7fa5 99bd 7487 fb3c ec2a 2abc
00000070: 0cae fa3d 59cb 8a3d 26bd 5fbc 570b 703e
00000080: 5447 8fbc 4416 073f 608b b33e ca5b d5be
00000090: 9aab c73d 6078 eebe 2c3d b1be 74be 1b3f
000000a0: 8bb5 34bf 35c3 52bd 4b8e 693e c1e4 83bd
000000b0: 3cc0 ebbd 13e0 f2be 02b5 623e b5b0 c73d
000000c0: 9bee 213e 48c6 bc3b 9ac7 bfbd 11a9 be3d
000000d0: ff09 8c3e 7392 d8bb ff6c a93d be78 a83d
000000e0: ba28 6bbd b440 093e b414 093f 3681 e8bc
000000f0: 9e7d 8c3d 1cd6 adbc 8c58 163f e2c7 333f
00000100: 76e8 a43e 4f00 53bd 6299 2b3e e867 023f
00000110: d0c7 aabd 12dc 6bbe dd42 e6be 2cdf 293e
00000120: 74cd 7cbf 3788 61be effd 283f 7e83 c43e
00000130: 48a1 373f e078 e3be 478a aebe d12d e3bf
00000140: 5bf7 4fbf 9c27 9c3e dbac b2be 8e9a 12bf
00000150: 92d0 e8bd 32e4 03bf f4bf 64bf 3394 1d3e
00000160: c310 27ba b799 5c3e 994f 953d aa84 273f
00000170: 86c4 dc3e c6dc 7a3e 78f1 1dbe d351 b73d
00000180: 4830 ccbe 4d03 d23e 0c6d 353e b7ff 12bd
00000190: f41e 56be 2d27 a4bd 6809 5abd 3fc8 c4bd
000001a0: 5de4 ee3d 923e cabe 6bd2 03bd 25ab 1d3f
000001b0: 6b8d 49bd fe29 c5be 21c4 433f a5ce febe
000001c0: ee59 243f 9f3b e9be 7122 69be cf42 b4be
000001d0: e0cb 9a3d a0f7 613e c649 ed3e e0ee fd3d
000001e0: 7b9a 293e 9d56 c53d 50f4 1dbd 6a44 aebc
000001f0: daf7 463d 0b65 f23d be0c 553c c6bd a83d
00000200: 0d41 3038 fd1d 50bd ad1f 97be 26ac a1be
00000210: 1b79 9a3d 509e adbd acca d13b 5e7c 77be
00000220: 0e35 0dbc cafd 05be 9aac db3d fe8f ea3c
00000230: 0536 1e3e 24fc 523d 2788 33be d5d6 4dba
00000240: e06e ac3e 2539 31be 9ad6 883e c8a2 e03d
00000250: e066 47be 80ae ab3d 97e4 dcbc 7b82 d23d
00000260: 7e47 133e ee89 9cbe a142 9d3e 8d8b 31be
00000270: 4b24 903e 0484 0a3f 82ca a43e 367e 60be
00000280: 63ec 1db9 46e7 48be 5be9 34be c9d1 3a3d
00000290: 6fe1 5b3e f89d 7dbe c0f1 aa3d 5226 a83e
000002a0: ff48 abbe 5ef1 fa3d dcc5 0d3e d1b2 07bd
000002b0: cfa2 c83e bb33 45bd d26d 993d 6e0b 5abf
000002c0: 2c84 4dbd 77a4 4d3e 65ed 44be 0a6a ccbe
000002d0: 2c1a 01be b555 b43e d9f9 ae3e eeb8 2a3f
000002e0: 30c0 023f cdec e0be ffa2 e43c dd4a 953e
000002f0: 7b16 ec3e dae4 4ebe fd77 39be 2dee a6be
0.19508456 0.67909634 -0.18746406 0.021832917 0.16568384 -0.0051017 0.09820398 0.023971913
-0.024307897 -0.5126867 0.0635875 -0.103094116 0.15951094 -0.34458053 0.06943263 0.56516105
0.3440662 0.14051999 0.07026289 0.21060577 -0.19027676 0.57005847 0.06405595 0.10493956
-0.12845929 -0.07502269 0.030704238 -0.01038621 0.12240228 0.06777067 -0.013655936 0.23441826
-0.017490067 0.5276835 0.35067272 -0.41671592 0.09749527 -0.46576214 -0.34616983 0.60837483
-0.7058951 -0.051455695 0.22808187 -0.06440116 -0.11511275 -0.4743658 0.22139362 0.09750501
0.15813677 0.0057609417 -0.09364243 0.093095906 0.27351376 -0.006609255 0.082727425 0.08226155
-0.057411887 0.13403589 0.53547215 -0.028381925 0.06859897 -0.02122026 0.5872886 0.7022687
0.32208604 -0.051513966 0.1675773 0.509398 -0.083388925 -0.23033169 -0.44972888 0.1658904
-0.98750997 -0.22024618 0.6601247 0.3838157 0.7173047 -0.44428158 -0.34089872 -1.7748357
-0.8123681 0.3049897 -0.34897503 -0.5726708 -0.11367907 -0.51520073 -0.893554 0.15388565
-0.0006373042 0.21543013 0.07290573 0.65436804 0.43118685 0.24498281 -0.15424144 0.089511536
-0.39880586 0.41018143 0.1771738 -0.0358884 -0.20910245 -0.08015285 -0.053231627 -0.096085064
0.116646506 -0.39500862 -0.032183092 0.6158927 -0.049207132 -0.385086 0.76471144 -0.49767032
0.6419972 -0.455533 -0.22767045 -0.3520722 0.07558417 0.22067118 0.46345347 0.123990774
0.16562836 0.09635661 -0.038563073 -0.021272857 0.048576213 0.11835679 0.013003526 0.082393214
4.2022253e-05 -0.05080985 -0.29516354 -0.3157665 0.0754263 -0.08477461 0.006402334 -0.24168536
-0.008618606 -0.13085094 0.107262805 0.028633114 0.15450294 0.05150999 -0.17532407 -0.0007852142
0.3367834 -0.17306955 0.26726228 0.10968548 -0.19472837 0.083828926 -0.026964469 0.102787934
0.14382741 -0.30573982 0.30714896 -0.1733839 0.2815269 0.5410769 0.3218575 -0.21923146
-0.00015060748 -0.19619474 -0.17667143 0.045610223 0.21472715 -0.24767292 0.083468914 0.32841736
-0.3345413 0.122530684 0.13845009 -0.033129517 0.39186713 -0.048145037 0.0749165 -0.8517369
-0.050174877 0.2008227 -0.19231184 -0.3992465 -0.1260764 0.3522164 0.34174994 0.6668843
0.51074505 -0.43930665 0.027909754 0.2915868 0.461109 -0.20204487 -0.18112178 -0.3260359

resolve.3.layers.0.conv0.bias f4 [8]
00000000: 9cac dd3a 0d47 7bbe 3a54 c8bc 743a ca3c
00000010: 3e92 adbe 2d6a a23e 63cd d73e 08f0 233f
0.0016912404 -0.24538822 -0.024454225 0.024686076 -0.33900636 0.3172163 0.42148885 0.64038134

resolve.3.layers.0.bn0.weight f4 [8]
00000000: 0000 803f 0000 803f 0000 803f 0000 803f
00000010: 0000 803f 0000 803f 0000 803f 0000 803f
1.0 1.0 1.0 1.0 1.0 1.0 1.0 1.0

resolve.3.layers.0.bn0.bias f4 [8]
00000000: 0000 0000 0000 0000 0000 0000 0000 0000
00000010: 0000 0000 0000 0000 0000 0000 0000 0000
0.0 0.0 0.0 0.0 0.0 0.0 0.0 0.0

resolve.3.layers.0.bn0.running_mean f4 [8]
00000000: 0000 0000 0000 0000 0000 0000 0000 0000
00000010: 0000 0000 0000 0000 0000 0000 0000 0000
0.0 0.0 0.0 0.0 0.0 0.0 0.0 0.0

resolve.3.layers.0.bn0.running_var f4 [8]
00000000: 0000 803f 0000 803f 0000 803f 0000 803f
00000010: 0000 803f 0000 803f 0000 803f 0000 803f
1.0 1.0 1.0 1.0 1.0 1.0 1.0 1.0

resolve.3.layers.0.conv1.weight f4 [8, 8, 1]
00000000: 6ddd f5bd 4982 77be 36bd 6f3e bfba f93d
00000010: f8e1 0b3e a7f2 bebe d4a2 b2bd 46e4 243f
00000020: 65e9 5e3d 8b39 343f 159d babe 47ba 9d3d
00000030: be5f 09bf 07fa f7be ad80 4f3f 7cc1 40bc
00000040: 9ffd 593d 9843 efbe 2f48 463e e854 33bf
00000050: 0407 363f b09d 75bf caf6 76bd 5125 18bf
00000060: a29a 6fbc fe3d ec3e dc81 f33d be5d 11bd
00000070: 5bd5 553e b19e 72be ea78 1fbe cb9a 243d
00000080: 1a82 6abc 453f ee3e 8c9a d5be ffa1 d13d
00000090: 5fb2 173e ec50 aebe 41fb 99bd 26d1 b2ba
000000a0: 3a6d 173f ddc1 fc3e 3d31 ddbe 56aa fbbb
000000b0: fbb7 053f 996a 653e bfd0 88be 41fe 543b
000000c0: 2ea6 c93d 0e6d 19bd 8bda aa3e d149 2e3d
000000d0: 1d19 debd fedf e93d 5013 343e 58e5 96bc
000000e0: dc19 d1bd 6f32 fdbe e6b0 9c3e ff1b c2bd
000000f0: 29c6 00be e249 773f 4a3b 9e3e 845a 2c3e
-0.12005124 -0.24170794 0.23412022 0.12193822 0.13660419 -0.37294504 -0.08722463 0.6441082
0.0544218 0.70400304 -0.3644797 0.07701545 -0.53661716 -0.48432943 0.8105572 -0.01176488
0.053220388 -0.46731257 0.19363473 -0.7005143 0.71104455 -0.9594374 -0.06029395 -0.5943194
-0.01462427 0.46141046 0.11890003 -0.03548979 0.2088217 -0.23693348 -0.15573469 0.040186685
-0.014313245 0.46532646 -0.41719472 0.102359764 0.14814137 -0.34046113 -0.07518626 -0.0013642653
0.5915104 0.49366656 -0.43201628 -0.0076802177 0.52233857 0.22403945 -0.2672176 0.003250018
0.098461494 -0.03745752 0.3336986 0.042550866 -0.10844634 0.11419676 0.17585492 -0.018419906
-0.102100104 -0.4945254 0.30603713 -0.09477996 -0.12575592 0.9659711 0.3090461 0.16831404

resolve.3.layers.0.conv1.bias f4 [8]
00000000: 02a5 81be 8ba0 7ebd 11cd cebe c5f4 9b3c
00000010: 0149 193e 0cd5 543d ec77 2abd 02ff bd3d
-0.25321203 -0.062164824 -0.40390828 0.019037614 0.14969255 0.05196099 -0.041618273 0.092771545

resolve.3.layers.0.bn1.weight f4 [8]
00000000: 0000 803f 0000 803f 0000 803f 0000 803f
00000010: 0000 803f 0000 803f 0000 803f 0000 803f
1.0 1.0 1.0 1.0 1.0 1.0 1.0 1.0

resolve.3.layers.0.bn1.bias f4 [8]
00000000: 0000 0000 0000 0000 0000 0000 0000 0000
00000010: 0000 0000 0000 0000 0000 0000 0000 0000
0.0 0.0 0.0 0.0 0.0 0.0 0.0 0.0

resolve.3.layers.0.bn1.running_mean f4 [8]
00000000: 0000 0000 0000 0000 0000 0000 0000 0000
00000010: 0000 0000 0000 0000 0000 0000 0000 0000
0.0 0.0 0.0 0.0 0.0 0.0 0.0 0.0

resolve.3.layers.0.bn1.running_var f4 [8]
00000000: 0000 803f 0000 803f 0000 803f 0000 803f
00000010: 0000 803f 0000 803f 0000 803f 0000 803f
1.0 1.0 1.0 1.0 1.0 1.0 1.0 1.0

resolve.3.layers.1.conv0.weight f4 [8, 8, 3]
00000000: 9354 87bd 26e1 9a3e 1dab 92bd afd1 223c
00000010: 808e 02be c41f ebbc d760 4bbd 8660 723e
00000020: eab2 08bd 41d0 7c3d 0356 d83c 63f1 fa3d
00000030: 9595 983d 639e 65bd d953 90bb 64eb b63d
00000040: 8135 73bd a824 74bd 6329 213d a2b3 5dbc
00000050: 8749 6fbd 9adb f03c 0438 1dbe 90eb f63d
00000060: efc3 e8be e0ea 20bf cd37 08be bcc2 10be
00000070: 1d7b 3cbf 6f95 94bd c3c0 43be 29b0 96be
00000080: 218d 9bbe 83e9 623e 88e6 083f e664 533d
00000090: 936a 1cbe 06fb 103f b25e 843b a8fd b53d
000000a0: 12ab bf3e a4b8 b73d bc10 453e d696 b7be
000000b0: 0101 28be 756d acbb 0590 80be f280 153e
000000c0: 1b3b d0be fb66 5ebe d0a6 c8be bda0 9fbe
000000d0: de52 203f 4e94 46be 0b87 2fbe 0065 75bd
000000e0: 2647 4dbe 4ff6 033e 5154 00bf 0f47 883d
000000f0: 6d51 a4bd 4f7b bd3e 5e03 5cbe 220f a13d
00000100: 455e d93c a6d1 963c 858e 79bc b4dc eb3e
00000110: 7a62 f8bc 079a 5b3d e684 e13c 645d 2b3e
00000120: e3f2 71be 0f30 793d fd8f a7bd c983 0dbe
00000130: 61cb 79bf 070e 57bd d2ec ebbd 5431 403c
00000140: f178 edbd 59c2 e73d ea78 f7be 808d c0ba
00000150: c755 553b 0f9a 04bf 1e1a 933d 624d e43c
00000160: 3b41 2e3e 60ec 35bd 0192 09bd f49b cfbe
00000170: 24be a0be 46c3 1cbe 7b89 1c3e fe32 63be
00000180: f4df 26be 372c a8be 1276 4bbe d500 42be
00000190: 7c01 1d3f 9ee0 07be fc55 68bd 39cd 21be
000001a0: 2b00 cfbd 361a c1bd 8b99 7dbe 4e80 89bd
000001b0: 807f 64bd 75b8 1b3f 3007 15be ce3c c83c
000001c0: 3211 603e 5eb3 52bd 7bc6 0ebe 4dc3 82bf
000001d0: 56ef f6bd 2956 68bd 4ba7 b43e eb87 95ba
000001e0: b06c e4be 1787 5c3f 3880 b3be 622b 60be
000001f0: f7d4 683e 9f03 ebbd 4306 54be 24a4 2abf
00000200: 113f 45be 7f46 f53d f6b3 29bf 91b0 2e3e
00000210: 39c7 093d c056 043f 9781 5fbe 3174 8c3e
00000220: d759 c13e 4dff 0c3c 278e 7fbe bc08 a3be
00000230: 4eab dcbe cd9a c2be 6cd4 66bf f4eb a1bc
00000240: e525 f1be 1794 7dbf 41c7 e1be b1de 85be
00000250: e48d 473b a0bf b4bd a616 43be 02fc 8dbd
00000260: ab36 83be 6c00 ea3e e500 2a3f a8e1 7f3c
00000270: 5422 163e 1f5c 293e b0a2 baba d7cd e03d
00000280: f8a6 23bd 2594 af3e c3cf a63e f02c a33d
00000290: 3f45 de3e 083d 823e 2418 673c 95ba 65bd
000002a0: 5fb2 50bd d9a2 b83d c94e 55bc 719d 043d
000002b0: d1fb 96be b4f3 293d 45ea c4bd 60b2 2abb
000002c0: 5254 c1bc 8262 9e3d b081 00bd e5b9 833d
000002d0: 01f8 11bd d2a8 423e 724f d9bd f26f 0cbc
000002e0: 711b a6be 97c8 913d 9005 a53c 8f93 f33e
000002f0: 578d 8b3d b46c 7b3d d8f2 bcbe 0742 303e
-0.06607928 0.302499 -0.071615435 0.009937688 -0.12749672 -0.02870167 -0.0496529 0.23669633
-0.03337375 0.061722044 0.026408201 0.12253072 0.074504055 -0.056059252 -0.0044045267 0.08931616
-0.059377197 -0.05960527 0.03934611 -0.013531597 -0.05841973 0.02940159 -0.153534 0.12056649
-0.45461985 -0.6285839 -0.13302536 -0.14136785 -0.73625356 -0.07255065 -0.19116502 -0.29431275
-0.3038111 0.2215939 0.5347676 0.051609896 -0.1527503 0.5663303 0.004039609 0.08886272
0.37435204 0.08970764 0.19244665 -0.35857266 -0.16406633 -0.0052620717 -0.25109878 0.1459997
-0.40670094 -0.21718971 -0.39189768 -0.3117732 0.62626445 -0.19392511 -0.17141359 -0.059910774
-0.20046672 0.12886928 -0.50128657 0.06654178 -0.08023343 0.3700814 -0.2148566 0.078642145
0.026534209 0.018410515 -0.015231733 0.4606682 -0.030320395 0.05361369 0.027529191 0.16734844
-0.2362781 0.060836848 -0.081817605 -0.13819803 -0.97575957 -0.052503612 -0.11519779 0.011730511
-0.11595333 0.11316366 -0.48334438 -0.0014690608 0.0032552348 -0.51797575 0.07182716 0.02786893
0.17017071 -0.044414878 -0.033586506 -0.4054867 -0.31395066 -0.15308866 0.1528682 -0.2218742
-0.16296369 -0.32846233 -0.19869259 -0.1894563 0.6133039 -0.13269278 -0.056722626 -0.15800942
-0.10107454 -0.094288275 -0.24765603 -0.06713925 -0.055785656 0.60828334 -0.14553523 0.024443056
0.2188156 -0.05144059 -0.13942902 -1.0215851 -0.120573685 -0.056722794 0.35283884 -0.0011408305
-0.44614172 0.8614363 -0.3505876 -0.21891549 0.2273749 -0.114753 -0.20705514 -0.6665671
-0.19262339 0.11976337 -0.66290224 0.17059542 0.03363726 0.5169487 -0.21826778 0.27432397
0.37763855 0.00860579 -0.2495657 -0.318426 -0.43099445 -0.3800873 -0.9016788 -0.019765832
-0.47099224 -0.9905409 -0.4409733 -0.26146463 0.0030449564 -0.08825612 -0.19051608 -0.06932832
-0.25627646 0.45703447 0.66407615 0.0156177655 0.14661533 0.16539048 -0.0014239158 0.10976761
-0.039954156 0.34292713 0.32580385 0.079675555 0.43412206 0.25437188 0.014104877 -0.05608614
-0.050951358 0.09015436 -0.013019272 0.03237671 -0.29488996 0.04149218 -0.09614996 -0.0026046261
-0.023599777 0.077336326 -0.03137368 0.06431941 -0.035636906 0.19009712 -0.10610856 -0.008571612
-0.3244281 0.071183376 0.020144254 0.47573516 0.06814068 0.061382964 -0.36904025 0.17212687

resolve.3.layers.1.conv0.bias f4 [8]
00000000: 5662 853e 4fee c43e c101 473e 7c5c 613e
00000010: 9a33 0fbe 661f 6fbe 4716 933e 444a 793e
0.26051587 0.38463065 0.19434263 0.22007936 -0.13984528 -0.23351821 0.28727934 0.24344736

resolve.3.layers.1.bn0.weight f4 [8]
00000000: 0000 803f 0000 803f 0000 803f 0000 803f
00000010: 0000 803f 0000 803f 0000 803f 0000 803f
1.0 1.0 1.0 1.0 1.0 1.0 1.0 1.0

resolve.3.layers.1.bn0.bias f4 [8]
00000000: 0000 0000 0000 0000 0000 0000 0000 0000
00000010: 0000 0000 0000 0000 0000 0000 0000 0000
0.0 0.0 0.0 0.0 0.0 0.0 0.0 0.0

resolve.3.layers.1.bn0.running_mean f4 [8]
00000000: 0000 0000 0000 0000 0000 0000 0000 0000
00000010: 0000 0000 0000 0000 0000 0000 0000 0000
0.0 0.0 0.0 0.0 0.0 0.0 0.0 0.0

resolve.3.layers.1.bn0.running_var f4 [8]
00000000: 0000 803f 0000 803f 0000 803f 0000 803f
00000010: 0000 803f 0000 803f 0000 803f 0000 803f
1.0 1.0 1.0 1.0 1.0 1.0 1.0 1.0

resolve.3.layers.1.conv1.weight f4 [8, 8, 1]
00000000: 4330 da3e 9fc5 123f 961c 233e 91a0 0bbe
00000010: e6c5 5e3e 8018 1c3f 118f 7cbe 6e23 603e
00000020: 91c5 75bd 8bf3 aabe 2b6a 613e 8485 c43d
00000030: c3cc 96bc b443 993d 9651 febd aa59 493f
00000040: cb9d ffbe 3b7c 9abe 697d 343e 4f40 723f
00000050: 921c d33e 774e 7cbe 1aa9 b53e 704e 233e
00000060: 1918 64be fd27 4b3d 8bae 16bc 06b1 2fbe
00000070: 72b7 ca3d b958 c33c 2940 80bd 24ae 803c
00000080: 76f9 083f 0899 b4bc 9221 aabe 2c5f e73e
00000090: 30b8 a83e 5340 6d3e 4b85 92bc 912b d83a
000000a0: 9520 bcbe 8f1b afbd 9afd f53d b078 8bbd
000000b0: 2503 22bd 7a6d c3bd aa5c e6bd 36fd 053d
000000c0: 7053 573e b94b 2abc 8cd0 6ebe 2383 223f
000000d0: f8a7 b3bd cab8 513e 4ac4 0dbb 2255 fd3e
000000e0: d7e6 3cbe 2a44 5d3e 92b5 bdbe 2dfa 53bd
000000f0: 5782 143f 93dc b53e 8364 10bc 6760 a53d
0.42614946 0.57332796 0.15928873 -0.1363547 0.2175518 0.60974884 -0.2466395 0.21888515
-0.060002867 -0.33388934 0.22013156 0.095957786 -0.018408185 0.074836165 -0.12417905 0.7865244
-0.49925074 -0.30172905 0.17625965 0.9462938 0.41232735 -0.24639307 0.35480577 0.1594789
-0.22274818 0.049598683 -0.009196888 -0.17157373 0.09898271 0.023846017 -0.062622376 0.015708037
0.5350565 -0.022045627 -0.33228737 0.45189798 0.32953024 0.23169069 -0.017885825 0.0016492476
-0.36743608 -0.08550178 0.12011261 -0.06810129 -0.03955378 -0.09542365 -0.11248143 0.032712184
0.21027923 -0.01039403 -0.23321742 0.6348135 -0.08772272 0.20480648 -0.002163189 0.49479014
-0.18447433 0.21608034 -0.3705259 -0.051752258 0.5801138 0.35519847 -0.008813026 0.08075028

resolve.3.layers.1.conv1.bias f4 [8]
00000000: df1a 08bf abba 9e3d 16d1 e5bd 33de 70be
00000010: 8a2c 9d3e 00ab b63d 91f4 9bbd 3fd5 c3be
-0.53166 0.07750448 -0.112215206 -0.23522262 0.30698043 0.089193344 -0.07615007 -0.3824863

resolve.3.layers.1.bn1.weight f4 [8]
00000000: 0000 803f 0000 803f 0000 803f 0000 803f
00000010: 0000 803f 0000 803f 0000 803f 0000 803f
1.0 1.0 1.0 1.0 1.0 1.0 1.0 1.0

resolve.3.layers.1.bn1.bias f4 [8]
00000000: 0000 0000 0000 0000 0000 0000 0000 0000
00000010: 0000 0000 0000 0000 0000 0000 0000 0000
0.0 0.0 0.0 0.0 0.0 0.0 0.0 0.0

resolve.3.layers.1.bn1.running_mean f4 [8]
00000000: 0000 0000 0000 0000 0000 0000 0000 0000
00000010: 0000 0000 0000 0000 0000 0000 0000 0000
0.0 0.0 0.0 0.0 0.0 0.0 0.0 0.0

resolve.3.layers.1.bn1.running_var f4 [8]
00000000: 0000 803f 0000 803f 0000 803f 0000 803f
00000010: 0000 803f 0000 803f 0000 803f 0000 803f
1.0 1.0 1.0 1.0 1.0 1.0 1.0 1.0

resolve.3.layers.2.conv0.weight f4 [8, 8, 3]
00000000: b610 5e3c 8cf2 303f b1cf ea3d 575b e9bd
00000010: 9448 863f b531 d5bd a92c a53b be3f 46bf
00000020: acaf a73c f239 683d 9694 fabd 101d 123e
00000030: 4d81 94bd 7524 e13e d754 1cbe b1a0 22bd
00000040: dd80 4fbe dfc2 74b9 3a1b 84bc b706 0c3f
00000050: 5c4d c8bd 0bfd 823d 1f43 cf3d c3d7 623d
00000060: e77f 3b3e 54a0 4dbf 4259 e53d 6585 b7bd
00000070: 0bc5 ce3d eb90 81bd 6963 8b3d 34bd 223f
00000080: ada6 d03c 8158 febc 37d7 c13c 76ef cfbc
00000090: 333e cc3d ed33 cfbf d87a 333e 9560 0dbd
000000a0: 1bd6 243d dc3f 3fbd 08a1 6dbd 7f77 a43d
000000b0: e32d d1bd 991b b8bd 27bc fcbe df48 9d3c
000000c0: 123f a43b 8fa1 a83d 3802 5f39 dfb1 0e3c
000000d0: dd9c 4bbe 3992 823c 47c0 603b 6e7c 59bc
000000e0: fbad 593b 3949 3a3c 3403 b13e 4e93 c53c
000000f0: 0a99 783c b088 553e dd91 cc3c d140 2bbb
00000100: e347 bf3c 7fbf 7fbc 2f5b 7e3b d476 8c3b
00000110: 6fac 2b3c 0e27 86bc f90e 613e c3ac 1abd
00000120: aeea ad3e d26b 8f3e 0fe5 f33d f64b 29be
00000130: 3060 d1be 44f9 0d3d 6c23 173d da61 d0be
00000140: 4003 f2bc 92cf 4fbe 5473 44bf 450c f1bc
00000150: 0d3c 5abe bfe9 e0bc 711e 81bd dca3 6dbe
00000160: d1cd 70be a41d b8bd d92b c4be 32a0 7ebf
00000170: f3a2 f3bd 836b b2bd bc76 a0be 8a77 1abe
00000180: 5ff8 9c3c 8389 ad3e d94d 95bc 96f0 1bbd
00000190: 55af afbe 68c3 623a 5d86 913d b385 82bf
000001a0: e32e 433c 5c5d 9d3c d10d b03d 3d99 61bd
000001b0: a3bb 9a3b 951b 4f3f 07a6 873d e54e c03c
000001c0: 7bd7 833d 2f93 8dbd a47c e1bc 8665 44be
000001d0: c85d 74bd 1d4b 4db7 ce8c 8cbc 60e8 dd3c
000001e0: c888 d63c e0ec 0dbc 0d76 f03a ff11 623d
000001f0: 1fd5 1e3e 52ef 5e3d 7f3f d73c 164c 313e
00000200: c64c 033d e431 283b 5027 d3be fce1 d1bd
00000210: 4dba 7d3d d895 f13e 93b8 053e 7d60 d63c
00000220: 8ac5 023e b11c 513d 1794 b13c 50e7 d73e
00000230: 01f3 823d 0be3 75bd f578 1cbf 2770 fdbd
00000240: b7aa 843d c885 403e 6b1a 97bc d770 b1bd
00000250: a8fc 54bf d598 95bd b2e9 23bd 6c78 e23d
00000260: 46be aabc 9910 74bd c2f2 323c cc27 f93c
00000270: 1b6d 97be c315 0b3f f85c 03be cada 06be
00000280: d861 58bd 9a39 bbbd d495 17be f712 d63d
00000290: 852e 87bd e9be b13d c256 753e a38b de3d
000002a0: e268 c93c 7c47 603e 0a92 ef3c d138 bebc
000002b0: 7b26 d73d bc2c 90bc 994f c0ba 3d1b 15be
000002c0: c02c a3bc 7fe3 373c e884 92bd 1792 ea3c
000002d0: 9a04 70bc fc61 443e 768b 4abd c55e e3bc
000002e0: 8024 d53d d636 ff3b 68a2 c6bc 4e48 10bd
000002f0: 4c95 d2bc 4250 bebb 578a 56be 7bb8 6e3d
0.013553789 0.691201 0.11465395 -0.11394375 1.0490899 -0.104098715 0.0050407243 -0.7744101
0.020469509 0.056695886 -0.12235372 0.14268899 -0.07251225 0.43973127 -0.15266739 -0.03970403
-0.20264001 -0.00023342248 -0.016126264 0.54697746 -0.0978038 0.0639592 0.10120224 0.055381548
0.1831051 -0.80322766 0.11198665 -0.0896099 0.10096177 -0.06326469 0.0680607 0.6356995
0.025470102 -0.031048061 0.023662193 -0.025382739 0.09972801 -1.6187721 0.1752733 -0.034515936
0.04024325 -0.04669176 -0.0580149 0.080306046 -0.1021383 -0.08989639 -0.493623 0.019199787
0.0050124014 0.0823394 0.00021267764 0.0087094 -0.19884057 0.015938865 0.0034294294 -0.013274295
0.0033215273 0.011369997 0.34572756 0.024118092 0.015173206 0.20852923 0.024971897 -0.0026131163
0.023349708 -0.015609621 0.0038811674 0.0042866264 0.010478123 -0.016376045 0.21978368 -0.037762415
0.3396811 0.28011948 0.11908924 -0.16532883 -0.40893698 0.034661546 0.036899015 -0.40699655
-0.029542565 -0.20294026 -0.76738477 -0.029424796 -0.2131197 -0.027455209 -0.06304634 -0.23207039
-0.23516013 -0.089900285 -0.38314703 -0.9946319 -0.118963145 -0.087119125 -0.31340587 -0.15084663
0.019161401 0.33893976 -0.018225597 -0.038071238 -0.34313455 0.00086503336 0.07105706 -1.0197052
0.011913034 0.019209556 0.08596385 -0.05507778 0.004722075 0.8090146 0.06623464 0.02347512
0.06437584 -0.06912839 -0.027525254 -0.19179353 -0.05965975 -1.2236441e-05 -0.017156985 0.027088344
0.02618827 -0.008662432 0.0018345729 0.055192944 0.15510987 0.054427452 0.026275394 0.1731418
0.03205564 0.0025664503 -0.4124093 -0.10248181 0.06194525 0.47184634 0.1305869 0.026169056
0.12770668 0.051052753 0.02167706 0.42168665 0.063940056 -0.06003098 -0.61122066 -0.12374907
0.06477874 0.18801033 -0.018445214 -0.086641006 -0.8319802 -0.07304541 -0.04001779 0.11058125
-0.020842683 -0.05958614 0.010922136 0.030414484 -0.29575428 0.5433008 -0.12828434 -0.13169399
-0.052827686 -0.09141846 -0.14803249 0.10452836 -0.0660067 0.08678991 0.23958877 0.10866477
0.024586145 0.21902269 0.029244442 -0.023220452 0.105053864 -0.017599456 -0.001467216 -0.14561172
-0.0199188 0.011223673 -0.07154256 0.028634114 -0.014649535 0.19178003 -0.049449407 -0.02775515
0.104073524 0.0077885194 -0.024247363 -0.035225205 -0.025705956 -0.0058079073 -0.2095121 0.058281403

resolve.3.layers.2.conv0.bias f4 [8]
00000000: ef53 b1be 7091 1f3e 73b1 243d a9d4 3cbe
00000010: a4cb e4bd cc9d 643e 7ea4 863c 1116 be3e
-0.3463435 0.15582824 0.04020829 -0.18440498 -0.11171654 0.2232582 0.016435858 0.3712621

resolve.3.layers.2.bn0.weight f4 [8]
00000000: 0000 803f 0000 803f 0000 803f 0000 803f
00000010: 0000 803f 0000 803f 0000 803f 0000 803f
1.0 1.0 1.0 1.0 1.0 1.0 1.0 1.0

resolve.3.layers.2.bn0.bias f4 [8]
00000000: 0000 0000 0000 0000 0000 0000 0000 0000
00000010: 0000 0000 0000 0000 0000 0000 0000 0000
0.0 0.0 0.0 0.0 0.0 0.0 0.0 0.0

resolve.3.layers.2.bn0.running_mean f4 [8]
00000000: 0000 0000 0000 0000 0000 0000 0000 0000
00000010: 0000 0000 0000 0000 0000 0000 0000 0000
0.0 0.0 0.0 0.0 0.0 0.0 0.0 0.0

resolve.3.layers.2.bn0.running_var f4 [8]
00000000: 0000 803f 0000 803f 0000 803f 0000 803f
00000010: 0000 803f 0000 803f 0000 803f 0000 803f
1.0 1.0 1.0 1.0 1.0 1.0 1.0 1.0

resolve.3.layers.2.conv1.weight f4 [8, 8, 1]
00000000: 3702 de3e 4884 f13e 6c8a efbe b4f3 cfbe
00000010: ef51 833e 7361 b33e 3b31 6e3e 99f5 293d
00000020: 484b 273e 423f b23e 4bf2 e33e 4289 64be
00000030: 99f9 28bd 2416 5fbe 8381 7bbd eee8 7b38
00000040: 53f6 f1be aa79 993e afdc 163f fa70 1cbd
00000050: a75c 06be 04f4 0dbd dafb 5cbd 44f2 043f
00000060: ef08 5a3d 351c 1b3e 6181 ed3e 3cd9 28be
00000070: 6bbb ab3d 7f05 f13d 155c 053e 9465 593e
00000080: 53aa cdbd d8de a8be 9543 923e 1015 a6bb
00000090: 3b19 dfbe 7c3d 4a3e fd49 f13e 5ed0 843d
000000a0: c7bd ae3b 46d2 373d 70f0 f73c 8bcf 4c3d
000000b0: 2bbe b5bd 32b8 d63d 4d1f 0c3e c5db 093e
000000c0: 223c 9dbd ebdd 853e 9356 75bd ba2e 4abe
000000d0: f575 35bd a456 66be 7681 4bbe 5588 7fbe
000000e0: 9fd3 d73d f865 bf3e 7d4a 803d f391 f0be
000000f0: 4174 8e3e c4e5 373e bae5 6cbd b9e2 953e
0.43361065 0.47171235 -0.46785295 -0.40615618 0.25648448 0.35035285 0.23260967 0.041493986
0.16337311 0.34813887 0.44520792 -0.22317985 -0.04125366 -0.2178579 -0.06140281 6.0059996e-05
-0.47258243 0.29975635 0.58930486 -0.03819368 -0.13121282 -0.03465654 -0.053951122 0.5193217
0.053231176 0.15147479 0.4638777 -0.16489118 0.083853565 0.117686264 0.13023408 0.21230155
-0.100422524 -0.32982516 0.28567186 -0.005068429 -0.43573937 0.19750017 0.4712676 0.064850554
0.005332682 0.044878267 0.030266017 0.050002616 -0.08874162 0.10484351 0.13683815 0.13462742
-0.07677485 0.26145872 -0.059897017 -0.19744387 -0.044301946 -0.22493988 -0.19873604 -0.2495435
0.105384104 0.37382483 0.062642075 -0.4698635 0.2782307 0.17958742 -0.05783627 0.29274538

resolve.3.layers.2.conv1.bias f4 [8]
00000000: 1743 0b3f 73c3 b43e f062 383d 0031 a9bd
00000010: 8a48 68be 89ce 4ebe e513 163e acc9 b8be
0.54399246 0.35305366 0.04501623 -0.08261299 -0.22683921 -0.20195974 0.14656027 -0.36091363

resolve.3.layers.2.bn1.weight f4 [8]
00000000: 0000 803f 0000 803f 0000 803f 0000 803f
00000010: 0000 803f 0000 803f 0000 803f 0000 803f
1.0 1.0 1.0 1.0 1.0 1.0 1.0 1.0

resolve.3.layers.2.bn1.bias f4 [8]
00000000: 0000 0000 0000 0000 0000 0000 0000 0000
00000010: 0000 0000 0000 0000 0000 0000 0000 0000
0.0 0.0 0.0 0.0 0.0 0.0 0.0 0.0

resolve.3.layers.2.bn1.running_mean f4 [8]
00000000: 0000 0000 0000 0000 0000 0000 0000 0000
00000010: 0000 0000 0000 0000 0000 0000 0000 0000
0.0 0.0 0.0 0.0 0.0 0.0 0.0 0.0

resolve.3.layers.2.bn1.running_var f4 [8]
00000000: 0000 803f 0000 803f 0000 803f 0000 803f
00000010: 0000 803f 0000 803f 0000 803f 0000 803f
1.0 1.0 1.0 1.0 1.0 1.0 1.0 1.0

resolve.3.layers.3.weight f4 [16, 8, 8]
00000000: b46d 323d 3880 113e c4cf 54bc c2f4 ae3d
00000010: ab22 76bd 6848 f73c b051 963c 8e95 8cbc
00000020: 44a9 0d3e e1be b8bd 850d 393e 137d 1c3e
00000030: 4851 843e 3d20 203e 7220 da3d 6943 983d
00000040: 0a1d 04bd b659 43bb f49c b03d b494 f13b
00000050: 190f 883d af15 5ebb 766a 85bb 65b9 4bbc
00000060: 5d59 c23e 7180 223c 4e0e 8a3d 5506 933e
00000070: 9c18 db3e 0644 243e 47f4 ae3c 9d71 633d
00000080: 4e25 fd3c ba49 e73d 97a6 263d ee39 0cbc
00000090: 6fb4 c73d 6faf f6bc 74bb ecbb 4944 4e3d
000000a0: deb2 00be cd33 8d3e 964e aa3d be42 a33d
000000b0: af8b 46be d4c8 b63b 7648 463d ef60 cb3c
000000c0: 32d7 0f3e 3acd 463e dd71 fcbd ccdd 5f3e
000000d0: 1fee 38bd 8d4b f83d bc58 ae3d 5d79 f93c
000000e0: d7fa 3fbe a5e1 bb3d 12cb bc3e 99d4 11bd
000000f0: 85b6 0a3e b984 473d 761a 5e3c 2696 323d
00000100: 1926 963d 8623 663e 0890 3e3e 0c4a b0bd
00000110: bdfe 183d d2f6 d9bc 3d2d 78bd 581b 25bd
00000120: 9818 3d3e bfc4 33bd 0d7b 343d 8a2e 803e
00000130: 08c0 8d3e cc5d 843e 3eca 993e b2fc 073e
00000140: 9771 98bd 2338 66bd b5d7 663d 35ec 103e
00000150: 38d2 c33b afe2 343d c614 e73c 3242 65bd
00000160: 157e 933e 89c1 99bc 9576 1fbe 8936 38be
00000170: d11e 453e c259 ce3e 6cb9 0e3e e4b5 3d3d
00000180: e524 273e 3405 2a3e f16f cb3d 03ac 603e
00000190: d5ab 443e 67ba 313d e965 8f3c 3f32 1d3e
000001a0: 738d e63d 0bd6 ca3e ef89 263f 9bfc ec3e
000001b0: 0493 853e d09f 13bd 025a d43b 687a f43d
000001c0: a138 893e 37a0 873e 23b0 873e 3fb5 9bbe
000001d0: 1a89 a23e 3ab2 fc3d 77b4 6a3d 5f65 bf3d
000001e0: 4482 3bbe bf1e a63d 968b a43e 5352 323f
000001f0: 6b51 723d 9ee1 903d f66b 1c3c 183f 623c
00000200: c334 123e 3062 b43c 6164 243e 64d9 993d
00000210: ff87 053e 4619 953e e184 2c3e e8c9 883d
00000220: 0270 4abe f2cc 233e bec7 93ba 0d67 293e
00000230: 988c 803e 4dd5 173d aea4 533c 4f3b 0d3d
00000240: b5b1 683d f341 203e ed89 de3d e47e 263e
00000250: 87b7 933c 11eb aabd 53df 47bd fa25 e23c
00000260: 2659 1d3b 7cfd 473e b688 793e 01cf 3e3e
00000270: 6853 0d3d 3edc 2b3d 765d 173e 2c5c 4f3b
00000280: 7708 6dbd d401 92bd 2ea2 24be a988 91be
00000290: 57bb 7ebe 7994 c1be b3c5 1bbe 6a91 52be
000002a0: e8b2 483e 4176 18be b22c 65bd 26bb bb3d
000002b0: a9ce 0ebe 00a9 96bc 7220 7ebd a0de a9bd
000002c0: 7bd2 d8bc 55c3 9abe e48a 26bc bea2 2dbe
000002d0: db6c 20be 28a1 663e 780d f9bb 309b fcbc
000002e0: fb44 923e 8eae 5d3e 749f 3c3e 8f44 b93e
000002f0: 0358 be3e e457 f63d 7da6 233e 5f18 813e
00000300: e0b6 293e 6be6 b33e 4f38 113f f2e9 923e
00000310: de37 b83d 446b d83d 5b55 8abc 322e da3c
00000320: 2493 943e 34cb a13d 8a4b d13e bd35 523a
00000330: 75af f4bd 357d 08bc afd9 45be 2753 62bd
00000340: 16c5 ddbd aa1e 30be 275c 40bd 33a8 20bd
00000350: e623 ad3d ff85 b63d 3b8d b93c 04eb bc3d
00000360: 5870 273e b3c9 d8bd 310c 1f3e dd54 8a3e
00000370: 31cb 8b3e 7c15 0bbe f803 433d 8514 64bc
00000380: 24f0 14be 8b12 193e 8584 24bf 5cb0 603e
00000390: ddeb 743e 2f8a e1bd 6598 13be eacf b3bd
000003a0: a7b6 723b 890a 843e 346d a93d db07 973e
000003b0: 319f b7bd 0d03 4a3d 5ba0 a23d d473 ae3c
000003c0: 5fd3 cfbd 9582 b13e adee 483f a2f9 87bd
000003d0: b154 3e3e fddc 5e3e 8994 8c3d 05d5 0bbe
000003e0: 55d8 5e3e eff1 3a3e 1993 92be ced1 ea3d
000003f0: 965c 86bd 25df 003e dc9c dc3d 2e08 f93d
0.043561652 0.14209068 -0.012988988 0.085427776 -0.060091656 0.030185893 0.018349499 -0.017161157
0.13834101 -0.09020782 0.18071564 0.15282087 0.25843263 0.15637298 0.1065072 0.074347325
-0.032254256 -0.002980811 0.086236864 0.007372463 0.06643505 -0.0033887436 -0.004071529 -0.012434338
0.37958804 0.009918318 0.0674101 0.28715768 0.42792213 0.16041574 0.021356715 0.055528272
0.030901577 0.11293359 0.040686216 -0.008558733 0.09751212 -0.03011295 -0.0072244946 0.05035809
-0.12568232 0.27578583 0.0831577 0.079717144 -0.19389223 0.00557814 0.048408948 0.024826495
0.14046934 0.19414225 -0.12326405 0.21861953 -0.045148965 0.12123785 0.085130185 0.030453378
-0.18748032 0.09173898 0.3687368 -0.03560314 0.13546188 0.04871056 0.0135561135 0.043600224
0.07331485 0.22474489 0.18609631 -0.08607873 0.037352312 -0.02660695 -0.060590018 -0.04030928
0.18466413 -0.043888804 0.044062663 0.25035506 0.2768557 0.2585281 0.3003711 0.1327999
-0.074435405 -0.05620588 0.056358058 0.14152606 0.0059759878 0.044161495 0.028208148 -0.055971332
0.2880713 -0.018769043 -0.15572579 -0.17989554 0.19250037 0.40302855 0.1393792 0.046316043
0.16322668 0.16603547 0.099334605 0.21940617 0.19206174 0.043390658 0.01750465 0.15351199
0.11257448 0.39616427 0.6505422 0.46286473 0.26088727 -0.03604108 0.0064804563 0.1193741
0.26801017 0.26489422 0.2650157 -0.30411717 0.31745225 0.123386815 0.05730101 0.09345507
-0.18311411 0.08111333 0.32137746 0.69656867 0.059159677 0.07074283 0.009547224 0.013808988
0.1427794 0.022019476 0.16053917 0.07512167 0.1304016 0.29120845 0.16847564 0.066791356
-0.1976929 0.15996149 -0.0011274738 0.16543217 0.25107265 0.037068654 0.012917681 0.03448039
0.0568101 0.15650158 0.10866151 0.16259342 0.018031849 -0.083456166 -0.048796963 0.027606
0.0024009435 0.1953029 0.24368557 0.18633653 0.03450337 0.041958086 0.14781746 0.0031640632
-0.0578694 -0.07129255 -0.16077492 -0.28424576 -0.24876152 -0.37808588 -0.15212135 -0.20563284
0.19599497 -0.1488886 -0.055950828 0.09166555 -0.13946022 -0.018391132 -0.06204266 -0.082944155
-0.026467552 -0.30227152 -0.01016495 -0.16956612 -0.15666525 0.22522414 -0.0076004826 -0.030835718
0.28568253 0.21648619 0.18420202 0.3618512 0.37176523 0.120284826 0.15981479 0.25213906
0.16573668 0.35136732 0.56726545 0.2869411 0.08995031 0.10567334 -0.016886404 0.026633356
0.2901851 0.07900086 0.40877944 0.0008018872 -0.11947528 -0.008330633 -0.19321321 -0.05525508
-0.10828607 -0.17199197 -0.046962883 -0.039222907 0.08454113 0.089122765 0.022650352 0.09224513
0.1635145 -0.10585346 0.15531994 0.2701787 0.2730346 -0.13582414 0.047611207 -0.013920908
-0.14544731 0.1494848 -0.6426471 0.21942276 0.239181 -0.110126846 -0.14413603 -0.08779891
0.0037035139 0.25789288 0.08272782 0.2949818 -0.0896591 0.049319316 0.07940742 0.021295466
-0.10147738 0.3466994 0.7848919 -0.066394106 0.18586995 0.21763988 0.06864268 -0.13655479
0.21762212 0.18256353 -0.28627852 0.11465798 -0.06560628 0.12585123 0.10772106 0.12159763

resolve.3.layers.3.bias f4 [16]
00000000: 3d8c 42be e21a 953e 3ac2 3bbe 24f8 37bf
00000010: 188a 1d3f 9e2a 863d c5ab 71bc 4bf7 633e
00000020: bb3f 183e d3fc 893e e350 b73d d45c ccbd
00000030: 9b00 aa3d eeee e33e 113e 973e 05ad c1be
-0.18998809 0.29122072 -0.1833581 -0.7186301 0.6153884 0.06551097 -0.014750426 0.22262304
0.14868061 0.26950702 0.08950975 -0.09978643 0.08300897 0.44518226 0.2953954 -0.37827316

resolve.4.layers.0.conv0.weight f4 [16, 16, 3]
00000000: 5f9d 3ebc ce86 88be 87f3 4ebe a848 433d
00000010: 98d5 5bbe 630c 7a3d 6291 a5bd 3f98 cbbe
00000020: dbdd c7bd 6800 c23e 8d96 503d 72c6 da3e
00000030: 5ee7 0c3e 2a08 1ebc b1e1 6abb 4fa0 673d
00000040: f5e2 55bd 4b1d 033d 3d31 8fbd 284a babe
00000050: f5bc b3bc 6f7f 33bc ed87 fcbd a740 14be
00000060: fbb6 3f3e 4d03 d03c 69f3 843d 6d1e 913e
00000070: 9f7c 423e eb71 ae3e a807 e53c e06b fabd
00000080: 88f7 123e e657 143e 7af4 c23e 7df0 033e
00000090: 0cee cbbd 4764 11bd 02c1 bebd 531b edbd
000000a0: 76d1 143e 16b5 24bd c57e 3bbe 3520 943e
000000b0: 4129 e1bb 4415 f43d 31cb 3fbe c365 1d3e
000000c0: b068 233e 4505 79bd e020 443e feaa 52be
000000d0: 30d9 5cbe 9c90 8bbe 494e cb3e 29c2 9f3e
000000e0: 89c6 023f 82f8 f93e 8bea 093f ee62 073f
000000f0: 649f 09bd 3398 99be 5975 c0bd c2eb d7bd
00000100: 9556 1bbe dc26 3cbd c35a 3bbe a104 3d3e
00000110: caba a9bd 4adc 153e 0e60 e93d 1ef0 b0bd
00000120: d063 eebd 89df 683e 0010 caba 8cb8 63bd
00000130: a41c 33bd df3e eabd 3302 94bd 5f9e c7bd
00000140: 32a4 0a3d 24c3 913d a6d5 87bd eeb7 4f3c
00000150: f0a5 10be 7820 45bd 7661 fe3d 92d4 233e
00000160: 3089 f83c 1a04 a33d 920b 82bd 3302 033d
00000170: 4a29 35bd 7a77 fe3d a494 373e bf70 b73d
00000180: 175a babe 46c7 07bf c904 e03e 2fdd 59bd
00000190: 4c06 293f dd94 953d 547d 23bf dcba fabe
000001a0: f8ca 9ebe 89e2 833d b24d 65be db84 8d3e
000001b0: adb2 923d 5f40 0abe 7689 a13e 0489 833d
000001c0: 1b82 5ebe 7ccb 8bbe 043d 9abc 9d43 1abd
000001d0: 7e95 c2be 9292 073e 8c05 a23d c007 a03e
000001e0: 9b18 41be c030 13bd 206c 6a3d 1e3d 403d
000001f0: 6006 573d f5a2 09bd 9e04 1a3e ecee 9f3e
00000200: c771 f2bd 01cf 1e3e 4cb4 c03d e825 d73d
00000210: 9f78 92be 673f 86be 8416 f83e caf5 4abf
00000220: 8d80 f63e ba5e f9be 26dc a73e afab 9c3e
00000230: e405 4cbf e954 433e f376 37be acc5 543e
00000240: 6700 bd3c e5f5 17be 86c9 d83d b46f c83c
00000250: 88ac fbbe 2f5a 2b3e 4a7d 973c 6bb1 d73d
00000260: 6a8f 8f3b 8416 dc3e 1152 b1be 0a72 81bc
00000270: 4e1c e7bd 66ba 2a3e f134 03be 410a 503e
00000280: 8aa6 3b3c 5abc 3d3b 3655 8cbf 5fc0 0a3c
00000290: a65a 64bd 08ba 0d3b b1db ba3b dfd5 41be
000002a0: 862d 243e 4a99 fbbd b234 153b 3dcf c93c
000002b0: 0be4 a2be 9e71 2cbd d11f 87bd 1122 8b3d
000002c0: cb67 32be 0071 87be 33eb 423e 0f16 e0bc
000002d0: 1640 d23e c009 1abf b686 dd3d a92e b53d
000002e0: fa31 c53c 42ad af3e 68c6 cb3e 2b46 763e
000002f0: cdae be3e eec3 e3bd 2455 febe 8e92 16be
00000300: f2c4 27bf f5c1 e8bd dc9a 2a3d 56ef 1a3e
00000310: 8888 9f3d b696 313d b2d8 80be f2d7 3abe
00000320: 9630 22be 83bb a23e c863 55bd 9404 173e
00000330: 43d4 683e 250a a63d c158 413d f20c 9c3e
00000340: dca4 c7be 40ae 953d da9f 30be a04a a53e
00000350: fc75 843d 9700 25bd 4797 2d3d 6dbb 23be
00000360: 2b7f b13e 6293 853e d7a4 17be 02fb 723c
00000370: 107b 0c3f f9a8 f03c 9011 71be f077 b9bd
00000380: d528 043e 682e f93b 7074 6bbf ab60 e5bd
00000390: 0013 7dbe 0ff8 c2ba 5fef 963e b294 153e
000003a0: a5b7 493c 9eb1 4b3d 9fe7 8fbe d578 d53e
000003b0: 6f43 49be d8fa 5f3e 0de4 97bd cc55 8abd
000003c0: cf1c cf3d b9d1 753d 5e1a f9bd 07f5 ff3d
000003d0: 7c13 363d b44a 943b aad3 a7bd 3747 2abc
000003e0: e7eb 3d3e 1ae1 db3d 7d9d 003e cebd 383e
000003f0: 58c3 e33d 3161 6a3c 4a0b 383e 6213 70bd
-0.0116342 -0.26665348 -0.20210086 0.047676712 -0.21468198 0.06104697 -0.0808437 -0.39764592
-0.097591124 0.37890935 0.050924826 0.42729527 0.13760135 -0.009645501 -0.003584009 0.056549367
-0.052218396 0.032010358 -0.06991813 -0.36384702 -0.021940688 -0.0109556755 -0.12330613 -0.14477788
0.18722145 0.025392199 0.06491739 0.28343526 0.18992852 0.34071288 0.027957752 -0.12227607
0.14352238 0.14486656 0.38077146 0.12884708 -0.09957513 -0.035496023 -0.09314157 -0.11577477
0.14533028 -0.04021176 -0.18310077 0.28930822 -0.006871373 0.119181186 -0.18729855 0.1537085
0.15957904 -0.06079604 0.19153166 -0.20573041 -0.21567225 -0.27258766 0.39708164 0.3120282
0.5108419 0.4882241 0.5387351 0.5288533 -0.033599272 -0.2999893 -0.09397382 -0.10543014
-0.15169747 -0.045935497 -0.18296342 0.18458797 -0.0828758 0.14634815 0.11395274 -0.08639549
-0.116401315 0.22741522 -0.0015416145 -0.05559592 -0.043728486 -0.11437773 -0.07226982 -0.09747004
0.033847995 0.07117298 -0.06632547 0.01267813 -0.141258 -0.048126668 0.12420933 0.15999058
0.030338854 0.07959767 -0.06349863 0.03198452 -0.04422883 0.12425132 0.17927796 0.089570515
-0.36396858 -0.5303844 0.4375365 -0.053189453 0.66025233 0.07303784 -0.6386311 -0.48970687
-0.31014228 0.064396925 -0.2239292 0.27640423 0.07162986 -0.13501118 0.31550187 0.06422618
-0.21729319 -0.27303684 -0.018827923 -0.037662137 -0.38004678 0.13239506 0.07911214 0.31255913
-0.18857042 -0.035935163 0.057232022 0.046933286 0.052496314 -0.033602674 0.15040824 0.3123697
-0.118381076 0.15508653 0.09409389 0.10505277 -0.28607652 -0.26220247 0.48454678 -0.79281294
0.4814495 -0.48705083 0.32785147 0.30599734 -0.7969649 0.1907536 -0.1791647 0.20778531
0.02307148 -0.14839895 0.105853125 0.024467327 -0.49155068 0.16733621 0.01849236 0.10531887
0.00438111 0.42985928 -0.34632924 -0.015801448 -0.112846956 0.16672668 -0.12813164 0.20316412
0.01145328 0.0028951378 -1.0963504 0.008468716 -0.05575051 0.0021625776 0.005702459 -0.18929242
0.16032991 -0.12285097 0.0022767005 0.024634952 -0.31814608 -0.04210054 -0.065978654 0.06793607
-0.17422406 -0.264534 0.19035034 -0.027354268 0.4106452 -0.6017113 0.1081671 0.0884679
0.024071682 0.34311873 0.3979981 0.24050204 0.37242737 -0.11121355 -0.49674332 -0.14704344
-0.6553489 -0.11365119 0.04165159 0.15130362 0.07789713 0.04335662 -0.25165325 -0.18246439
-0.15838847 0.31783685 -0.052097112 0.1474784 0.22737221 0.08107404 0.047203783 0.30478626
-0.38992965 0.07308626 -0.17248479 0.32283497 0.06467816 -0.040283766 0.042380597 -0.15989466
0.34667334 0.26089007 -0.14808975 0.014830353 0.5487528 0.029377447 -0.23541856 -0.090560794
0.12906201 0.007604409 -0.91974545 -0.112000786 -0.24714279 -0.0014874953 0.294795 0.14607504
0.012311851 0.049729936 -0.281064 0.4169375 -0.1965463 0.21873033 -0.07416544 -0.06754646
0.10112917 0.06001446 -0.12163232 0.12497907 0.044452175 0.004525507 -0.081946686 -0.0103929555
0.18547021 0.10736294 0.12560077 0.18041155 0.11121243 0.014305399 0.17973056 -0.058612235

resolve.4.layers.0.conv0.bias f4 [16]
00000000: 4deb dfbd 6ff4 c0be f108 1d3c 7f93 05be
00000010: c650 51be 3d5b d93b d679 083e a63a 97be
00000020: e704 763d fb6a 163e ab0c 8abd 0039 643d
00000030: da3c ab3e db26 723d 1ac3 76bd b54b debd
-0.10933552 -0.37686488 0.009584651 -0.13044547 -0.20440969 0.006633191 0.13327727 -0.29536933
0.06006327 0.14689247 -0.067406975 0.055718422 0.33444864 0.059119087 -0.060244657 -0.10854284
