generators/n5.ckpt (torch, 270638 bytes, 235 tensors)

resolve.0.weight f4 [5, 1, 7]
00000000: d354 0e40 137e 0b40 0c89 a83f adb2 c23f
00000010: 03a3 853f d425 823f 4bb1 11bd 88ec 373d
00000020: f856 80bf 5785 67bf 91e7 e83f fd7d 4040
00000030: 1047 fd3f 5186 b2bf 453e a0bf 9fff 3bbe
00000040: d85a 0940 759b 2940 906a 563f f66b f5bf
00000050: 016f 2dc0 33b1 aebf 22fd 82be b9ed 6e3f
00000060: 71ea 20bf 94a7 07c0 ed95 10c0 36e8 5b3e
00000070: cc3e 513c ae2b f5bf a33e f3bf 2c71 0ec0
00000080: 4cc3 30bf 4d8b b8be ad2e 2ebf
2.2239273 2.17957 1.3166823 1.5210778 1.0440372 1.0167794 -0.03556947 0.04490331
-1.0026541 -0.90437835 1.8195668 3.0076897 1.9787312 -1.394724 -1.2519003 -0.1835923
2.1461697 2.6501133 0.8375635 -1.9173572 -2.7099001 -1.3647827 -0.2558375 0.93331486
-0.6285773 -2.1196032 -2.2591507 0.214753 0.01277132 -1.9153955 -1.900349 -2.2256575
-0.69048 -0.36043778 -0.6803997

resolve.0.bias f4 [5]
00000000: 1f8c c83d d383 29bd d7bd 863e 8aaa 43bc
00000010: ed29 f2bc
0.09792351 -0.041385483 0.2631671 -0.011942515 -0.029561007

resolve.2.layers.0.conv0.weight f4 [5, 5, 3]
00000000: f61a a23e f4ad 483e 95a2 8f3e fb5e 003f
00000010: 24fd 9a3e 02f5 02bf 497e d63d 3012 e43d
00000020: e56e 3c3e 7ee1 76be a2c1 18be a874 173f
00000030: 6e5b 20bf 9db8 3e3d e372 113e daf9 883b
00000040: 3faa cb3d 7d25 8ebb 6675 703e 1591 84be
00000050: 9aef 94be 313f 7e3d 46c8 d03e 553a 883e
00000060: e6db 0abe af1b d7bd 35fa ef3e daf0 23be
00000070: 5726 10be 541f 363c 88a5 a43e 8c27 4f3e
00000080: 12df 893e 066d 0fbf ffea 28bf 25fc 52be
00000090: d7f1 743e 0187 533e 3fb4 8c3e bc8a d33d
000000a0: 12d1 a0be 7fe7 b6be 420a 1ebd bf8f a2be
000000b0: 97d3 d63d d13e 973c eef1 dcbb 1d42 10be
000000c0: 9e61 293d 564e 443f 0fec ccbe 4d11 3cbf
000000d0: 1821 113f de2f d33e a3ba 36bf 3da4 bdbe
000000e0: adda 443f bc04 d63e 5d8a 263e 9196 7dbe
000000f0: 21d9 0cbf bae5 b7be eb5b bfbe a752 89be
00000100: 0465 a1bc c907 cabc 64d7 a7be 608f 69be
00000110: 3414 b6be 3446 a93e e0e5 0d3f 69fc 74bc
00000120: 3e82 5b3f 5e8f bd3e 23c7 fe3d
0.31661195 0.19597608 0.28053728 0.5014493 0.30271256 -0.511551 0.10473306 0.111362815
0.18401678 -0.24109456 -0.14917615 0.5916238 -0.6263951 0.04656278 0.14203982 0.0041801753
0.09944581 -0.004337965 0.23482284 -0.2589194 -0.2908905 0.062071983 0.40777797 0.26607004
-0.13560447 -0.10503327 0.4687058 -0.16009846 -0.14077125 0.011115868 0.3215754 0.2022993
0.26928002 -0.5602573 -0.65983576 -0.20603998 0.2392038 0.20656969 0.27481267 0.10329196
-0.31409508 -0.35723493 -0.038584 -0.31750295 0.10489576 0.01846257 -0.0067427075 -0.1408772
0.04135286 0.7668203 -0.40023848 -0.734639 0.5669112 0.41247457 -0.71378535 -0.37039366
0.7689617 0.41800487 0.16263719 -0.24764468 -0.5501881 -0.35917455 -0.37374815 -0.2682087
-0.019701488 -0.024661915 -0.32781518 -0.228086 -0.3556229 0.33061373 0.55428886 -0.014952757
0.8574561 0.37023443 0.12440326

resolve.2.layers.0.conv0.bias f4 [5]
00000000: c74d 72be 052c 9dbc 4747 bfbc cdf6 f9bb
00000010: 8e6d 8d3c
-0.23662482 -0.01918603 -0.023349417 -0.007628298 0.017264154

resolve.2.layers.0.bn0.weight f4 [5]
00000000: 0000 803f 0000 803f 0000 803f 0000 803f
00000010: 0000 803f
1.0 1.0 1.0 1.0 1.0

resolve.2.layers.0.bn0.bias f4 [5]
00000000: 0000 0000 0000 0000 0000 0000 0000 0000
00000010: 0000 0000
0.0 0.0 0.0 0.0 0.0

resolve.2.layers.0.bn0.running_mean f4 [5]
00000000: 0000 0000 0000 0000 0000 0000 0000 0000
00000010: 0000 0000
0.0 0.0 0.0 0.0 0.0

resolve.2.layers.0.bn0.running_var f4 [5]
00000000: 0000 803f 0000 803f 0000 803f 0000 803f
00000010: 0000 803f
1.0 1.0 1.0 1.0 1.0

resolve.2.layers.0.conv1.weight f4 [5, 5, 1]
00000000: c3c3 1f3f 6760 6dbd 29cb 43bd c8f4 623e
00000010: 50b5 c8bd a588 d33e 76c9 39be f7b5 7ebe
00000020: b509 3e40 dbb5 263e 2cfc a03f e536 1e3f
00000030: bce5 45be 0a14 9d3f 2c92 123e be6a 0bbf
00000040: 9980 29bf 2a5e fabe 2c39 92be 008a 203f
00000050: 2bc1 22bd 816d 67bf 1a46 503e f1c2 04c0
00000060: dc6a 673c
0.62408084 -0.057953265 -0.04780117 0.22163689 -0.098002076 0.4131519 -0.18143257 -0.24874102
2.9693425 0.1628031 1.2576957 0.6180251 -0.19325918 1.227174 0.14313573 -0.5445975
-0.6621185 -0.48899966 -0.28559244 0.6271057 -0.039735 -0.90401465 0.20339242 -2.0743983
0.014124598

resolve.2.layers.0.conv1.bias f4 [5]
00000000: 78d9 29bd b797 3a3e 3c06 db3e c20c 7d3e
00000010: 440f 2dbd
-0.04146716 0.18221937 0.42778194 0.24711898 -0.042250887

resolve.2.layers.0.bn1.weight f4 [5]
00000000: 0000 803f 0000 803f 0000 803f 0000 803f
00000010: 0000 803f
1.0 1.0 1.0 1.0 1.0

resolve.2.layers.0.bn1.bias f4 [5]
00000000: 0000 0000 0000 0000 0000 0000 0000 0000
00000010: 0000 0000
0.0 0.0 0.0 0.0 0.0

resolve.2.layers.0.bn1.running_mean f4 [5]
00000000: 0000 0000 0000 0000 0000 0000 0000 0000
00000010: 0000 0000
0.0 0.0 0.0 0.0 0.0

resolve.2.layers.0.bn1.running_var f4 [5]
00000000: 0000 803f 0000 803f 0000 803f 0000 803f
00000010: 0000 803f
1.0 1.0 1.0 1.0 1.0

resolve.2.layers.1.conv0.weight f4 [5, 5, 3]
00000000: a84e 8abe eb98 00bf c516 2bbc c0f8 ca3e
00000010: cd8b 433f 9481 0c3f b60e 15be bfa1 51be
00000020: 4a3e ebbd 7df1 49be e96d 263f cd17 de3e
00000030: 6fbd 033f e70d 913e 56e7 5c3f 3e38 693e
00000040: 4d79 e23e 6e0b 013f 86a5 cf3d 466f c73e
00000050: 10d6 1e3e 92b8 31be 56bd 083d 66a3 3abc
00000060: 340c f2bd 0a67 dabd 10d8 dd3d 732b a83e
00000070: bf93 9b3e 42e9 d8bd 3bfe 8cbe f4fb ddbd
00000080: c2c1 8d3d 7c6f bfbc 9d38 13bf 52f1 dc3e
00000090: 35f2 ac3e b6f5 f13e 361c 273f ac76 2a3e
000000a0: f378 aa3e 545b cabe 577e 24bd 1011 213f
000000b0: ccae e1be 21f3 513e 5ca3 ab3e a5d2 f53d
000000c0: fab7 463e 384a 5f3e 4a20 1fbf 7b02 85be
000000d0: 4215 983d 8d33 3c3c 2db2 dfbe 1977 1dbd
000000e0: 34a6 3dbe cf1e 10be 8f01 423e b04f 983e
000000f0: f251 2bbd 364b 8f3d a158 8ebe 1edc 5b3f
00000100: fee5 86bf dc59 8b3f 8e30 debc d048 edbb
00000110: 3c77 943e 59f6 b4bd b8c5 d83c 1de6 78bc
00000120: 566c 96be 2c6d f73e 558a d6be
-0.27013135 -0.50233334 -0.01044244 0.39642906 0.76385194 0.5488522 -0.14556393 -0.20471857
-0.1148649 -0.19721027 0.6501146 0.43377534 0.5146093 0.2833092 0.8629049 0.22775361
0.4423317 0.50408065 0.10138993 0.38952082 0.15511346 -0.17355564 0.03338369 -0.011391496
-0.11818734 -0.106641844 0.10832226 0.3284565 0.3038616 -0.105913654 -0.27537712 -0.10839072
0.06921722 -0.02336859 -0.5750826 0.43152863 0.3377854 0.47257775 0.6527742 0.16646832
0.33295402 -0.39522803 -0.04015955 0.6291666 -0.44078672 0.20502903 0.3352307 0.12003068
0.19406119 0.21805656 -0.62158644 -0.25978455 0.074259296 0.0114869 -0.43690625 -0.03844366
-0.18520433 -0.14074253 0.18945907 0.29748297 -0.041826196 0.06996767 -0.27801993 0.8588275
-1.0538938 1.0886798 -0.027122762 -0.007241346 0.2899722 -0.088360496 0.026461467 -0.015191582
-0.2937953 0.4832548 -0.41902414

resolve.2.layers.1.conv0.bias f4 [5]
00000000: 1c75 99be 4d2f 8c3e ccf8 2a3f 1911 35be
00000010: acfa 7ebe
-0.2997216 0.27379838 0.66785884 -0.17682303 -0.24900311

resolve.2.layers.1.bn0.weight f4 [5]
00000000: 0000 803f 0000 803f 0000 803f 0000 803f
00000010: 0000 803f
1.0 1.0 1.0 1.0 1.0

resolve.2.layers.1.bn0.bias f4 [5]
00000000: 0000 0000 0000 0000 0000 0000 0000 0000
00000010: 0000 0000
0.0 0.0 0.0 0.0 0.0

resolve.2.layers.1.bn0.running_mean f4 [5]
00000000: 0000 0000 0000 0000 0000 0000 0000 0000
00000010: 0000 0000
0.0 0.0 0.0 0.0 0.0

resolve.2.layers.1.bn0.running_var f4 [5]
00000000: 0000 803f 0000 803f 0000 803f 0000 803f
00000010: 0000 803f
1.0 1.0 1.0 1.0 1.0

resolve.2.layers.1.conv1.weight f4 [5, 5, 1]
00000000: 5706 87be 52df 033f 71cf 943e bdad 3c3f
00000010: d69d be3c 90a3 64bd 7e47 1b3e 4701 6abe
00000020: 4b41 12be c279 8cbf 809c 6d3e 8144 5abe
00000030: 9c71 b8be cc37 243e 148d 9e3c 858d 3a3c
00000040: ada1 fabc 0de3 8d3e 756a c13e 0eab cb3e
00000050: 6786 ed3e 7ac9 adbe b8b6 c63c 1820 7e3d
00000060: 1b0e 96be
-0.26372024 0.51512635 0.29064515 0.73702604 0.023268621 -0.055820048 0.15163991 -0.2285205
-0.1428272 -1.0974658 0.23204231 -0.21315195 -0.36024177 0.1603691 0.01935438 0.01138628
-0.030594671 0.27712288 0.37776533 0.39778942 0.46391603 -0.33942777 0.024257049 0.062042326
-0.29307637

resolve.2.layers.1.conv1.bias f4 [5]
00000000: 81dd 15bf 6c12 6f3e 522f 51bc bded 043e
00000010: 5775 ce3e
-0.58541113 0.23346871 -0.01276763 0.12981315 0.40323898

resolve.2.layers.1.bn1.weight f4 [5]
00000000: 0000 803f 0000 803f 0000 803f 0000 803f
00000010: 0000 803f
1.0 1.0 1.0 1.0 1.0

resolve.2.layers.1.bn1.bias f4 [5]
00000000: 0000 0000 0000 0000 0000 0000 0000 0000
00000010: 0000 0000
0.0 0.0 0.0 0.0 0.0

resolve.2.layers.1.bn1.running_mean f4 [5]
00000000: 0000 0000 0000 0000 0000 0000 0000 0000
00000010: 0000 0000
0.0 0.0 0.0 0.0 0.0

resolve.2.layers.1.bn1.running_var f4 [5]
00000000: 0000 803f 0000 803f 0000 803f 0000 803f
00000010: 0000 803f
1.0 1.0 1.0 1.0 1.0

resolve.2.layers.2.conv0.weight f4 [5, 5, 3]
00000000: 2f70 433e df1e 58be 9b40 363d 79ca ecbe
00000010: 28aa d03f 76da aabe be30 95be 4d15 6b3f
00000020: 7323 183f 1e61 63bd 7e9d 75bc fbc7 cbbd
00000030: e0fc ea3d ae5c 40bd f425 78bd 47ea 093d
00000040: 2b17 71be 76a3 e63e 420f 1f3d d4af 7f3e
00000050: 06a6 82be f3fd 82be 9737 4cbe 3724 8d3e
00000060: 9692 0bbc 682e d83d 4f8a a3be ae99 a4bc
00000070: f3e6 293f 4be2 0fbe 3330 d5be 5e21 b03e
00000080: 2ee1 fc3d c3f8 323c eb4f b0bd 55bd 30be
00000090: 6a72 873d 798c c4ba 4485 253e 3e01 5c3e
000000a0: 13c4 18be 3fcd 3cbc 116e f63e 2999 87be
000000b0: c157 613e 2e49 be3e 7be1 b8be ad4c 803e
000000c0: 322c 08be 71ec 8b3d c483 12be 25ce fa3d
000000d0: 36e0 deba 1b23 f23d 2b81 e43d 3406 ff3d
000000e0: b97e 3a3c 0faf b3be c08a c9bd 69c3 f3be
000000f0: 5593 cb3d c7b2 963d 427e 033e 085e 9f3e
00000100: 4630 c9bf abfe b5be 4ce7 04be ca9d b8be
00000110: 69cd b4be 698b 55bd 6884 823e 0044 74be
00000120: 6ae3 c73d 4afd d33d f00e 8b3e
0.19085763 -0.21105526 0.044495206 -0.46248224 1.6301928 -0.33369797 -0.2913875 0.9182938
0.5942909 -0.05551254 -0.014991162 -0.099502526 0.11474013 -0.046963386 -0.06058307 0.03367069
-0.23543994 0.45046586 0.03883291 0.24969417 -0.2551729 -0.25584373 -0.19943081 0.27566692
-0.0085188355 0.10555726 -0.3194146 -0.020092811 0.66368026 -0.14051168 -0.41638336 0.34400457
0.12347637 0.010923567 -0.08608993 -0.17259724 0.066136196 -0.0014995477 0.16164118 0.21484849
-0.14918546 -0.011523544 0.4813085 -0.2648404 0.22006132 0.37165207 -0.36109528 0.250585
-0.13298109 0.06832207 -0.14308077 0.1224635 -0.0017004076 0.11823102 0.11157449 0.12452355
0.011382752 -0.35094497 -0.098409176 -0.47610024 0.09940211 0.07358318 0.12841132 0.31126428
-1.5717857 -0.3554586 -0.12978858 -0.36057884 -0.35312966 -0.052134905 0.25491643 -0.23854065
0.09760173 0.103510454 0.27159834

resolve.2.layers.2.conv0.bias f4 [5]
00000000: 43af 573e 4445 fb3d 5d04 8f3d 43ce fabd
00000010: c47a d8bd
0.21062951 0.12269071 0.06983254 -0.122463726 -0.10570291

resolve.2.layers.2.bn0.weight f4 [5]
00000000: 0000 803f 0000 803f 0000 803f 0000 803f
00000010: 0000 803f
1.0 1.0 1.0 1.0 1.0

resolve.2.layers.2.bn0.bias f4 [5]
00000000: 0000 0000 0000 0000 0000 0000 0000 0000
00000010: 0000 0000
0.0 0.0 0.0 0.0 0.0

resolve.2.layers.2.bn0.running_mean f4 [5]
00000000: 0000 0000 0000 0000 0000 0000 0000 0000
00000010: 0000 0000
0.0 0.0 0.0 0.0 0.0

resolve.2.layers.2.bn0.running_var f4 [5]
00000000: 0000 803f 0000 803f 0000 803f 0000 803f
00000010: 0000 803f
1.0 1.0 1.0 1.0 1.0

resolve.2.layers.2.conv1.weight f4 [5, 5, 1]
00000000: fabf d73d 1bc2 9fbe 7e8e 083e 1e54 cebe
00000010: c6e9 3b3d e129 623e fa84 2d3e 26ac 493e
00000020: b18c 62be 2818 7b3d 72ec 483f 7b8e b73e
00000030: 7de4 783d 801b 2abc 36b7 35bf 03a5 863d
00000040: d5bf 443f 482b 83bd ad85 3e3d 8f24 c63e
00000050: 3267 ec3c 2d7f 3fbe 4385 f4be d9c4 513e
00000060: f937 48bd
0.105346635 -0.31202778 0.13335606 -0.4029855 0.04587724 0.22086288 0.16945258 0.19694576
-0.22123982 0.061302334 0.78485787 0.3585089 0.06076478 -0.010382533 -0.7098268 0.06574442
0.7685521 -0.064047396 0.046514202 0.38699767 0.028857801 -0.18700857 -0.4775792 0.20485248
-0.048881505

resolve.2.layers.2.conv1.bias f4 [5]
00000000: 101b f23c 627c 8c3d cb21 983d 62e2 92be
00000010: e065 12bd
0.02955392 0.06859662 0.074283205 -0.2868834 -0.035741687

resolve.2.layers.2.bn1.weight f4 [5]
00000000: 0000 803f 0000 803f 0000 803f 0000 803f
00000010: 0000 803f
1.0 1.0 1.0 1.0 1.0

resolve.2.layers.2.bn1.bias f4 [5]
00000000: 0000 0000 0000 0000 0000 0000 0000 0000
00000010: 0000 0000
0.0 0.0 0.0 0.0 0.0

resolve.2.layers.2.bn1.running_mean f4 [5]
00000000: 0000 0000 0000 0000 0000 0000 0000 0000
00000010: 0000 0000
0.0 0.0 0.0 0.0 0.0

resolve.2.layers.2.bn1.running_var f4 [5]
00000000: 0000 803f 0000 803f 0000 803f 0000 803f
00000010: 0000 803f
1.0 1.0 1.0 1.0 1.0

resolve.2.layers.3.weight f4 [10, 5, 12]
00000000: 56c4 9f3e 443f 1d3e 1cb2 fdbd d5cb 9ebd
00000010: 024b 6dbd 5097 8c3c fd17 753c 9442 153d
00000020: bbde 403e cc65 823c 8337 de3d 6381 65be
00000030: 3287 e0be 9c5b e9bd 9c56 12be 134b 73be
00000040: 4560 263d 695c a93e 0925 953e aafc 9b3d
00000050: aed8 8b3e ef59 803d cb4f 09be 8c46 90bd
00000060: 49d3 283f 0856 75be 2017 43bf 829a 33bf
00000070: bb0e 413f 107b 2d3f f5d7 eebc fa8c 82be
00000080: a949 ebbd 60f8 3b3e 8983 38be 5709 80be
00000090: 4ea5 9cbe 3d25 6b3e 6d28 e23e ae31 183f
000000a0: af16 4c3e 064d 8dbe bf28 153c 0f6f 523d
000000b0: 86ba aabd 7cae 70be 6843 cf3d a86a a33e
000000c0: cc2c b8be 6685 bbbe 2b89 44be 6ebb bebd
000000d0: 9fd8 75bd b991 2b3d 4dbd 163d 3de8 9fbc
000000e0: a555 5cbd 30d9 91bd 09a1 32bc 6a4a 353d
000000f0: 04b8 353f 66bf b53e c008 023e 6e6f 8bbd
00000100: 03a0 d9be 2d4c a4be 2f1e f8be b195 bcbe
00000110: 5de3 f5bd 5e85 3b3e 72ca 283e 35c7 293e
00000120: 2f35 debe 21b3 88be 4aa3 09bf 8d90 bcbe
00000130: 2bf0 0fbc 585f 0e3f d957 e23e 6517 a1bd
00000140: 252b 0dbd 9268 fabc 4084 553e 8fec 083f
00000150: aa5c d4bb fafe 7d3e b022 783e 04bc b93e
00000160: c1fa 9abb 2958 87bd 6d56 f7be 1662 403e
00000170: f99c 1b3e 6aa7 d9bd 71d2 4abe 86b1 8bbe
00000180: 325f fcbe 8dad 62be 2ff2 38be a7a3 46bc
00000190: 29bb be3e 283c 9e3e 96f7 f43e cd7e 723e
000001a0: f2de f23d 9300 663d 913b bbba d8cf 7cbd
000001b0: 23ab aabe ef50 5cbe d1dd a6bc 0def 99bd
000001c0: 63d3 71bc 2db7 a33c de57 d13c 339f 233e
000001d0: 0c67 b03d 354f 36be 6835 69be 0e93 76be
000001e0: aaa9 9abc 5aea 83bd 34b4 4bbc 2f67 24be
000001f0: 3f2f b7bd ad81 57be 1293 a7be 02da c3be
00000200: b502 b2be c6fd bebe f237 68be ad26 fcbe
00000210: e581 11bd de22 96bd da64 9fbd 518c a1bd
00000220: 5bb6 43bd f07a babd f385 c8bd 1b90 1c3d
00000230: f4a0 c03b c123 c53c 76c9 1b3d fefe 97bd
00000240: 9dbe c93c bcb9 7c3d 2fa5 663d 669c 663d
00000250: 9706 1b3d c353 6c3d c881 693d 4c2e 42bd
00000260: f99b 2fbd 3753 02bd a11b 72bd 92ca 293c
00000270: 6a01 133a 179c 8a3c 4206 11bd 8415 0b3c
00000280: af77 a33c f69d 433d 1264 1d3e 7d2d 333e
00000290: b552 543e 7aab 493e 9d6f 0a3e 4db8 123e
000002a0: df22 c03d a18b f13d c67a 543d 3b67 143e
000002b0: 72fb 7b3e df0c 3d3e 512c 6e3e fe77 4c3e
000002c0: b8f0 943e e0c0 8b3e 32c9 5a3e eab6 243e
000002d0: eb1d 323d fef7 293e 5c2c 433b acf4 473c
000002e0: e476 02be a8a5 67be eb74 cdbd d75f 86bd
000002f0: 8712 333d 83b9 4d3e 9f35 003e 74c9 09be
00000300: e105 943e f7a6 c8bc b964 543d 1d69 fa3d
00000310: 131a 86bd bc2f 293d 93eb 1cbd 056a 2d3d
00000320: 9229 e93d baf6 bbbc 8c19 c2bd 3750 ec3c
00000330: 6da7 cfbc 9dbd 203e e0a6 573e 9126 c83c
00000340: a38d 003e fb74 34bd c12e 7d3d 7a4f 813b
00000350: 54b1 81bd 031c 413e 939b b53e a9ca 243e
00000360: 8104 54bd 1ea5 76be 0894 1b3d 1dd6 50bd
00000370: 69d2 633e 855c 9e3e 86b5 773d dd5a 143c
00000380: 42e5 0bbe e5ae d5be f385 31be 84c1 553e
00000390: 0033 b23d f2c5 f3bc 62e3 f8bd 4b70 083d
000003a0: ce56 9fbd dece 023e 04a0 433e ee7d 033e
000003b0: 4497 c0bd a861 cbbc 6a3a 263d d66d 2d3d
000003c0: 4d88 4d3d 6faf aabc c7da 1bbd 60ba d13d
000003d0: d342 0cbd 9c97 b0bd 8530 aabd 844c efbd
000003e0: 9b99 403d bc42 873e cb0e 763c 446a 3cbe
000003f0: 1299 9b3e cb1c cdbd 0608 3ebe 7717 9dbe
0.3120448 0.15356165 -0.12387487 -0.077537216 -0.05793286 0.017161995 0.0149593325 0.036440447
0.18834965 0.015917681 0.10850432 -0.22412638 -0.43853146 -0.11394426 -0.14290851 -0.23759107
0.040619154 0.33078316 0.29129818 0.07616551 0.2731375 0.062671535 -0.13409345 -0.07044706
0.65947396 -0.239586 -0.7620716 -0.70157635 0.754131 0.67765903 -0.02915571 -0.25498182
-0.11488659 0.18356466 -0.18018927 -0.25007126 -0.30594867 0.22963424 0.44171467 0.59450805
0.19930528 -0.27597827 0.009103953 0.051375445 -0.08336358 -0.2350406 0.101202786 0.3191731
-0.35971677 -0.36625212 -0.1919295 -0.09313093 -0.06002104 0.04188702 0.036801625 -0.01951992
-0.053792614 -0.07121503 -0.010902652 0.04426042 0.7098391 0.35497588 0.1269865 -0.06808363
-0.42504892 -0.32089368 -0.48460528 -0.36832955 -0.12006257 0.18312594 0.16483477 0.16579898
-0.4339995 -0.26699165 -0.53764784 -0.36829033 -0.008785288 0.55614233 0.44207647 -0.0786579
-0.034464974 -0.030567441 0.2085123 0.5348596 -0.006480773 0.24804297 0.24231982 0.36276257
-0.004729599 -0.06608612 -0.48308125 0.18787417 0.15196599 -0.10627635 -0.1980684 -0.27283877
-0.49291378 -0.22136517 -0.18061136 -0.012123979 0.37252167 0.3090527 0.47845143 0.23681183
0.1185893 0.05615289 -0.001428472 -0.061721653 -0.33333692 -0.21515249 -0.020369442 -0.075162984
-0.014759871 0.019984806 0.025554594 0.15978698 0.08613405 -0.17803653 -0.22774279 -0.24079534
-0.01887973 -0.064411834 -0.0124331005 -0.16054986 -0.08944558 -0.21045561 -0.32729393 -0.38252264
-0.3476769 -0.3730299 -0.22677591 -0.49248257 -0.035524268 -0.07330869 -0.07782908 -0.07888091
-0.04778133 -0.0910548 -0.09791174 0.038223367 0.005878562 0.0240649 0.038033925 -0.07421683
0.024627024 0.061700568 0.056309875 0.056301497 0.03784808 0.05769707 0.057008535 -0.047407433
-0.042873356 -0.03181764 -0.05910838 0.010363238 0.00056078157 0.016920133 -0.03540636 0.008489016
0.01995453 0.047758065 0.15370205 0.17497821 0.20734675 0.1969432 0.1351914 0.14328118
0.09381651 0.1179421 0.0518749 0.14492504 0.24607638 0.18461941 0.23259093 0.19967648
0.29089904 0.2729559 0.21365812 0.16085401 0.043485563 0.16598508 0.002978108 0.01220433
-0.12740666 -0.22621787 -0.10032066 -0.06561249 0.04371884 0.20090298 0.12520455 -0.13455755
0.28910735 -0.024493678 0.05185387 0.1222708 -0.06547942 0.04130529 -0.0383106 0.042337436
0.11384882 -0.022944797 -0.09477529 0.028846843 -0.02534839 0.15697332 0.21059752 0.024432452
0.1255403 -0.044056874 0.061812166 0.003946242 -0.06332651 0.18858342 0.35470256 0.16092934
-0.051762108 -0.24086425 0.03798297 -0.050985444 0.22248234 0.30929962 0.06047585 0.009054867
-0.13661674 -0.41734996 -0.17336254 0.20874602 0.08701134 -0.029757474 -0.12152745 0.033310216
-0.077802286 0.12774226 0.1910401 0.12841007 -0.09403852 -0.02482684 0.04058305 0.042341076
0.050178815 -0.020835606 -0.03805044 0.10240626 -0.034243416 -0.08622667 -0.083100356 -0.11684516
0.04702149 0.26418102 0.015018175 -0.18399912 0.3039022 -0.100152574 -0.18557748 -0.30681965

resolve.2.layers.3.bias f4 [10]
00000000: 7b98 203f a4b7 1abe 90e6 223c 7a30 c33e
00000010: b3c2 58be 22a3 b63d c0b1 b4be 01de 0abe
00000020: 4d6c 0d3c 0f72 ab3d
0.62732667 -0.15109116 0.009942666 0.38122922 -0.21168022 0.08917834 -0.35291862 -0.1356125
0.008631778 0.08371364

resolve.3.layers.0.conv0.weight f4 [10, 10, 3]
00000000: 4bac b43e 2b00 93be 66af 203f aa91 0c3e
00000010: 1bb9 59be e4cf d8bd 0e16 87bd 51f2 f63c
00000020: 1ae4 953c 1cb9 553d b252 1d3e 3a4f eb3e
00000030: b7e6 d4bd b5bc ab3d db44 373f 0ac2 cabc
00000040: 52e3 363d 6ddf a03e 896c c43c 5855 79be
00000050: 67c7 f93d 2586 08bf e2ff 96be 57b3 8fbe
00000060: 97a4 9e3d a00e ba3d 6f5b adbd db59 253e
00000070: 215c aabd 0446 3c3d 54a3 3fbe 5357 83bd
00000080: 8598 a1bd dbaa 3c3e 527d b1bd 08ff b23d
00000090: 5a5f 14bd e4dd 493d d66e 31bd 154f 033f
000000a0: 50de ff3c 4fc4 b43d 538e 0a3e 9d70 a9be
000000b0: ce74 ef3e 9bcd 4cbe 2f3f 063e 722e 983d
000000c0: f2fd 3ebc a1e2 023e e839 1c3d e171 12be
000000d0: 7b44 87be f788 39be f53c 25bd ca10 4c3e
000000e0: 86c8 bd3c 4ae4 1dba af0e 1b3d 80a5 11bd
000000f0: b82e 43be 7c85 113f 64d5 70be 0a71 eb3d
00000100: e950 be3e 7b16 3ebe 043d 973c 5379 82bd
00000110: 1682 bebc a921 09bf a22e cb3d f634 83be
00000120: 33a7 0ebf afc4 093f 214e 0dbf 326f 9a3e
00000130: 6938 bfbe 00f2 5c3f f6a0 1cbe c88b 513c
00000140: ad93 53bd 39d2 f3bc a476 313f bd74 013f
00000150: 2135 653e bc96 7b3e e796 2abf 7b41 10be
00000160: 1863 313e 147c f43d 6f42 e63d bb01 9dbd
00000170: 7118 663e f998 9fbe 7bbc 6a3d e609 5a3e
00000180: 8763 563c 6984 0a3a e94f 98bd b2b4 4fbe
00000190: 1ec5 423e 5b22 a73e b5b3 a7bd ff1e bd3e
000001a0: 47c1 433f 5437 d93e 5919 32be 7022 893d
000001b0: 7cf1 573d 0b8a 28be f81d 7e3d e057 d1bd
000001c0: c0c6 003f 12c3 7bbe 04d8 87be f549 a4be
000001d0: d85d 66bb 3594 1abe e3f0 efbe 6e50 9c3a
000001e0: 67c4 cdbc 4446 4a3e 74d4 f7bd ebc5 31be
000001f0: 89bf 1e3f 8f13 d7bd 3a79 ae3d d189 02be
00000200: 1a63 2b3a 8004 bd3d f06a c13d a559 28bd
00000210: 2ff4 c03c 55df 203e af87 1e3e 803b 403e
00000220: c82e c2bd d0d8 7a3d bc22 31bd fd8f 2c3e
00000230: 03ca 32be b597 063d d622 45bd 8a98 8c3d
00000240: bc21 6c3c 0b4e b7be 8385 303e 8dd6 c03c
00000250: ef62 043e 08f6 033e 6f1c 93be a4b7 afbd
00000260: 2ab3 8e3e 8654 3e3d 03e7 343e 095f a13e
00000270: e1f3 d8bd 60bd 883e ae72 f8bd 5f7e 5f3d
00000280: 9685 9abc 6f00 df3e 6e12 abbd ddb4 a13e
00000290: 4c27 f8be 9300 803d 885c 87be 127f 83bf
000002a0: 9c0e b13d ec1c 31bd 6358 5abc 11b6 443e
000002b0: 31af b13e 1d9d 8bbf 0b54 8abe c1c7 6a3f
000002c0: 2590 0f3f 9870 a2bd 0589 38bf c46e fd3e
000002d0: e9ea f4bc b732 94b9 2e5b d4bd 3984 373d
000002e0: ac03 45bf 8a50 7d3e 5e03 d1bd ff79 ec3e
000002f0: 39f8 04be cb6c 88be 67e1 58bf e01d 99bd
00000300: a0c3 593e 9fea a9be 5a09 bcbd 78f6 60bc
00000310: aa65 a53e b86b e43e d47e 4a3e 55a9 ebbd
00000320: 3184 903e a738 a23d ad9c b33d 086b 563d
00000330: 68bb abbe 110c 4d3e 2895 aebd 87b7 2f3e
00000340: 0c2f 87be 12de 5c3e 8b55 13bc e793 c23d
00000350: 67ea c4bc de18 503e 50e0 163d 8cbc 5c3d
00000360: a815 d1bd 4e70 9d3d c20d d73c dfa3 03bd
00000370: 39f8 09be 80d3 f8be 865a 1f3e bdeb 9ebc
00000380: 1b04 dd3d 0860 913e 1b76 bbbe 801d c93d
00000390: 9329 8e3c 8c62 97bd 5ad3 a53e 7a6a 0a3e
000003a0: 6fcc d83d 510a 2ebb f773 433d e377 ffbb
000003b0: 2e54 8ebe 96c1 d93c 467a 0a3e f082 db3c
000003c0: 41d2 4cbe 08fb 06be 7647 a03e de18 f23e
000003d0: 9674 efbe c840 01be f65a 4f3e 0825 273d
000003e0: 1705 6cbe 75b5 d8be 8705 b53d e787 7a3e
000003f0: 829d 273c ae4f 493d bd02 d6bd 699f 40bf
0.352877 -0.28711066 0.62767637 0.13727441 -0.21262018 -0.10586527 -0.065960035 0.030144842
0.018297244 0.052178487 0.15363577 0.45958883 -0.10395568 0.083856024 0.7158944 -0.024750728
0.044650383 0.3142046 0.023977535 -0.24348962 0.12196236 -0.5332969 -0.29492098 -0.28066513
0.07746237 0.09084821 -0.08464705 0.16147558 -0.083183534 0.04596521 -0.18714648 -0.0641314
-0.07890419 0.18424551 -0.08666481 0.087400496 -0.036223747 0.049283877 -0.043318592 0.51292545
0.031233937 0.088265054 0.13530855 -0.3309373 0.46768802 -0.20000307 0.1311004 0.07430734
-0.011657225 0.12781765 0.03814116 -0.14301254 -0.26419434 -0.18118654 -0.040341336 0.1992828
0.023166906 -0.00060230924 0.0378558 -0.035558224 -0.1906079 0.56844306 -0.23518902 0.1149617
0.37171105 -0.18563263 0.018461712 -0.06370797 -0.02325539 -0.53566986 0.09921004 -0.25626343
-0.55723876 0.5381574 -0.5519734 0.3016296 -0.37347725 0.8630676 -0.15295777 0.012789674
-0.051654506 -0.029763328 0.69321656 0.50568753 0.22383548 0.2456922 -0.6663651 -0.14087479
0.17322958 0.119377285 0.1124314 -0.07666346 0.22470261 -0.31171396 0.057308655 0.21292838
0.013085253 0.0005284013 -0.07437117 -0.20283774 0.19020507 0.326434 -0.08188573 0.3693771
0.7646679 0.42425025 -0.17392482 0.066960216 0.05272053 -0.16458909 0.0620403 -0.10221839
0.5030327 -0.24586132 -0.26531994 -0.32087675 -0.003515115 -0.15095599 -0.4686347 0.0011925825
-0.025118066 0.19753367 -0.12101069 -0.17360656 0.6201101 -0.105017774 0.08519216 -0.12747885
0.00065378996 0.09229374 0.09444225 -0.041101117 0.023553936 0.15710194 0.15481447 0.18772697
-0.09481579 0.061241925 -0.043246016 0.16851802 -0.17459874 0.032859523 -0.048128925 0.06865032
0.01441234 -0.3580173 0.1723843 0.023539806 0.12928365 0.12886822 -0.2873263 -0.085799485
0.27871066 0.046467327 0.17666249 0.3151782 -0.10593391 0.26706982 -0.121312484 0.054563876
-0.018862527 0.43555018 -0.083531246 0.315833 -0.4846748 0.062501095 -0.26437783 -1.0273154
0.08645365 -0.043240473 -0.013326737 0.19210078 0.34703973 -1.0907322 -0.27017245 0.9171105
0.5607932 -0.07931632 -0.72084075 0.4949857 -0.02989717 -0.00028266545 -0.10368954 0.04480383
-0.7695873 0.24737754 -0.1020572 0.46186826 -0.12985314 -0.26645502 -0.84718937 -0.07476401
0.21266031 -0.33186814 -0.09181471 -0.013730638 0.32304126 0.44613433 0.19774944 -0.11506907
0.28225854 0.07920962 0.08770118 0.052348167 -0.33541417 0.20024134 -0.08524543 0.17159854
-0.2640308 0.21569088 -0.008992563 0.095008664 -0.024037553 0.20321986 0.036835015 0.05389075
-0.10209209 0.07687436 0.026251677 -0.0321387 -0.13473596 -0.48598862 0.15561876 -0.019399518
0.10791799 0.2839358 -0.36613545 0.0982008 0.017353809 -0.07391843 0.3238781 0.1351718
0.105858676 -0.0026556442 0.047718015 -0.007796274 -0.277986 0.026581567 0.13523206 0.026795834
-0.2000208 -0.13181698 0.3130452 0.47284597 -0.46768636 -0.12622368 0.20249543 0.0408068
-0.23048817 -0.4232594 0.08838945 0.24465905 0.010230424 0.049148254 -0.10449741 -0.7524324

resolve.3.layers.0.conv0.bias f4 [10]
00000000: 96df d5be 16b0 003e 1558 5b3e b0a2 4bbe
00000010: 7243 53be 529b 90be 8433 6ebe 37f7 0a3d
00000020: 3d1b 58bd fa34 0ebe
-0.41772145 0.12567171 0.2142032 -0.19886279 -0.20631197 -0.282435 -0.23261839 0.03392717
-0.05276035 -0.13887396

resolve.3.layers.0.bn0.weight f4 [10]
00000000: 0000 803f 0000 803f 0000 803f 0000 803f
00000010: 0000 803f 0000 803f 0000 803f 0000 803f
00000020: 0000 803f 0000 803f
1.0 1.0 1.0 1.0 1.0 1.0 1.0 1.0
1.0 1.0

resolve.3.layers.0.bn0.bias f4 [10]
00000000: 0000 0000 0000 0000 0000 0000 0000 0000
00000010: 0000 0000 0000 0000 0000 0000 0000 0000
00000020: 0000 0000 0000 0000
0.0 0.0 0.0 0.0 0.0 0.0 0.0 0.0
0.0 0.0

resolve.3.layers.0.bn0.running_mean f4 [10]
00000000: 0000 0000 0000 0000 0000 0000 0000 0000
00000010: 0000 0000 0000 0000 0000 0000 0000 0000
00000020: 0000 0000 0000 0000
0.0 0.0 0.0 0.0 0.0 0.0 0.0 0.0
0.0 0.0

resolve.3.layers.0.bn0.running_var f4 [10]
00000000: 0000 803f 0000 803f 0000 803f 0000 803f
00000010: 0000 803f 0000 803f 0000 803f 0000 803f
00000020: 0000 803f 0000 803f
1.0 1.0 1.0 1.0 1.0 1.0 1.0 1.0
1.0 1.0

resolve.3.layers.0.conv1.weight f4 [10, 10, 1]
00000000: 2e0d 853e e22a 223f 2067 0dbd 19da 843e
00000010: 245b 513e 036d 56be 960a 46be aa6c 713b
00000020: 1e5b 083e 7558 643e 445a 6dbe 1cdc 963d
00000030: 0353 66be 4eba e23d 7cb9 aa3d ead2 b83d
00000040: feef 28bd 7128 96be 9843 4abf 79c6 6a3c
00000050: 771f 1d3b 9e01 193c 7e6f 2a3c e705 8b3b
00000060: 1449 fa3c b054 2c3b 814b 74bc 6d18 62bd
00000070: 7014 533c 0c77 08b9 0fc7 093d 2a43 7abc
00000080: 64ac a83d 98c1 f7bc 58d0 163e 9539 28bd
00000090: b2e3 3e3e 1e6a 6bbc 9fb3 153e 8fff 513d
000000a0: fb62 c4be 1f40 7b3d 6aa2 0d3f 5ce3 653e
000000b0: 060d 08bf 4984 2d3e 4291 983e 019a 66be
000000c0: fddb 83be 6c52 2c3e 1395 11be 9622 08be
000000d0: 0421 d7bc a326 aa3e c11b 0c3f cff8 05be
000000e0: 5ad0 07bf a277 1f3f 581d 643e 6f4c 96be
000000f0: cd9a 4abb fdfe 30bc a87a a3bb b27f ad3c
00000100: 7807 e7bc 6b4d dcb8 d789 0bbc e861 5c3c
00000110: aafc 0fbc 3718 05bc cea2 0f3f 3def dbbe
00000120: 9518 8c3c d0ca b9bb 5554 ccbd 257c 693e
00000130: 9c38 623e f181 d7be 107a 0ebd 200f ea3d
00000140: 3351 8d3e da5c 263e 908b 8a3e fa74 79be
00000150: fbc5 c1be f53d 5a3d 11e5 323e 69b6 68bd
00000160: 5a78 0e3f b582 ab3d 02a0 043f 2b1b 65be
00000170: 69c9 953e 19bf a7be ae88 933e 26f5 a93e
00000180: fdc6 823d 169a 943d bb6a c63d 64ce 8ebe
0.25986618 0.63346684 -0.034522176 0.25947645 0.20444924 -0.20940022 -0.19339976 0.003683845
0.13316008 0.22299369 -0.23178965 0.07366201 -0.22492604 0.11070691 0.083361596 0.09024604
-0.0412445 -0.2932773 -0.7900939 0.014329546 0.0023975053 0.0093387645 0.010402558 0.004242647
0.030552424 0.0026295595 -0.01491058 -0.055199075 0.012883291 -0.00013014319 0.033637103 -0.015274802
0.08236006 -0.03024368 0.14727914 -0.04107054 0.18641546 -0.014368562 0.14619301 0.05126911
-0.38356766 0.061340448 0.5532595 0.22450012 -0.5314487 0.16944994 0.29798323 -0.22519685
-0.25753775 0.16828316 -0.14217024 -0.13294443 -0.02626086 0.33232602 0.5472985 -0.13083194
-0.53052294 0.6229192 0.22276819 -0.2935519 -0.0030915022 -0.010802981 -0.004988987 0.021179054
-0.028201804 -0.00010504838 -0.00851675 0.013451077 -0.008788267 -0.008123449 0.56107795 -0.42955962
0.017101565 -0.005669929 -0.099770226 0.22801264 0.22091907 -0.42091325 -0.034784377 0.11428666
0.27601013 0.16246358 0.27059603 -0.2436103 -0.3784636 0.053281743 0.17470194 -0.056814585
0.5565239 0.0837454 0.5180665 -0.22373645 0.29255226 -0.32762983 0.28815216 0.33194846
0.0638561 0.07255952 0.09688326 -0.2789184

resolve.3.layers.0.conv1.bias f4 [10]
00000000: dab9 743d 0abc 28bd 8354 653e ed87 60bd
00000010: 848f 923e 3743 bf3c fbf6 1bbe 9a70 b4be
00000020: 62fd 8cbd 78a3 33bf
0.059747554 -0.041194953 0.2239552 -0.05481713 0.2862512 0.02334748 -0.15230934 -0.35242158
-0.068842664 -0.7017131

resolve.3.layers.0.bn1.weight f4 [10]
00000000: 0000 803f 0000 803f 0000 803f 0000 803f
00000010: 0000 803f 0000 803f 0000 803f 0000 803f
00000020: 0000 803f 0000 803f
1.0 1.0 1.0 1.0 1.0 1.0 1.0 1.0
1.0 1.0

resolve.3.layers.0.bn1.bias f4 [10]
00000000: 0000 0000 0000 0000 0000 0000 0000 0000
00000010: 0000 0000 0000 0000 0000 0000 0000 0000
00000020: 0000 0000 0000 0000
0.0 0.0 0.0 0.0 0.0 0.0 0.0 0.0
0.0 0.0

resolve.3.layers.0.bn1.running_mean f4 [10]
00000000: 0000 0000 0000 0000 0000 0000 0000 0000
00000010: 0000 0000 0000 0000 0000 0000 0000 0000
00000020: 0000 0000 0000 0000
0.0 0.0 0.0 0.0 0.0 0.0 0.0 0.0
0.0 0.0

resolve.3.layers.0.bn1.running_var f4 [10]
00000000: 0000 803f 0000 803f 0000 803f 0000 803f
00000010: 0000 803f 0000 803f 0000 803f 0000 803f
00000020: 0000 803f 0000 803f
1.0 1.0 1.0 1.0 1.0 1.0 1.0 1.0
1.0 1.0

resolve.3.layers.1.conv0.weight f4 [10, 10, 3]
00000000: 9a7d 28bf 8fed 413f 7056 60bf 6b51 0ebe
00000010: a9b9 073e 239e 01bd 00a5 823d 4d96 8cbe
00000020: 4721 a63d 28a4 eb3e d734 b13e 5898 cb3e
00000030: 93a9 383e 9aa9 f03e 9133 eebe 5fba e53e
00000040: d6fc 9cbe f219 633e c2e6 c0bc 3bd4 a4bd
00000050: 9c76 103e ca1c 853c 6a2a 513f 71a5 69bc
00000060: 9193 cfbc 5df3 00be eb90 e03c d655 d83d
00000070: 22b5 b4bf 2ac8 83be 3de2 873d cfb8 8dbe
00000080: e3db da3d 945d 6d3b 549a 23be 6bfc 5a3e
00000090: 11d6 b5bd cae6 543b af16 d1bd e4bc 063d
000000a0: c3f6 8a3e 16f3 52be 4027 6b3e 04a8 31bf
000000b0: 8141 c93c 981d f43d 6dfd d53e bab5 84bd
000000c0: 6028 a9bd 2e28 5d3d 1088 3bbd 6dc4 843c
000000d0: ea1c 903e 40b0 fa3d 6ec2 443c e17b 043c
000000e0: e01b 06bd 1451 4a3e 2a68 ca3d b629 323e
000000f0: 6302 79bd e903 97bd 471b b8bd 8e14 cfbd
00000100: 3ac1 fa3c eeff 96bc 3a8c a6bd 8747 4a3d
00000110: 0ffe 63be 0b22 933c f281 f13c ff57 573e
00000120: 8a08 0d3e 7507 b93e 10e2 18bd 32a1 b03d
00000130: 54a9 97bc 5ca3 063e 03dc debc 962d 65bb
00000140: a634 803d 6e64 25be 4b8d 7e3e 5090 18bd
00000150: 233d 01bc 532e aa3d 61fe 8eb9 bce6 4b3c
00000160: 376a d7bd 460d 7dbd 3de2 e33c 510c 0f3e
00000170: 4b80 8b3d 557f c63c f7af 2b3e 6339 1fbe
00000180: 266f 953e d159 2cbd d939 f43e f714 913e
00000190: 0b30 023e 337d 2abe c955 483d 2532 ab3e
000001a0: e558 11bd d504 183c 8798 163e a5ca 523e
000001b0: 623d 9bbd 184c 623e bc31 4abe f096 9bbe
000001c0: 16aa d03e 15fd 70bd cc22 d0bd 79e2 243e
000001d0: 5493 ccbd 3dd8 56bd fd22 f33e 0d06 833c
000001e0: 8b15 80be 22ec c23b 92bd dd3c 1112 59bd
000001f0: 366c 8bbe a5de 00be a371 753e 3c3f dabe
00000200: 8b4d a4be 0058 17bf d49e 793e 188f 59bd
00000210: 90fc a03d df8f 42bc 4263 383b e132 50be
00000220: 1f77 88ba 6a34 8a3c 589e e6be 9a06 773e
00000230: c2d7 f6bd 6b57 20be fff8 3abe 114b 6ebe
00000240: 469d 0b3d b24d 71bd 87fe ffbd 41bf 53be
00000250: e4f3 2238 d623 1ebe 843c 31bd cb78 a2be
00000260: b471 18be b87d 7cbe 00ee 01bf e845 16be
00000270: cace 883c 3869 173e 5a83 923b 84e7 2fbd
00000280: e630 14be 5274 253e 0bec 60bd 513c 643d
00000290: fcf3 25be 9803 143e 7d1b 853f 8595 823e
000002a0: 053e f33b 91a2 7bbb d669 343d a2f2 5abe
000002b0: a395 b33d 6a9f 37be c559 0abc fbab db3d
000002c0: 69d5 fbbc 1086 b3bd 4a31 e63e d1b9 2dbe
000002d0: ba77 6fbd be7c bbbd f352 20be a8c6 5cbe
000002e0: bc8f 5dbd 0103 12bf 7c29 51bf fcb7 f5bd
000002f0: 560d 41be 7389 88bb 0167 993e 7bd2 cdbd
00000300: a336 83bd 477b 24bc 2272 66bc b244 8dbe
00000310: 5fcb 11be d7a6 78be 30db c8bd f0c4 51bd
00000320: 394f 16bf 5911 96bc 5284 453d badc 323c
00000330: 1ae8 cdbe 1c72 98bb 8e4c 9dbe 214b ab3c
00000340: 99b0 a8bd 30a9 7ebd 608d 04be e4a4 b93e
00000350: 6562 f4bc 0111 a3be 9fc1 b43f ed64 a7be
00000360: 532c 73bd 78cc aa3d 7a9c 4bbe a3af c3bd
00000370: bf4b 0abf ab8d a93e c38a dabd fb4f c9bd
00000380: 585c afbd 41c5 b6be 9c24 e93e 236d 3fbe
00000390: b01a 50be d437 84bd 8088 afbd a4c9 48bd
000003a0: 5f8a cdbe b4f5 05be 6117 f5be cadb 8cbf
000003b0: bcb8 29bf 1088 ecbd 3f20 fc3d d4a5 65be
000003c0: 63c3 a83c a74c 26be b2cd 0dbd d8a2 2d3e
000003d0: 618c 19bf 3682 003e 6b5b 183c 0c5e acbe
000003e0: 039b a13d 9982 1fbe 33d7 cb3e 5aa3 16be
000003f0: c701 07be a1f4 3cbe e1bf 9a3c fdf3 31be
-0.6581665 0.7575311 -0.87631893 -0.13898246 0.13254417 -0.03164495 0.063791275 -0.2745842
0.08111816 0.4602368 0.34610626 0.39764667 0.18033437 0.47004396 -0.46523717 0.44868752
-0.3066165 0.22177866 -0.023547534 -0.08048292 0.14107746 0.01624908 0.81705344 -0.014260636
-0.02533892 -0.12592836 0.027412852 0.10563247 -1.4117777 -0.2573865 0.066349484 -0.2768006
0.10686471 0.0036219107 -0.1597684 0.21385352 -0.088787206 0.0032486194 -0.10209405 0.032894984
0.2714139 -0.20600542 0.22964191 -0.69396996 0.024567368 0.11919707 0.4179491 -0.06479974
-0.08259654 0.053993396 -0.045784056 0.016206944 0.2814706 0.12240648 0.012009246 0.008086176
-0.032741427 0.19757491 0.09883149 0.17398724 -0.06079329 -0.07373793 -0.08989578 -0.10111342
0.030609716 -0.018432584 -0.08132215 0.04938462 -0.22264884 0.017960569 0.029480908 0.21029662
0.13772789 0.36138502 -0.037324965 0.086244956 -0.01851336 0.13148254 -0.02720452 -0.0034969798
0.06260042 -0.16151592 0.24858586 -0.037247002 -0.007888111 0.08309617 -0.00027273878 0.012445148
-0.10518306 -0.061780237 0.02781784 0.13969542 0.06811579 0.024230639 0.16766344 -0.15549235
0.29186362 -0.042077843 0.47700384 0.28336307 0.1271364 -0.16649322 0.048909936 0.33436695
-0.035485167 0.009278496 0.14706622 0.20585115 -0.07580067 0.2209934 -0.19745535 -0.30388594
0.40754765 -0.058835108 -0.10162887 0.16102017 -0.09989038 -0.052452315 0.4748763 0.015994096
-0.25016436 0.0059485594 0.027067933 -0.052995745 -0.27230996 -0.12584932 0.2396913 -0.4262637
-0.3209041 -0.5911865 0.24376994 -0.05311498 0.078606725 -0.011875122 0.0028135334 -0.20331909
-0.0010411477 0.016870696 -0.45042682 0.24123612 -0.12052871 -0.15658347 -0.18259047 -0.23270823
0.034085535 -0.058911987 -0.12499719 -0.20678426 3.885095e-05 -0.15443358 -0.043270603 -0.31732783
-0.14887124 -0.24657333 -0.50753784 -0.14675105 0.016700167 0.14786232 0.0044712247 -0.0429454
-0.14471778 0.16157654 -0.054912608 0.055721585 -0.16206354 0.14454496 1.0399014 0.255047
0.007423165 -0.0038396458 0.044046246 -0.2138162 0.08768775 -0.17931905 -0.008444254 0.10726162
-0.03074141 -0.08765805 0.4495948 -0.16965415 -0.05846379 -0.09154652 -0.15656643 -0.21560156
-0.054092154 -0.57035834 -0.81703925 -0.11997983 -0.18852744 -0.004166776 0.29961398 -0.100499116
-0.064069055 -0.010039157 -0.014065297 -0.27591473 -0.14237736 -0.24282394 -0.09807432 -0.051213205
-0.58714634 -0.018318819 0.048221894 0.010916883 -0.40216142 -0.004652275 -0.3072247 0.020909848
-0.08236808 -0.06217307 -0.12944555 0.36258614 -0.029832074 -0.3184891 1.4121588 -0.32694188
-0.059368443 0.083397806 -0.1988391 -0.095549844 -0.5402183 0.33115897 -0.10670998 -0.09829708
-0.08562535 -0.35697368 0.45535743 -0.18693976 -0.2032268 -0.06455961 -0.08570957 -0.049020424
-0.4014463 -0.1308201 -0.478694 -1.1004574 -0.6629751 -0.11549389 0.12310838 -0.2242654
0.02060098 -0.16240178 -0.034619994 0.16956651 -0.59979826 0.12549672 0.0092991395 -0.33665502
0.07890894 -0.15577163 0.3981262 -0.14710751 -0.13184272 -0.18452694 0.018890323 -0.1737823

resolve.3.layers.1.conv0.bias f4 [10]
00000000: 999e 953e f601 813e b503 c6be 5a5f 82be
00000010: 0d21 25be 0350 b73e 74e7 54be 477c 16bf
00000020: 4d20 b23e 5f98 85be
0.29222563 0.2519681 -0.38674703 -0.25463372 -0.16125889 0.35803232 -0.20791417 -0.5878338
0.3479027 -0.26092812

resolve.3.layers.1.bn0.weight f4 [10]
00000000: 0000 803f 0000 803f 0000 803f 0000 803f
00000010: 0000 803f 0000 803f 0000 803f 0000 803f
00000020: 0000 803f 0000 803f
1.0 1.0 1.0 1.0 1.0 1.0 1.0 1.0
1.0 1.0

resolve.3.layers.1.bn0.bias f4 [10]
00000000: 0000 0000 0000 0000 0000 0000 0000 0000
00000010: 0000 0000 0000 0000 0000 0000 0000 0000
00000020: 0000 0000 0000 0000
0.0 0.0 0.0 0.0 0.0 0.0 0.0 0.0
0.0 0.0

resolve.3.layers.1.bn0.running_mean f4 [10]
00000000: 0000 0000 0000 0000 0000 0000 0000 0000
00000010: 0000 0000 0000 0000 0000 0000 0000 0000
00000020: 0000 0000 0000 0000
0.0 0.0 0.0 0.0 0.0 0.0 0.0 0.0
0.0 0.0

resolve.3.layers.1.bn0.running_var f4 [10]
00000000: 0000 803f 0000 803f 0000 803f 0000 803f
00000010: 0000 803f 0000 803f 0000 803f 0000 803f
00000020: 0000 803f 0000 803f
1.0 1.0 1.0 1.0 1.0 1.0 1.0 1.0
1.0 1.0

resolve.3.layers.1.conv1.weight f4 [10, 10, 1]
00000000: d880 183e 2f8d 5b3d 8dc4 153e 7d5f 3b3e
00000010: 1bf8 403f fb93 5bbe 1751 48bf efe8 333e
00000020: 4705 91be 9bdf cfbe 0ce5 113b 3805 8fbd
00000030: fd8c 42be 8961 41bb 9144 333e a5f8 ae3e
00000040: e300 88be 8255 343e 6831 fc3e 642c 943d
00000050: 7f8d 8f3a 1579 543c 1617 1b3c 0c51 a4bc
00000060: 4d87 c0bc 84d2 87bb ba5b d13d c912 b13c
00000070: a6a2 3ebc 3223 55bb f7b6 95bb e901 543d
00000080: bc99 db3d d4c7 343c 018c f83d 3408 163d
00000090: 42d2 d83d c770 a4bd ae66 9d3c be31 a5bc
000000a0: 81c9 673d e61d 083f e8e7 bdbe 9823 3fbe
000000b0: b097 abbd 1a51 9e3d 8377 d4bd 0c5d 9fbd
000000c0: 5378 903e 2315 043e d876 1c3e f78e d0be
000000d0: 7b76 cdbe 60c0 313e 8247 97be dba8 94be
000000e0: 2cde 02bd 199d 4e3f 42cd 4cbe 3f95 34be
000000f0: 14ec 2b3b 5bd0 023c f82a 39bc 2407 f9bb
00000100: 66d4 4a3c ee05 dcb9 e491 e83d 3c25 383c
00000110: bee8 8bbb 825b c5bb 0c53 373d 3b59 cbbd
00000120: 56bc b1be 2a90 10be b364 5cbf 04fd 863d
00000130: 6ce3 143f f7cc b33c 8635 d13e f219 99bd
00000140: 1640 b8bc 44ba 4cbd 1129 633e 9168 e2bc
00000150: 0fb0 993d a53c 353d 8bec ef3e 2df0 d5be
00000160: bac8 883e 616f 003d ad63 2abf c603 19bf
00000170: 0ed5 95be 3c99 2fbd 4ac7 2ebc 9e1f 6ebe
00000180: d70f c1be fd2d 883d 86e1 c53d 73cf 6ebf
0.148929 0.05360144 0.1462576 0.18298145 0.7537858 -0.21443169 -0.78248733 0.17569326
-0.2832434 -0.40600285 0.0022261767 -0.06983417 -0.18999095 -0.0029507598 0.17506625 0.34174076
-0.26563177 0.17610744 0.49256444 0.07235029 0.0010952203 0.012968321 0.009465953 -0.020058177
-0.023502016 -0.0041449685 0.102225736 0.021615403 -0.011635458 -0.0032522199 -0.0045689302 0.051759634
0.10722682 0.011033971 0.121360786 0.036628917 0.105869785 -0.08029323 0.019214 -0.02016532
0.056588653 0.5317062 -0.37090993 -0.18665922 -0.083785415 0.07730313 -0.103743576 -0.07781419
0.282168 0.12898688 0.1527971 -0.40734074 -0.40129456 0.17358541 -0.29546744 -0.29035076
-0.03195016 0.8070846 -0.20000175 -0.17635058 0.0026233243 0.007984246 -0.011301748 -0.007599728
0.012379741 -0.00041966088 0.113559514 0.011239346 -0.0042696884 -0.0060228715 0.044756934 -0.09929129
-0.34714 -0.14117494 -0.86091155 0.06591228 0.5815952 0.02194832 0.40861148 -0.07475652
-0.022491496 -0.049982324 0.22183634 -0.027637752 0.07504284 0.04424729 0.46860155 -0.41784802
0.26715642 0.03135622 -0.66558343 -0.5977138 -0.2926411 -0.042870745 -0.010667631 -0.23254248
-0.37707397 0.066493966 0.09662156 -0.9328529

resolve.3.layers.1.conv1.bias f4 [10]
00000000: fa9a 2d3f 33ce b7bd 9519 67bc ac02 4e3e
00000010: e8ae 5abd 805a a43e 932a 29be 322a 103e
00000020: fd59 5bbe 3d45 8fbe
0.678146 -0.08974876 -0.01410522 0.20118207 -0.05338946 0.32100296 -0.16520147 0.14078596
-0.21421047 -0.27982512

resolve.3.layers.1.bn1.weight f4 [10]
00000000: 0000 803f 0000 803f 0000 803f 0000 803f
00000010: 0000 803f 0000 803f 0000 803f 0000 803f
00000020: 0000 803f 0000 803f
1.0 1.0 1.0 1.0 1.0 1.0 1.0 1.0
1.0 1.0

resolve.3.layers.1.bn1.bias f4 [10]
00000000: 0000 0000 0000 0000 0000 0000 0000 0000
00000010: 0000 0000 0000 0000 0000 0000 0000 0000
00000020: 0000 0000 0000 0000
0.0 0.0 0.0 0.0 0.0 0.0 0.0 0.0
0.0 0.0

resolve.3.layers.1.bn1.running_mean f4 [10]
00000000: 0000 0000 0000 0000 0000 0000 0000 0000
00000010: 0000 0000 0000 0000 0000 0000 0000 0000
00000020: 0000 0000 0000 0000
0.0 0.0 0.0 0.0 0.0 0.0 0.0 0.0
0.0 0.0

resolve.3.layers.1.bn1.running_var f4 [10]
00000000: 0000 803f 0000 803f 0000 803f 0000 803f
00000010: 0000 803f 0000 803f 0000 803f 0000 803f
00000020: 0000 803f 0000 803f
1.0 1.0 1.0 1.0 1.0 1.0 1.0 1.0
1.0 1.0

resolve.3.layers.2.conv0.weight f4 [10, 10, 3]
00000000: 1631 a3be 449f 913e 8110 2dbe dd27 28be
00000010: 1954 f63d 2f57 9dbe 4460 683d 26b6 2abe
00000020: a5eb 183e 964a 793e 4681 7e3e 4c9b 873e
00000030: ce6d 0cbf a934 2cbe 0c3a 6abe a5e7 103e
00000040: 8e65 39be 6ab9 573e f75a fc3d 27bf 59bd
00000050: 62c1 2e3d 7aca 683e a3d1 163d c404 2ebd
00000060: 2470 ea3d 94b8 92be c0bc bf3d 16eb 96be
00000070: 7677 dc3e 4d0b 09be 73d0 9fbd 494c 883e
00000080: 8867 e0bc 27ef a6bd 8371 253f 7207 51bb
00000090: d46f 62bd 9755 383e 83c5 a9bc 25ea 5bb8
000000a0: 9a75 383f f993 89bc d521 dbbd e92b c5bd
000000b0: 68f5 343d 6ba5 c83d 086d 2cbf 86b1 cfbb
000000c0: 6980 02bc 6912 613e e88f 783c 4d1e 5dbd
000000d0: 16f2 34be 24b5 5bbd bda7 103d 676b f4bd
000000e0: 189f 393d 5ff7 3cbd 27b8 023d 4476 e8bc
000000f0: 1382 7d3e 55fd 92be 5580 433e bff1 21be
00000100: 713f 7dbe 7cc6 48bd 3b37 a43c c159 4abd
00000110: 865e 37bb b31e ae3d 5873 d43e 3ada 07be
00000120: 9959 e6bd bc00 2fbf 484f 783d 03f2 433c
00000130: 0b29 1c3e 943d 69bc 0989 a8bd 7a85 b23d
00000140: 8ba9 27bd 6c33 d3be 259a 7ebd 6e5d e3be
00000150: 1568 93bd 04cc 703e 31d6 25bd c923 8bbb
00000160: 225c 12be d378 f4bb 65de 63be 4c00 d7be
00000170: 367e abbe b7d9 9abf f250 c5bf 11e0 92bf
00000180: 1c32 a8bd b7b8 fb3d 6d2c 023d 2958 d63e
00000190: e555 013f 75ec 043f 1e7f 9fbe 4f06 ed3e
000001a0: a6c0 e9be 1036 063f d673 60bf d44a de3e
000001b0: 5f3e c93c de33 f1bd 8669 99bc 46ba 02be
000001c0: d020 6cbe f4ca cbbe 6475 2abf f4e0 c53e
000001d0: 7da4 12bf 747e bc3d 8389 aa3d 58e7 13be
000001e0: f356 ef3d c5d2 13be 1e3a 193e dc60 92be
000001f0: b371 0fbe 1214 053c dafc 053d 6f4a 2e3e
00000200: efad 153d 38ea 003e de92 8ebc 9abe 573d
00000210: 16e5 8abe 7471 b9be 8394 81bc 9c68 033d
00000220: 02c0 9dbd 6bed ae3a 5405 a9bd e82a 1a3e
00000230: 2e24 16bd 1318 afbe fcd5 d0be e644 debe
00000240: 7b1b ddbc c51c bd3e 35c8 563d 33b5 1bbe
00000250: b266 1b3d 0252 11bd e8ec ca3c db56 803d
00000260: 8681 0d3d 15c8 5a3e fdb9 3bbc 869c b33e
00000270: 7f00 113d 4620 6cbd 8546 c0bd 8439 dcbe
00000280: 4e48 69be e585 dbbe e126 973e a801 603e
00000290: 1da1 8c3e e765 39be a93e 28be cdcf 92be
000002a0: 5578 03be f471 433d e3e0 26bd e623 e93d
000002b0: 47fa 8bbd c9ab 803d e485 313c 7504 2e3e
000002c0: 54d0 f23c f800 e33d e0ea 1cbd 2316 8a3d
000002d0: fd3a 12bb 4b17 a83d 140c ebbb 2e53 85bd
000002e0: 1df0 bdbe 96e5 12be ff1a 86be 77d8 26be
000002f0: f0ca b1be 4bef 403e bbc6 8abf 2959 6a3e
00000300: 9435 43be b3c1 55bf 05e1 1abe 9a82 8e3c
00000310: 2ad9 a0bd 95d8 8a3d 1f09 9dbc 5abb b1be
00000320: 0132 a2bc e604 25be 25d9 80bd fd4c 77be
00000330: 652b adbd fa83 85be 49aa 09be 2baf aabd
00000340: ce93 243d 7f02 88bd 2396 cd3d 0987 25bf
00000350: fe85 013e c634 a0be e266 a5bc 6323 16bf
00000360: 0e57 06bc ab68 68be e077 8ebe 80c6 1a3f
00000370: 43c3 ea3e 9b03 293f 3205 37bf 1aaf b1be
00000380: 4155 e6be 91f8 acbc 4b47 e93e 7afe 923e
00000390: cbee 34be 8dff 84be 4b3e 0bbe 0397 71bf
000003a0: d8c2 773e 35d0 a6bf a2d9 9ebe 191b 70bf
000003b0: dcf7 c1be e9e2 90be 93aa 903e 2fd8 8dbe
000003c0: 8003 f5bd ea63 75be b4c4 d7bd 662c d5be
000003d0: 0092 01bf be8e cebe 1cca 8a3c 2324 0ebe
000003e0: dc75 37be 1ba8 abbd 0ad6 513d 9386 f53e
000003f0: 8a3d bcbe 73f7 dbbf 31ab dbbe 197f e53b
-0.31873387 0.28441823 -0.16900827 -0.16421457 0.12027759 -0.30730578 0.05673243 -0.16671047
0.14933641 0.24344859 0.24854001 0.2648567 -0.5485505 -0.16816963 -0.22873706 0.14150865
-0.18105146 0.21066824 0.12322038 -0.053160813 0.042664893 0.22733489 0.03682102 -0.042485014
0.114471704 -0.28656447 0.09362173 -0.2947623 0.4305989 -0.13383217 -0.078034304 0.266207
-0.027393118 -0.081510834 0.6462633 -0.0031895307 -0.05528243 0.180014 -0.020724064 -5.2431733e-05
0.72054446 -0.016794192 -0.10699812 -0.09627516 0.04417935 0.09797176 -0.6735387 -0.006338301
-0.007965186 0.21979679 0.015171029 -0.053983975 -0.17670473 -0.053639546 0.035316218 -0.11934548
0.04531774 -0.04613435 0.031913903 -0.028376706 0.2475665 -0.28708902 0.19091924 -0.15814875
-0.24731232 -0.049017414 0.020045867 -0.049402002 -0.0027979924 0.08501949 0.4149425 -0.1326684
-0.11247558 -0.68360496 0.060622483 0.011959556 0.15250032 -0.014235873 -0.082292624 0.08716865
-0.040933173 -0.4125017 -0.062158722 -0.4440722 -0.071975864 0.23515326 -0.040487472 -0.0042462093
-0.14292958 -0.0074606924 -0.22252806 -0.41992414 -0.3349473 -1.2097691 -1.5415328 -1.147463
-0.082126826 0.12291091 0.03178065 0.41864136 0.5052169 0.51923305 -0.3115167 0.46293876
-0.45654792 0.5242624 -0.8767675 0.43416464 0.024565874 -0.11777471 -0.018727075 -0.1276637
-0.23059392 -0.39803278 -0.66585374 0.38648188 -0.5728224 0.092038065 0.083270095 -0.1444372
0.11686506 -0.14435871 0.14963576 -0.28589523 -0.14008217 0.008122461 0.03271184 0.17020582
0.03654283 0.12589347 -0.017404016 0.052672006 -0.27127904 -0.3621937 -0.015817886 0.032082185
-0.07702638 0.0013345903 -0.082529694 0.1505543 -0.036655597 -0.34198055 -0.40788257 -0.4341194
-0.026990643 0.36936012 0.052437026 -0.15205841 0.037939735 -0.0354786 0.024771169 0.06266566
0.03454735 0.21365388 -0.011457917 0.35080355 0.035400864 -0.057647966 -0.093884505 -0.4301263
-0.22781488 -0.4287559 0.2952185 0.21875632 0.2746667 -0.18105279 -0.16430153 -0.28674164
-0.12838872 0.047716096 -0.040741812 0.113838 -0.06834846 0.062827654 0.010835145 0.16993888
0.029640354 0.11084169 -0.03830993 0.067425035 -0.0022312992 0.08207568 -0.0071730707 -0.06510006
-0.37097254 -0.14345393 -0.2619247 -0.16293512 -0.34725142 0.18841283 -1.0841898 0.22885574
-0.19063407 -0.83498687 -0.151249 0.01739626 -0.07853921 0.06779591 -0.019169388 -0.3471325
-0.019799234 -0.1611515 -0.06291417 -0.24150462 -0.084555425 -0.26077253 -0.13443865 -0.08334192
0.04018002 -0.06641101 0.10038402 -0.6465917 0.1264877 -0.31290263 -0.02019066 -0.58647746
-0.008199466 -0.22696178 -0.27825832 0.60459137 0.45852098 0.66021127 -0.714923 -0.34703904
-0.4498692 -0.02111462 0.45562205 0.28709775 -0.17669217 -0.2597622 -0.13597982 -0.9437105
0.2419542 -1.303229 -0.31025416 -0.9379135 -0.37884414 -0.2829812 0.28255138 -0.27703997
-0.11963558 -0.23963895 -0.10535565 -0.41635436 -0.50613403 -0.4034328 0.016942076 -0.13880973
-0.17916054 -0.08381673 0.051229514 0.47954234 -0.367657 -1.718489 -0.42904046 0.0070036766

resolve.3.layers.2.conv0.bias f4 [10]
00000000: 1c48 7f3e 4d69 cabe d3a4 333f 310f 4a3f
00000010: 036b 0a3e 41a9 0f3f 4455 86bc f64b 103e
00000020: b286 dd3e e691 ad3d
0.24929851 -0.39533463 0.70173377 0.7892943 0.13517384 0.56117636 -0.01639808 0.14091477
0.43266827 0.084750935

resolve.3.layers.2.bn0.weight f4 [10]
00000000: 0000 803f 0000 803f 0000 803f 0000 803f
00000010: 0000 803f 0000 803f 0000 803f 0000 803f
00000020: 0000 803f 0000 803f
1.0 1.0 1.0 1.0 1.0 1.0 1.0 1.0
1.0 1.0

resolve.3.layers.2.bn0.bias f4 [10]
00000000: 0000 0000 0000 0000 0000 0000 0000 0000
00000010: 0000 0000 0000 0000 0000 0000 0000 0000
00000020: 0000 0000 0000 0000
0.0 0.0 0.0 0.0 0.0 0.0 0.0 0.0
0.0 0.0

resolve.3.layers.2.bn0.running_mean f4 [10]
00000000: 0000 0000 0000 0000 0000 0000 0000 0000
00000010: 0000 0000 0000 0000 0000 0000 0000 0000
00000020: 0000 0000 0000 0000
0.0 0.0 0.0 0.0 0.0 0.0 0.0 0.0
0.0 0.0

resolve.3.layers.2.bn0.running_var f4 [10]
00000000: 0000 803f 0000 803f 0000 803f 0000 803f
00000010: 0000 803f 0000 803f 0000 803f 0000 803f
00000020: 0000 803f 0000 803f
1.0 1.0 1.0 1.0 1.0 1.0 1.0 1.0
1.0 1.0

resolve.3.layers.2.conv1.weight f4 [10, 10, 1]
00000000: 7ae1 a2be d9a9 8fbd 4f84 84bf 9877 273e
00000010: a737 8e3e 7f88 8bbf bbd2 33bd 4165 b2bc
00000020: ce4c 293f 1b79 8a3e 30aa 933e ffd1 423d
00000030: f04f 523e 7b51 be3e 17e5 8cbd 6e50 523e
00000040: 7cef 3cbe 2865 0ebe 7bcb c23d 0cdb 763e
00000050: 3a9e 80bc ca70 913d 3273 b6bc 25e2 38bc
00000060: f1e2 7f3c 2967 823d f36c 793d 3e6f 953b
00000070: 3e13 1abd b553 213c a2d5 2dbc f624 f1bd
00000080: 492e fabc 0e94 20bd 4c0c 28bd b63c 70bd
00000090: dcab 28be 4c63 2f3d f913 843d 77f9 c7bc
000000a0: d7a0 0ebe 4a7a 80be 9301 93be 68c2 72bd
000000b0: b197 b83d 4312 59be e1fd 0b3e 9eff 1c3e
000000c0: 14b0 34bf 3e87 053e f4fc fcbe 193b c03e
000000d0: 79e8 adbe d743 c0be 1d61 ea3e 9c7b 7abe
000000e0: 834b a63d 7aef 133e b58e f43d 2dd5 2f3e
000000f0: 12b8 ddbc a4a2 ad3d b5c0 15bd 374a 4c3a
00000100: 32a3 3b3d b0d2 843d 723f 5d3d b9bb 323a
00000110: 701b 15bd 6756 ce3c 4341 0abe 9e0d 48bd
00000120: 3c13 39bd 028b 97bd 9a86 f13d 8c1e 9fbd
00000130: e991 90bd c999 ba3d cbe3 8a3e 4bbc b83e
00000140: 87c7 923e 716c 30be 64de cb3e f65e 5d3d
00000150: 21b9 a8be d6d5 6d3e 7e47 48be e59f 17bd
00000160: a0d7 d03d cd61 36bb 9e1e 563e ab63 3c3d
00000170: 3002 883e d331 483c 6150 133e 21b0 febe
00000180: 0a73 fc3d a766 c13d 468d 953e fad3 073e
-0.3181265 -0.07014818 -1.0352877 0.16354215 0.27776834 -1.090103 -0.04390214 -0.021776797
0.6613282 0.2704552 0.2884078 0.04756355 0.20538306 0.3717154 -0.06879633 0.20538494
-0.18450731 -0.13905776 0.09511467 0.24106997 -0.015700448 0.07101591 -0.022271726 -0.011284386
0.015618072 0.063673325 0.060894918 0.0045603802 -0.037616007 0.0098466175 -0.010610016 -0.11774628
-0.030539649 -0.039203696 -0.041027352 -0.05865165 -0.16471809 0.042819306 0.06449122 -0.024410946
-0.13928543 -0.250933 -0.2871214 -0.05926743 0.09013308 -0.21198373 0.13671066 0.15331885
-0.70581174 0.13039872 -0.49411738 0.37545088 -0.33966425 -0.37551758 0.45777217 -0.24461216
0.081198715 0.14446822 0.11941282 0.17171164 -0.02706531 0.08478287 -0.036560733 0.00077930413
0.045809932 0.06485498 0.054015584 0.0006818134 -0.03640312 0.025187684 -0.13501458 -0.04884111
-0.04518436 -0.073995605 0.11793251 -0.07769498 -0.0705908 0.091113634 0.27126917 0.36081156
0.28667852 -0.17228867 0.39818108 0.05404564 -0.32953742 0.23226103 -0.19558522 -0.03701772
0.10197377 -0.002782929 0.20910117 0.04599349 0.2656417 0.01221891 0.14386131 -0.4974375
0.123266295 0.094434075 0.29209346 0.13264456

resolve.3.layers.2.conv1.bias f4 [10]
00000000: f9b3 81bf 151b 0b3e d5c3 e73d cbed 7bbe
00000010: b01e 51be 0c48 20bf 58f2 813e 6c6f 643e
00000020: df42 883e cca6 4dbf
-1.0133048 0.1358455 0.11316649 -0.2460243 -0.20421863 -0.62609935 0.25380206 0.22308129
0.2661352 -0.80332637

resolve.3.layers.2.bn1.weight f4 [10]
00000000: 0000 803f 0000 803f 0000 803f 0000 803f
00000010: 0000 803f 0000 803f 0000 803f 0000 803f
00000020: 0000 803f 0000 803f
1.0 1.0 1.0 1.0 1.0 1.0 1.0 1.0
1.0 1.0

resolve.3.layers.2.bn1.bias f4 [10]
00000000: 0000 0000 0000 0000 0000 0000 0000 0000
00000010: 0000 0000 0000 0000 0000 0000 0000 0000
00000020: 0000 0000 0000 0000
0.0 0.0 0.0 0.0 0.0 0.0 0.0 0.0
0.0 0.0

resolve.3.layers.2.bn1.running_mean f4 [10]
00000000: 0000 0000 0000 0000 0000 0000 0000 0000
00000010: 0000 0000 0000 0000 0000 0000 0000 0000
00000020: 0000 0000 0000 0000
0.0 0.0 0.0 0.0 0.0 0.0 0.0 0.0
0.0 0.0

resolve.3.layers.2.bn1.running_var f4 [10]
00000000: 0000 803f 0000 803f 0000 803f 0000 803f
00000010: 0000 803f 0000 803f 0000 803f 0000 803f
00000020: 0000 803f 0000 803f
1.0 1.0 1.0 1.0 1.0 1.0 1.0 1.0
1.0 1.0
