generators/n6.ckpt (torch, 350190 bytes, 235 tensors)

resolve.0.weight f4 [6, 1, 7]
-0.2776678 -0.15359737 0.64283216 2.8853538 1.5346754 -2.2414687 -2.1595151 1.2237684
1.7958294 0.6239752 0.6382885 1.3910037 2.841285 1.2261271 -0.033701535 -0.31288788
1.060315 1.1747217 -1.0645769 -2.4082732 -0.5009549 -0.41906935 -0.3339498 -0.5921932
-1.8991976 -1.3265989 0.14885792 0.45592472 -1.0863978 -1.3102447 -0.05667652 0.7154333
2.3954997 0.7508582 -1.4311887 0.45753643 1.0593317 2.1985602 2.1256618 0.6592133
-0.110415414 0.6033269
00000000: 792a 8ebe a148 1dbe a690 243f a3a9 3840
00000010: 3e70 c43f 3974 0fc0 7f35 0ac0 71a4 9c3f
00000020: bddd e53f d7bc 1f3f e066 233f 690c b23f
00000030: 9dd7 3540 bcf1 9c3f 9f0a 0abd d732 a0be
00000040: 67b8 873f 485d 963f 0e44 88bf 2621 1ac0
00000050: 953e 00bf 4290 d6be 78fb aabe f999 17bf
00000060: e818 f3bf fecd a9bf 366e 183e f76e e93e
00000070: 150f 8bbf 19b6 a7bf a325 68bd a326 373f
00000080: de4f 1940 3e38 403f 3131 b7bf 3742 ea3e
00000090: 2e98 873f 36b5 0c40 d80a 0840 34c2 283f
000000a0: 7a21 e2bd a273 1a3f

resolve.0.bias f4 [6]
0.08493417 0.14111787 0.0027862592 -0.0026320955 2.1878318e-06 0.03414271
00000000: f7f1 ad3d 3481 103e ac99 363b 3c7f 2cbb
00000010: aad2 1236 3ad9 0b3d

resolve.2.layers.0.conv0.weight f4 [6, 6, 3]
1.0497733 -0.9732834 -0.21121553 -0.09090106 -0.09033745 0.24947132 0.6985268 0.17474413
-0.23717137 -0.1854955 0.46460947 -0.21298644 -0.047736697 -1.0702558 0.29826027 0.40741736
0.23032431 -0.39782223 0.8645513 -0.97908473 -0.04950256 -0.049925867 0.3733092 0.23664075
0.7540507 -0.31503844 -0.7513878 -0.2960721 0.22230682 0.030206837 0.18060979 -0.33214295
0.40766987 0.13140713 -0.070453 -0.8469439 0.3214442 0.18539779 0.1410375 -0.2181331
-0.24436453 -0.0856322 -0.19486298 -0.15032043 0.0890678 0.09688787 -0.2815394 -0.13615532
0.5303342 0.04541571 -0.19079243 -0.7933452 -0.7917941 -0.6205791 -0.046229083 0.11491809
-0.19166467 -0.21251939 -0.08401163 -0.015518278 -0.5093569 -0.057198636 0.34171507 0.1270139
-0.17903943 -0.28015947 -0.3822924 0.15749487 -0.11893669 -0.6094194 -0.36416134 -0.20267121
-0.18787189 -0.45830667 -0.50677335 -0.36151576 -0.27068043 -0.093175344 0.07816393 -0.10279455
0.07973804 0.79484594 1.0775529 0.81981325 -0.42127323 0.0063627446 -0.049992006 -0.15831633
-0.25064492 -0.32757306 -0.09184621 0.55225104 0.67150724 0.06959375 0.33673137 -0.26240686
-0.038018614 0.18082364 0.6434214 0.47067726 0.3400768 -0.025046982 0.37122926 0.11950926
-0.33683902 0.5128988 1.0618591 0.73166907
00000000: f95e 863f 1a29 79bf e248 58be 562a babd
00000010: d702 b9bd 6975 7f3e a7d2 323f 20f0 323e
00000020: 0ddd 72be 88f2 3dbe 4be1 ed3e 1e19 5abe
00000030: 8e87 43bd 24fe 88bf 92b5 983e 0299 d03e
00000040: 23da 6b3e 5baf cbbe 3c53 5d3f 4ca5 7abf
00000050: 32c3 4abd 117f 4cbd 6222 bf3e f451 723e
00000060: 7709 413f b84c a1be f35a 40bf c396 97be
00000070: 66a4 633e 5474 f73c c6f1 383e a40e aabe
00000080: 1bba d03e 978f 063e aa49 90bd 51d1 58bf
00000090: 5694 a43e ebd8 3d3e 226c 103e 495e 5fbe
000000a0: b23a 7abe ef5f afbd 298a 47be 99ed 19be
000000b0: 2e69 b63d 266d c63d ef25 90be 4d6c 0bbe
000000c0: fbc3 073f d305 3a3d 175f 43be ac18 4bbf
000000d0: 05b3 4abf 46de 1ebf b55a 3dbd 2d5a eb3d
000000e0: be43 44be af9e 59be 4a0e acbd 6040 7ebc
000000f0: 3765 02bf 1e49 6abd 47f5 ae3e ef0f 023e
00000100: 1d56 37be 1071 8fbe d4bb c3be 5646 213e
00000110: 1495 f3bd e902 1cbf 5b73 babe 0b89 4fbe
00000120: 7d61 40be 2ca7 eabe e6bb 01bf 9818 b9be
00000130: a096 8abe b7d2 bebd 6914 a03d f385 d2bd
00000140: b34d a33d 067b 4b3f 41ed 893f 48df 513f
00000150: 20b1 d7be 927e d03b 6bc4 4cbd ad1d 22be
00000160: 8854 80be a8b7 a7be de19 bcbd 5360 0d3f
00000170: e6e7 2b3f 2b87 8e3d 0e68 ac3e 315a 86be
00000180: 68b9 1bbd d529 393e 44b7 243f 9cfc f03e
00000190: 8c1e ae3e 542f cdbc c311 be3e 45c1 f43d
000001a0: 2a76 acbe 564d 033f 00eb 873f aa4e 3b3f

resolve.2.layers.0.conv0.bias f4 [6]
-0.012112797 0.053971417 0.11516392 0.0060739582 0.3064713 -0.18488108
00000000: c174 46bc 2211 5d3d 10db eb3d 0e08 c73b
00000010: cee9 9c3e 7751 3dbe

resolve.2.layers.0.bn0.weight f4 [6]
1.0 1.0 1.0 1.0 1.0 1.0
00000000: 0000 803f 0000 803f 0000 803f 0000 803f
00000010: 0000 803f 0000 803f

resolve.2.layers.0.bn0.bias f4 [6]
0.0 0.0 0.0 0.0 0.0 0.0
00000000: 0000 0000 0000 0000 0000 0000 0000 0000
00000010: 0000 0000 0000 0000

resolve.2.layers.0.bn0.running_mean f4 [6]
0.0 0.0 0.0 0.0 0.0 0.0
00000000: 0000 0000 0000 0000 0000 0000 0000 0000
00000010: 0000 0000 0000 0000

resolve.2.layers.0.bn0.running_var f4 [6]
1.0 1.0 1.0 1.0 1.0 1.0
00000000: 0000 803f 0000 803f 0000 803f 0000 803f
00000010: 0000 803f 0000 803f

resolve.2.layers.0.conv1.weight f4 [6, 6, 1]
-1.0388906 -1.1530621 0.40631786 -0.046487167 -0.091814905 0.8291463 0.1767129 -0.31050217
-0.47355735 -0.055389524 0.03394092 0.44614273 0.31173345 0.10496167 -0.34730053 0.03223864
0.8652674 -0.17629044 1.1698732 1.3626857 -0.1197389 -0.3783213 0.39890462 -0.032480888
-1.5745276 -1.7495943 -0.229397 0.049915694 0.35155174 0.19052091 0.8992844 1.165019
0.09679869 0.14633204 0.02517685 0.074636415
00000000: 5efa 84bf 8a97 93bf e508 d03e 5469 3ebd
00000010: 7409 bcbd ef42 543f 3af4 343e 24fa 9ebe
00000020: 1c76 f2be 20e0 62bd a205 0b3d d26c e43e
00000030: 879b 9f3e 25f6 d63d 60d1 b1be aa0c 043d
00000040: 2a82 5d3f 7b85 34be 68be 953f 7c6c ae3f
00000050: ab39 f5bd 54b3 c1be 3a3d cc3e ae0a 05bd
00000060: 1f8a c9bf b5f2 dfbf 0ce7 6abe 6674 4c3d
00000070: 97fe b33e ea17 433e 8137 663f 581f 953f
00000080: 643e c63d 11d8 153e ae3f ce3c fada 983d

resolve.2.layers.0.conv1.bias f4 [6]
-0.008210757 -0.086017884 -0.2913868 -0.1987404 0.26964742 0.1675166
00000000: 6986 06bc 252a b0bd a730 95be 9a82 4bbe
00000010: 3a0f 8a3e 7989 2b3e

resolve.2.layers.0.bn1.weight f4 [6]
1.0 1.0 1.0 1.0 1.0 1.0
00000000: 0000 803f 0000 803f 0000 803f 0000 803f
00000010: 0000 803f 0000 803f

resolve.2.layers.0.bn1.bias f4 [6]
0.0 0.0 0.0 0.0 0.0 0.0
00000000: 0000 0000 0000 0000 0000 0000 0000 0000
00000010: 0000 0000 0000 0000

resolve.2.layers.0.bn1.running_mean f4 [6]
0.0 0.0 0.0 0.0 0.0 0.0
00000000: 0000 0000 0000 0000 0000 0000 0000 0000
00000010: 0000 0000 0000 0000

resolve.2.layers.0.bn1.running_var f4 [6]
1.0 1.0 1.0 1.0 1.0 1.0
00000000: 0000 803f 0000 803f 0000 803f 0000 803f
00000010: 0000 803f 0000 803f

resolve.2.layers.1.conv0.weight f4 [6, 6, 3]
0.35962287 0.07082814 -0.117430225 -0.25495255 -0.37844634 -0.07210355 -0.39163843 -0.22092992
-0.5169204 -0.5161023 -0.247665 0.28199407 -0.15289699 -0.05916782 0.026488949 0.11540583
-0.13681142 0.4338151 0.07807598 -0.03249724 -0.068786256 0.29610145 0.12254953 0.12891454
0.087538905 -0.26750293 0.008311192 -0.2033471 0.5289614 0.16731967 0.06662948 -0.26809487
0.08943551 -0.65361196 -0.03304972 -0.44662705 -0.22079061 -0.33224025 0.009211924 -0.26713344
0.12779555 -0.22452624 -0.102930516 -0.16517681 -0.13099575 0.40252608 -0.11716441 0.21844178
-0.7028929 -0.31545693 -0.69291407 0.124290705 0.080488004 -0.18235718 -0.6156539 -0.1340384
0.22878833 -0.57657534 0.22552149 -0.70787984 0.019136492 0.14979449 0.632787 -0.15550672
-0.5117576 0.36556366 -0.011353152 -0.3609588 -0.12794957 0.101690285 -0.3869038 -0.04597407
-0.1339025 0.35530862 0.1034764 -0.1284901 0.030876612 0.13570967 0.28851092 0.36414486
-0.048434734 0.19522405 0.20373376 0.34815755 -0.00080906827 -0.008958632 -0.10325777 -0.10490432
-0.30505654 -0.20954196 -0.34727997 0.26527876 -0.39904177 -0.08077534 -0.020207005 0.15059495
0.09481861 0.2851293 0.099967234 0.18507694 -0.60251576 0.56843495 -0.4220837 0.46133888
-0.39157468 0.59215647 -0.1472335 0.1885923
00000000: 7d20 b83e 580e 913d 427f f0bd 2489 82be
00000010: b8c3 c1be 07ab 93bd d584 c8be 743b 62be
00000020: e554 04bf 481f 04bf e59b 7dbe 8761 903e
00000030: 0791 1cbe f559 72bd 5aff d83c e459 ec3d
00000040: 4b18 0cbe 031d de3e 4de6 9f3d d31b 05bd
00000050: cfdf 8cbd 9c9a 973e 3ffb fa3d 2c02 043e
00000060: 9947 b33d 25f6 88be aa2b 083c 393a 50be
00000070: 046a 073f d955 2b3e 0975 883d bb43 89be
00000080: f729 b73d 1d53 27bf 255f 07bd 4dac e4be
00000090: ef16 62be 651b aabe 9ced 163c b7c5 88be
000000a0: d6dc 023e 35ea 65be 3ccd d2bd 1c24 29be
000000b0: c023 06be e617 ce3e e5f3 efbd 34af 5f3e
000000c0: caf0 33bf 9283 a1be d162 31bf 208c fe3d
000000d0: e5d6 a43d d7bb 3abe 7e9b 1dbf 5d41 09be
000000e0: 7d47 6a3e 719a 13bf 1bef 663e 9d37 35bf
000000f0: 22c4 9c3c ba63 193e 54fe 213f 273d 1fbe
00000100: 8c02 03bf 292b bb3e 9202 3abc 98cf b8be
00000110: 3605 03be ff42 d03d 4118 c6be 4e4f 3cbd
00000120: bd1d 09be 03eb b53e 6feb d33d e992 03be
00000130: f3f0 fc3c 7af7 0a3e b4b7 933e 3271 ba3e
00000140: 8063 46bd d0e8 473e 959f 503e b541 b23e
00000150: a717 54ba 3ac7 12bc cf78 d3bd 13d8 d6bd
00000160: 5f30 9cbe 2b92 56be aece b1be 9ed2 873e
00000170: 344f ccbe 8b6d a5bd 2989 a5bc 9035 1a3e
00000180: 4230 c23d 78fc 913e 9fbb cc3d cf84 3d3e
00000190: 793e 1abf f484 113f 5b1b d8be 9c34 ec3e
000001a0: 7a7c c8be 9197 173f 61c4 16be 571e 413e

resolve.2.layers.1.conv0.bias f4 [6]
-0.23235783 -0.040192723 -0.04412527 -0.22968228 0.113590255 -0.035536435
00000000: 36ef 6dbe 20a1 24bd b3bc 34bd d531 6bbe
00000010: 02a2 e83d a78e 11bd

resolve.2.layers.1.bn0.weight f4 [6]
1.0 1.0 1.0 1.0 1.0 1.0
00000000: 0000 803f 0000 803f 0000 803f 0000 803f
00000010: 0000 803f 0000 803f

resolve.2.layers.1.bn0.bias f4 [6]
0.0 0.0 0.0 0.0 0.0 0.0
00000000: 0000 0000 0000 0000 0000 0000 0000 0000
00000010: 0000 0000 0000 0000

resolve.2.layers.1.bn0.running_mean f4 [6]
0.0 0.0 0.0 0.0 0.0 0.0
00000000: 0000 0000 0000 0000 0000 0000 0000 0000
00000010: 0000 0000 0000 0000

resolve.2.layers.1.bn0.running_var f4 [6]
1.0 1.0 1.0 1.0 1.0 1.0
00000000: 0000 803f 0000 803f 0000 803f 0000 803f
00000010: 0000 803f 0000 803f

resolve.2.layers.1.conv1.weight f4 [6, 6, 1]
0.3594414 0.12831035 -0.62884957 -0.0016121353 0.22248974 0.43199527 -0.23325725 -0.18633701
-0.23052353 -0.16321883 0.005394966 0.15467128 0.2593278 -0.054237135 -0.14587031 -0.03597158
0.6294547 0.1869044 -0.25896493 0.4808172 -0.44119745 -0.037932828 -0.29011512 -0.96776
-0.11592197 -0.65013623 -0.56802034 -0.5715313 0.7868263 0.65178984 0.03035302 -0.019773697
0.6045676 0.30345887 0.31675595 0.0072268853
00000000: b408 b83e ca63 033e 49fc 20bf 494e d3ba
00000010: 5ad4 633e 7c2e dd3e fdda 6ebe 21cf 3ebe
00000020: 5c0e 6cbe d622 27be 41c8 b03b 2662 1e3e
00000030: 9dc6 843e c227 5ebd 075f 15be ef56 13bd
00000040: f123 213f de63 3f3e 0d97 84be ac2d f63e
00000050: a2e4 e1be 745f 1bbd f889 94be 1fbf 77bf
00000060: 7f68 edbd 546f 26bf c869 11bf e04f 12bf
00000070: 736d 493f b3db 263f e6a6 f83c 73fc a1bc
00000080: f1c4 1a3f f65e 9b3e d62d a23e 82cf ec3b

resolve.2.layers.1.conv1.bias f4 [6]
-0.09418175 0.057153992 0.118158855 0.066733904 -0.29429042 0.1712714
00000000: 5de2 c0bd 4e1a 6a3d 45fd f13d c9ab 883d
00000010: 3cad 96be c561 2f3e

resolve.2.layers.1.bn1.weight f4 [6]
1.0 1.0 1.0 1.0 1.0 1.0
00000000: 0000 803f 0000 803f 0000 803f 0000 803f
00000010: 0000 803f 0000 803f

resolve.2.layers.1.bn1.bias f4 [6]
0.0 0.0 0.0 0.0 0.0 0.0
00000000: 0000 0000 0000 0000 0000 0000 0000 0000
00000010: 0000 0000 0000 0000

resolve.2.layers.1.bn1.running_mean f4 [6]
0.0 0.0 0.0 0.0 0.0 0.0
00000000: 0000 0000 0000 0000 0000 0000 0000 0000
00000010: 0000 0000 0000 0000

resolve.2.layers.1.bn1.running_var f4 [6]
1.0 1.0 1.0 1.0 1.0 1.0
00000000: 0000 803f 0000 803f 0000 803f 0000 803f
00000010: 0000 803f 0000 803f

resolve.2.layers.2.conv0.weight f4 [6, 6, 3]
-0.3233829 -0.6477432 -0.23805507 0.009614278 0.16112737 0.093769304 0.24342483 -0.058405016
0.15866342 0.0006019422 1.126885 -0.20974323 -0.13072547 -0.40501988 -0.1672865 -0.07123521
0.83975893 -0.17154402 0.14650825 -0.19690639 -0.07984681 0.034342084 0.01376077 0.2566502
0.5952904 0.39221454 -0.097578414 0.6358046 0.96608293 0.21084702 -0.61397123 -0.38856995
0.15817565 -0.5980102 0.3679365 -0.1897183 -0.22407083 -0.333736 0.020154772 -0.0066592093
-0.20434675 0.3457888 0.00029160408 0.14674638 -0.32084343 -0.052390493 -0.21645965 0.0076545402
-0.20311043 0.07418803 0.008480747 -0.005499365 0.019356923 0.08485256 0.16406988 -0.26746324
0.12254937 -0.1801766 0.14263335 -0.11758773 -0.048349455 0.18098462 -0.022372527 -0.4756353
1.220078 -0.015759753 0.0072729453 -0.0069803246 0.08697015 0.0434454 0.38431978 0.044377785
-0.17584674 -0.31940207 0.070994996 0.5255617 -0.08863121 0.29159722 -0.16117519 0.44036376
0.25715968 -0.01364264 0.48026145 -0.110127315 0.17152676 -0.049378578 -0.3328097 -0.09559786
-0.040642276 -0.13217749 0.2534713 -0.2756512 0.089287594 0.38039735 0.28584024 0.42336002
-0.101722464 1.106703 -0.085660696 0.0012344588 -0.04248847 -0.009949387 -0.16119622 -0.04585699
-0.061963912 -0.0021275983 -0.42263544 -0.0499985
00000000: 7292 a5be 80d2 25bf b5c4 73be 3485 1d3c
00000010: 93fe 243e 1f0a c03d 5c44 793e 193a 6fbd
00000020: aa78 223e a8cb 1d3a c53d 903f eec6 56be
00000030: e6dc 05be c45e cfbe 274d 2bbe c4e3 91bd
00000040: 71fa 563f 3ca9 2fbe 4206 163e d4a1 49be
00000050: b986 a3bd 49aa 0c3d da74 613c a867 833e
00000060: f464 183f 58d0 c83e 31d7 c7bd 17c4 223f
00000070: 3651 773f 48e8 573e 382d 1dbf a4f2 c6be
00000080: ccf8 213e 3217 19bf 2c62 bc3e 8445 42be
00000090: d372 65be 72df aabe 9f1b a53c 7f35 dabb
000000a0: 4640 51be 3b0b b13e 70e2 9839 af44 163e
000000b0: 9745 a4be 6a97 56bd 99a7 5dbe f0d2 fa3b
000000c0: 2efc 4fbe e5ef 973d d5f2 0a3c 0434 b4bb
000000d0: 6992 9e3c 2ec7 ad3d ef01 283e f1f0 88be
000000e0: 2afb fa3d 3780 38be 7a0e 123e d6d1 f0bd
000000f0: 140a 46bd 0854 393e 9746 b7bc 7886 f3be
00000100: 842b 9c3f 991a 81bc e351 ee3b 35bb e4bb
00000110: 681d b23d cef3 313d 90c5 c43e 7bc5 353d
00000120: 2b11 34be ab88 a3be d365 913d 368b 063f
00000130: 4884 b5bd 3b4c 953e 1c0b 25be 5c77 e13e
00000140: 6faa 833e 6185 5fbc d4e4 f53e 6e8a e1bd
00000150: b6a4 2f3e 3141 4abd 0866 aabe d0c8 c3bd
00000160: 8478 26bd 8959 07be fdc6 813e 2722 8dbe
00000170: 6adc b63d 71c3 c23e a759 923e a5c2 d83e
00000180: de53 d0bd 72a8 8d3f e06e afbd 90cd a13a
00000190: 6408 2ebd c102 23bc 9f10 25be 8ad4 3bbd
000001a0: dfcd 7dbd 2d6f 0bbb ac63 d8be 3acb 4cbd

resolve.2.layers.2.conv0.bias f4 [6]
0.008333758 0.0137967495 0.03946407 -0.055305135 -0.01974472 -0.017368345
00000000: 518a 083c c30b 623c 14a5 213d a387 62bd
00000010: aebf a1bc 0f48 8ebc

resolve.2.layers.2.bn0.weight f4 [6]
1.0 1.0 1.0 1.0 1.0 1.0
00000000: 0000 803f 0000 803f 0000 803f 0000 803f
00000010: 0000 803f 0000 803f

resolve.2.layers.2.bn0.bias f4 [6]
0.0 0.0 0.0 0.0 0.0 0.0
00000000: 0000 0000 0000 0000 0000 0000 0000 0000
00000010: 0000 0000 0000 0000

resolve.2.layers.2.bn0.running_mean f4 [6]
0.0 0.0 0.0 0.0 0.0 0.0
00000000: 0000 0000 0000 0000 0000 0000 0000 0000
00000010: 0000 0000 0000 0000

resolve.2.layers.2.bn0.running_var f4 [6]
1.0 1.0 1.0 1.0 1.0 1.0
00000000: 0000 803f 0000 803f 0000 803f 0000 803f
00000010: 0000 803f 0000 803f

resolve.2.layers.2.conv1.weight f4 [6, 6, 1]
0.132927 0.16504066 0.46404752 -0.14954884 -0.16679086 -0.24097824 0.09664448 0.0024750016
-0.057493564 0.13067138 -0.11979073 -0.20699097 0.010929199 0.09620434 0.25123748 0.1925629
-0.14282398 0.20697346 0.14535625 -0.09420809 0.3114471 0.24170262 0.05411068 0.23759915
-0.089465655 -0.86424947 -0.06899282 -0.99540955 -0.11623683 0.35631025 0.7075136 0.039778836
0.0769152 0.17227879 0.5188505 -0.21318386
00000000: 041e 083e 6b00 293e a397 ed3e 5523 19be
00000010: 39cb 2abe 00c3 76be 8bed c53d a333 223b
00000020: 5f7e 6bbd b8ce 053e d854 f5bd 71f5 53be
00000030: 6210 333c c806 c53d 33a2 803e 352f 453e
00000040: 7340 12be daf0 533e 45d8 143e 2cf0 c0bd
00000050: ff75 9f3e e480 773e 29a3 5d3d 314d 733e
00000060: c539 b7bd 743f 5dbf 1c4c 8dbd 29d3 7ebf
00000070: 930d eebd 4c6e b63e 9c1f 353f 22ef 223d
00000080: b785 9d3d da69 303e 63d3 043f df4c 5abe

resolve.2.layers.2.conv1.bias f4 [6]
-0.040726822 -0.32554865 -0.025946593 -0.13023397 -0.37532339 -0.20984836
00000000: 2bd1 26bd 50ae a6be f38d d4bc 0e5c 05be
00000010: 632a c0be 7de2 56be

resolve.2.layers.2.bn1.weight f4 [6]
1.0 1.0 1.0 1.0 1.0 1.0
00000000: 0000 803f 0000 803f 0000 803f 0000 803f
00000010: 0000 803f 0000 803f

resolve.2.layers.2.bn1.bias f4 [6]
0.0 0.0 0.0 0.0 0.0 0.0
00000000: 0000 0000 0000 0000 0000 0000 0000 0000
00000010: 0000 0000 0000 0000

resolve.2.layers.2.bn1.running_mean f4 [6]
0.0 0.0 0.0 0.0 0.0 0.0
00000000: 0000 0000 0000 0000 0000 0000 0000 0000
00000010: 0000 0000 0000 0000

resolve.2.layers.2.bn1.running_var f4 [6]
1.0 1.0 1.0 1.0 1.0 1.0
00000000: 0000 803f 0000 803f 0000 803f 0000 803f
00000010: 0000 803f 0000 803f

resolve.2.layers.3.weight f4 [12, 6, 12]
0.4841491 0.29955593 0.19901322 -0.22317475 -0.038618233 -0.05415037 -0.23312615 -0.022165837
0.3392364 0.108914465 -0.11881668 0.1518719 0.34895015 0.20046596 0.013369483 -0.16239122
-0.148159 -0.055898495 -0.17838171 -0.17929009 -0.22947234 -0.03650214 -0.065535754 0.26673976
-0.4028239 -0.19669989 -0.057642236 0.22586961 0.24632049 0.11988642 0.109639496 0.03782151
0.054565623 -0.097068 -0.07466448 -0.08071507 0.046713993 0.049174797 0.008194168 0.23208241
0.30779406 0.03476656 -0.038631395 0.0064551043 -0.0051410226 -0.0043888455 -0.05258888 -0.2453915
-0.1573289 0.12692736 -0.17985168 -0.22095665 0.15688582 0.11506674 0.29552814 -0.14696905
-0.01738732 0.16702732 -0.16791391 -0.10949073 0.060837902 -0.018198136 0.124776535 0.2062475
-0.29581624 -0.5818127 0.236015 0.64776367 0.16745879 -0.15294914 0.0992698 -0.18580757
0.47926104 0.39861155 0.21118902 0.38461435 -0.0371122 -0.26501867 -0.30296546 -0.5344342
-0.10904252 0.38883576 0.25846708 0.025472224 -0.0021181933 0.10375752 -0.05243906 -0.19638696
-0.17985986 -0.16545126 0.020926964 0.0958071 0.048671205 0.10207084 0.058351412 -0.246585
-0.1044878 -0.07422374 -0.24775842 0.043862645 0.15380007 0.16112919 0.1567654 0.07270151
-0.18008517 -0.14413887 -0.037027314 0.09605461 -0.009883321 -0.14327261 -0.16674648 0.12492001
0.16026685 0.55548143 0.24729924 -0.10848359 -0.3219667 -0.11436961 0.1141697 0.08645
0.25961754 0.3648738 0.115858704 -0.044686936 -0.452491 -0.2954526 -0.32311144 0.13342364
0.22124976 0.40777928 0.007586703 -0.03792991 -0.6134694 -0.2668475 0.14692251 -0.101899415
0.38854352 0.32936785 0.43038344 0.12383824 0.0072715045 -0.33415452 -0.033431143 -0.0036583706
-0.07048839 -0.08040693 0.0034084115 0.455239 -0.086302474 0.042618174 0.039952464 -0.2387573
-0.2855368 -0.2473395 -0.0077385223 -0.24060152 0.11608617 0.011288696 -0.12392938 0.3261217
0.13844626 0.18501581 -0.028315708 0.01986282 0.13744864 -0.07792198 -0.16923322 0.016619632
-0.11832592 0.110797696 -0.047158837 -0.3272268 -0.17078654 0.08951911 0.15556541 0.2475342
0.047953155 0.06496819 0.06447632 0.013476151 0.16729149 0.19849299 0.094544 -0.047555026
-0.14896938 -0.19899765 0.04745066 -0.0514897 0.008530792 -0.31685328 -0.18746269 -0.34323576
-0.009417395 -0.027642567 0.017818742 0.2287818 -0.058868367 -0.12645717 -0.0031912734 0.052262433
-0.0937899 -0.0679072 -0.1124684 -0.24021517 -0.40803853 -0.3672853 -0.118984066 -0.025542535
-0.120074235 -0.033367354 -0.043968428 0.20150197 0.1407406 -0.031008955 0.26055622 0.37385613
-0.071351565 0.31156453 0.38681865 -0.015607102 -0.7728084 -0.40091044 0.5496017 0.62674403
0.122848 -0.31583703 -0.044388566 0.15141526 -0.06624125 -0.045091618 0.0131944185 -0.19844012
-0.095241055 0.18928763 0.19710262 0.0960671 -0.09676681 0.021908814 0.1699702 -0.080582865
-0.13073254 -0.040311713 -0.14168064 0.2338058 0.17200015 0.041381523 -0.15665226 -0.10542222
0.06535762 0.1817575 -0.011602504 -0.020134509 -0.043891575 -0.005558298 0.0068830755 0.18068573
00000000: 64e2 f73e 655f 993e 1fca 4b3e ec87 64be
00000010: 272e 1ebd c7cc 5dbd 9fb8 6ebe 2195 b5bc
00000020: 65b0 ad3e 8c0e df3d 2956 f3bd 4f84 1b3e
00000030: 98a9 b23e f346 4d3e ad0b 5b3c e249 26be
00000040: feb6 17be d2f5 64bd b2a9 36be d297 37be
00000050: ccfa 6abe 4583 15bd 9c37 86bd 1d92 883e
00000060: ef3e cebe b26b 49be 441a 6cbd 5d4a 673e
00000070: 703b 7c3e 0387 f53d ac8a e03d baea 1a3d
00000080: 3480 5f3d 96cb c6bd b1e9 98bd f14d a5bd
00000090: 2c57 3f3d 836b 493d d540 063c 03a7 6d3e
000000a0: 2f97 9d3e 6167 0e3d f43b 1ebd 5785 d33b
000000b0: 0676 a8bb 4ed0 8fbb 7067 57bd e947 7bbe
000000c0: d41a 21be 3ff9 013e 0a2b 38be 7642 62be
000000d0: ada6 203e 1ca8 eb3d 774f 973e 0e7f 16be
000000e0: da6f 8ebc 3609 2b3e a0f1 2bbe ad3c e0bd
000000f0: 2a31 793d 4214 95bc d78a ff3d 8b32 533e
00000100: 3a75 97be adf1 14bf ebad 713e d7d3 253f
00000110: 517a 2b3e b39e 1cbe f74d cb3d 5744 3ebe
00000120: b461 f53e d016 cc3e ef41 583e 2cec c43e
00000130: f602 18bd 87b0 87be 4a1e 9bbe aed0 08bf
00000140: af51 dfbd 7b15 c73e cc55 843e 20ab d03c
00000150: 63d1 0abb d37e d43d 57ca 56bd aa19 49be
00000160: 2f2d 38be 0e6c 29be 066f ab3c 8336 c43d
00000170: 755b 473d 840a d13d e401 6f3d c780 7cbe
00000180: b3fd d5bd 9e02 98bd 62b4 7dbe 51a9 333d
00000190: c47d 1d3e 0dff 243e 1c87 203e 87e4 943d
000001a0: 3f68 38be 2499 13be f4a9 17bd 48b8 c43d
000001b0: a7ed 21bc 0eb6 12be 97bf 2abe 10d6 ff3d
000001c0: fe1c 243e 0834 0e3f 033c 7d3e a52c debd
000001d0: d2d8 a4be 9d3a eabd ced1 e93d b30c b13d
000001e0: 97ec 843e bdd0 ba3e 5447 ed3d a609 37bd
000001f0: e6ac e7be 9045 97be dd6e a5be 35a0 083e
00000200: 4c8f 623e 72c8 d03e e199 f83b 655c 1bbd
00000210: 550c 1dbf 3ca0 88be db72 163e a4b0 d0bd
00000220: 2def c63e e7a2 a83e 385b dc3e e79e fd3d
00000230: cd45 ee3b 4d16 abbe 18ef 08bd 46c1 6fbb
00000240: 385c 90bd 63ac a4bd a85f 5f3b 1615 e93e
00000250: 5abf b0bd 6590 2e3d 32a5 233d cb7c 74be
00000260: e131 92be 9146 7dbe 6e93 fdbb 3f60 76be
00000270: 96be ed3d 39f4 383c b0ce fdbd 6cf9 a63e
00000280: dbc4 0d3e c974 3d3e 58f6 e7bc 5ab7 a23c
00000290: 56bf 0c3e 8f95 9fbd 794b 2dbe e525 883c
000002a0: dc54 f2bd e7e9 e23d a029 41bd 458a a7be
000002b0: abe2 2ebe cc55 b73d 8a4c 1f3e 9b79 7d3e
000002c0: 876a 443d 0b0e 853d 290c 843d 13cb 5c3c
000002d0: 764e 2b3e bf41 4b3e 49a0 c13d 0fc9 42bd
000002e0: 6e8b 18be 0ac6 4bbe a05b 423d dde6 52bd
000002f0: bcc4 0b3c 983a a2be 38f6 3fbe 99bc afbe
00000300: 6b4b 1abc aa72 e2bc 9cf8 913c c745 6a3e
00000310: f51f 71bd fd7d 01be af24 51bb 2211 563d
00000320: eb14 c0bd ee12 8bbd d555 e6bd f7fa 75be
00000330: 6dea d0be d20c bcbe ebad f3bd 943e d1bc
00000340: 7be9 f5bd 35ac 08bd 3d18 34bd 8856 4e3e
00000350: 4e1e 103e 7e06 febc a067 853e 126a bf3e
00000360: c520 92bd 6385 9f3e 180d c63e eeb4 7fbc
00000370: c5d6 45bf 2244 cdbe b2b2 0c3f 4c72 203f
00000380: bb97 fb3d 64b5 a1be c9d0 35bd 9a0c 1b3e
00000390: 7ea9 87bd fdb1 38bd 672d 583c e333 4bbe
000003a0: be0d c3bd 9ed4 413e 45d5 493e d4be c43d
000003b0: ad2d c6bd 1d7a b33c ab0c 2e3e a108 a5bd
000003c0: c0de 05be e51d 25bd bb14 11be ca6a 6f3e
000003d0: cf20 303e ac7f 293d 7369 20be 9be7 d7bd
000003e0: 37da 853d a31e 3a3e 6e18 3ebc 20f1 a4bc
000003f0: a7c7 33bd 6222 b6bb 6c8b e13b ae05 393e

resolve.2.layers.3.bias f4 [12]
0.21275595 0.0018211004 -0.050187487 0.048188414 0.123391405 0.083910175 0.037618835 0.5034516
-0.10838656 -0.033052444 -0.10088871 -0.31846574
00000000: b2dc 593e fdb1 ee3a 6591 4dbd 3761 453d
00000010: a2b4 fc3d 19d9 ab3d 3516 1a3d 34e2 003f
00000020: c6f9 ddbd 0062 07bd bd9e cebd f10d a3be

resolve.3.layers.0.conv0.weight f4 [12, 12, 3]
0.05127944 0.30091107 -0.25355378 -0.26479235 0.43008667 -0.35546988 0.20859614 -0.32650235
0.24138267 0.13604881 0.7975584 -0.028710298 0.120144725 -0.10347252 -0.18815151 -0.34623674
0.28305942 -0.589074 -0.07778959 0.16876999 -0.014448845 -0.028597021 -0.34198973 0.41666585
-0.0461079 -0.38407788 0.2251412 0.042305946 -0.12327441 0.13615602 0.046379827 -0.021046348
0.038585458 -0.15755722 0.059951562 -0.001597014 0.0032259594 -0.037608143 0.6912036 -0.17623547
-0.1396462 -0.14122917 0.07852195 0.044394452 -0.115573384 -0.13495862 0.13080652 -0.05724947
0.14750639 -0.011340274 -0.2646356 -0.22786632 0.0064506545 -0.069734916 0.12191083 0.33584186
0.08716431 -0.24902157 -0.30269432 0.18321465 0.09905737 0.47224948 -0.08222636 -0.3382919
0.47210625 0.18646747 0.16063869 0.082234524 0.16656044 -0.1507976 -0.008389604 -0.15198578
0.26968953 -0.090583645 0.033630893 -0.014492362 -0.07124898 0.022393366 0.15655896 -0.09714725
0.20646575 0.03496316 0.03738055 0.01937344 -0.06129147 0.16126637 0.04296237 -0.0745194
-0.08579935 -0.1099728 -0.47386548 0.17426282 0.4680036 -0.16142786 -0.030490737 -0.055843037
-0.056151673 0.09497061 0.048781205 0.6039704 0.16961803 -0.02598304 0.4857293 -0.10536765
-0.34750357 -0.56070983 0.13429815 0.5221421 -0.28558782 -0.097833514 -0.024241002 0.084053345
0.11517293 -0.039432455 -0.1414156 0.31688565 -0.14692923 0.26754227 0.09873013 -0.11683782
0.13006437 0.3492551 0.22867382 -0.13997743 -0.2646883 0.25092044 -0.043028355 -0.16435966
0.009506278 -0.25077567 0.4770856 0.25807238 0.017305184 0.047367617 0.5889442 -0.117626615
-0.11826248 0.11670422 0.06890993 -0.1869207 -0.009107012 0.21635525 -0.07027563 -0.2815348
0.40691265 -0.31982955 0.0018854334 -0.040398054 -0.085919 0.0065019014 -0.19894932 0.07982457
0.41387442 0.045268025 -0.0042574042 0.071264364 -0.087086916 0.075287856 0.03801071 -0.07366067
0.13166158 -0.2568846 0.30857116 0.03823116 -0.2567845 -0.23360533 0.0027631188 -0.033291463
-0.0987622 0.22049625 0.069475494 -0.23396283 0.547482 -0.13324183 -0.27379677 0.26439467
-0.040497378 -0.08277894 -0.0644903 0.18759787 -0.057226423 0.07815092 -0.44043797 -0.14090002
0.35648116 0.18527119 0.22906464 0.14813432 -0.107672326 0.009258666 -0.11792881 0.11915962
-0.122102536 0.5360561 0.19136295 0.007245434 -0.23430793 -0.035704304 -0.06581863 0.20440814
-0.087367296 0.11997913 0.7197735 -0.36231676 -0.10012137 -0.29157194 -0.23439308 0.4279449
-0.12224501 0.35449672 -0.030343616 -0.039272398 0.09464772 0.06859401 0.11119402 -0.116863124
0.022664307 -0.07599234 0.23623659 0.44224614 -0.1561997 -0.01053712 0.6254756 -0.43178505
-0.10492569 -0.046696782 0.015775688 -0.10300109 -0.021572027 -0.010438103 -0.076018795 -0.07815419
0.3457447 -0.17967877 0.13503931 -0.12676144 -0.098374814 0.016406072 -0.08464878 -0.13089755
-0.11600965 0.324704 -0.005349764 -0.5094798 0.26865488 0.06591293 0.12995577 -0.0043599773
-0.09021882 -0.021234415 0.009015955 0.16779323 0.15481207 -0.5372247 0.6690317 -0.13661928
00000000: 640a 523d 0411 9a3e cdd1 81be dd92 87be
00000010: 5234 dc3e 2600 b6be 3a9a 553e 512b a7be
00000020: 052d 773e 6150 0b3e ca2c 4c3f dc31 ebbc
00000030: 700e f63d 67e9 d3bd caaa 40be f145 b1be
00000040: 2aed 903e 8ecd 16bf 2650 9fbd 0ad2 2c3e
00000050: d9ba 6cbc 4d44 eabc 4719 afbe 3a55 d53e
00000060: a3db 3cbd dba5 c4be 6a8b 663e 0049 2d3d
00000070: 4b77 fcbd 7c6c 0b3e c6f8 3d3d 6469 acbc
00000080: c90b 1e3d ae56 21be c58f 753d e652 d1ba
00000090: 9e6a 533b ff0a 1abd b8f2 303f 1277 34be
000000a0: 6aff 0ebe 619e 10be 1ed0 a03d f5d6 353d
000000b0: bdb1 ecbd 9832 0abe 25f2 053e 6c7e 6abd
000000c0: ea0b 173e 8ecc 39bc 517e 87be ca55 69be
000000d0: 0360 d33b 2ed1 8ebd 63ac f93d 77f3 ab3e
000000e0: 3483 b23d 83ff 7ebe c0fa 9abe 9f9c 3b3e
000000f0: 97de ca3d afca f13e 4b66 a8bd 9934 adbe
00000100: e9b7 f13e 54f1 3e3e 787e 243e 936a a83d
00000110: d28e 2a3e b06a 1abe 8d74 09bc 29a2 1bbe
00000120: bf14 8a3e eb83 b9bd 8cc0 093d 5f71 6dbc
00000130: fcea 91bd 4b72 b73c fe50 203e 23f5 c6bd
00000140: c26b 533e 8835 0f3d 591c 193d 0cb5 9e3c
00000150: c40c 7bbd 0323 253e 4ff9 2f3d a19d 98bd
00000160: 92b7 afbd 6b39 e1bd 7f9e f2be f471 323e
00000170: 2b9e ef3e 584d 25be b6c7 f9bc abbb 64bd
00000180: 4cff 65bd f47f c23d cdce 473d ce9d 1a3f
00000190: 59b0 2d3e 62da d4bc 83b1 f83e ffca d7bd
000001a0: fdeb b1be ae8a 0fbf 7485 093e 1bab 053f
000001b0: 9138 92be f05c c8bd 1195 c6bc 2924 ac3d
000001c0: c9df eb3d ed83 21bd 40cf 10be d63e a23e
000001d0: 9e74 16be 4dfb 883e 0633 ca3d ab48 efbd
000001e0: 982f 053e 91d1 b23e 7829 6a3e 3e56 0fbe
000001f0: 3a85 87be a578 803e 803e 30bd e64d 28be
00000200: 38c0 1b3c ab65 80be 9044 f43e 1022 843e
00000210: 9ac3 8d3c 8c04 423d 0cc5 163f 39e6 f0bd
00000220: 9933 f2bd 9f02 ef3d a620 8d3d 2468 3fbe
00000230: 9435 15bc 3b8c 5d3e abec 8fbd 5425 90be
00000240: db56 d03e b3c0 a3be a620 f73a 6e78 25bd
00000250: 4df6 afbd e70d d53b 5fb9 4bbe 107b a33d
00000260: 59e7 d33e f76a 393d b281 8bbb 0df3 913d
00000270: a05a b2bd 8530 9a3d 1eb1 1b3d 68db 96bd
00000280: 4bd2 063e 6186 83be 0afd 9d3e 4798 1c3d
00000290: 4279 83be 3c36 6fbe 7115 353b a15c 08bd
000002a0: d643 cabd c5c9 613e 2b49 8e3d f493 6fbe
000002b0: c827 0c3f 8c70 08be 172f 8cbe bd5e 873e
000002c0: 94e0 25bd 0188 a9bd 7e13 84bd a819 403e
000002d0: 4166 6abd 970d a03d 1681 e1be 1848 10be
000002e0: b384 b63e bbb7 3d3e ec8f 6a3e 86b0 173e
000002f0: 4f83 dcbd a9b1 173c a984 f1bd f509 f43d
00000300: e510 fabd f93a 093f a6f4 433e 1b6b ed3b
00000310: 6bee 6fbe ad3e 12bd ebcb 86bd 5e50 513e
00000320: a0ed b2bd 9eb7 f53d 1343 383f 9581 b9be
00000330: 6f0c cdbd eb48 95be bd04 70be 981b db3e
00000340: 985b fabd 9880 b53e 2d93 f8bc 18dc 20bd
00000350: aad6 c13d 047b 8c3d b1b9 e33d ef55 efbd
00000360: 7faa b93c dfa1 9bbd 01e8 713e 166e e23e
00000370: d0f2 1fbe e2a3 2cbc 2b1f 203f ee12 ddbe
00000380: 48e3 d6bd 2045 3fbd 043c 813c 3cf2 d2bd
00000390: d2b7 b0bc 9404 2bbc beaf 9bbd 4e0f a0bd
000003a0: 7305 b13e b6fd 37be bf47 0a3e c0cd 01be
000003b0: bc78 c9bd 0766 863c 575c adbd 020a 06be
000003c0: 7896 edbd 9a3f a63e 134d afbb 456d 02bf
000003d0: 228d 893e 5cfd 863d 2013 053e 24de 8ebb
000003e0: a5c4 b8bd ccf3 adbc a8b7 133c fdd1 2b3e
000003f0: 0e87 1e3e 8f87 09bf a945 2b3f ede5 0bbe

resolve.3.layers.0.conv0.bias f4 [12]
0.0073770415 -0.14565565 -0.10182171 0.03786931 0.16538623 0.3153682 0.0024161213 0.09679752
-0.3585327 -0.15214746 -0.027348626 0.044239316
00000000: 1cbb f13b c126 15be e787 d0bd d91c 1b3d
00000010: 025b 293e f177 a13e ca57 1e3b c73d c63d
00000020: 9991 b7be 8bcc 1bbe 3a0a e0bc 4934 353d

resolve.3.layers.0.bn0.weight f4 [12]
1.0 1.0 1.0 1.0 1.0 1.0 1.0 1.0
1.0 1.0 1.0 1.0
00000000: 0000 803f 0000 803f 0000 803f 0000 803f
00000010: 0000 803f 0000 803f 0000 803f 0000 803f
00000020: 0000 803f 0000 803f 0000 803f 0000 803f

resolve.3.layers.0.bn0.bias f4 [12]
0.0 0.0 0.0 0.0 0.0 0.0 0.0 0.0
0.0 0.0 0.0 0.0
00000000: 0000 0000 0000 0000 0000 0000 0000 0000
00000010: 0000 0000 0000 0000 0000 0000 0000 0000
00000020: 0000 0000 0000 0000 0000 0000 0000 0000

resolve.3.layers.0.bn0.running_mean f4 [12]
0.0 0.0 0.0 0.0 0.0 0.0 0.0 0.0
0.0 0.0 0.0 0.0
00000000: 0000 0000 0000 0000 0000 0000 0000 0000
00000010: 0000 0000 0000 0000 0000 0000 0000 0000
00000020: 0000 0000 0000 0000 0000 0000 0000 0000

resolve.3.layers.0.bn0.running_var f4 [12]
1.0 1.0 1.0 1.0 1.0 1.0 1.0 1.0
1.0 1.0 1.0 1.0
00000000: 0000 803f 0000 803f 0000 803f 0000 803f
00000010: 0000 803f 0000 803f 0000 803f 0000 803f
00000020: 0000 803f 0000 803f 0000 803f 0000 803f

resolve.3.layers.0.conv1.weight f4 [12, 12, 1]
-0.088189535 -0.10958958 0.12920749 -0.121504575 -0.6832852 0.22157231 0.37962914 -0.120009474
-0.14200006 0.31225136 0.024844255 -0.1592861 0.20936887 -0.3866171 -0.008651001 -0.27898723
0.14254199 0.2650093 0.039195474 0.1657452 -0.07928354 -0.008496949 -0.25103796 -0.056452554
-0.48023918 -0.21808186 -0.058737878 0.4605136 -0.078993574 0.36161748 -0.47557792 -0.24112622
0.5694195 0.51134324 0.11842387 -0.048184786 0.070943244 0.3476018 -0.020823345 0.39291188
-0.17684673 -0.49346265 0.5557798 0.038466327 -0.5962806 -0.073906615 0.3504342 0.32348293
-0.1143969 -0.17074548 -0.12841417 -0.2671058 0.5953412 -0.28364903 -0.06242892 0.30732518
-0.15615053 -0.058181465 -0.21548809 0.031983163 0.70191145 -0.03804872 0.05967406 -0.3895711
0.54092896 -0.25074258 0.25944346 -0.1387349 0.2951758 0.022067355 -0.030807562 -0.0055175335
-0.006982136 -0.0059723402 -0.02479801 -0.02294643 -0.025077272 0.003028939 -0.020376839 0.0008173821
-0.0013165325 -0.024853148 0.19491856 -0.069442354 0.064652964 -0.20781362 0.17128725 -0.1500983
0.5291344 0.17231038 0.2879994 -0.2997769 0.015910534 0.28187546 0.17021404 0.24637398
-0.07658876 0.38578784 -0.033056676 0.005816457 -0.16327919 -0.17871763 0.19267687 -0.1488461
0.08934491 -0.06986291 0.17132884 -0.029518707 0.08161681 0.025924416 -1.3135198 0.15875557
0.0893254 -0.0041768225 -0.08766256 0.063336 0.011704984 0.049065124 -0.113168575 -0.44668663
0.00014872127 0.014536166 -0.021385202 0.0083657615 -0.02381559 0.0013133277 -0.020327052 0.0011442398
0.0023636413 0.007619848 0.09349983 0.5223972 0.1549076 0.15834369 0.3760264 0.12728031
-0.45394483 -0.014707806 -0.11323965 -0.028645406 0.049444288 -0.033576127 -0.39482895 0.32410967
00000000: b79c b4bd 8070 e0bd f84e 043e 64d7 f8bd
00000010: c7eb 2ebf dae3 623e c05e c23e 87c7 f5bd
00000020: 7768 11be 69df 9f3e 2e86 cb3c e51b 23be
00000030: cb64 563e adf2 c5be eebc 0dbc 6ad7 8ebe
00000040: 87f6 113e 4daf 873e 6f8b 203d 1cb9 293e
00000050: 695f a2bd ca36 0bbc 0c88 80be cb3a 67bd
00000060: e9e1 f5be da50 5fbe 2197 70bd 70c8 eb3e
00000070: 62c7 a1bd ed25 b93e f37e f3be cbe9 76be
00000080: 7ac5 113f 64e7 023f 3788 f23d 695d 45bd
00000090: b14a 913d ddf8 b13e b895 aabc bf2b c93e
000000a0: 4f17 35be 23a7 fcbe 9647 0e3f de8e 1d3d
000000b0: d8a5 18bf 5a5c 97bd 1d6c b33e 8e9f a53e
000000c0: ec48 eabd e7d7 2ebe 017f 03be 17c2 88be
000000d0: 4868 183f 723a 91be 78b5 7fbd ba59 9d3e
000000e0: ede5 1fbe b04f 6ebd e9a8 5cbe c700 033d
000000f0: 78b0 333f fad8 1bbd ca6c 743d dd75 c7be
00000100: 527a 0a3f 5561 80be c6d5 843e 8610 0ebe
00000110: 4821 973e 99c6 b43c 2460 fcbc 6dcc b4bb
00000120: 67ca e4bb 9fb3 c3bb 3225 cbbc 27fa bbbc
00000130: da6e cdbc 2a81 463b 54ed a6bc 9645 563a
00000140: 808f acba d498 cbbc bb98 473e cb37 8ebd
00000150: c668 843d 18cd 54be ed65 2f3e 5eb3 19be
00000160: 5a75 073f 2272 303e a874 933e 5c7c 99be
00000170: cf56 823c fb51 903e 974c 2e3e 7649 7c3e
00000180: 91da 9cbd fc85 c53e 7066 07bd fa97 be3b
00000190: a932 27be c101 37be 164d 453e 1d6b 18be
000001a0: 77fa b63d 4914 8fbd d470 2f3e 37d1 f1bc
000001b0: b726 a73d 715f d43c 6b21 a8bf d290 223e
000001c0: 3cf0 b63d badd 88bb 6e88 b3bd 4eb6 813d
000001d0: 43c6 3f3c 83f8 483d edc4 e7bd 1cb4 e4be
000001e0: 10f2 1b39 1929 6e3c 0530 afbc 8c10 093c
000001f0: ea18 c3bc f723 ac3a eb84 a6bc 51fa 953a
00000200: 52e7 1a3b ebaf f93b d77c bf3d d3bb 053f
00000210: 19a0 1e3e d924 223e 8886 c03e c555 023e
00000220: 756b e8be 02f9 70bc 31ea e7bd c5a9 eabc
00000230: 1886 4a3d 1f87 09bd 0527 cabe b4f1 a53e

resolve.3.layers.0.conv1.bias f4 [12]
-0.5057356 -0.16662166 -0.15196754 0.33787486 -0.035688456 0.019287886 -0.21228513 -0.08865018
0.021479553 -0.26114714 0.23300865 0.17202719
00000000: e377 01bf de9e 2abe 619d 1bbe effd ac3e
00000010: 0f2e 12bd a101 9e3c 4661 59be 3a8e b5bd
00000020: e3f5 af3c 14b5 85be d299 6e3e e527 303e

resolve.3.layers.0.bn1.weight f4 [12]
1.0 1.0 1.0 1.0 1.0 1.0 1.0 1.0
1.0 1.0 1.0 1.0
00000000: 0000 803f 0000 803f 0000 803f 0000 803f
00000010: 0000 803f 0000 803f 0000 803f 0000 803f
00000020: 0000 803f 0000 803f 0000 803f 0000 803f

resolve.3.layers.0.bn1.bias f4 [12]
0.0 0.0 0.0 0.0 0.0 0.0 0.0 0.0
0.0 0.0 0.0 0.0
00000000: 0000 0000 0000 0000 0000 0000 0000 0000
00000010: 0000 0000 0000 0000 0000 0000 0000 0000
00000020: 0000 0000 0000 0000 0000 0000 0000 0000

resolve.3.layers.0.bn1.running_mean f4 [12]
0.0 0.0 0.0 0.0 0.0 0.0 0.0 0.0
0.0 0.0 0.0 0.0
00000000: 0000 0000 0000 0000 0000 0000 0000 0000
00000010: 0000 0000 0000 0000 0000 0000 0000 0000
00000020: 0000 0000 0000 0000 0000 0000 0000 0000

resolve.3.layers.0.bn1.running_var f4 [12]
1.0 1.0 1.0 1.0 1.0 1.0 1.0 1.0
1.0 1.0 1.0 1.0
00000000: 0000 803f 0000 803f 0000 803f 0000 803f
00000010: 0000 803f 0000 803f 0000 803f 0000 803f
00000020: 0000 803f 0000 803f 0000 803f 0000 803f

resolve.3.layers.1.conv0.weight f4 [12, 12, 3]
0.49604464 0.12717834 0.5412686 -0.37525487 0.25397024 -0.70484763 -0.6368012 0.27198157
-0.8263792 -0.21002921 -1.5501529 -0.1446061 0.14153479 0.5910622 0.12933359 -0.35991964
0.035654712 -0.3294294 0.036271565 -0.09063625 0.098495625 0.13859203 0.1081792 0.35468978
-0.36066735 -1.0700634 -0.12323735 0.16156718 -0.009916246 0.04452121 -0.06807822 0.10399683
0.051393673 -0.07976742 0.15044951 -0.177272 -0.00423279 0.24257933 -0.14143114 -0.06739187
-0.102908544 -0.12710267 -0.15833627 -0.27022365 -0.11377118 -0.13030745 -0.3627411 -0.15499978
-0.22308253 -0.8679488 -0.29368976 -0.13562937 -0.10350303 -0.20322122 -0.112645 0.22741635
-0.16729094 -0.22753875 -0.6826884 -0.49765003 -0.077860266 -0.012045821 -0.04147472 0.17638326
-0.21244732 -0.17696476 -0.28098935 -0.11528608 0.1218005 -0.3299318 0.22779669 -0.5233362
-0.1563214 -0.33512554 -0.017737413 -0.107190415 -0.10729323 -0.06335204 -0.10655522 0.0077852723
-0.045207143 -0.058243804 -0.0151267955 0.006850784 -0.09728613 -0.15584852 -0.18406504 0.024140505
-0.053551998 0.0036871939 -0.509206 0.30295178 0.0294172 0.1064165 0.13469104 0.05290691
-0.071514 0.0014107506 -0.07612439 -0.2801191 -0.34175292 0.11750427 0.4803163 -0.30776563
-0.638494 -0.027607141 -0.022631692 -0.38715616 -0.037793767 -0.09367391 -0.050266728 0.07154182
-0.25604695 -0.014515189 0.034717627 0.19342387 0.08113444 -0.02231626 0.09435809 0.06880093
0.010589648 0.040666047 -0.07825434 -0.005572905 -0.09535035 -0.018204782 -0.09552835 0.035353728
0.0034312282 0.42196044 -0.012549643 0.22267354 0.001197222 0.062328618 0.11670565 -0.050001465
-0.029638253 -0.03476445 0.029643482 0.04832797 -0.08479306 -0.051707245 -0.059506204 -0.3122036
0.07235818 -0.18752939 0.3726327 -0.5305453 0.28844678 -0.35888693 -0.5975669 -0.30410653
-0.4748032 -0.46145722 0.29288304 -0.4421019 0.31261194 0.10962396 0.33000574 -0.1778738
0.12403904 -0.13850184 0.031117013 -0.07089718 0.07496594 -0.12140113 -0.014911012 -0.048642594
-0.22565785 -0.62572044 -0.23684315 -0.07759531 0.2722428 0.022268055 0.021214832 -0.016700579
0.14273012 0.0937886 0.056275412 -0.16846935 -0.023950633 0.2598776 -0.005043426 0.03936973
0.09933519 0.11910374 0.07405083 0.10973709 0.07001622 0.08115703 0.09456723 0.07841579
-0.015768893 -0.24935097 0.0015459425 -0.06749939 -0.06828422 -0.006497533 0.17999461 -0.08475644
-0.007849404 0.02494403 -0.05402842 -0.037993334 0.038088277 0.07867681 0.040260352 -0.12537289
0.93417764 -0.20648329 -0.44780454 0.64374053 -0.16182777 0.23585436 -1.1810153 -0.23767382
0.07941626 0.04594196 0.03891348 -0.26639646 -0.8439768 -0.32802248 -0.4608279 -0.18666545
-0.32293224 -0.4081014 -0.06720757 -0.33898726 -0.16966899 0.122187085 0.1928142 -0.13559683
0.15221663 -0.20330274 0.020036425 0.014466507 0.049222607 -0.3944443 0.0064386083 -0.29022425
-0.3332437 0.48965183 -0.44923678 -0.017563084 -0.021877494 0.02020129 0.004048526 0.13650446
-0.10693417 -0.23149271 -0.21220444 -0.18142392 -0.046468116 -0.41298175 -0.07276629 -0.109801166
00000000: 90f9 fd3e 0a3b 023e 9490 0a3f 6821 c0be
00000010: 6308 823e e570 34bf 6705 23bf 2b41 8b3e
00000020: 968d 53bf e611 57be 696b c6bf 9f13 14be
00000030: 7fee 103e da4f 173f 0670 043e 6347 b8be
00000040: ad0a 123d f8aa a8be 7e91 143d 809f b9bd
00000050: 13b8 c93d 12eb 0d3e 0e8d dd3d e699 b53e
00000060: 64a9 b8be d6f7 88bf dd63 fcbd de71 253e
00000070: c077 22bc df5b 363d 986c 8bbd 4afc d43d
00000080: 2c82 523d 1a5d a3bd 700f 1a3e cb86 35be
00000090: 37b3 8abb b766 783e 53d3 10be c004 8abd
000000a0: b7c1 d2bd 3427 02be e722 22be c15a 8abe
000000b0: dd00 e9bd 516f 05be 34b9 b9be 43b8 1ebe
000000c0: bf6f 64be e431 5ebf 815e 96be 6de2 0abe
000000d0: 66f9 d3bd 3919 50be 6cb2 e6bd d5df 683e
000000e0: 514e 2bbe ebff 68be abc4 2ebf fccb febe
000000f0: 3475 9fbd d65b 45bc 65e1 29bd d09d 343e
00000100: ca8b 59be 4036 35be d6dd 8fbe 1c1b ecbd
00000110: 8a72 f93d d2ec a8be 8943 693e 5cf9 05bf
00000120: b812 20be 9395 abbe 0d4e 91bc a686 dbbd
00000130: 8ebc dbbd b7be 81bd a039 dabd 991b ff3b
00000140: 202b 39bd 0e91 6ebd 61d6 77bc 8b7c e03b
00000150: f33d c7bd c196 1fbe 8c7b 3cbe 4fc2 c53c
00000160: 5759 5bbd d9a4 713b 535b 02bf 7f1c 9b3e
00000170: 57fc f03c e5f0 d93d 73ec 093e ebb4 583d
00000180: ef75 92bd efe8 b83a 1be7 9bbd c56b 8fbe
00000190: 3dfa aebe 14a6 f03d 05ec f53e 7593 9dbe
000001a0: 5874 23bf 5f28 e2bc 1966 b9bc 5539 c6be
000001b0: a3cd 1abd 1bd8 bfbd 7ce4 4dbd 8584 923d
000001c0: 9618 83be 1ed1 6dbc 1234 0e3d e810 463e
000001d0: d029 a63d 97d0 b6bc d03e c13d 81e7 8c3d
000001e0: 3480 2d3c 7191 263d d043 a0bd ea9c b6bb
000001f0: 0b47 c3bd 3222 95bc 5ea4 c3bd 12cf 103d
00000200: 75de 603b 330b d83e 059d 4dbc 8804 643e
00000210: 1bec 9c3a 4b4c 7f3d 5f03 ef3d 56ce 4cbd
00000220: eccb f2bc 2b65 0ebd e3d6 f23c 8df3 453d
00000230: fca7 adbd faca 53bd c7bc 73bd 26d9 9fbe
00000240: 8730 943d b407 40be b7c9 be3e d1d1 07bf
00000250: 4caf 933e 07c0 b7be 25fa 18bf dab3 9bbe
00000260: 6819 f3be 1f44 ecbe c4f4 953e 2e5b e2be
00000270: ac0e a03e 8782 e03d 83f6 a83e 8d24 36be
00000280: 2e08 fe3d 6dd3 0dbe 1be9 fe3c 8a32 91bd
00000290: be87 993d 28a1 f8bd 514d 74bc 753d 47bd
000002a0: da12 67be 372f 20bf 0387 72be 4aea 9ebd
000002b0: 6963 8b3e 7f6b b63c baca ad3c a7cf 88bc
000002c0: d827 123e 3d14 c03d 0c81 663d 3b83 2cbe
000002d0: 1e34 c4bc ad0e 853e 5343 a5bb 2742 213d
000002e0: 4070 cb3d a9ec f33d f6a7 973d d7bd e03d
000002f0: aa64 8f3d a835 a63d 77ac c13d 7598 a03d
00000300: c42d 81bc dc55 7fbe 39a1 ca3a 1f3d 8abd
00000310: 99d8 8bbd 42e9 d4bb 8250 383e c994 adbd
00000320: c99a 00bc 6c57 cc3c e84c 5dbd e69e 1bbd
00000330: 7402 1c3d 4f21 a13d 0ae8 243d c061 00be
00000340: 4426 6f3f 5b70 53be a346 e5be 2ecc 243f
00000350: 2eb6 25be ce83 713e 822b 97bf c460 73be
00000360: fea4 a23d a32d 3c3d be63 1f3d 1e65 88be
00000370: dd0e 58bf 90f2 a7be a2f1 ebbe 3a25 3fbe
00000380: 6057 a5be abf2 d0be 1fa4 89bd bd8f adbe
00000390: b5bd 2dbe 393d fa3d 1671 453e e5d9 0abe
000003a0: adde 1b3e 982e 50be 6e23 a43c ee04 6d3c
000003b0: a59d 493d 9af4 c9be f6fa d23b 4698 94be
000003c0: eb9e aabe a5b3 fa3e 5d02 e6be 75e0 8fbc
000003d0: 6e38 b3bc 2d7d a53c 7fa9 843b d3c7 0b3e
000003e0: 4d00 dbbd 6d0c 6dbe 1f4c 59be 31c7 39be
000003f0: 5a55 3ebd 5872 d3be 7e06 95bd 6fdf e0bd

resolve.3.layers.1.conv0.bias f4 [12]
-0.1958643 0.17920685 -0.05174835 -0.009499791 0.053619523 -0.05120634 -0.15739846 -0.13099882
-0.09123188 0.28898656 -0.084479645 -0.19751653
00000000: a790 48be 0082 373e 14f6 53bd 03a5 1bbc
00000010: 25a0 5b3d bdbd 51bd 102d 21be 8e24 06be
00000020: c8d7 babd 0cf6 933e aa03 adbd c641 4abe

resolve.3.layers.1.bn0.weight f4 [12]
1.0 1.0 1.0 1.0 1.0 1.0 1.0 1.0
1.0 1.0 1.0 1.0
00000000: 0000 803f 0000 803f 0000 803f 0000 803f
00000010: 0000 803f 0000 803f 0000 803f 0000 803f
00000020: 0000 803f 0000 803f 0000 803f 0000 803f

resolve.3.layers.1.bn0.bias f4 [12]
0.0 0.0 0.0 0.0 0.0 0.0 0.0 0.0
0.0 0.0 0.0 0.0
00000000: 0000 0000 0000 0000 0000 0000 0000 0000
00000010: 0000 0000 0000 0000 0000 0000 0000 0000
00000020: 0000 0000 0000 0000 0000 0000 0000 0000

resolve.3.layers.1.bn0.running_mean f4 [12]
0.0 0.0 0.0 0.0 0.0 0.0 0.0 0.0
0.0 0.0 0.0 0.0
00000000: 0000 0000 0000 0000 0000 0000 0000 0000
00000010: 0000 0000 0000 0000 0000 0000 0000 0000
00000020: 0000 0000 0000 0000 0000 0000 0000 0000

resolve.3.layers.1.bn0.running_var f4 [12]
1.0 1.0 1.0 1.0 1.0 1.0 1.0 1.0
1.0 1.0 1.0 1.0
00000000: 0000 803f 0000 803f 0000 803f 0000 803f
00000010: 0000 803f 0000 803f 0000 803f 0000 803f
00000020: 0000 803f 0000 803f 0000 803f 0000 803f

resolve.3.layers.1.conv1.weight f4 [12, 12, 1]
0.029455928 0.24157645 0.23468259 0.22638486 -0.0825714 -0.7879531 -0.0085303085 -0.86297363
0.0049714753 -0.06624909 0.077975444 0.56156236 -0.0259516 0.10764495 0.026286129 0.12881649
0.19121933 0.012357434 -0.5512353 -0.049510665 -0.026167823 -0.030026512 -0.061318822 -0.08055595
0.3873502 -0.22123937 0.045327444 0.08980496 -0.26604626 -0.17195407 0.45324105 -0.050399352
0.47182283 -0.13651444 0.18075402 -0.42593998 -0.6308401 -0.26858997 0.09036927 -0.09669599
0.39921534 -0.05122367 0.12816766 0.0030737978 0.15555687 -0.29719603 0.22923411 -0.03537759
0.036991857 -0.56314725 0.2825407 0.09279105 0.13400257 0.29953775 -0.11453077 0.029300163
-0.043495417 -0.11075942 -0.15478343 0.10276578 0.40887865 0.2532077 0.044099364 0.16136125
0.080894694 0.096437424 0.22238408 -0.20051987 -1.2573253 0.11782746 -0.0902837 -0.10720096
-0.003250798 0.05012998 0.0062728166 0.015375608 -0.0002000788 -0.006354209 0.0020419948 -0.06378124
0.00089133583 -0.015994143 -0.0012051362 0.010333853 -0.15921116 -0.25166583 0.10740196 0.16576444
-0.025078267 0.15057142 -0.15102635 -0.18074875 -0.053126138 0.024038794 -0.21313763 -0.11422025
-0.058978833 0.21185999 -0.010764141 -0.1939285 -0.03323066 -0.038221195 0.12949052 0.106602475
-0.07615545 0.078216456 -0.09282129 0.07775022 -0.080780156 0.5917437 -0.70196205 0.1129321
-0.2519545 0.347842 0.12735212 -0.13686633 -0.043964617 -0.04406587 0.14970264 -0.38361618
-0.0036305932 -0.010853749 -0.008475415 0.025107939 -0.0069446457 0.0009910803 0.0102449125 0.028284116
0.006507594 -0.024151897 -0.006377146 0.0014863389 -0.31639564 0.070809886 -0.47982338 0.13393655
-0.18254612 0.020084674 0.117590845 -0.026570018 0.030265864 -0.3920098 -0.52632797 0.089740604
00000000: 8f4d f13c d15f 773e a250 703e 6fd1 673e
00000010: 321b a9bd 4bb7 49bf b5c2 0bbc d7eb 5cbf
00000020: c2e7 a23b 9aad 87bd 97b1 9f3d 8dc2 0f3f
00000030: 7398 d4bc f574 dc3d 0256 d73c 78e8 033e
00000040: 00cf 433e d676 4a3c c21d 0dbf b2cb 4abd
00000050: e75d d6bc 29fa f5bc 7229 7bbd 85fa a4bd
00000060: c452 c63e 938c 62be 45a9 393d aaeb b73d
00000070: 3737 88be ba14 30be 360f e83e 8d6f 4ebd
00000080: c392 f13e 71ca 0bbe 9517 393e ce14 dabe
00000090: bd7e 21bf a084 89be 8613 b93d 8c08 c6bd
000000a0: f465 cc3e e9cf 51bd 623e 033e c571 493b
000000b0: 4d4a 1f3e 142a 98be 59bc 6a3e 18e8 10bd
000000c0: c684 173d 6b2a 10bf 2da9 903e 3c09 be3d
000000d0: f837 093e 035d 993e 1c8f eabd e506 f03c
000000e0: 4028 32bd d6d5 e2bd 8c7f 1ebe de76 d23d
000000f0: 8b58 d13e 71a4 813e 89a1 343d e23b 253e
00000100: 1eac a53d fc80 c53d a7b8 633e 1555 4dbe
00000110: 09f0 a0bf 864f f13d a9e6 b8bd 2d8c dbbd
00000120: 570b 55bb 1855 4d3d 338c cd3b f9e9 7b3c
00000130: 3ecc 51b9 f836 d0bb fdd2 053b bd9f 82bd
00000140: 89a8 693a 2606 83bc a9f5 9dba 524f 293c
00000150: 4008 23be 58da 80be 8ff5 db3d 27be 293e
00000160: f070 cdbc 652f 1a3e a7a6 1abe 3316 39be
00000170: cb9a 59bd 01ed c43c c040 5abe 4eec e9bd
00000180: ca93 71bd d3f1 583e 145c 30bc 3195 46be
00000190: df1c 08bd d48d 1cbd 2a99 043e 6652 da3d
000001a0: 63f7 9bbd f32f a03d 1719 bebd 823b 9f3d
000001b0: 1170 a5bd 847c 173f c9b3 33bf f248 e73d
000001c0: 2e00 81be 5918 b23e 9868 023e b026 0cbe
000001d0: 3e14 34bd 6a7e 34bd a64b 193e 5769 c4be
000001e0: 3fef 6dbb ecd3 31bc 78dc 0abc 2aaf cd3c
000001f0: e98f e3bb 23e7 813a 47da 273c 17b4 e73c
00000200: a83d d53b 33da c5bc 61f7 d0bb 42d1 c23a
00000210: 9cfe a1be c604 913d 69ab f5be aa26 093e
00000220: 5fed 3abe 9d88 a43c 78d3 f03d 5ea9 d9bc
00000230: 1ef0 f73c 82b5 c8be 6ebd 06bf ecc9 b73d

resolve.3.layers.1.conv1.bias f4 [12]
0.36541736 -0.19305426 -0.09370726 0.038507722 -0.15939122 -0.19503403 -0.09713098 0.3768915
-0.019015703 0.13873748 -0.13085364 -0.12507313
00000000: fc17 bb3e 04b0 45be 98e9 bfbd 46ba 1d3d
00000010: 7437 23be 00b7 47be 9bec c6bd ecf7 c03e
00000020: d2c6 9bbc 3311 0e3e 7ffe 05be 2c13 00be

resolve.3.layers.1.bn1.weight f4 [12]
1.0 1.0 1.0 1.0 1.0 1.0 1.0 1.0
1.0 1.0 1.0 1.0
00000000: 0000 803f 0000 803f 0000 803f 0000 803f
00000010: 0000 803f 0000 803f 0000 803f 0000 803f
00000020: 0000 803f 0000 803f 0000 803f 0000 803f

resolve.3.layers.1.bn1.bias f4 [12]
0.0 0.0 0.0 0.0 0.0 0.0 0.0 0.0
0.0 0.0 0.0 0.0
00000000: 0000 0000 0000 0000 0000 0000 0000 0000
00000010: 0000 0000 0000 0000 0000 0000 0000 0000
00000020: 0000 0000 0000 0000 0000 0000 0000 0000

resolve.3.layers.1.bn1.running_mean f4 [12]
0.0 0.0 0.0 0.0 0.0 0.0 0.0 0.0
0.0 0.0 0.0 0.0
00000000: 0000 0000 0000 0000 0000 0000 0000 0000
00000010: 0000 0000 0000 0000 0000 0000 0000 0000
00000020: 0000 0000 0000 0000 0000 0000 0000 0000

resolve.3.layers.1.bn1.running_var f4 [12]
1.0 1.0 1.0 1.0 1.0 1.0 1.0 1.0
1.0 1.0 1.0 1.0
00000000: 0000 803f 0000 803f 0000 803f 0000 803f
00000010: 0000 803f 0000 803f 0000 803f 0000 803f
00000020: 0000 803f 0000 803f 0000 803f 0000 803f
