generators/n7.ckpt (torch, 445422 bytes, 235 tensors)

resolve.0.weight f4 [7, 1, 7]
00000000: bb1d ac3f 3d56 e23f 02c3 873f 201c 2f3f
00000010: 8384 b9be b5c2 47be a42a 16be 7e03 3440
00000020: f37e f33f 7451 02bf d74b 2fbe c061 243f
00000030: 197a b03f bead 073e 7aca 5b3f 53b9 6e3f
00000040: 9068 ba3f 5c85 6f3f dbb4 903d 3838 4bbe
00000050: f4a8 d9be 8e2f adbf 990a efbf 338e 8bbf
00000060: b568 84bf e3ce 09bf 2042 69be 56d3 453d
00000070: 683a 5dbf 55a7 46c0 f9db a8bf c932 9c3f
00000080: 576a 4940 5b1a 7c3f e18b ccbf 75b1 9d3f
00000090: 9f9c fc3f d8e5 ab3f 18b2 08bf b000 b7bf
000000a0: 1c32 62bf a555 3bbf bb5d ff3f 2be9 1340
000000b0: 3d29 963e d34e d5bf c98a 4abf 1ed5 a83e
000000c0: f370 f53e
1.3446573 1.7682568 1.0606387 0.6840229 -0.3623391 -0.19507869 -0.14664704 2.8127131
1.9023117 -0.5090554 -0.17118774 0.64211655 1.3787261 0.13249871 0.8585583 0.9325153
1.456316 0.93562865 0.070657454 -0.19845665 -0.42511714 -1.3530138 -1.8675109 -1.0902771
-1.0344454 -0.5383131 -0.22779131 0.04829725 -0.86417246 -3.1039631 -1.319213 1.2202998
3.1471155 0.98477715 -1.5980188 1.231978 1.9735297 1.3429518 -0.5339675 -1.4297085
-0.8835771 -0.7317756 1.9950479 2.3111064 0.29328337 -1.666468 -0.7911802 0.32975096
0.47937736

resolve.0.bias f4 [7]
00000000: 695d 52be 34e4 7bbe bae8 81bd c03a 3bbe
00000010: 5be5 a23e 2ae0 8e3d e528 913d
-0.20543446 -0.24598771 -0.06343217 -0.1828413 0.3181561 0.0697635 0.07087878

resolve.2.layers.0.conv0.weight f4 [7, 7, 3]
00000000: 75c8 923d 2dcc 4cbd 0c18 ac3d ec5a 0cbe
00000010: 3bb2 5f3d 192f 97bd 2b36 803c 170e 54be
00000020: 52c2 f1bd 98e3 993e 5858 de3e 3049 083e
00000030: 8f2a 66be f99a 5ebe 1551 5b3e 0e75 c73c
00000040: 82eb f03d 661e 1cbf 5bd9 e7be 293a ecbd
00000050: 8966 70be 7bf8 263e f45b a23c 27c7 033e
00000060: 6b6a 9b3b 7b99 e2bd 22d0 643e 1cef 653d
00000070: 33d2 423e 2f03 00bb e312 003f 9694 623e
00000080: df48 db3d eeb0 bd3d 6f6a 423e d145 863d
00000090: 2669 bbbd c100 eebe 30b0 26bf 395d 91be
000000a0: 697b 3abe 601d 63be 09e6 38be 9733 b8be
000000b0: 297d 63be b692 f33d c1d8 b3bd 04f6 6bbe
000000c0: 5714 d8bd 89c3 5fbe 788a 34be 8a10 45bd
000000d0: 6ec1 afbc aa3c 01be fd17 e63e 7b4d a83e
000000e0: a0ae 473e a631 c2be d936 08bf 41c0 693d
000000f0: 2691 fd3d 7c53 14bf 6716 debd f82b 4cbe
00000100: 7045 cebd 0ad4 1ebe 8156 153d 1fa2 07be
00000110: 1bd7 c9bd d515 7cbe 761c 30be 103c 63be
00000120: 2b17 d83e 5123 363e d959 853e 5e83 3e3e
00000130: 6d37 36bd bf8b 673e cfdd c9be cf7d 11bf
00000140: f1c7 f2be 2edb c2be 011d 89be d7d8 15be
00000150: a120 0e3e 71e8 21bd 28cc 323e 445d 9bbe
00000160: f909 36bd 78a7 263d 63ee 933e c9df a03e
00000170: 547b 2a3e 0477 eabd b144 9a3d 141b 48bb
00000180: 09ca f23c c061 80be 5f0d 5f3e 2d59 c53e
00000190: 5846 473f de17 5d3e 89eb 973e 2c61 d23e
000001a0: 14f2 ee3e d94a 35be dad8 01be f370 d7be
000001b0: 7847 a2be b58a 0f3b afc1 2a3e 8f3b 003e
000001c0: e4f0 12be 616a c6be 7d1d 353c 8122 58be
000001d0: 86fe 583d da13 4cbe 8d48 e7be 6f31 453e
000001e0: 109b 473d a824 593e 46d2 4dbf 5f25 c6be
000001f0: 500b 793f bda9 af3e 0d1d 993e 046c 423e
00000200: 77c7 883e 36e8 2c3e c091 7a3e 00d8 0f3e
00000210: 29ec 673e b0db 473e c061 333c 808d dc3d
00000220: 1145 553e c77e c33e f0ed 97be 307a d0be
00000230: bc12 5abe d3ef 603e 1719 c73e 5374 a7be
00000240: 5ac7 5dbe 12be 883e 95c7 a13d
0.071671404 -0.049999405 0.08403024 -0.13706559 0.054613333 -0.0738203 0.01565083 -0.207085
-0.11804642 0.30056453 0.43426776 0.13309169 -0.22477172 -0.21738805 0.21417649 0.024347808
0.117636696 -0.60983884 -0.45283017 -0.11534531 -0.23476614 0.16305725 0.019819237 0.1286894
0.0047429106 -0.1106443 0.22345021 0.056136236 0.19025497 -0.0019533148 0.5002882 0.22126994
0.107072584 0.09262262 0.18985914 0.06556285 -0.09150915 -0.4648495 -0.6511259 -0.28391436
-0.1821114 -0.22179174 -0.18056501 -0.3597686 -0.22215714 0.11893217 -0.08781577 -0.23043066
-0.105507545 -0.21851934 -0.17630947 -0.048111476 -0.02145454 -0.12620798 0.44940177 0.32871613
0.19500208 -0.37928504 -0.5320869 0.057068113 0.123812005 -0.5793989 -0.10844117 -0.19938648
-0.10071838 -0.15510574 0.03645945 -0.13245438 -0.09855481 -0.24617703 -0.17198357 -0.22190881
0.42205176 0.1778691 0.2604511 0.186048 -0.044486452 0.22611903 -0.3942704 -0.56832594
-0.47418168 -0.38057846 -0.2677994 -0.14633499 0.13879634 -0.039528314 0.17460692 -0.30344594
-0.044443104 0.040687054 0.28892812 0.31420735 0.16648608 -0.11448482 0.07532633 -0.0030533718
0.029637353 -0.25074577 0.21782444 0.38544598 0.7784171 0.21591136 0.29671887 0.4108976
0.46669066 -0.17704333 -0.12680379 -0.4207836 -0.3169515 0.0021902744 0.16675447 0.1252272
-0.14349705 -0.38753036 0.011054394 -0.21106912 0.052977107 -0.19929448 -0.4517254 0.19257139
0.048731863 0.2120539 -0.80398977 -0.38700387 0.97282887 0.34309188 0.29904976 0.18986517
0.2671468 0.16885456 0.24469662 0.14047241 0.22648682 0.19517398 0.010948598 0.107691765
0.20827128 0.3818266 -0.2967372 -0.40718222 -0.21296209 0.21966486 0.3888633 -0.32705936
-0.21658078 0.26707512 0.078993954

resolve.2.layers.0.conv0.bias f4 [7]
00000000: 12d5 b13d 582c 81bd 552e aabc 2fa9 c1bd
00000010: 2616 18be 7ea5 c93d bd6c bdbd
0.08683218 -0.06307286 -0.020774046 -0.09456097 -0.14852199 0.09846018 -0.09249256

resolve.2.layers.0.bn0.weight f4 [7]
00000000: 0000 803f 0000 803f 0000 803f 0000 803f
00000010: 0000 803f 0000 803f 0000 803f
1.0 1.0 1.0 1.0 1.0 1.0 1.0

resolve.2.layers.0.bn0.bias f4 [7]
00000000: 0000 0000 0000 0000 0000 0000 0000 0000
00000010: 0000 0000 0000 0000 0000 0000
0.0 0.0 0.0 0.0 0.0 0.0 0.0

resolve.2.layers.0.bn0.running_mean f4 [7]
00000000: 0000 0000 0000 0000 0000 0000 0000 0000
00000010: 0000 0000 0000 0000 0000 0000
0.0 0.0 0.0 0.0 0.0 0.0 0.0

resolve.2.layers.0.bn0.running_var f4 [7]
00000000: 0000 803f 0000 803f 0000 803f 0000 803f
00000010: 0000 803f 0000 803f 0000 803f
1.0 1.0 1.0 1.0 1.0 1.0 1.0

resolve.2.layers.0.conv1.weight f4 [7, 7, 1]
00000000: ac51 893d fa07 743e dc77 afbe 5bc7 eebe
00000010: 9a83 273f 1052 603e 26f8 c73e 0549 48bd
00000020: c3be 6f3e fb55 1f3d f45a 61be 7446 1c3f
00000030: 5dc2 b5bd 0dbc 88bd 6b7d dcbe ac51 193f
00000040: c7aa 303f eb14 053f dd12 0e3e 5eb5 a3bf
00000050: 3a54 66be 64af 153f da3f 313e 36c8 f03e
00000060: 7db9 663f 6457 743d 1f27 54be 7b49 98be
00000070: 22da 87be 5e0a ddbe 0887 a03e 3330 5b3c
00000080: 4682 cdbd c339 c7bf 8002 3e3d 9996 86be
00000090: 47c2 acbe a2c6 a63e bb56 ad3d 0baf 1f3f
000000a0: 3a90 05bf d7aa 93be f72f 083f f610 0d3e
000000b0: d12a a9be e586 503e 2ef4 633f 2623 283f
000000c0: cfa1 d63e
0.06705031 0.23831168 -0.34271133 -0.4663647 0.65435183 0.21906304 0.3905651 -0.04889776
0.23412614 0.038900357 -0.22007352 0.61045 -0.088749625 -0.06676493 -0.43064436 0.59890246
0.69010586 0.51985043 0.13874383 -1.2789724 -0.22493067 0.5847075 0.17309514 0.4702775
0.9012678 0.059653655 -0.20718049 -0.2974356 -0.2653361 -0.43171972 0.3135302 0.013378191
-0.10034613 -1.5564502 0.046389103 -0.26286772 -0.33741972 0.3257342 0.08463808 0.6237647
-0.521732 -0.28841278 0.5319819 0.13776001 -0.3304048 0.20363958 0.89044464 0.6567863
0.41920325

resolve.2.layers.0.conv1.bias f4 [7]
00000000: 879c 103e e86a 6e3e 07d4 81be ea5f aa3e
00000010: b4e0 e43d fe2a 6d3e c9c7 5b3e
0.1412221 0.23282969 -0.25357077 0.33276302 0.11175671 0.23160931 0.2146293

resolve.2.layers.0.bn1.weight f4 [7]
00000000: 0000 803f 0000 803f 0000 803f 0000 803f
00000010: 0000 803f 0000 803f 0000 803f
1.0 1.0 1.0 1.0 1.0 1.0 1.0

resolve.2.layers.0.bn1.bias f4 [7]
00000000: 0000 0000 0000 0000 0000 0000 0000 0000
00000010: 0000 0000 0000 0000 0000 0000
0.0 0.0 0.0 0.0 0.0 0.0 0.0

resolve.2.layers.0.bn1.running_mean f4 [7]
00000000: 0000 0000 0000 0000 0000 0000 0000 0000
00000010: 0000 0000 0000 0000 0000 0000
0.0 0.0 0.0 0.0 0.0 0.0 0.0

resolve.2.layers.0.bn1.running_var f4 [7]
00000000: 0000 803f 0000 803f 0000 803f 0000 803f
00000010: 0000 803f 0000 803f 0000 803f
1.0 1.0 1.0 1.0 1.0 1.0 1.0

resolve.2.layers.1.conv0.weight f4 [7, 7, 3]
00000000: 7838 953d 5a54 85be 3bff 0abd 33ef 4bbe
00000010: fd2a 96bd ec1a aa3c d2c8 873e 9c75 ad3d
00000020: dc0c 413e 9d38 be3d 328b af3b 111f 7b3e
00000030: 17de a23e dbbc f4bd 311b 003d e2cd 8c3a
00000040: 0373 c4bb 6a95 d9bd f916 19be 2301 583e
00000050: f0b3 44bd e458 8a3e 8515 b8bd 7137 0d3e
00000060: d2bb 203d 6d17 fdbe 3bf6 b03d b70f dbbe
00000070: 74aa 7e3e 0a41 9bbe cbc5 e1bc 17c3 983e
00000080: f3f7 09bd bf9c 73be 3df8 353e 2a39 4abe
00000090: c4bf 82bc 3189 05be ba6b c9bc d833 003f
000000a0: 3475 02bf 5585 8b3e 0831 a8bd eeed 14be
000000b0: 9d45 133d 7e47 6fbe fe62 06bf 7e9c 8abe
000000c0: 44d0 443e 8687 193e 507c fa3c cdb8 143f
000000d0: 9eef 973e c364 d43e 7182 cdbd e2ab 77bb
000000e0: 3828 193e 75bd 513d 2676 36be a119 70be
000000f0: e707 d23d 84ac 5abd 59b9 b63d fcc3 043e
00000100: b1a8 613e a558 a83d c0b6 793e 53fa a4ba
00000110: abec 1e3e e434 393d 9264 2b3f 4868 adbd
00000120: 9bf2 2a3d f93c 5b3e 5f9b b4be cc2f 63bf
00000130: edfc 0dbd 10c1 3abf d03e bdbe 84a8 82be
00000140: 1242 073b d47e e23d 22ed 05be 4fc4 923d
00000150: c333 aabd 00dd cebd e609 a53e 03ad 443e
00000160: 38bc 01bf 70c2 013d ae19 eabd 59cc 2bbe
00000170: 3aee 83be 48e9 ff3d f059 7c3c be13 e43d
00000180: 6a5a a3be e599 883e b50a 353e 0f1b 863e
00000190: 8abd 373e 10cc 373e b235 673d b170 01be
000001a0: c65a 063f 30bd af3e c1b3 d5bd 831f 313e
000001b0: b755 2cbe c1b0 74be 0617 e33d 6414 653e
000001c0: 2b72 3f3e d2c6 1dbd bb70 853e a653 63be
000001d0: 844e 2d3e 39b2 863e 07c3 513e bc5e a43e
000001e0: de4b 75bd f559 64bc edae 873e d5b1 d63d
000001f0: f804 17be 21af 83bd c73d 513e b221 153f
00000200: d110 333d 063b 25bc 6bc7 5a3e 9498 2a3e
00000210: 19e5 7a3f 2bd9 15be 287a b53e 12d9 8b3e
00000220: b185 e2be 5aeb 053e f449 edbc 7baf 98bf
00000230: 462e edbe ed17 c5be 3c40 7ebe 4f54 8bbe
00000240: 2c0f 76be 8333 993d 444a a7bd
0.07286161 -0.26040918 -0.033934813 -0.19915466 -0.07332418 0.02076479 0.265204 0.08469698
0.18852562 0.09288142 0.0053571695 0.2452357 0.31810066 -0.11950084 0.03127593 0.001074251
-0.005995156 -0.106242016 -0.1495017 0.21094184 -0.048023164 0.27020943 -0.089884795 0.1379068
0.03924162 -0.49431935 0.08640715 -0.42785427 0.2486971 -0.30323058 -0.027560135 0.29836342
-0.03368373 -0.23790263 0.17770477 -0.19748369 -0.015960582 -0.13040616 -0.0245875 0.5007911
-0.5096009 0.27250162 -0.08212477 -0.14543888 0.03595506 -0.23367116 -0.524948 -0.2707252
0.19220072 0.14993104 0.030576855 0.58094484 0.29675 0.41483125 -0.10034645 -0.003779166
0.14956748 0.05120607 -0.17818508 -0.23447277 0.102554135 -0.05338718 0.08922071 0.12965387
0.22037007 0.082200326 0.2438612 -0.001258681 0.15519969 0.045216456 0.66950333 -0.08467156
0.041735273 0.21409978 -0.3527479 -0.8874481 -0.034665037 -0.7295084 -0.36961985 -0.25519192
0.0020638746 0.11059347 -0.1307874 0.07166349 -0.08310654 -0.10100746 0.32234114 0.19206624
-0.50677824 0.03167957 -0.11430679 -0.16777171 -0.2576769 0.12495667 0.015402302 0.11136578
-0.31904918 0.26679912 0.17679866 0.2619252 0.17943397 0.17948937 0.056447692 -0.12640645
0.5248226 0.34324026 -0.10434676 0.17297177 -0.16829573 -0.23895551 0.11088376 0.2237106
0.18695895 -0.038519688 0.2606257 -0.22199878 0.16924483 0.26307848 0.20484553 0.32103527
-0.059886806 -0.013937463 0.26500645 0.104831375 -0.14747989 -0.064298876 0.20433722 0.5825454
0.04371721 -0.010084873 0.21365134 0.16659766 0.98005825 -0.14633624 0.3544476 0.2731405
-0.44242623 0.13078061 -0.028965928 -1.1928552 -0.46324366 -0.38494816 -0.24829191 -0.2721276
-0.24029225 0.07480528 -0.08168462

resolve.2.layers.1.conv0.bias f4 [7]
00000000: fa93 293e 7d96 233e ed09 61bd b546 04bf
00000010: c54f 693e 8772 073e d606 79bf
0.16560355 0.15975375 -0.054941107 -0.5167039 0.22784336 0.13227282 -0.97276056

resolve.2.layers.1.bn0.weight f4 [7]
00000000: 0000 803f 0000 803f 0000 803f 0000 803f
00000010: 0000 803f 0000 803f 0000 803f
1.0 1.0 1.0 1.0 1.0 1.0 1.0

resolve.2.layers.1.bn0.bias f4 [7]
00000000: 0000 0000 0000 0000 0000 0000 0000 0000
00000010: 0000 0000 0000 0000 0000 0000
0.0 0.0 0.0 0.0 0.0 0.0 0.0

resolve.2.layers.1.bn0.running_mean f4 [7]
00000000: 0000 0000 0000 0000 0000 0000 0000 0000
00000010: 0000 0000 0000 0000 0000 0000
0.0 0.0 0.0 0.0 0.0 0.0 0.0

resolve.2.layers.1.bn0.running_var f4 [7]
00000000: 0000 803f 0000 803f 0000 803f 0000 803f
00000010: 0000 803f 0000 803f 0000 803f
1.0 1.0 1.0 1.0 1.0 1.0 1.0

resolve.2.layers.1.conv1.weight f4 [7, 7, 1]
00000000: df26 533c ae09 bebd c2fe 8fbe 7da7 663e
00000010: 2bf3 923e d413 88bd 07d6 61bd 719a adbe
00000020: f27e 17be 817a 323e 2009 273e 5ba2 86bd
00000030: 0e8f b1bd e4f4 653e 76b4 1cbf 8cce 8c3f
00000040: 5bc6 f43b 0a95 323e 3b19 7b3e 764a b3bb
00000050: 902a 67bd 6c44 183d b296 4ebe b619 df3d
00000060: 0909 bb3e a2a2 b5bc 5e25 47bd b275 8f3e
00000070: c9ae 563e aa97 a5bf 64c3 1d3e 609d a0be
00000080: 76a8 21bf 1d18 213e bc9b 643e 5287 f43d
00000090: 5352 a3be 3d57 1f3e 81a1 7d3d 9713 32be
000000a0: fbb0 68bd 93b0 273e 8e42 f13e 9850 44bf
000000b0: f785 1c3d 9e28 d0be 81fa dcbe 8387 3abe
000000c0: 21a5 963e
0.012887686 -0.0927919 -0.28124052 0.22524829 0.28701147 -0.06644407 -0.055135753 -0.33906892
-0.1479452 0.17429544 0.16312075 -0.065739356 -0.08669864 0.224567 -0.6121286 1.1000533
0.007469935 0.17439666 0.24521343 -0.005471523 -0.056437075 0.037174627 -0.20174673 0.10893576
0.3653033 -0.022172276 -0.04861962 0.28019482 0.20965113 -1.2936909 0.15406567 -0.31370068
-0.63147676 0.15731855 0.22325033 0.11939873 -0.31898746 0.15560623 0.0619216 -0.17390285
-0.056809407 0.16375951 0.4712109 -0.76685476 0.038213696 -0.40655988 -0.4315987 -0.18215756
0.29422858

resolve.2.layers.1.conv1.bias f4 [7]
00000000: 9ace 903e 7e65 aa3e 2e40 5c3e 4da8 b03e
00000010: c768 55bd 7aa4 a2be 16b9 9f3e
0.28282624 0.33280557 0.21508858 0.34503403 -0.052101877 -0.3176611 0.31195897

resolve.2.layers.1.bn1.weight f4 [7]
00000000: 0000 803f 0000 803f 0000 803f 0000 803f
00000010: 0000 803f 0000 803f 0000 803f
1.0 1.0 1.0 1.0 1.0 1.0 1.0

resolve.2.layers.1.bn1.bias f4 [7]
00000000: 0000 0000 0000 0000 0000 0000 0000 0000
00000010: 0000 0000 0000 0000 0000 0000
0.0 0.0 0.0 0.0 0.0 0.0 0.0

resolve.2.layers.1.bn1.running_mean f4 [7]
00000000: 0000 0000 0000 0000 0000 0000 0000 0000
00000010: 0000 0000 0000 0000 0000 0000
0.0 0.0 0.0 0.0 0.0 0.0 0.0

resolve.2.layers.1.bn1.running_var f4 [7]
00000000: 0000 803f 0000 803f 0000 803f 0000 803f
00000010: 0000 803f 0000 803f 0000 803f
1.0 1.0 1.0 1.0 1.0 1.0 1.0

resolve.2.layers.2.conv0.weight f4 [7, 7, 3]
00000000: 7aa2 373e 196e 9b3d 50fb 093e eb34 183f
00000010: 5bfa 033d 2c48 d13e ee7e 07be 19bc 53bf
00000020: fbd2 e5be 3434 203e 067d 883e 1eb6 523e
00000030: d570 81be 039b 6dbd 3500 a9be a664 283f
00000040: 2992 423e d915 cbbc 3fb7 9fbe a201 153f
00000050: e890 c0bd 090f c93e 2b21 ac3d c972 ba3e
00000060: 29fc 43ba f4d7 92bd 3f52 af3e d9d6 cabd
00000070: e2db 92bd d810 2b3e c5de 36bd df07 6d3d
00000080: d324 36bd 5327 82bd b358 4ebe 659d d7be
00000090: 7e1f 483e 54ec 8fbd 0749 0fbe 1b1b 71bd
000000a0: 0346 693e 58b1 7abe 3a69 453d 6f78 b73e
000000b0: 2fab 8c3d 1447 5fbe 3648 4b3e d871 b3bd
000000c0: 6170 b53e 6e5a 913f ed01 6bbe 4e61 013f
000000d0: 75e4 40be 1bd1 2b3e 092f 89be 1b15 0cbf
000000e0: c415 1f3f 12cd f2be 6e22 91bb 3588 803e
000000f0: 5bcb dcbe f15c 42bf c89a 1fbe a53c b23c
00000100: 39bd 0bbe f719 34be c73a 35be 71c4 ed3d
00000110: 8059 2fbb 0946 f93e e095 373d bfe9 9c3e
00000120: 9e42 3abe bd9d f83d 73a7 1cbe b75c cdbd
00000130: df9f 633e 15ba 77be 98de 7cbe f93a 983d
00000140: b2dd 3cbe 8c7a 57be 830e 0a3f 1731 ae3e
00000150: 279a 203e b7f7 c73c 24c1 8e3e b24b 6b3d
00000160: b7d5 dbbd d651 773e 330d 893d e7ea a2bd
00000170: 4b14 ac3d 7d50 05be d5d2 6abe bf41 40bd
00000180: 6e31 f13d 0c71 263e f658 e23d 3965 a5bc
00000190: c15f 9b3d 15d8 e73d e00e 88bd 5f25 b3bc
000001a0: 9d0a 1b3e b207 f7be ab30 aa3e 7622 c83e
000001b0: 0dda 20bf 8365 5e3e 6e24 aebe d9b3 59be
000001c0: 4606 e9bc 2b3b fabc 7ca9 733e 6387 a7bd
000001d0: fd6c 2fbe 6fa8 9ebe 7c3f 0c3e cfc9 a1be
000001e0: 696f 2ebb 5786 8a3e f722 47be 4306 fa3d
000001f0: ca60 9d3d 7def 0fbc b744 ab3d 9fd4 d53e
00000200: d877 74be d724 19be 139f bc3e b305 083e
00000210: 262a 2dbe b030 cb3c 24ef 453e 8738 083e
00000220: 1e2e bbbc 9784 fa3e 3aa6 ddbc cdce e3bd
00000230: 989c 043e fd81 9fbd b83b 1bbd d56e c83d
00000240: 0f42 153d 96dc 4c3c e398 a6be
0.17933074 0.07589359 0.13474774 0.59455746 0.03222118 0.40875375 -0.13232014 -0.8270889
-0.44887528 0.15644914 0.26657885 0.20577285 -0.25281397 -0.05800916 -0.3300797 0.6577858
0.19001068 -0.024790691 -0.31194493 0.58205616 -0.09402639 0.39269283 0.08404764 0.364157
-0.00074762345 -0.07170096 0.34242436 -0.0990426 -0.071708456 0.16705644 -0.044646043 0.057868835
-0.044468712 -0.06355157 -0.20151024 -0.4211227 0.19543263 -0.07027498 -0.13992701 -0.05886374
0.22780614 -0.24481714 0.048196055 0.3583407 0.06868588 -0.21804458 0.19851765 -0.08761948
0.354373 1.1355722 -0.22949953 0.505391 -0.1883715 0.16778986 -0.26793697 -0.54719704
0.62142587 -0.4742208 -0.004429153 0.25103918 -0.43123898 -0.7592307 -0.15586388 0.021757433
-0.13646401 -0.1758803 -0.17698203 0.11609734 -0.0026756227 0.48686245 0.044820666 0.30647084
-0.18189475 0.12139461 -0.15298252 -0.100274496 0.22228955 -0.24192078 -0.24694288 0.07433123
-0.18443945 -0.21042842 0.53928393 0.34021828 0.15683804 0.024410112 0.2788173 0.057445236
-0.10734122 0.24152312 0.06691971 -0.0795496 0.08402308 -0.13018985 -0.22931989 -0.0469377
0.11777006 0.16254061 0.11052124 -0.020189868 0.07586623 0.11320511 -0.06643462 -0.021868406
0.15140767 -0.4824806 0.33240256 0.39088792 -0.6283272 0.21718411 -0.3401217 -0.21260013
-0.028445374 -0.030545792 0.23795122 -0.0818012 -0.1713142 -0.3098788 0.13696092 -0.3159928
-0.0026616699 0.27055618 -0.19446932 0.122082256 0.07684477 -0.008785126 0.08362716 0.4176378
-0.23873842 -0.1495546 0.36840114 0.13283424 -0.1691061 0.02480349 0.19329506 0.13302813
-0.022849139 0.48929283 -0.027056802 -0.111234285 0.12950361 -0.07788465 -0.03789875 0.097867645
0.03643995 0.012503764 -0.32538518

resolve.2.layers.2.conv0.bias f4 [7]
00000000: 34b0 803c 64df f43d d370 40bd 8111 ca3d
00000010: 3ebe 1a3d 34b4 ffbd ba91 8a3d
0.01570902 0.11956671 -0.046982598 0.0986662 0.037779085 -0.12485543 0.067660764

resolve.2.layers.2.bn0.weight f4 [7]
00000000: 0000 803f 0000 803f 0000 803f 0000 803f
00000010: 0000 803f 0000 803f 0000 803f
1.0 1.0 1.0 1.0 1.0 1.0 1.0

resolve.2.layers.2.bn0.bias f4 [7]
00000000: 0000 0000 0000 0000 0000 0000 0000 0000
00000010: 0000 0000 0000 0000 0000 0000
0.0 0.0 0.0 0.0 0.0 0.0 0.0

resolve.2.layers.2.bn0.running_mean f4 [7]
00000000: 0000 0000 0000 0000 0000 0000 0000 0000
00000010: 0000 0000 0000 0000 0000 0000
0.0 0.0 0.0 0.0 0.0 0.0 0.0

resolve.2.layers.2.bn0.running_var f4 [7]
00000000: 0000 803f 0000 803f 0000 803f 0000 803f
00000010: 0000 803f 0000 803f 0000 803f
1.0 1.0 1.0 1.0 1.0 1.0 1.0

resolve.2.layers.2.conv1.weight f4 [7, 7, 1]
00000000: f642 16be dc74 3bbd 9d07 003c 25d5 4b3d
00000010: 1387 d2bd 5e23 3cbe 9e15 b3bc 7e15 0bbe
00000020: c382 b6be 706b 09bd d099 b8bd 7cb0 1abe
00000030: acc1 1b3f b34a 8b3e 20b2 2abf 866d 223e
00000040: bf4a a93e 4b4a 3fbf 12b4 18be 6b63 423e
00000050: e422 1b3f cf77 1ebe f6c8 943e b458 493c
00000060: eda8 20bc b158 b03e 1d9d acbd 695c fbbe
00000070: e298 8c3e cfc5 373f 8092 31bf 9da7 8ebd
00000080: b92b 08bf 82ef ce3d 7bac 763e caad 91bd
00000090: fb2f b33e def1 22bd 36e5 c03d 9bd1 3fbe
000000a0: 5c5b 64be 0411 663e 0c09 873f cf68 9ebe
000000b0: 7ad3 0fbf 4790 0e3e 91d0 f83d e235 4a3c
000000c0: 380a 18bf
-0.14673981 -0.045765743 0.007814315 0.049763817 -0.102796696 -0.18372867 -0.021860894 -0.13582417
-0.35646638 -0.033549726 -0.090137124 -0.15106386 0.60842395 0.27205428 -0.6667805 0.15862092
0.3306484 -0.7472274 -0.14912441 0.18983237 0.60600114 -0.15475391 0.2905957 0.012289215
-0.0098059 0.34442666 -0.084284045 -0.4909394 0.2746039 0.71786207 -0.69364166 -0.069655634
-0.53191715 0.10104276 0.24089234 -0.07113226 0.34997544 -0.039781444 0.094187185 -0.18732302
-0.22300476 0.22467428 1.0549636 -0.30939338 -0.5618206 0.13922225 0.12149156 0.012341948
-0.5939059

resolve.2.layers.2.conv1.bias f4 [7]
00000000: 3623 5ebd 5628 293e 6263 acbc c560 6cbd
00000010: 4073 9dbd c525 0dbd 2ee0 8f3d
-0.0542328 0.16519293 -0.021043483 -0.057709474 -0.07687998 -0.034459848 0.07025181

resolve.2.layers.2.bn1.weight f4 [7]
00000000: 0000 803f 0000 803f 0000 803f 0000 803f
00000010: 0000 803f 0000 803f 0000 803f
1.0 1.0 1.0 1.0 1.0 1.0 1.0

resolve.2.layers.2.bn1.bias f4 [7]
00000000: 0000 0000 0000 0000 0000 0000 0000 0000
00000010: 0000 0000 0000 0000 0000 0000
0.0 0.0 0.0 0.0 0.0 0.0 0.0

resolve.2.layers.2.bn1.running_mean f4 [7]
00000000: 0000 0000 0000 0000 0000 0000 0000 0000
00000010: 0000 0000 0000 0000 0000 0000
0.0 0.0 0.0 0.0 0.0 0.0 0.0

resolve.2.layers.2.bn1.running_var f4 [7]
00000000: 0000 803f 0000 803f 0000 803f 0000 803f
00000010: 0000 803f 0000 803f 0000 803f
1.0 1.0 1.0 1.0 1.0 1.0 1.0

resolve.2.layers.3.weight f4 [14, 7, 12]
00000000: 86a0 03bd 5c0a efbc ee62 e3bd a6ca 863d
00000010: 8b91 c03d ea0f 363e 73c2 a13d 3cd9 903d
00000020: 5b0c adbd 6fe6 0d3d b957 8f3d 57cc 133d
00000030: e6cf c0bc 5f59 b13d 9daf 723c ced1 8dbd
00000040: 1470 89bd eb31 773c 2ff6 163e 9d59 623d
00000050: 3623 753d 1c23 0dbd 7bd1 2bbe dfe8 8d3d
00000060: 6325 cabe 83a6 883e b2f5 df3e 7eab dc3e
00000070: 8538 d63d b806 51be 9df4 4abe 5d63 25be
00000080: e7b4 dfbc 0414 383e 8cf6 753e 8911 063d
00000090: 6a2a 4fbc 0408 e33d 68bd 5a3d bafe a73d
000000a0: d752 7c3d 08b7 dcbd 8c19 a6be b43e 89be
000000b0: ffba 283d b996 4b3d ed84 183e 0988 3b3e
000000c0: b50d 79bd c2e7 8e3d cdb6 86bd 7fb4 0dbf
000000d0: f4ef 36be 5a25 083d 6f3d 5c3e da69 0e3f
000000e0: 7b74 e83e 2c3e 5e3c e6b1 8cbe a690 88be
000000f0: bb67 8f3e 73e4 973c 51a1 edbd ddeb 82be
00000100: ede8 17be 10d7 993d 1fb2 083e 2874 863e
00000110: bf1e 403e b6b0 89be 39f3 48be 7082 8cbc
00000120: 1f64 dd3e 5b82 f33d e2e5 a7be a36f 4dbe
00000130: 862c 0b3e c6ad db3e 7669 8b3e 2068 573e
00000140: da1f df3c 943a babe 15a2 67be 2e07 7c3d
00000150: ab45 453e abf5 853e af29 4b3e 5029 643e
00000160: 540f 0a3e d013 65bd ea4c 27be f3a3 3dbe
00000170: 42ee 70be 0200 3ebe 4bfc bcbd 75cd 08be
00000180: 0100 123d 1194 12bd 283c 87bd 8579 3fbe
00000190: 46c2 32be 7bdc 7dbe 7a71 a7be 4ae2 3fbe
000001a0: c4f3 6fbe 9297 153c 5ca5 8dbc 9fca 9cbe
000001b0: ad02 c93d d911 d5bc f237 97bb b7be 1f3d
000001c0: bb3e 2e3c 9ba8 933d 7a45 f9bc 8389 0e3d
000001d0: c3ae a8bc fee3 0abc e6b5 85bd a147 8bbd
000001e0: 7733 6cbe 5440 90bd 2941 5b3d f43c b03b
000001f0: 254f 473d 3b1a 5c3e 8a5e 9a3e 4532 8a3e
00000200: a112 403e 5693 123e 8522 c83d 2a51 013c
00000210: d114 f7bc b05a ac3c 8dae 0f3d 51d5 683d
00000220: c250 aabd 798f 3dbd 10a4 033d 53f0 5bbc
00000230: b3ff 273d 49e7 d73c 1ec4 683d ee64 9ebc
00000240: 67e0 093e 4238 7abc c05f 26be 06b3 efbd
00000250: 0e04 98bd b6de ddbc 5518 733c 9e80 34bd
00000260: ea83 34bd c3f6 c53b fc1b 5fbb d9cd 6dbe
00000270: be8a d7bc 9445 bb3c 4387 9fbd e91d 48bd
00000280: 71e5 e73c 2ca1 4f3c a57d 293c d130 f23c
00000290: db48 a53b efbb 4b3c 70a6 c63b efb8 d23d
000002a0: e98b 563e cc60 893e 6bf2 813e 2bd6 283e
000002b0: 17d1 4a3e c689 363e 5a25 e83d c30b 223d
000002c0: 4284 573e e294 013d 53dd 9c3c b814 263e
000002d0: 01a6 243e 0a5d 0f3e 0551 103e dd8d 353d
000002e0: 93c0 f23d d750 053e 488c fcbb 9886 33bb
000002f0: f354 ea3c 1f3b b53c d46d 3c3d cc67 dbbd
00000300: 6c9a b53b b9c6 2b3c c085 c23c 7422 193b
00000310: 335a efbc cc4a 0e3c 81c6 f23b 819b 6fbb
00000320: 03ac 9138 c311 58bc c9fe 953c f82f fabb
00000330: 0903 4cbd 06b8 67bc 81e4 313d 31fa d73c
00000340: 5f8a 803c 1c46 c7bd f7a7 c1bd 3303 a9bd
00000350: 342c e6bd 79ee c3bb 1875 e33c 1689 f63d
00000360: 45d9 d5bc 5cce 1bbd c9f7 dabc 1618 5a3b
00000370: eb30 adbb baeb a9bc b08c 783d 9588 433d
00000380: 4bc7 6d3d fe90 233a 3684 1c3b 2aba db3c
00000390: e852 233e 6b65 483d 750e db3d 52d4 363e
000003a0: 2fd8 f43d 4c66 4e3d e57a d0bb 1e0e 5f3d
000003b0: ff27 2ebd 9be8 febc bfa0 9a3b c649 8bbc
000003c0: 0af5 153d 1c8d 413d ac87 2f3d 3bb9 e63c
000003d0: 02da 6a3d 26df 713c e482 0bbd 2c9c 85bc
000003e0: d236 32bc f3cf 9cbc 5130 73bc 9ef2 b8bc
000003f0: 01c1 ad3c 1d9d a13d 2a9b 923d e9ec 9bbd
-0.03213551 -0.029179744 -0.11102854 0.06581621 0.0940276 0.17779508 0.07898416 0.07072684
-0.08449622 0.034643587 0.06999154 0.036083546 -0.023536634 0.08659624 0.014812377 -0.06924783
-0.0671083 0.015087585 0.14742349 0.055261243 0.059848033 -0.03445731 -0.16779129 0.06929182
-0.3948165 0.26689538 0.43742138 0.43099588 0.10459999 -0.20412719 -0.19819875 -0.16151185
-0.02730794 0.17976385 0.24019831 0.032731567 -0.01264439 0.11085513 0.053403288 0.08202882
0.06160244 -0.10777098 -0.32441366 -0.2680565 0.04119396 0.049704287 0.14894457 0.18313612
-0.060804088 0.06977798 -0.06577835 -0.5535354 -0.17864972 0.033238746 0.2150781 0.55630267
0.45401368 0.013564628 -0.27479476 -0.26672858 0.28008828 0.01854155 -0.11603034 -0.25570574
-0.14834948 0.07511723 0.13349198 0.26260495 0.18761729 -0.26892632 -0.19624032 -0.017152041
0.4324045 0.11890098 -0.32792574 -0.20062117 0.13591203 0.42906016 0.27228898 0.21035814
0.027236868 -0.36372817 -0.22620423 0.061530285 0.19264857 0.26163992 0.1984012 0.22281384
0.1348241 -0.055927098 -0.16337934 -0.18519573 -0.23528388 -0.1855469 -0.092278086 -0.13359626
0.035644535 -0.03578574 -0.06603271 -0.186987 -0.17456922 -0.24791138 -0.32703763 -0.18738666
-0.23432833 0.009130375 -0.017290764 -0.30623338 0.098149635 -0.026009487 -0.0046148235 0.03900024
0.010635073 0.07209893 -0.030428637 0.03479911 -0.020591145 -0.008477209 -0.06528835 -0.068007715
-0.23066507 -0.070435196 0.05352894 0.00537836 0.048659462 0.21494381 0.30150253 0.26991478
0.18757106 0.14314017 0.09772209 0.007892886 -0.030161293 0.021039337 0.035078574 0.05684406
-0.083161846 -0.046279404 0.032138884 -0.013423997 0.04101534 0.026355403 0.056827657 -0.019335236
0.13464509 -0.015272202 -0.16247463 -0.11704068 -0.07422648 -0.027083736 0.014837344 -0.04406797
-0.044071116 0.006041379 -0.003404378 -0.23223056 -0.026311275 0.022860326 -0.07789471 -0.04885665
0.028307648 0.012672704 0.010344897 0.029564293 0.0050440854 0.012434944 0.0060623214 0.102891795
0.20951809 0.26831663 0.25380263 0.16487949 0.19806324 0.17825994 0.11335249 0.039561998
0.21046546 0.031636126 0.019148504 0.16218841 0.1607895 0.14000335 0.14093406 0.044324744
0.11853137 0.13019119 -0.0077071525 -0.0027393457 0.02860496 0.022122918 0.046003178 -0.10713157
0.00554209 0.010484391 0.023745418 0.0023366483 -0.029217815 0.008684825 0.0074089174 -0.0036561193
6.9461785e-05 -0.0131878285 0.018309968 -0.007635113 -0.049807582 -0.014142996 0.04343081 0.026364418
0.01569098 -0.09730169 -0.09455865 -0.08252563 -0.112389 -0.005979356 0.027765796 0.12037866
-0.026104579 -0.038038597 -0.026729481 0.0033278516 -0.0052853725 -0.020742286 0.060681045 0.047737677
0.05805139 0.0006239562 0.0023882515 0.026822168 0.15949595 0.048924845 0.10696117 0.17854431
0.11955296 0.050390527 -0.0063623064 0.054456823 -0.042518612 -0.031116774 0.0047188695 -0.017002951
0.03661064 0.047253713 0.042853996 0.028164497 0.057336815 0.014762675 -0.034060374 -0.01630982
-0.010877328 -0.019142127 -0.0148430625 -0.022576626 0.021210195 0.07891295 0.071585014 -0.076135464

resolve.2.layers.3.bias f4 [14]
00000000: 7703 923d 78d0 8c3c b7bb 20be b7da 2b3e
00000010: 3403 98bd 6853 97bb e4cd 433d fe6d 003e
00000020: 873e 553d 6a61 e2bb 8fdd 4e3d 060c 803d
00000030: cbb2 783c c3c9 e2bc
0.07129567 0.01718925 -0.15696608 0.16782652 -0.07422486 -0.004618097 0.047803774 0.12541959
0.052061584 -0.0069085853 0.050504263 0.06252293 0.015179346 -0.027684098

resolve.3.layers.0.conv0.weight f4 [14, 14, 3]
00000000: a116 fcbe 403c b83d f0e1 753e 7716 f4bc
00000010: e4aa 32bd c8d5 763a 87bd 893d 25fa 0e3e
00000020: 4307 4d3e 52b5 acbd 7323 853e 903e aebd
00000030: 8305 72bd 2798 97bd 8e8c 083e 46b1 0f3d
00000040: 1895 64be b1bc 053e df98 d13b e4d4 2e3e
00000050: bf80 7c3d dc3a f4bd e10c 8a3e 723a d1bd
00000060: 41c4 0abc c115 07be 28ab be3c 5197 393e
00000070: 03d1 973e 4322 e93e 1cf1 0abf bb02 85be
00000080: 0c1c 2f3d 7960 93be 65c9 343d 6731 b5be
00000090: fca2 853e 3357 3a3d 4c97 80bd 6f1c 363e
000000a0: bed4 dfbe 92a8 0bbf eb43 aa3e e282 87be
000000b0: c71f a9be 99d9 eb3c 9a0e 52bc 0190 253c
000000c0: eaa2 483d 1de1 213c 147f 7f3c 32e7 7b3d
000000d0: aa18 5cbd 428f 6b3c 247c 40bd 7865 b8bd
000000e0: 6452 87bc 07a9 fc3e 06fb a33e cd37 68be
000000f0: 360a 943e 14e0 06be 961c 903e d439 543e
00000100: 3e77 1ebd f139 293e e803 263e 1749 f23d
00000110: f175 893c e686 163d 4fb2 33be da63 b73e
00000120: 95ac 3c3f 323e 963e de35 63be 26dd 253e
00000130: 5f19 c3be 0004 923e 4d9f dcbe c770 a43d
00000140: c8e3 5abd ae45 8cbe f6ec 733e 61c1 403e
00000150: 2697 63be 76d2 68be 7bab 063d f097 f23d
00000160: 79be 45bc 0d4a 97bd 2f75 6e3c 1c86 853d
00000170: 4a38 75bc 3f0a a8bd 228f ac3d a344 5fbc
00000180: 092b 1bbd 2f4a 49bd aad9 8fbd df3f 28bf
00000190: 339c a33e 4b20 5bbf c93f e03c 5808 ef3d
000001a0: 990f 963d 727b a03d 37ae c0bd e8b4 babc
000001b0: b59d 85be 31fa b2bd 1172 913d d9cc 8a3e
000001c0: 2036 86be 8dff ebbe e0c1 2c3e bffa 14bd
000001d0: 5a9a 973d c269 303e 897e c7be 370c 4a3e
000001e0: 72d5 923d 24a0 a4bd 0bf1 36be 9243 0cbe
000001f0: b203 03bc ed9c bebd ef38 5c3d f810 e63d
00000200: 24cb 39bd 5bf5 c0bb be14 c0bd b3d9 8a3e
00000210: 5031 e33c 7af5 523e d19d 6b3d 93cc 59be
00000220: cd08 883e d69d fbbd 51d9 623d 0c64 dbbd
00000230: 17c5 883d bca0 a6bb efc3 723e c19f 6f3d
00000240: 66be 303e 1886 293d 99f7 9f3e 6558 473e
00000250: ca7c b13e 81ac 253e 82e7 0f3e 9d06 2b3e
00000260: a3b7 71bd d4f0 803e c4ee 503e 4284 563e
00000270: 5aaf e8bd c27c f9bd 1edf eb3d 01e4 d33d
00000280: 958c 293e 9be1 27be 52c3 383e 7137 c83e
00000290: 326a 2ebe 5346 7dbe 2b0c 34bc a8d3 9bbc
000002a0: 7d28 c6bc f656 1b3d 0489 4a3d 8b80 893e
000002b0: a3c5 1ebe e71c d4bd e234 b1be c7b3 ac3d
000002c0: be42 4a3e 0958 1d3d caff a83d e9cf 9d3d
000002d0: 7926 793e 5951 983d 8fb6 fcbd fa38 8ebd
000002e0: 9067 ab3c 6b8d b9bd ec15 483e 6c63 ebbd
000002f0: 83fd 4abe 8261 00be 7297 203d 1576 5a3d
00000300: f25e 93bd ec49 503d 6a3e 0ebe 955f 363d
00000310: ecd9 5b3d 61c2 84be 1c43 90bd 7d9d 2b3e
00000320: 936f 833e a662 e7be ca4a cfbe bbef 3e3e
00000330: 3acc dcbd acb4 b63d 2ac5 f73d 58d7 a93d
00000340: d798 9fbc 4614 76bd e56e e43c 2733 0abd
00000350: d04d 4c3c dc21 8bbe 9721 1c3f 31af 243d
00000360: 9566 003e 150e a23e 5b12 b8be fbbb 153b
00000370: 4307 18bc 5682 d63c aadb 87be a258 413e
00000380: acbc 00bd e6d7 ebbd f568 e0bd eca8 c9bd
00000390: bb3c e9be 1039 eb3d 7c70 87bd 72c1 9b3d
000003a0: d1ed 89bd 5446 4abe b62c 12bc 776e 01be
000003b0: f452 c8bd 2964 81bd 72d3 bd3c 9fb8 c7bd
000003c0: dc44 553c 4d2f 07bc 7be2 e33d 2470 ae3d
000003d0: 5a87 b33e c67b e7bd 560c fbbc d905 f43a
000003e0: e038 993d 2da4 23bd f890 813d 10be 653a
000003f0: 670e 24bd fee6 b83b 522c 3fbd c297 debd
-0.49236014 0.08995867 0.2401197 -0.029795868 -0.043620005 0.0009416011 0.067256026 0.1396261
0.20022301 -0.084330216 0.26003608 -0.085080266 -0.059087288 -0.07402068 0.13334867 0.03508117
-0.223225 0.13060261 0.0063963975 0.17073399 0.06164622 -0.11925289 0.2696295 -0.10216226
-0.008469642 -0.13191892 0.023274973 0.18124129 0.2965165 0.45533952 -0.54274154 -0.25978646
0.042751357 -0.2878454 0.044137377 -0.35389253 0.2610091 0.045493316 -0.062788576 0.17784284
-0.43716997 -0.5455409 0.33254942 -0.26467043 -0.33032057 0.028790282 -0.012820864 0.010105134
0.048983492 0.009880331 0.015594263 0.061499782 -0.05373446 0.014377417 -0.04699339 -0.09003729
-0.01651878 0.49347708 0.32027453 -0.22677536 0.2891404 -0.13171417 0.2814681 0.20725185
-0.038687937 0.16526009 0.16212428 0.11830347 0.016779872 0.036749743 -0.17548488 0.35818368
0.7370084 0.29344326 -0.22188517 0.16197643 -0.38105294 0.28518677 -0.43090287 0.08029323
-0.053439885 -0.2739691 0.23820862 0.18823768 -0.22225627 -0.22736534 0.03287838 0.11845386
-0.012069338 -0.07387171 0.014554306 0.0651972 -0.014967034 -0.08205079 0.08425738 -0.013627204
-0.03788284 -0.049143013 -0.07023938 -0.6572246 0.31955108 -0.8559615 0.027374165 0.11671513
0.07327194 0.07836045 -0.09408229 -0.022791341 -0.26096883 -0.087391265 0.071018346 0.2710941
-0.2621317 -0.46093407 0.16870832 -0.036371943 0.07402487 0.17227843 -0.38963726 0.19731222
0.07169618 -0.08038357 -0.17865388 -0.13697651 -0.0079964865 -0.09307275 0.053765234 0.11233705
-0.045359746 -0.0058886237 -0.09378956 0.27119216 0.027733475 0.20601454 0.057523552 -0.21269445
0.26569214 -0.12285964 0.05538303 -0.10712442 0.06678217 -0.005085079 0.23707555 0.058501963
0.17260131 0.041387647 0.3124359 0.19467314 0.3466552 0.16179086 0.14053157 0.16701742
-0.05901302 0.25183737 0.20403582 0.2094889 -0.11361571 -0.12181999 0.115171656 0.10346223
0.16557534 -0.16394655 0.18043259 0.39104798 -0.17032698 -0.24733858 -0.010989229 -0.019021824
-0.024189228 0.03792473 0.049447075 0.26855883 -0.1550508 -0.10357075 -0.3461066 0.08432727
0.19752023 0.038414035 0.08251913 0.07705671 0.24331082 0.07437391 -0.12339508 -0.06944461
0.020923406 -0.090601765 0.19539613 -0.114935726 -0.1982327 -0.12537196 0.03920693 0.053335268
-0.07195844 0.050851747 -0.13890997 0.044524748 0.053674623 -0.2592955 -0.0704405 0.16759296
0.25671062 -0.4519245 -0.40486747 0.18646137 -0.107811406 0.08921179 0.12098153 0.08293027
-0.01948206 -0.060077928 0.02788491 -0.03374019 0.012469724 -0.2717427 0.60988754 0.040206138
0.12539132 0.3165137 -0.35951504 0.002284764 -0.009279075 0.026185196 -0.26534778 0.18881467
-0.03142993 -0.11515789 -0.10957519 -0.098466724 -0.45554146 0.11485493 -0.066132516 0.07605256
-0.06734813 -0.1975339 -0.008921793 -0.12639795 -0.09781447 -0.06317932 0.023172114 -0.097520106
0.013016906 -0.0082510235 0.11127182 0.08517483 0.35064203 -0.11302905 -0.03064553 0.0018617465
0.07481551 -0.039951492 0.06326479 0.0008763978 -0.040052798 0.005642771 -0.046673127 -0.10868789

resolve.3.layers.0.conv0.bias f4 [14]
00000000: 1103 c03d a935 6ebb 9149 df39 9e30 833e
00000010: c24c 253c 2764 c0be 6e6a c8bd 4516 2fbe
00000020: 821b c0bd a04a 443c 8c7e b43d a817 e6bd
00000030: 64e3 30bd 7190 02bd
0.09375585 -0.0036347902 0.00042588686 0.2562303 0.010089101 -0.3757641 -0.09785925 -0.17098339
-0.09380247 0.011980683 0.088131994 -0.11234981 -0.043185607 -0.03187603

resolve.3.layers.0.bn0.weight f4 [14]
00000000: 0000 803f 0000 803f 0000 803f 0000 803f
00000010: 0000 803f 0000 803f 0000 803f 0000 803f
00000020: 0000 803f 0000 803f 0000 803f 0000 803f
00000030: 0000 803f 0000 803f
1.0 1.0 1.0 1.0 1.0 1.0 1.0 1.0
1.0 1.0 1.0 1.0 1.0 1.0

resolve.3.layers.0.bn0.bias f4 [14]
00000000: 0000 0000 0000 0000 0000 0000 0000 0000
00000010: 0000 0000 0000 0000 0000 0000 0000 0000
00000020: 0000 0000 0000 0000 0000 0000 0000 0000
00000030: 0000 0000 0000 0000
0.0 0.0 0.0 0.0 0.0 0.0 0.0 0.0
0.0 0.0 0.0 0.0 0.0 0.0

resolve.3.layers.0.bn0.running_mean f4 [14]
00000000: 0000 0000 0000 0000 0000 0000 0000 0000
00000010: 0000 0000 0000 0000 0000 0000 0000 0000
00000020: 0000 0000 0000 0000 0000 0000 0000 0000
00000030: 0000 0000 0000 0000
0.0 0.0 0.0 0.0 0.0 0.0 0.0 0.0
0.0 0.0 0.0 0.0 0.0 0.0

resolve.3.layers.0.bn0.running_var f4 [14]
00000000: 0000 803f 0000 803f 0000 803f 0000 803f
00000010: 0000 803f 0000 803f 0000 803f 0000 803f
00000020: 0000 803f 0000 803f 0000 803f 0000 803f
00000030: 0000 803f 0000 803f
1.0 1.0 1.0 1.0 1.0 1.0 1.0 1.0
1.0 1.0 1.0 1.0 1.0 1.0

resolve.3.layers.0.conv1.weight f4 [14, 14, 1]
00000000: c454 193f 653c a3be 7791 53be d2f8 62be
00000010: 07ce ae3d 84e2 a03d b9d5 b3bd 12c0 6fbe
00000020: ed47 6dbe 1dfa 623e 9a0e a23e ca85 833e
00000030: 778c 603d 0e64 cd3e 1423 483b 5919 5ebd
00000040: 6291 aa3c 0088 8a3d 27f3 89bd 51a7 1b3e
00000050: dc7e 013d 2281 f3bd 0390 1f3d 05a8 5f3d
00000060: 55f9 143e 5884 86bd e654 62bd 8e06 853d
00000070: c73c 12bc b40b 193c 7ed6 dc3c 2710 68bd
00000080: 1e73 86bd 4485 343e 3011 7a3c 487c 5e3c
00000090: 4dc4 2a3d d63c 843c d74d aebc db3c 473c
000000a0: 4501 973e b4aa de3c 2dc1 76bd cc08 8dbe
000000b0: d917 0d3e 5ef4 843e 33c2 2fbc adc4 883e
000000c0: c30d 8c3e d13c 743d e621 e83d 9874 283f
000000d0: 4045 29be ea76 ae3d 09d1 7fbd 8f89 a2bf
000000e0: b9e4 243c 0c67 3f3d 7617 40bc 0e6a fbbc
000000f0: d296 d93d e112 c8bd d80d b73d b4f2 253d
00000100: 8c39 4ebe c5c1 933c b571 49bd 6355 373d
00000110: 5bc1 92be 5b41 0d3d 595e 9bbe ee76 353d
00000120: 9d35 383f bd88 e7bd bc66 b63e 72d0 fd3d
00000130: 248b ddbd 78cf 86bf 0eb5 743d 9335 21bd
00000140: 6bd4 2e3e 3a43 c2bd f5d1 8f3d e9f9 853e
00000150: ee9d 4ebc b6ee 07bc 88c6 883c 2d57 1bbc
00000160: e0e5 61bd 445a a33e 40f8 53bb bf39 153d
00000170: ae8b 38be b5fd f2bc 4c9e 22bd f6d9 09bc
00000180: 17fa f63d 778a 983c 1b19 293d 1315 f2bc
00000190: 8968 f9ba bf7f 63be 8867 0e3e 3ea6 05be
000001a0: 21b5 773e 0680 263e 7b4e 00be f567 ac3d
000001b0: 5754 6e3e d941 ea3b b237 b83e 4e3a 0a3d
000001c0: a43b 1f3d d199 cd3c c948 93bd 6d52 d5bc
000001d0: a5f4 8d3e 191b 93be 9d8a e73d 0e15 0a3e
000001e0: faf8 143e ac8b 65bc dd33 a3bd c334 173d
000001f0: abbc ecbd 5b05 a6bc a70d a23b 3c9d 333e
00000200: d5f8 b3bd ed0d bebd 50c8 3c3e 44ba e2bc
00000210: 1efe 763e 4442 a5bd b041 b4bd 8fdc b53d
00000220: 185c 02be 0598 93bd 0a39 383d e5b8 b53d
00000230: 1c9a 2d3e 2f0d 8bbd a511 c13e 2e32 e8bd
00000240: 3967 c9bd 9b8a c83d 1a30 543e 639a 103c
00000250: 3ee6 d5be 6bd5 803e 1a3e 3b3e d58e 173d
00000260: dada 5e3e 50a1 a4be 44fe 383e bd5a 523d
00000270: d249 ebbe edfa 3bbe 3594 e2bc dd3b b3bd
00000280: 6d8b 803d b443 2a3f 457d 5b3e b5fe ac3d
00000290: c6be dcbd f742 263e 8ffa ffbd d1cb 21be
000002a0: 2ea7 76bc 649b 0d3e 4ba4 a63b 996d 993d
000002b0: 523a e6bb 2d56 04bc cfae 8abd b917 7e3d
000002c0: 5d5d c7be fad5 babe 2f2a 1a3f d71a 2fbf
000002d0: 8b5c f5bc d6a6 13bf 54fb c7be ff5e e83e
000002e0: b665 5dbd c6bf 62be 0f62 41bd 3264 063d
000002f0: f86e cb3c 8213 b53e c635 993d 3fd6 ddbd
00000300: 8d64 12be 2801 0abe f826 03be 8d55 c13b
0.5989497 -0.31882015 -0.20660959 -0.2216523 0.0853539 0.078557044 -0.08780999 -0.23413113
-0.23171969 0.22165723 0.31651765 0.2568801 0.054821458 0.40115398 0.0030538486 -0.054223392
0.020821277 0.06764221 -0.06735831 0.15200545 0.031615123 -0.118898645 0.0389557 0.054603595
0.14548238 -0.06568211 -0.055256747 0.06495391 -0.008925623 0.009341169 0.026957747 -0.05665603
-0.065649256 0.17628962 0.015262887 0.013579436 0.041691113 0.01614229 -0.021277351 0.012160505
0.29493156 0.027181007 -0.06024282 -0.27545774 0.13778628 0.25967687 -0.010727453 0.26712552
0.2735425 0.05962831 0.113345906 0.6580291 -0.16530323 0.08518775 -0.06245521 -1.269823
0.010064297 0.046729133 -0.0117243435 -0.03069022 0.1062447 -0.09769226 0.08938187 0.040514663
-0.2013914 0.018036732 -0.049180705 0.044759165 -0.28663144 0.034486156 -0.3034542 0.044302873
0.7195681 -0.11305378 0.35625255 0.123932734 -0.108175546 -1.0532064 0.05974298 -0.039357733
0.17073219 -0.09485479 0.07022468 0.2616723 -0.012610896 -0.008296659 0.01669623 -0.009481234
-0.055150867 0.31904805 -0.0032344013 0.036432024 -0.18022034 -0.029661993 -0.039701745 -0.008413782
0.120594196 0.018620713 0.041283708 -0.029551065 -0.0019028346 -0.222167 0.13906682 -0.13051698
0.24190189 0.16259775 -0.12529938 0.08418266 0.2327436 0.007148963 0.35979992 0.03374701
0.038875237 0.02509776 -0.07191617 -0.02604028 0.2772571 -0.2873161 0.11305735 0.13484594
0.14548102 -0.014010351 -0.079688765 0.036915552 -0.11559423 -0.020266226 0.004945475 0.17540449
-0.08787695 -0.0928 0.18435788 -0.027676709 0.24120376 -0.0806928 -0.088015914 0.08879959
-0.12730443 -0.0720673 0.04497627 0.088731565 0.1695332 -0.06789624 0.37708774 -0.11337696
-0.09834141 0.09792062 0.20721474 0.008825871 -0.41777223 0.25162825 0.18285409 0.03700145
0.21763173 -0.32154322 0.18065745 0.051356066 -0.45954758 -0.1835744 -0.027658561 -0.087516524
0.06276593 0.66509557 0.21434505 0.08447019 -0.10778575 0.16236483 -0.12498962 -0.15800406
-0.015054507 0.13828808 0.005085503 0.07491607 -0.0070259953 -0.0080771865 -0.06771623 0.062034342
-0.38938418 -0.36491376 0.6022062 -0.6840033 -0.029951354 -0.57676446 -0.39058936 0.45384976
-0.054052077 -0.22143468 -0.047212657 0.032810397 0.024833187 0.35366446 0.074809596 -0.1083188
-0.1429617 -0.13477004 -0.12807834 0.005900091

resolve.3.layers.0.conv1.bias f4 [14]
00000000: 6c36 0a3d ec44 493b f6c3 753d d9ee bfbd
00000010: 6471 603d 2124 81be b501 a43d f4ba 1ebe
00000020: f30b 24bc 9b4b 193e dcb0 ebbc 2f63 593e
00000030: 6452 6cbd fbd4 733c
0.033743307 0.0030711247 0.060001336 -0.093717285 0.054795638 -0.25222877 0.08008138 -0.15501004
-0.010012615 0.14970247 -0.028770857 0.21229242 -0.05769576 0.0148823215

resolve.3.layers.0.bn1.weight f4 [14]
00000000: 0000 803f 0000 803f 0000 803f 0000 803f
00000010: 0000 803f 0000 803f 0000 803f 0000 803f
00000020: 0000 803f 0000 803f 0000 803f 0000 803f
00000030: 0000 803f 0000 803f
1.0 1.0 1.0 1.0 1.0 1.0 1.0 1.0
1.0 1.0 1.0 1.0 1.0 1.0

resolve.3.layers.0.bn1.bias f4 [14]
00000000: 0000 0000 0000 0000 0000 0000 0000 0000
00000010: 0000 0000 0000 0000 0000 0000 0000 0000
00000020: 0000 0000 0000 0000 0000 0000 0000 0000
00000030: 0000 0000 0000 0000
0.0 0.0 0.0 0.0 0.0 0.0 0.0 0.0
0.0 0.0 0.0 0.0 0.0 0.0

resolve.3.layers.0.bn1.running_mean f4 [14]
00000000: 0000 0000 0000 0000 0000 0000 0000 0000
00000010: 0000 0000 0000 0000 0000 0000 0000 0000
00000020: 0000 0000 0000 0000 0000 0000 0000 0000
00000030: 0000 0000 0000 0000
0.0 0.0 0.0 0.0 0.0 0.0 0.0 0.0
0.0 0.0 0.0 0.0 0.0 0.0

resolve.3.layers.0.bn1.running_var f4 [14]
00000000: 0000 803f 0000 803f 0000 803f 0000 803f
00000010: 0000 803f 0000 803f 0000 803f 0000 803f
00000020: 0000 803f 0000 803f 0000 803f 0000 803f
00000030: 0000 803f 0000 803f
1.0 1.0 1.0 1.0 1.0 1.0 1.0 1.0
1.0 1.0 1.0 1.0 1.0 1.0

resolve.3.layers.1.conv0.weight f4 [14, 14, 3]
00000000: bba2 1fbe cdac 66bd 9b75 82bd c58d 323e
00000010: 1e3e 98bd df0e bb3d 7734 ac3d 7656 1ebe
00000020: 97b4 633e f106 bdbd e5a9 9cbd 06bd 6dbd
00000030: 4e82 7d3e efd4 e5bd d1a5 f8bc 4168 e8bd
00000040: c19a c2bc 99be 9abd 8892 443e 8058 b2bd
00000050: 0a13 ed3d ba29 e93a 5f55 933e d7b2 4e3d
00000060: f800 3a3e c987 1c3e d3aa 643e ac04 08be
00000070: 5dd3 323e c9c6 f03d 18f3 673d 5cec c3be
00000080: 4da0 5e3d d4d5 c7ba f64b f33c e314 ca3b
00000090: 3f79 e73d 08cc 4abe 7a22 d23d 5565 2fbe
000000a0: 0073 aebc abde e0bd 248c 763d 665f d93c
000000b0: 9617 37ba bbdc 3dbe f951 cd3e f2d6 e6bd
000000c0: bcff 1d3f d0ca afbe c5bd 97be 2120 963c
000000d0: cc63 bfbc 3d2f 53bc d912 3ebf ada8 0a3f
000000e0: d401 1d3e 4056 4d3d 9383 67bd 65b0 643c
000000f0: 4e7b 00bf 54f7 9b3e 2ae6 c43d 4c54 9dbc
00000100: 7970 663b 57db 683d aacf 3ebd 4dce adbe
00000110: 495d a13e 9af6 d43d c153 17bb ff17 0d3c
00000120: 8995 18bd 5ed2 633e b8fd c93c 71d1 a63c
00000130: 86fd 783c f3b4 10bb 5ebf 2fbc 03c1 d13d
00000140: 9f94 eabd 094e 3e3c 2bca ba3b eb24 113d
00000150: c989 b8be e331 893d e4e6 76be 9500 be3d
00000160: 692f 3bbe 2653 6e3d c9aa 25bd 931f 993d
00000170: 7058 253c 8c3c 6abd 3a49 80bc 1dcb 05be
00000180: 26ba d9bd b52f 303c 4643 fc3c bb1f 47be
00000190: a493 2dbe 6018 84be ece5 8b3d c514 2e3e
000001a0: 6516 8a3d e21e 3fbd df13 8b3e 61c5 cb3b
000001b0: 2061 8fbd 4755 763e 2242 b63d fb4e ea3d
000001c0: 3297 0bbf dcf1 583c 5171 8d3b f6d9 11bb
000001d0: 329a 713d c0aa aabe 9437 5bbe 2c8b ecbd
000001e0: 6ff7 49be dd83 a13e 6ad9 1b3e 5d36 c0be
000001f0: 8e82 e3be ae76 e4be 179b 5f3e f254 de3d
00000200: 9bed 4a3e f0cf c5bd b81b a63d 5e31 9bbe
00000210: 96d1 79be 2fe1 493d 03f9 1dbe abb2 763e
00000220: a4f5 b4bd 60f9 8d3e 4a3d edbc 7414 efb9
00000230: 5d8e 123d d1e9 05be 9808 98bd 8cbf 6dbe
00000240: f6a5 b6be 5809 d53d 0a93 d4be 08d4 4a3e
00000250: c055 193e f6cb 69be 21cf 08bf 9155 3d3e
00000260: 2165 f3bd 7f2e 313e a2e0 65bd 595c 103d
00000270: e977 73bd 338c bfbe 1772 063f 8bc1 3bbe
00000280: 1fc9 00bd f92c c9bd 8eb9 4fbe 8bd8 e1bc
00000290: 21aa b23d 3bfb 833d c702 b8be f345 6e3d
000002a0: d029 a63d 1c0c 0ebc bdc3 183d d5b8 a6bd
000002b0: 87f2 903d 6707 3b3d adb4 11be 86e6 46bd
000002c0: b9fb 393b 5c66 9bbb d35d ecbd 5252 493d
000002d0: 69d0 a03e 7d16 26be 77cd 793d fa01 0a3d
000002e0: 4591 1ebd 9bff c63d bf73 30be 6bcd 37be
000002f0: 504f 773c f243 a23e d611 aa3d 9b76 163e
00000300: 2b0b 94bd 67d0 5abe 83f2 32be e060 943b
00000310: 171d 843d 3c2e ea3d c9cf babd f8bf 9a3e
00000320: 053b b13e a3c0 0f3e 49e5 a8bd 7898 91bc
00000330: eb51 90bd 28cf e6bb 513e a9be 85ac fb3c
00000340: 3b3e a03d 5f12 a93d a928 58bd da0a 3a3d
00000350: 7f50 623c af84 29be 7c03 e6be 686f c2bd
00000360: 2855 d03d 7309 8fbd f58d 09be c082 503d
00000370: f4dc 393d 1751 ca3c 81a8 99bd 60f1 e93d
00000380: 13bc ed3c 8bc0 d23d b073 a13e 77cd 3ebd
00000390: cd67 3fbd b2f9 0f3e 5345 4ebd d32f 59bd
000003a0: 9c35 223d ab9b 55bd ba3c dc3d acf8 a23e
000003b0: f3be 84bd c5cd bf3d d169 463d 81e6 54bd
000003c0: 88e4 1d3d bef4 e13b 3d03 5ebe e143 e4bd
000003d0: a6bc 5e3c 4d6d a13d da00 93bc bbcc 4fbe
000003e0: d5df 34bd a7a4 0c3d a405 953e 5971 fd3c
000003f0: 6826 09bd 5249 31be ec82 ccbd 7c4b bfbe
-0.1558942 -0.05631714 -0.06370088 0.17436893 -0.07433723 0.09133696 0.084084444 -0.1546267
0.22236858 -0.092298396 -0.07649592 -0.058041595 0.24756739 -0.112222545 -0.030352505 -0.1134801
-0.023755433 -0.07555885 0.19196522 -0.08708286 0.11575897 0.0017788925 0.2877607 0.050463524
0.18164432 0.15286173 0.2233079 -0.13283032 0.17463441 0.11756665 0.056628317 -0.38266265
0.054352093 -0.0015246221 0.029699307 0.0061670407 0.11302423 -0.19804394 0.10260482 -0.17128499
-0.02129507 -0.109799705 0.060192242 0.026534747 -0.00069844106 -0.18541233 0.40101603 -0.11271466
0.61718345 -0.3433442 -0.2963697 0.018325867 -0.023363017 -0.01288968 -0.7424751 0.5416363
0.15332729 0.050131083 -0.056521963 0.013958071 -0.5018815 0.30462134 0.09614213 -0.019205235
0.0035162254 0.056849804 -0.046584763 -0.33946458 0.31516483 0.10398598 -0.0023090693 0.008611678
-0.037251983 0.22248217 0.024657115 0.020363541 0.015197163 -0.002208051 -0.010726778 0.10241892
-0.114541285 0.011615285 0.00570037 0.0354356 -0.36042622 0.06698968 -0.24111515 0.09277455
-0.18279804 0.058184765 -0.040446077 0.074767254 0.010091886 -0.05718665 -0.015659917 -0.13065763
-0.10631208 0.010753562 0.030793797 -0.19445698 -0.16950852 -0.25799847 0.068309635 0.1700011
0.06742553 -0.04666031 0.27163598 0.0062185978 -0.07000947 0.24055968 0.088993326 0.114408456
-0.5452758 0.0132412575 0.004316487 -0.002225516 0.058984943 -0.33333397 -0.2140792 -0.115499824
-0.19723295 0.31545916 0.15219656 -0.37541476 -0.44435543 -0.44621795 0.21836506 0.10856046
0.19817202 -0.096588016 0.08110756 -0.30311102 -0.24396357 0.049287017 -0.15427022 0.24091594
-0.08835915 0.2772932 -0.028959889 -0.0004560087 0.0357803 -0.13077475 -0.07423514 -0.232176
-0.35673493 0.10402173 -0.41518432 0.19807446 0.14974117 -0.22831711 -0.53441054 0.18489672
-0.11884523 0.17302893 -0.05612243 0.03524432 -0.059440527 -0.3741165 0.5251784 -0.1833555
-0.031441804 -0.09823031 -0.20285627 -0.027569076 0.08723856 0.06444403 -0.3593962 0.058172178
0.08113444 -0.008669879 0.037296046 -0.08140723 0.070775084 0.045661356 -0.14229079 -0.048559688
0.0028378798 -0.004742427 -0.11541333 0.049150772 0.31409004 -0.16219516 0.060986962 0.03369329
-0.03871276 0.097167216 -0.17231654 -0.17949454 0.015094593 0.31692463 0.08304183 0.14693682
-0.072286926 -0.21368562 -0.17475323 0.00452815 0.06450861 0.114346 -0.09121663 0.30224586
0.3461534 0.14038329 -0.08246858 -0.017772898 -0.070468746 -0.007043738 -0.33055356 0.030721912
0.078243695 0.08255457 -0.05277315 0.045420505 0.013813137 -0.16554521 -0.44924533 -0.09493905
0.10172492 -0.06984224 -0.13433059 0.050905943 0.045376733 0.02469687 -0.07502843 0.11422992
0.029020345 0.10290631 0.31533575 -0.046582665 -0.04672985 0.14060095 -0.05035908 -0.053024124
0.039601907 -0.05215041 0.1075377 0.31830347 -0.06481733 0.09365419 0.04844076 -0.05197764
0.038548023 0.0068956306 -0.21680923 -0.111457594 0.013594782 0.078821756 -0.017944742 -0.20292942
-0.044158775 0.034336712 0.29105866 0.030937837 -0.033483893 -0.17313126 -0.09985909 -0.37362278

resolve.3.layers.1.conv0.bias f4 [14]
00000000: 99c6 903d 5905 1bbd 93e1 55bd 830a 0bbe
00000010: 981e 5ebd e6df ce3c 9fa7 4cbe 33f2 44bd
00000020: ed6a eb3c 8203 35bb 42bc 33bc 5611 383e
00000030: 88a9 db3d ddbb 383e
0.070691295 -0.037846897 -0.052217077 -0.13578229 -0.054228395 0.025253247 -0.19985817 -0.04808254
0.02873751 -0.00276205 -0.010970177 0.17975363 0.10725695 0.18040414

resolve.3.layers.1.bn0.weight f4 [14]
00000000: 0000 803f 0000 803f 0000 803f 0000 803f
00000010: 0000 803f 0000 803f 0000 803f 0000 803f
00000020: 0000 803f 0000 803f 0000 803f 0000 803f
00000030: 0000 803f 0000 803f
1.0 1.0 1.0 1.0 1.0 1.0 1.0 1.0
1.0 1.0 1.0 1.0 1.0 1.0

resolve.3.layers.1.bn0.bias f4 [14]
00000000: 0000 0000 0000 0000 0000 0000 0000 0000
00000010: 0000 0000 0000 0000 0000 0000 0000 0000
00000020: 0000 0000 0000 0000 0000 0000 0000 0000
00000030: 0000 0000 0000 0000
0.0 0.0 0.0 0.0 0.0 0.0 0.0 0.0
0.0 0.0 0.0 0.0 0.0 0.0

resolve.3.layers.1.bn0.running_mean f4 [14]
00000000: 0000 0000 0000 0000 0000 0000 0000 0000
00000010: 0000 0000 0000 0000 0000 0000 0000 0000
00000020: 0000 0000 0000 0000 0000 0000 0000 0000
00000030: 0000 0000 0000 0000
0.0 0.0 0.0 0.0 0.0 0.0 0.0 0.0
0.0 0.0 0.0 0.0 0.0 0.0

resolve.3.layers.1.bn0.running_var f4 [14]
00000000: 0000 803f 0000 803f 0000 803f 0000 803f
00000010: 0000 803f 0000 803f 0000 803f 0000 803f
00000020: 0000 803f 0000 803f 0000 803f 0000 803f
00000030: 0000 803f 0000 803f
1.0 1.0 1.0 1.0 1.0 1.0 1.0 1.0
1.0 1.0 1.0 1.0 1.0 1.0
