generators/n8.ckpt (torch, 553518 bytes, 235 tensors)

resolve.0.weight f4 [8, 1, 7]
0	0x3ef3114d	0.47474137
1	0x3f96f7e4	1.17944
2	0x3f87c7af	1.0607814
3	0x3f89c5f4	1.0763535
4	0x3ca7e57b	0.020495167
5	0xbe0abdcd	-0.13548966
6	0xbe645696	-0.22298655
7	0x3f76a834	0.9635041
8	0x3f8a3c35	1.0799624
9	0x3f05ea50	0.5231066
10	0x3fa4c9af	1.2874049
11	0x3f90da64	1.1316648
12	0x3fa38f69	1.277814
13	0x3f4765a2	0.77889454
14	0x3fad6890	1.3547535
15	0x3f08dbff	0.5346069
16	0x3f224ff6	0.6340326
17	0x3f6208c3	0.8829462
18	0x3f822164	1.016644
19	0x3f9ff313	1.2496055
20	0x3e308c46	0.1724101
21	0xbfb1e561	-1.3898126
22	0xbfaaf5b4	-1.3356233
23	0xbf229aa6	-0.63517225
24	0xbf66bb98	-0.90129995
25	0xbf0a6852	-0.5406543
26	0xbe899771	-0.26873353
27	0xbe0b5713	-0.13607435
28	0xbf08e1f7	-0.53469795
29	0xbf930f66	-1.1489074
30	0x3edac655	0.4272944
31	0x3f4ab506	0.7918247
32	0x3f9054e4	1.1275907
33	0xbd56af22	-0.052413113
34	0xbf8f6abd	-1.1204449
35	0x3f956567	1.167157
36	0x3cff8b8a	0.031194467
37	0xbfa1adbf	-1.2631148
38	0xbfbd67b9	-1.4797279
39	0xbe67e7bd	-0.22646995
40	0x3f8f340f	1.1187762
41	0x3f39422b	0.7236659
42	0xbce93d3c	-0.028471582
43	0x3f9e011b	1.2344087
44	0x3f303102	0.6882478
45	0xbfa1e29a	-1.2647278
46	0xbfaf8054	-1.3711038
47	0xbf0829f0	-0.5318899
48	0x3f87ffeb	1.0624975
49	0xbf367d84	-0.7128527
50	0xbf91a9ef	-1.1379985
51	0xbf43c64c	-0.7647445
52	0xbeb53a49	-0.3539603
53	0x3f152e31	0.5827361
54	0x3e8c8e43	0.27452287
55	0xbccdb0c7	-0.025108708

resolve.0.bias f4 [8]
0	0x3e469522	0.19392827
1	0xbd113cdf	-0.03545844
2	0x3e2bfe93	0.16796331
3	0xbe6dcc72	-0.23222521
4	0x3d983f8c	0.074339956
5	0x3c7b6380	0.015343547
6	0xbd842a7a	-0.06453414
7	0x3c83053b	0.015993705

resolve.2.layers.0.conv0.weight f4 [8, 8, 3]
0	0xbda90489	-0.08252818
1	0xbe5bc0f2	-0.21460322
2	0x3e0cca0c	0.1374895
3	0x3e9d3ea3	0.3071185
4	0x3e0dd7e7	0.13851891
5	0xbd53d582	-0.05171729
6	0x3d9d9897	0.0769512
7	0x3d8557b4	0.06510869
8	0x3e01672a	0.1263701
9	0x3ce42055	0.027847448
10	0xbd4bb180	-0.049729824
11	0xbcea997f	-0.028637646
12	0xbef3a4af	-0.4758658
13	0x3e7a0029	0.24414124
14	0x3e26a37a	0.16273299
15	0x3f9daa03	1.2317508
16	0xbe370b23	-0.17875342
17	0xbfa33c96	-1.2752864
18	0x3e26445b	0.16237013
19	0xbf6b5eb5	-0.91941386
20	0xbd1d55ec	-0.03841202
21	0x3e887910	0.26654863
22	0x3f2c72eb	0.6736285
23	0xbe63061f	-0.22170304
24	0xbda67622	-0.08128001
25	0x3df875da	0.121318534
26	0x3dc61922	0.096727625
27	0x3f318299	0.693399
28	0x3f63dd8d	0.89009935
29	0x3f51e61c	0.81991744
30	0xbde4581c	-0.11149618
31	0xbd783ab8	-0.060602874
32	0x3e567c92	0.20945957
33	0xbd8e501e	-0.06948875
34	0xbdacbd43	-0.08434536
35	0xbe3ca00e	-0.18420431
36	0xbd893562	-0.06699635
37	0x3dc62856	0.09675662
38	0xbca5145b	-0.020151308
39	0xbebf2982	-0.37336355
40	0xbe891b44	-0.26778615
41	0xbe9dc54d	-0.3081459
42	0xbe65100f	-0.22369407
43	0xbd66f5db	-0.05638681
44	0xbb0ea5c7	-0.0021766291
45	0xbe534628	-0.20632231
46	0xbccf484c	-0.025303029
47	0xbe880346	-0.26564997
48	0xbd96a2b9	-0.07355256
49	0xbe3ca422	-0.18421987
50	0xbe71b7b6	-0.23605236
51	0x3d980561	0.07422901
52	0x3e95afde	0.2923574
53	0x3e1387fe	0.14407346
54	0xbd11cd0a	-0.03559593
55	0xbe0dbdba	-0.13841906
56	0x3d8f7766	0.07005195
57	0x3e262f13	0.16228895
58	0x3dff97be	0.124801144
59	0xbd9de083	-0.07708838
60	0x3e986e56	0.2977168
61	0xbdd26e16	-0.102749035
62	0x3e29e13d	0.16589828
63	0xbf99626c	-1.1983161
64	0x3f1f84db	0.62312096
65	0x3fda3444	1.70472
66	0x3eae0164	0.33985436
67	0x3f98d5a4	1.1940198
68	0xbd5ec964	-0.05439128
69	0x3e471bf0	0.19444251
70	0xbe829d70	-0.2551074
71	0x3ed49896	0.41522664
72	0xbe63399c	-0.22189945
73	0xbe951b57	-0.2912242
74	0xbd8f265b	-0.069897376
75	0xbf1757d8	-0.59118414
76	0xbeef696f	-0.46760127
77	0xbf0c13f3	-0.5471794
78	0x3b35f558	0.0027764644
79	0xbea613d0	-0.3243699
80	0xbe4e59c9	-0.20151438
81	0x3ea46a48	0.32112336
82	0x3ebf220e	0.3733067
83	0x3ecb634c	0.39724195
84	0xbcfd42b3	-0.030915594
85	0xbeb92763	-0.36162862
86	0xbd7c79c6	-0.06163957
87	0xbe18b525	-0.14912851
88	0xbc3e8090	-0.011627331
89	0x3d98de65	0.074642934
90	0x3e28a6dd	0.16469903
91	0xbe13c860	-0.14431906
92	0x3d8caa6a	0.068684414
93	0x3eb2a916	0.34894627
94	0x3ee3c88d	0.44488946
95	0x3ebf3db4	0.37351763
96	0x3e4086c1	0.18801405
97	0x3dc24b9f	0.0948708
98	0xbcf88266	-0.030335616
99	0xbebaf080	-0.36511612
100	0xbd6decaf	-0.058087047
101	0xbd5c2f48	-0.05375603
102	0xbb501a4a	-0.003175395
103	0x3e038735	0.12844546
104	0x3d814444	0.06311849
105	0xbd1edf2b	-0.03878705
106	0xbac6af27	-0.0015158401
107	0x3dd1faff	0.10252952
108	0x3e840453	0.2578455
109	0xbebbbe2e	-0.36668533
110	0xbe7fd8e6	-0.24985084
111	0xbf6d30a2	-0.9265233
112	0x3e114fed	0.14190646
113	0x3f9b7fef	1.2148417
114	0xbb349168	-0.002755249
115	0x3ecde167	0.4021103
116	0xbdbcea1a	-0.09224339
117	0xbd7a4084	-0.061096683
118	0xbe9ebe37	-0.31004497
119	0x3cbc6198	0.022995755
120	0x3e086338	0.13319099
121	0x3e58dc66	0.21177825
122	0x3dc15ecd	0.0944191
123	0x3ba2ef33	0.0049723624
124	0x3d219c54	0.039455727
125	0x3df4fc9e	0.119622454
126	0x3ddec7c6	0.108779475
127	0xbd30c54b	-0.043156903
128	0x3e2c6fcb	0.1683952
129	0x3e683251	0.22675444
130	0xbc6c08ab	-0.0144063635
131	0xbdae0db4	-0.084987074
132	0x3e8fa3ac	0.2805456
133	0xbdfb673f	-0.12275552
134	0x3c87cfb0	0.016578525
135	0xbf621744	-0.8831675
136	0xbd18c2e4	-0.037295237
137	0x3f841bac	1.0320945
138	0x3d03256a	0.032018103
139	0x3f494f20	0.7863636
140	0x3dba86c3	0.09107735
141	0xbe2eefb3	-0.17083625
142	0xbef221d7	-0.47291443
143	0xbd81a022	-0.06329371
144	0xbd2be2f0	-0.04196447
145	0x3d860d7a	0.06545539
146	0x3df5d498	0.1200344
147	0x3e0e065e	0.13869616
148	0xbdeddc76	-0.11614315
149	0xbdf32ba9	-0.11873562
150	0xbd1b3de3	-0.037900817
151	0x3e5be461	0.21473838
152	0x3cc5a569	0.024126725
153	0xbe0c064c	-0.13674277
154	0x3d3ef117	0.04661664
155	0xbd84f4a2	-0.064919725
156	0xbe869cd9	-0.2629154
157	0x3e5ac928	0.21365798
158	0xbd0a13e0	-0.03371036
159	0x3e7d5733	0.24740295
160	0xbf18dbe1	-0.5971051
161	0xbf1e0ce7	-0.6173844
162	0x3e990bfc	0.29891956
163	0xbda5c411	-0.08094037
164	0xbdb034f1	-0.08603848
165	0xbe9b80db	-0.30371746
166	0xbd84d3e4	-0.064857274
167	0x3e84e1dc	0.25953567
168	0x3b8c58f3	0.0042830645
169	0x3d72228f	0.05911499
170	0xbc0d8201	-0.008636952
171	0xbec60100	-0.38672638
172	0xbee2dd84	-0.44309628
173	0xbf0f0075	-0.5586007
174	0xbe8daac0	-0.27669334
175	0xbeb374b3	-0.35049972
176	0xbd61c8b7	-0.055123057
177	0xbdf6a34e	-0.12042867
178	0xbbb1d879	-0.005427417
179	0xbdc6c912	-0.0970632
180	0xbe1c194c	-0.15244025
181	0xbee62e92	-0.44957405
182	0xbea78652	-0.32719666
183	0xbe758867	-0.23977815
184	0xbe0c8cec	-0.13725632
185	0xbd5412dc	-0.0517758
186	0xbe5d206c	-0.21594399
187	0xbe26c0f9	-0.1628455
188	0xbea1b06a	-0.31579906
189	0xbe3ab593	-0.18233328
190	0xbe317aa7	-0.17331944
191	0xbdf84bb2	-0.12123813

resolve.2.layers.0.conv0.bias f4 [8]
0	0xbd8c8178	-0.06860632
1	0xbdeaeb14	-0.11470619
2	0x3e057923	0.13034491
3	0x3c8ddb69	0.017316537
4	0xbc5c5161	-0.013447137
5	0xbe31421a	-0.17310372
6	0x3dd48815	0.10377518
7	0xbe872c12	-0.2640081

resolve.2.layers.0.bn0.weight f4 [8]
0	0x3f800000	1.0
1	0x3f800000	1.0
2	0x3f800000	1.0
3	0x3f800000	1.0
4	0x3f800000	1.0
5	0x3f800000	1.0
6	0x3f800000	1.0
7	0x3f800000	1.0

resolve.2.layers.0.bn0.bias f4 [8]
0	0x00000000	0.0
1	0x00000000	0.0
2	0x00000000	0.0
3	0x00000000	0.0
4	0x00000000	0.0
5	0x00000000	0.0
6	0x00000000	0.0
7	0x00000000	0.0

resolve.2.layers.0.bn0.running_mean f4 [8]
0	0x00000000	0.0
1	0x00000000	0.0
2	0x00000000	0.0
3	0x00000000	0.0
4	0x00000000	0.0
5	0x00000000	0.0
6	0x00000000	0.0
7	0x00000000	0.0

resolve.2.layers.0.bn0.running_var f4 [8]
0	0x3f800000	1.0
1	0x3f800000	1.0
2	0x3f800000	1.0
3	0x3f800000	1.0
4	0x3f800000	1.0
5	0x3f800000	1.0
6	0x3f800000	1.0
7	0x3f800000	1.0

resolve.2.layers.0.conv1.weight f4 [8, 8, 1]
0	0xbd976cb9	-0.07393784
1	0x3eb9c1b9	0.3628061
2	0x3d594777	0.05304667
3	0xbd9c9244	-0.076450855
4	0x3edd60ec	0.43238008
5	0xbe6773bf	-0.22602747
6	0x3dcafb87	0.09911256
7	0xbe849528	-0.25895047
8	0x3e1f08b0	0.15530658
9	0x3eb255f6	0.34831208
10	0x3d77d1b0	0.060502708
11	0xbe546eb4	-0.20745355
12	0xbe54a357	-0.20765434
13	0xbd98e8c2	-0.0746627
14	0x3c80992e	0.015698042
15	0xbe5dfa3a	-0.21677485
16	0xbe698557	-0.22804771
17	0xbeabc09a	-0.3354538
18	0xbd0d439f	-0.034488317
19	0xbec34133	-0.3813568
20	0xbda5f084	-0.08102515
21	0x3cb94ebc	0.022620551
22	0xbefe3f6c	-0.49657762
23	0x3ebe5c15	0.37179628
24	0x3f2e8876	0.6817697
25	0x3dacf865	0.08445815
26	0xbefee8c9	-0.49786976
27	0xbdb69d6d	-0.08916745
28	0xbf374582	-0.71590436
29	0xbf165ff6	-0.58740175
30	0xbd3016a6	-0.04299035
31	0x3cc64f19	0.024207639
32	0x3e1a93ef	0.15095495
33	0x3d709c01	0.058742527
34	0xbf02b051	-0.5105029
35	0x3d1dafc9	0.03849772
36	0xbe0d7106	-0.13812646
37	0xbe00141b	-0.1250767
38	0xbe1add94	-0.15123588
39	0xbdfe6b07	-0.124227576
40	0x3f0e5184	0.5559313
41	0x3cacebfa	0.021108616
42	0xbf6bd260	-0.9211788
43	0x3e37875f	0.17922734
44	0xbf726d77	-0.9469828
45	0xbc867e3f	-0.01641762
46	0x3f05856c	0.5215671
47	0xbd7f473e	-0.0623238
48	0xbf4b38d8	-0.7938361
49	0x3dfe49b6	0.12416403
50	0x3f5a8ddc	0.8537271
51	0x3dc95469	0.09830553
52	0x3f893813	1.0720237
53	0x3f26c9f9	0.65151936
54	0xbdec009f	-0.11523556
55	0xbb568880	-0.003273517
56	0xbd6c77cc	-0.057731435
57	0xbd8c3fea	-0.06848128
58	0x3e555133	0.20831756
59	0x3f15cc12	0.5851451
60	0xbe926d4a	-0.28599006
61	0xbf059107	-0.5217442
62	0xbe81a0e5	-0.25318065
63	0xbee04752	-0.43804413

resolve.2.layers.0.conv1.bias f4 [8]
0	0xbe84c29d	-0.25929728
1	0xbe0d7158	-0.13812768
2	0x3e3c4e78	0.18389308
3	0x3dcd2622	0.10017039
4	0xbe5c7692	-0.21529606
5	0xbda881ef	-0.08227908
6	0x3e78f52c	0.24312276
7	0xbdb1ff9e	-0.08691333

resolve.2.layers.0.bn1.weight f4 [8]
0	0x3f800000	1.0
1	0x3f800000	1.0
2	0x3f800000	1.0
3	0x3f800000	1.0
4	0x3f800000	1.0
5	0x3f800000	1.0
6	0x3f800000	1.0
7	0x3f800000	1.0

resolve.2.layers.0.bn1.bias f4 [8]
0	0x00000000	0.0
1	0x00000000	0.0
2	0x00000000	0.0
3	0x00000000	0.0
4	0x00000000	0.0
5	0x00000000	0.0
6	0x00000000	0.0
7	0x00000000	0.0

resolve.2.layers.0.bn1.running_mean f4 [8]
0	0x00000000	0.0
1	0x00000000	0.0
2	0x00000000	0.0
3	0x00000000	0.0
4	0x00000000	0.0
5	0x00000000	0.0
6	0x00000000	0.0
7	0x00000000	0.0

resolve.2.layers.0.bn1.running_var f4 [8]
0	0x3f800000	1.0
1	0x3f800000	1.0
2	0x3f800000	1.0
3	0x3f800000	1.0
4	0x3f800000	1.0
5	0x3f800000	1.0
6	0x3f800000	1.0
7	0x3f800000	1.0

resolve.2.layers.1.conv0.weight f4 [8, 8, 3]
0	0x3aacaffa	0.0013175004
1	0x3c9e3635	0.019312957
2	0x3e0756ae	0.1321666
3	0xbd3e7a37	-0.046503272
4	0x3e175714	0.14779311
5	0x3c533927	0.012892044
6	0xbe6ad5a4	-0.2293306
7	0xbe45b1ce	-0.19306108
8	0xbe1cb546	-0.15303525
9	0xbe2ee4a2	-0.17079404
10	0x3e8f9c16	0.28048772
11	0xbed5c4e5	-0.4175178
12	0xbe0e0b1c	-0.13871425
13	0x3e70b3fc	0.23506159
14	0xbd47b1a4	-0.048753396
15	0xbd4bbff0	-0.049743593
16	0x3dabb5d6	0.08384292
17	0x3e222745	0.15835293
18	0xbc9a1c10	-0.01881221
19	0x3d4b698f	0.049661215
20	0x3e124554	0.14284259
21	0xbd20bee4	-0.039244547
22	0xbd113178	-0.035447568
23	0x3e286106	0.16443262
24	0x3de5647d	0.11200807
25	0xbdaf80f2	-0.08569516
26	0x3d8f2100	0.06988716
27	0x3d0c67b3	0.034278583
28	0x3e8aa4fb	0.27078995
29	0x3daeb2ac	0.08530173
30	0xbc63a542	-0.013894381
31	0xbde0eb08	-0.10982329
32	0xbdba64a9	-0.09101231
33	0x3c079c8d	0.008277071
34	0x3f43dcb9	0.7650867
35	0xbe597c4c	-0.21238822
36	0xbeb6bdf6	-0.35691804
37	0x3e33fefa	0.17577735
38	0xbec78457	-0.38968155
39	0xbea20ac6	-0.31648844
40	0x3e926197	0.2859008
41	0xbd7a8ff2	-0.061172433
42	0x3f3ad44f	0.7298021
43	0xbea6d0e6	-0.32581252
44	0x3f1af95d	0.6053675
45	0x3d2793f8	0.0409126
46	0x3e89868f	0.26860473
47	0x3df9b3ab	0.12192472
48	0x3e09ce0a	0.13457504
49	0x3ca630f6	0.020287018
50	0xbdccbf76	-0.09997456
51	0xbe18844d	-0.14894219
52	0x3e14fa05	0.145485
53	0xbe1fb685	-0.1559697
54	0xbd9802a2	-0.07422377
55	0xbdba4874	-0.090958506
56	0x3e6bca9c	0.23026508
57	0xbe8084e9	-0.25101402
58	0x3ecefa00	0.4042511
59	0xbeb19498	-0.3468368
60	0xbe2ef9b3	-0.1708744
61	0x3ec7cc3a	0.39023
62	0xbe959f9e	-0.2922334
63	0xbe7a5c0c	-0.24449176
64	0x3ea671fa	0.32508832
65	0xbd29f51b	-0.041493516
66	0x3f295027	0.6613793
67	0xbf4c7c5c	-0.7987726
68	0x3f0cc8c9	0.54993874
69	0xbe5d86a1	-0.21633388
70	0xbd8403cb	-0.06446036
71	0x3db39596	0.08768766
72	0x3d9b2569	0.07575495
73	0x3d3a2e7d	0.04545449
74	0xbe8d2199	-0.27564695
75	0x3b476d5b	0.0030430171
76	0x3e71e46e	0.23622295
77	0xbe08015b	-0.13281767
78	0x3e4c132c	0.19929188
79	0xbdb73b5d	-0.089468695
80	0xbd7d180f	-0.061790522
81	0x3d7d5d55	0.061856586
82	0x3d07de5d	0.033171047
83	0x3e3efc74	0.1865099
84	0x3cdfc261	0.027314367
85	0xbdc25dd7	-0.09490555
86	0xbe184246	-0.14869031
87	0xbdddb154	-0.10824838
88	0x3e1cf99f	0.15329598
89	0x3c3543d4	0.011063535
90	0x3e1483bf	0.14503382
91	0xbe7e7634	-0.24849778
92	0xbd7da59f	-0.061925527
93	0xbe555e9f	-0.20836876
94	0x3c06e0ae	0.008232279
95	0xbdac09d1	-0.0840031
96	0xbee308df	-0.44342706
97	0x3e0e946d	0.13923807
98	0xbc085f40	-0.008323491
99	0xbd8633c5	-0.06552843
100	0x3e371140	0.17877674
101	0x3e49a6db	0.19692557
102	0x3cff1906	0.031139862
103	0x3d6a04b6	0.0571334
104	0x3cd13d00	0.025541782
105	0x3d0c5dfe	0.034269325
106	0xbe7fe1be	-0.24988458
107	0x3d16f1cf	0.0368517
108	0x3e44e1d4	0.19226772
109	0x3d263fd3	0.04058821
110	0xbe9a0091	-0.30078557
111	0xbd9eb3f6	-0.077491686
112	0xbc7233a7	-0.014782823
113	0xbe128bee	-0.14311191
114	0xbe5875d0	-0.21138692
115	0xbe8718cc	-0.26386106
116	0xbca1b9f2	-0.019741986
117	0x3e6a1967	0.22861253
118	0xbba2bb2f	-0.0049661617
119	0xbd17078c	-0.03687243
120	0x3d922211	0.07135404
121	0x3ea1f570	0.31632566
122	0xbe450c8f	-0.19243072
123	0x3e285a97	0.16440807
124	0x3ca333f0	0.019922227
125	0xbe06baeb	-0.13157241
126	0x3c5cafde	0.013469664
127	0xbe9a3a0a	-0.30122405
128	0xbe2a7a64	-0.16648251
129	0x3cab034e	0.0208756
130	0xbe8bfc8a	-0.2734111
131	0xbda11a5a	-0.07866354
132	0x3ee28fb8	0.44250274
133	0x3d0a8397	0.0338169
134	0x3e491529	0.19636978
135	0x3eedd871	0.46454194
136	0x3ed46d48	0.41489625
137	0x3d292203	0.0412922
138	0xbf0cbe3f	-0.5497779
139	0x3e3fb41c	0.1872105
140	0xbf04cb33	-0.5187256
141	0x3d1b1463	0.03786124
142	0xbcdb029b	-0.02673464
143	0x3eaca913	0.33722743
144	0xbd78ef9c	-0.060775384
145	0x3e8d36ce	0.27580875
146	0xbc2f5c97	-0.0107032275
147	0x3d11382f	0.03545397
148	0x3dfb134d	0.12259541
149	0x3dcf504d	0.10122738
150	0x3da7c51d	0.08191893
151	0xbe1874ab	-0.14888255
152	0xbce11b88	-0.027478948
153	0x3f45a389	0.7720266
154	0xbdb2388c	-0.08702192
155	0x3ef9c4b0	0.48782873
156	0x3da49188	0.080355704
157	0xbe6e1ec5	-0.23253925
158	0x3f0ee9b9	0.5582538
159	0x3e7b8a0f	0.24564384
160	0xbb69ccf7	-0.0035675147
161	0x3ed61e9a	0.41820222
162	0xbeaae755	-0.33379617
163	0x3f1aad31	0.6042052
164	0xbe4a8101	-0.19775774
165	0x3e0e7353	0.1391118
166	0xbdc9ad74	-0.09847537
167	0x3eb23160	0.34803295
168	0x3ebc649a	0.36795503
169	0x3ea76645	0.32695213
170	0xbee50397	-0.447293
171	0x3e5f15c3	0.21785645
172	0x3e5c174a	0.21493259
173	0xbed94912	-0.4243856
174	0x3d3fc1bd	0.046815623
175	0xbe7519a1	-0.23935558
176	0x3c9a8c8d	0.018865848
177	0x3e59c9e2	0.21268418
178	0x3e24a49a	0.16078416
179	0xbe33dc56	-0.1756452
180	0x3e61b8d2	0.2204316
181	0xbe53aeb9	-0.2067212
182	0xbd9c9b41	-0.076468
183	0x3d8672b9	0.0656485
184	0x3d6e6f1c	0.05821143
185	0xbe1b9660	-0.15194082
186	0xbdfe3993	-0.12413325
187	0x3ea746cc	0.326712
188	0x3ed00d8d	0.40635338
189	0xbe6bbc60	-0.23021078
190	0x3df2daad	0.11858115
191	0x3dffa5d9	0.12482805

resolve.2.layers.1.conv0.bias f4 [8]
0	0xbd6274dd	-0.05528723
1	0x3de0cc2e	0.10976444
2	0xbd6ac9fc	-0.057321534
3	0xbe0a258c	-0.13490885
4	0x3d9aca5b	0.075581275
5	0x3d8fd7b6	0.070235655
6	0x3d98d7ea	0.07463057
7	0x3d41fc57	0.04735979

resolve.2.layers.1.bn0.weight f4 [8]
0	0x3f800000	1.0
1	0x3f800000	1.0
2	0x3f800000	1.0
3	0x3f800000	1.0
4	0x3f800000	1.0
5	0x3f800000	1.0
6	0x3f800000	1.0
7	0x3f800000	1.0

resolve.2.layers.1.bn0.bias f4 [8]
0	0x00000000	0.0
1	0x00000000	0.0
2	0x00000000	0.0
3	0x00000000	0.0
4	0x00000000	0.0
5	0x00000000	0.0
6	0x00000000	0.0
7	0x00000000	0.0

resolve.2.layers.1.bn0.running_mean f4 [8]
0	0x00000000	0.0
1	0x00000000	0.0
2	0x00000000	0.0
3	0x00000000	0.0
4	0x00000000	0.0
5	0x00000000	0.0
6	0x00000000	0.0
7	0x00000000	0.0

resolve.2.layers.1.bn0.running_var f4 [8]
0	0x3f800000	1.0
1	0x3f800000	1.0
2	0x3f800000	1.0
3	0x3f800000	1.0
4	0x3f800000	1.0
5	0x3f800000	1.0
6	0x3f800000	1.0
7	0x3f800000	1.0

resolve.2.layers.1.conv1.weight f4 [8, 8, 1]
0	0xbeea3e83	-0.45750818
1	0x3df7964f	0.12089216
2	0xbac73168	-0.0015197219
3	0xbbd476f5	-0.0064839073
4	0xbe8d13d1	-0.2755418
5	0xbda527b8	-0.080642164
6	0xbc965c62	-0.018354598
7	0x3dc07523	0.09397342
8	0x3e8709b1	0.2637458
9	0xbd399785	-0.045310516
10	0x3e1024db	0.14076559
11	0x3ce89e32	0.028395746
12	0x3e655469	0.22395481
13	0xbdfc0336	-0.123053
14	0x3e0e06e4	0.13869816
15	0xbddffcfa	-0.10936923
16	0xbe42af0d	-0.19012089
17	0x3e84389e	0.25824445
18	0xbe481181	-0.19537927
19	0xbec9eaa1	-0.3943682
20	0x3c7b815d	0.015350667
21	0x3d26b892	0.040703364
22	0x3e455549	0.19270815
23	0x3e8e157b	0.27750763
24	0x3e20503f	0.15655611
25	0x3ee3a21a	0.4445961
26	0xbe09f364	-0.13471752
27	0xbeda6cee	-0.42661232
28	0xbe8bbcee	-0.2729258
29	0xbdf03877	-0.1172952
30	0xbcf9be30	-0.030486196
31	0xbea068fe	-0.31330103
32	0xbe940651	-0.2891107
33	0xbf16e5bb	-0.5894429
34	0xbf25d023	-0.64770716
35	0xbe900b58	-0.28133655
36	0xbe64c2a3	-0.22339873
37	0x3dbfe0be	0.09369038
38	0x3f1f57a4	0.62243104
39	0x3e4f12cc	0.20222014
40	0xbb97a993	-0.004628369
41	0x3f08b3da	0.5339943
42	0x3e8b2d7b	0.27183136
43	0xbe83f617	-0.2577369
44	0x3e7631f4	0.24042493
45	0xbefe4fde	-0.4967031
46	0xbe933bc3	-0.28756532
47	0x3ece5bcb	0.40304407
48	0xbd7e14e4	-0.06203164
49	0xbece220a	-0.40260345
50	0xbf3e7f54	-0.7441304
51	0xbe932431	-0.2873855
52	0x3e86dff3	0.26342735
53	0x3dc1cdf9	0.09463114
54	0x3eade89b	0.33966526
55	0x3ebd5741	0.36980632
56	0xbdd0510f	-0.10171711
57	0x3e80b33d	0.25136748
58	0xbe4559d6	-0.19272551
59	0xbea3b1a7	-0.31971475
60	0x3e6be6b7	0.2303723
61	0xbee48a2c	-0.44636667
62	0x3ee3e5fd	0.44511405
63	0xbecadb6e	-0.39620537

resolve.2.layers.1.conv1.bias f4 [8]
0	0xbe4be466	-0.19911346
1	0x3df4c533	0.11951675
2	0xbeaddbe5	-0.3395683
3	0x3c211bc2	0.009833278
4	0x3cc92ec7	0.024558438
5	0xbe49418f	-0.19653915
6	0xbd05a01a	-0.032623388
7	0x3d0c6c55	0.034283

resolve.2.layers.1.bn1.weight f4 [8]
0	0x3f800000	1.0
1	0x3f800000	1.0
2	0x3f800000	1.0
3	0x3f800000	1.0
4	0x3f800000	1.0
5	0x3f800000	1.0
6	0x3f800000	1.0
7	0x3f800000	1.0

resolve.2.layers.1.bn1.bias f4 [8]
0	0x00000000	0.0
1	0x00000000	0.0
2	0x00000000	0.0
3	0x00000000	0.0
4	0x00000000	0.0
5	0x00000000	0.0
6	0x00000000	0.0
7	0x00000000	0.0

resolve.2.layers.1.bn1.running_mean f4 [8]
0	0x00000000	0.0
1	0x00000000	0.0
2	0x00000000	0.0
3	0x00000000	0.0
4	0x00000000	0.0
5	0x00000000	0.0
6	0x00000000	0.0
7	0x00000000	0.0

resolve.2.layers.1.bn1.running_var f4 [8]
0	0x3f800000	1.0
1	0x3f800000	1.0
2	0x3f800000	1.0
3	0x3f800000	1.0
4	0x3f800000	1.0
5	0x3f800000	1.0
6	0x3f800000	1.0
7	0x3f800000	1.0

resolve.2.layers.2.conv0.weight f4 [8, 8, 3]
0	0xbe1445d5	-0.14479764
1	0x3e798064	0.24365383
2	0xbec1e972	-0.37873417
3	0xbd923fe6	-0.07141094
4	0x3bfb0259	0.007660192
5	0xbe13ac42	-0.1442118
6	0xbd49c0a8	-0.049255997
7	0x3e343272	0.17597368
8	0x3e197830	0.14987254
9	0x3ed29a60	0.41133404
10	0xbe372fa9	-0.17889275
11	0x3ea6b352	0.32558686
12	0x3d90f0cb	0.070771776
13	0xbea04d66	-0.3130905
14	0x3d9ed985	0.07756332
15	0xbd82d0b3	-0.063874625
16	0x3d05befc	0.03265284
17	0xbddb59bb	-0.10710474
18	0xbdfe1825	-0.12406949
19	0xbc1a5529	-0.009419718
20	0xbe2b9a33	-0.16758041
21	0x3ed274a8	0.41104627
22	0xbea7d80c	-0.32782018
23	0x3d869925	0.06572179
24	0x3e9b6d0b	0.3035663
25	0x3cc80b70	0.024419516
26	0xbc88b5d7	-0.01668827
27	0xbd7894eb	-0.060688894
28	0x3daaf584	0.0834761
29	0xbcc2e8ee	-0.02379271
30	0xbf14ba42	-0.58096707
31	0xbcc6eb2e	-0.024282064
32	0xbe19cbef	-0.150192
33	0x3e0c6241	0.13709356
34	0x3f10aac0	0.56510544
35	0x3df1534a	0.11783464
36	0xbe63b43e	-0.22236726
37	0xbf0999eb	-0.53750485
38	0xbe4879b0	-0.1957767
39	0xbe1fe5ff	-0.1561508
40	0x3edb2c9c	0.42807472
41	0x3b4bf717	0.0031122619
42	0xbeafb39a	-0.34316713
43	0xbf121ec5	-0.570782
44	0xbeb63ee2	-0.3559485
45	0x3e0c0a73	0.13675861
46	0xbe298356	-0.16554007
47	0x3e3323d2	0.17494133
48	0xbce6477b	-0.028110256
49	0xbd7b5f54	-0.06137021
50	0x3cbbf6ee	0.022944894
51	0x3e750578	0.23927867
52	0xbe9ac448	-0.30227876
53	0x3d940df1	0.072292216
54	0xbd30b436	-0.043140613
55	0xbd951ab4	-0.07280484
56	0x3eb6cfef	0.35705516
57	0x3e99c81c	0.30035484
58	0xbe567630	-0.20943522
59	0xbe0a5468	-0.13508761
60	0x3e324f87	0.1741315
61	0xbede8964	-0.43464196
62	0x3e76954d	0.24080391
63	0x3d313471	0.043262903
64	0xbb5b7dd5	-0.003349175
65	0x3cdf56e3	0.02726311
66	0xbe687f6e	-0.2270486
67	0x3d9c52f6	0.07633011
68	0xbe7e2b6b	-0.2482125
69	0xbe5eb0dd	-0.21747155
70	0xbe9d9466	-0.30777282
71	0xbe2e1c23	-0.17002921
72	0xbd48c4a1	-0.049015645
73	0x3dde40ca	0.10852201
74	0xbe0a3482	-0.13496593
75	0xbde805da	-0.11329241
76	0x3d9a03c2	0.07520248
77	0x3d1458fb	0.03621767
78	0xbe0278be	-0.12741372
79	0xbe2ad55f	-0.16682957
80	0xbecbbb70	-0.3979144
81	0x3dabaf7b	0.083830796
82	0xbe2aaf3f	-0.16668414
83	0x3e8cf7c4	0.2753278
84	0x3e10fb33	0.14158325
85	0x3dd4c277	0.10388654
86	0x3e4c0b62	0.19926217
87	0x3eb4e163	0.35328206
88	0x3e6571fd	0.22406764
89	0x3e5d8cb6	0.21635708
90	0xbea4620c	-0.32106054
91	0xbd85bfad	-0.065307
92	0xbe612eef	-0.2199056
93	0xbe28af04	-0.16473013
94	0xbe2176ca	-0.1576797
95	0xbe005430	-0.12532115
96	0x3df57d34	0.11986771
97	0xbdd7cb9a	-0.10536881
98	0x3e131327	0.14362775
99	0xbd35515e	-0.04426705
100	0x3ccc7ed6	0.024962824
101	0xbddac209	-0.106815405
102	0x3e2d2c9a	0.16911545
103	0xbc75ec84	-0.015010003
104	0xbc065b12	-0.008200424
105	0xbeacc99e	-0.33747572
106	0x3e26fc33	0.16307144
107	0x3de5c2f6	0.112188265
108	0xbe8ef3b2	-0.279203
109	0x3ea66564	0.3249923
110	0xbf0a0ef1	-0.5392905
111	0x3e68cddf	0.22734784
112	0xbe808aeb	-0.25105986
113	0x3e8d2f60	0.27575207
114	0x3e204aef	0.15653585
115	0x3eb62a1e	0.35579008
116	0xbe55c9ad	-0.20877714
117	0x3aaca379	0.0013171277
118	0x3dd5dd5a	0.1044261
119	0xbe46c489	-0.1941091
120	0xbec4b268	-0.38417363
121	0xbd22809f	-0.039673444
122	0xbe0fabca	-0.14030376
123	0xbe089834	-0.13339311
124	0x3e6fefd0	0.23431325
125	0xbd82d8c6	-0.063890025
126	0x3ecb3e06	0.39695758
127	0x3f57f3b7	0.84356254
128	0xbdc50eb6	-0.096219465
129	0xbe146cb5	-0.14494593
130	0xbad113c0	-0.001595132
131	0x3e0937be	0.1340017
132	0x3e6e52c9	0.23273768
133	0x3dec78f1	0.11546505
134	0x3e19704c	0.14984244
135	0x3e81fc0d	0.25387612
136	0xbd6878f3	-0.05675597
137	0xbc7ad22c	-0.015308898
138	0x3d9227e8	0.07136518
139	0xbe142554	-0.14467365
140	0xbdc44b26	-0.09584646
141	0x3ddaf8b2	0.10691966
142	0xbdf69b68	-0.1204136
143	0x3d8f51a1	0.06997991
144	0x3d0b2f4c	0.033980653
145	0x3e465f16	0.1937221
146	0xbc5e4df3	-0.013568389
147	0xbe15c956	-0.14627585
148	0x3e40ec88	0.1884023
149	0xbdae4284	-0.085087806
150	0x3d042163	0.032258403
151	0x3e833103	0.2562333
152	0xbe82b1cb	-0.2552627
153	0xbea1dd62	-0.31614214
154	0xbd0d0b19	-0.03443441
155	0x3e06d4a3	0.13167052
156	0xbf039441	-0.5139809
157	0x3eb87118	0.36023784
158	0xbf163883	-0.5867998
159	0xbddf36e8	-0.108991444
160	0xbec19d54	-0.37815344
161	0x3e990407	0.29885885
162	0x3eb247f8	0.34820533
163	0x3f3f7d02	0.7480012
164	0xbebcd0b6	-0.36877984
165	0x3dea8fad	0.11453185
166	0x3cfc8256	0.030823868
167	0x3e142a44	0.14469248
168	0x3e9f6e25	0.3113872
169	0xbd842dee	-0.06454073
170	0x3ea47b07	0.32125112
171	0x3e8ad822	0.2711802
172	0xbe9d0ab6	-0.30672234
173	0x3e01c372	0.12672213
174	0x3eaaf223	0.3338786
175	0x3d734c7e	0.05939912
176	0x3d321157	0.043473568
177	0xbf0ad898	-0.54236746
178	0x3d635d03	0.055508625
179	0xbd81ffca	-0.06347616
180	0xbdcfff65	-0.101561345
181	0x3e2b82f9	0.16749181
182	0xbdbf6748	-0.09345871
183	0x3e41260b	0.18862168
184	0x3d6ad2d2	0.05732996
185	0xbd7d5c2e	-0.061855488
186	0x3e60571b	0.21908228
187	0xbe7a6450	-0.24452329
188	0x3d1e34fa	0.03862474
189	0xbe625159	-0.22101344
190	0xbca52eab	-0.020163855
191	0xbd8700fb	-0.06591984

resolve.2.layers.2.conv0.bias f4 [8]
0	0xbd77eb64	-0.06052722
1	0x3bf3e18f	0.00744266
2	0xbd017a5c	-0.03161083
3	0x3da902ce	0.08252488
4	0x3cef1825	0.029186318
5	0xbdce967f	-0.100872986
6	0xbd10756b	-0.03526823
7	0x3d90c9f3	0.07069769

resolve.2.layers.2.bn0.weight f4 [8]
0	0x3f800000	1.0
1	0x3f800000	1.0
2	0x3f800000	1.0
3	0x3f800000	1.0
4	0x3f800000	1.0
5	0x3f800000	1.0
6	0x3f800000	1.0
7	0x3f800000	1.0

resolve.2.layers.2.bn0.bias f4 [8]
0	0x00000000	0.0
1	0x00000000	0.0
2	0x00000000	0.0
3	0x00000000	0.0
4	0x00000000	0.0
5	0x00000000	0.0
6	0x00000000	0.0
7	0x00000000	0.0

resolve.2.layers.2.bn0.running_mean f4 [8]
0	0x00000000	0.0
1	0x00000000	0.0
2	0x00000000	0.0
3	0x00000000	0.0
4	0x00000000	0.0
5	0x00000000	0.0
6	0x00000000	0.0
7	0x00000000	0.0

resolve.2.layers.2.bn0.running_var f4 [8]
0	0x3f800000	1.0
1	0x3f800000	1.0
2	0x3f800000	1.0
3	0x3f800000	1.0
4	0x3f800000	1.0
5	0x3f800000	1.0
6	0x3f800000	1.0
7	0x3f800000	1.0

resolve.2.layers.2.conv1.weight f4 [8, 8, 1]
0	0x3e592ab4	0.21207696
1	0xbd533c53	-0.0515712
2	0x3d7beccf	0.061505135
3	0x3ca16b9a	0.019704629
4	0xbdd37a48	-0.10326058
5	0xbd122ed7	-0.0356892
6	0x3dfd202a	0.123596504
7	0xbdfb6e22	-0.122768655
8	0xbdc4ef2c	-0.09615931
9	0x3cb64b77	0.022252781
10	0xbe515a83	-0.20444684
11	0x3d138f4b	0.036025327
12	0x3e1e7d33	0.15477447
13	0x3e488da5	0.19585283
14	0xbdc0e739	-0.09419102
15	0xbe7f5e49	-0.2493831
16	0xbe133279	-0.14374723
17	0xbdf55c3a	-0.119804814
18	0x3c69234f	0.01422961
19	0xbe966587	-0.29374334
20	0xbe229f8f	-0.1588118
21	0xbec5352e	-0.38517135
22	0xbdaa6b07	-0.08321195
23	0xbe0f9e16	-0.14025149
24	0xbd28b500	-0.04118824
25	0xbe04c4e8	-0.12965739
26	0xbe3ebbac	-0.18626279
27	0x3df13232	0.11777152
28	0xbdc061e9	-0.09393675
29	0x3e21b4e2	0.15791658
30	0x3d6de827	0.058082726
31	0xbeaedc96	-0.3415267
32	0xbdce84b1	-0.100839026
33	0xbf18f355	-0.59746295
34	0xbe4f5859	-0.20248546
35	0xbf32d2f0	-0.69853115
36	0xbcd713a3	-0.02625448
37	0xbebacd35	-0.36484686
38	0x3eb28e8d	0.34874383
39	0x3e914c6e	0.28378624
40	0x3e596398	0.21229398
41	0x3efbb3bd	0.49160567
42	0x3c5d5763	0.013509604
43	0xbeb3c6bb	-0.35112557
44	0xbf3274ad	-0.69709283
45	0x3e030029	0.1279303
46	0xbf5060d3	-0.8139774
47	0x3e3c3308	0.18378842
48	0x3e9e91a1	0.3097048
49	0x3e6470b3	0.22308616
50	0x3f47203b	0.77783555
51	0x3e95f113	0.29285488
52	0xbddccb54	-0.10780969
53	0xbe7efc32	-0.24900892
54	0x3e85d9e7	0.2614281
55	0xbebfbbaf	-0.3744788
56	0xbe934fbf	-0.2877178
57	0x3d27f61c	0.041006193
58	0x3e803785	0.25042358
59	0xbd145a4e	-0.036218934
60	0x3e4e958c	0.20174235
61	0xbe2c4470	-0.16822982
62	0xbe1b95f6	-0.15193924
63	0x3e9621ea	0.2932275

resolve.2.layers.2.conv1.bias f4 [8]
0	0x3db77c4c	0.089592546
1	0xbc2007a5	-0.009767448
2	0xbd2cd927	-0.04219928
3	0xbd376e10	-0.0447827
4	0xbcfd6568	-0.030932143
5	0x3dadba92	0.08482851
6	0x3d7ccbec	0.061717913
7	0xbd5c982a	-0.053856052

resolve.2.layers.2.bn1.weight f4 [8]
0	0x3f800000	1.0
1	0x3f800000	1.0
2	0x3f800000	1.0
3	0x3f800000	1.0
4	0x3f800000	1.0
5	0x3f800000	1.0
6	0x3f800000	1.0
7	0x3f800000	1.0

resolve.2.layers.2.bn1.bias f4 [8]
0	0x00000000	0.0
1	0x00000000	0.0
2	0x00000000	0.0
3	0x00000000	0.0
4	0x00000000	0.0
5	0x00000000	0.0
6	0x00000000	0.0
7	0x00000000	0.0

resolve.2.layers.2.bn1.running_mean f4 [8]
0	0x00000000	0.0
1	0x00000000	0.0
2	0x00000000	0.0
3	0x00000000	0.0
4	0x00000000	0.0
5	0x00000000	0.0
6	0x00000000	0.0
7	0x00000000	0.0

resolve.2.layers.2.bn1.running_var f4 [8]
0	0x3f800000	1.0
1	0x3f800000	1.0
2	0x3f800000	1.0
3	0x3f800000	1.0
4	0x3f800000	1.0
5	0x3f800000	1.0
6	0x3f800000	1.0
7	0x3f800000	1.0

resolve.2.layers.3.weight f4 [16, 8, 12]
0	0x3e853dfe	0.2602386
1	0x3e0a8907	0.13528834
2	0x3ccc1bf6	0.024915677
3	0xbcb7b8b9	-0.02242695
4	0xbdbef58b	-0.09324177
5	0xbde07520	-0.1095984
6	0xbca4d79c	-0.020122342
7	0x3cc2dde8	0.023787454
8	0x3d022bbb	0.031779986
9	0x3e38a0c9	0.18030085
10	0x3d0d309c	0.034470186
11	0xbdbbc098	-0.09167594
12	0x3d017091	0.031601492
13	0x3d8247af	0.06361329
14	0x3e488775	0.19582923
15	0x3cfa96fa	0.03058957
16	0xbce3d179	-0.027809845
17	0x3c7d7910	0.015470758
18	0x3d05eff9	0.03269956
19	0x3d598fdd	0.053115714
20	0x3e12ac74	0.14323598
21	0x3d184386	0.03717377
22	0xbd71e854	-0.059059456
23	0xbe6341c4	-0.22193056
24	0x3e718c7d	0.23588748
25	0x3e60e69b	0.21962969
26	0xbde8d71f	-0.11369156
27	0x3de38f43	0.111113094
28	0xbd21d4c2	-0.039509542
29	0xbe722c5b	-0.23649733
30	0xbf0f0a67	-0.5587525
31	0xbe2a576e	-0.16634914
32	0x3df27b3f	0.118399136
33	0x3d0aeb55	0.033915836
34	0x3dd74638	0.1051144
35	0xbe0a9e44	-0.13536936
36	0xbde0cbbd	-0.1097636
37	0xbd8e7389	-0.0695563
38	0xbd8a886c	-0.06764302
39	0xbcaf8132	-0.02142391
40	0x3cb1a303	0.021684175
41	0x3e8163fa	0.2527159
42	0x3e1d8f01	0.15386583
43	0x3e2ec558	0.17067468
44	0x3e613e61	0.21996452
45	0xbcb9938d	-0.022653366
46	0xbd56c098	-0.052429765
47	0xbcb77820	-0.022396147
48	0xbc20c7a6	-0.009813225
49	0xbd2003d3	-0.039066147
50	0xbdf0ec98	-0.11763877
51	0x3c78adf1	0.01517819
52	0x3d557f73	0.0521235
53	0xbd02cab0	-0.03193158
54	0x3d83550d	0.064127065
55	0xbe06b165	-0.13153608
56	0xbe5472ec	-0.20746964
57	0xbd560415	-0.052249987
58	0x3e435b4d	0.19077797
59	0x3e9bc7bc	0.30425823
60	0xbd4d74e0	-0.05016029
61	0x3cc2c74f	0.023776678
62	0x3d3d4f28	0.046218067
63	0x3df0825b	0.11743613
64	0xbddeb7bf	-0.108748905
65	0xbdbc72cf	-0.092015855
66	0x3cd3c898	0.025852486
67	0x3d421e60	0.04739225
68	0x3df13723	0.117780946
69	0x3e8e5b52	0.27804047
70	0xbe00554c	-0.12532538
71	0xbd945fb0	-0.072448134
72	0x3e81aa47	0.25325224
73	0x3da35979	0.0797605
74	0x3cc7a1d2	0.024369154
75	0xbda09c8c	-0.07842359
76	0x3cdec3f8	0.027193055
77	0x3b1789d9	0.0023122935
78	0x3dd04f0c	0.10171327
79	0xbd9da8e9	-0.07698233
80	0xbd3fa1a3	-0.04678501
81	0xbd8cc668	-0.068737805
82	0xbd3a800a	-0.045532264
83	0x3e4aa5cd	0.1978981
84	0xbe429134	-0.19000703
85	0xbce2484e	-0.027622368
86	0xbb59feef	-0.0033263525
87	0x3b9e0136	0.0048219217
88	0x3dc2d3ab	0.09513029
89	0x3dc8f74a	0.09812792
90	0x3e3a4b16	0.18192706
91	0x3e023201	0.12714387
92	0x3d46fd7d	0.04858159
93	0xbdda2094	-0.10650745
94	0xbd3760a2	-0.04476989
95	0xbdcb8432	-0.09937324
96	0xbd3da1bb	-0.046296816
97	0x3db5ca8e	0.08876525
98	0x3d84fd27	0.064935975
99	0xbae40387	-0.0017396071
100	0xbd4bd5fa	-0.04976461
101	0xbdd57457	-0.10422581
102	0x3d23afe0	0.03996265
103	0x3e00153d	0.12508102
104	0xbd1ec695	-0.0387636
105	0x3ca8f7f1	0.02062604
106	0xbd06ea12	-0.03293807
107	0x3db31147	0.0874353
108	0x3e472a34	0.19449693
109	0x3dc26a9b	0.0949299
110	0x3dfd9022	0.12381007
111	0x3dec395b	0.11534377
112	0x3ddb23bd	0.10700176
113	0x3cc95267	0.024575425
114	0x3d906e66	0.07052307
115	0xbdbe5e0a	-0.0929528
116	0xbd3b6cbb	-0.04575799
117	0x3cb3ae02	0.02193356
118	0x3d9349d0	0.07191813
119	0x3c674f8b	0.014118086
120	0x3dd2d55d	0.10294602
121	0xbd52686e	-0.051369123
122	0xbdcde94c	-0.100542635
123	0xbde4d18e	-0.11172782
124	0xbc6724fc	-0.014107939
125	0x3dddae66	0.108242795
126	0x3e919a14	0.28437865
127	0x3d4580f5	0.048218686
128	0xbec43207	-0.38319418
129	0xbe6ba0ac	-0.2301051
130	0x3d0fece7	0.035138037
131	0xbd2630eb	-0.040573996
132	0xbdaf6418	-0.08564013
133	0xbcd8f579	-0.026484238
134	0xbd9a631a	-0.075384334
135	0xbdd1d02c	-0.10244784
136	0xbdea5e7c	-0.11443803
137	0xbc2c0735	-0.010499765
138	0x3d52b6b3	0.051443767
139	0x3e24d266	0.16095886
140	0x3de7bce9	0.11315329
141	0x3e3bc2e7	0.18336068
142	0x3d69fb68	0.057124525
143	0xbe074032	-0.13208082
144	0xbd899d16	-0.06719415
145	0xbddf6433	-0.10907783
146	0xbd2d70b5	-0.042343814
147	0x3d47f8d0	0.04882127
148	0x3e123a67	0.14280091
149	0x3d4c1d2c	0.049832508
150	0x3dfdd9da	0.123950675
151	0xbd06e993	-0.032937597
152	0xbe10bd1e	-0.14134642
153	0xbdf568c7	-0.11982875
154	0xbcfdabae	-0.030965652
155	0x3e35726e	0.17719433
156	0xbe3e2b32	-0.18571165
157	0x3d4d42d5	0.050112564
158	0x3d98cc75	0.07460872
159	0xbc8cd1c6	-0.017189872
160	0xbbaa4aa1	-0.0051968847
161	0x3dddd9b4	0.10832539
162	0x3c03c072	0.008041488
163	0x3d83e45b	0.0644004
164	0x3d8c709f	0.06857418
165	0x3d17a5ef	0.03702348
166	0x3c48b239	0.012249523
167	0xbdbc425f	-0.09192347
168	0x3e044b73	0.12919407
169	0x3c8c068b	0.017092964
170	0xbe0061d2	-0.12537315
171	0xbe01a03a	-0.12658778
172	0x3d2d5cf3	0.04232497
173	0x3dd9dce0	0.10637832
174	0x3e45ef0d	0.19329472
175	0x3cfedd62	0.031111423
176	0x3d8a0667	0.067395024
177	0x3d69e498	0.05710277
178	0xbd7ce0bf	-0.061737772
179	0xbe9ccfa8	-0.3062718
180	0x3d974c9e	0.073876604
181	0x3e19720f	0.14984916
182	0x3c92d4e9	0.01792379
183	0xbd98be42	-0.07458164
184	0xbe638c82	-0.22221568
185	0xba948b8c	-0.0011333092
186	0xbca84a51	-0.02054325
187	0x3e4623b5	0.19349559
188	0x3e6b078c	0.22952098
189	0x3e2e3592	0.17012623
190	0x3d100256	0.035158478
191	0xbe316fab	-0.17327754
192	0x3de34fa5	0.11099175
193	0x3ddc160d	0.10746393
194	0x3c28f550	0.010312393
195	0xbcbd459b	-0.02310448
196	0xbdbd131f	-0.09232163
197	0x3d1766a3	0.036963116
198	0x3cf9e76f	0.030505864
199	0x3cd50f88	0.026008382
200	0xbc2c41ab	-0.010513703
201	0x3c5ce1f5	0.013481607
202	0x3d1d0ed7	0.03834423
203	0x3d6f4731	0.058417503
204	0xbdbbfc2c	-0.09178957
205	0x38a266d0	7.743912e-05
206	0x3d8cfc13	0.06884017
207	0x3dc52f95	0.09628216
208	0xbd113a1c	-0.035455808
209	0xbe101b84	-0.14072996
210	0xbd390004	-0.04516603
211	0x3cb90d67	0.022589399
212	0xbdd04c7e	-0.1017084
213	0x3d46b1a1	0.048509244
214	0x3dc67429	0.096901245
215	0x3d5714f9	0.052510235
216	0xbd8f9540	-0.07010889
217	0x3db37efd	0.087644555
218	0x3c197706	0.009366756
219	0x3b7516fb	0.003739773
220	0x3db807f4	0.08985892
221	0x3d7a0000	0.061035156
222	0xbe334a6c	-0.17508858
223	0xbdd66cb4	-0.10469952
224	0xbdabe246	-0.083927676
225	0x3d240945	0.040047903
226	0xbde22dcf	-0.110438935
227	0xbdd1be57	-0.102413826
228	0xbd92123d	-0.07132385
229	0x3d4c1f62	0.049834616
230	0xbcc7a640	-0.024371266
231	0xbd41c205	-0.047304172
232	0xbd068f79	-0.03285167
233	0xbc1976da	-0.009366715
234	0xbdd13d61	-0.10216785
235	0x3ce160b6	0.027511936
236	0x3cdd4578	0.027010664
237	0x3df1f93d	0.118151166
238	0x3cd45cc4	0.02592314
239	0x3c12a5c2	0.008950653
240	0x3b4bcd07	0.0031097548
241	0xbe76c022	-0.2409673
242	0xbe42c546	-0.19020566
243	0xbe8b3683	-0.27190027
244	0xbdc3f1d4	-0.095676094
245	0x3e845203	0.2584382
246	0x3f2679d3	0.6502964
247	0x3e899814	0.2687384
248	0x3e9927e1	0.29913238
249	0xba1692ba	-0.000574391
250	0xbeb92eef	-0.3616862
251	0xbe0def60	-0.13860846
252	0xbe71d393	-0.23615865
253	0xbe0d06e8	-0.13772166
254	0xbcb60e0e	-0.022223499
255	0x3ed79b84	0.42110837

resolve.2.layers.3.bias f4 [16]
0	0x3d0c6cf8	0.03428361
1	0x3bcd258a	0.0062605785
2	0xbbcc3739	-0.006232169
3	0xbd74d23a	-0.0597708
4	0xbcd29c9f	-0.025709448
5	0xbe383219	-0.1798786
6	0x3e1d9ac7	0.15391074
7	0xbc8d297c	-0.017231695
8	0x3dc68d88	0.09694964
9	0x3bf3c5b8	0.0074393414
10	0xbc188b8f	-0.009310617
11	0x3bf6d9d7	0.0075332928
12	0x3cb0a89b	0.021564772
13	0x3d0d0784	0.034430996
14	0x3d54c5dc	0.051946506
15	0xbd0899b5	-0.03334971

resolve.3.layers.0.conv0.weight f4 [16, 16, 3]
0	0xbdba931f	-0.09110092
1	0xbe6489e0	-0.2231822
2	0xbe1caced	-0.15300341
3	0xbaadbaf3	-0.0013254568
4	0x3d8d2dc9	0.068934985
5	0xbb43f058	-0.0029897895
6	0x3c8d201a	0.017227221
7	0x3db91d12	0.09038748
8	0x3c3a473d	0.011369524
9	0x3e04aa30	0.12955546
10	0x3e87e625	0.26542774
11	0x3e0891b6	0.13336834
12	0x3d7ff0f8	0.062485665
13	0x3e29c259	0.16578044
14	0xbe16a633	-0.14711837
15	0x3db40898	0.08790702
16	0x3e2571b7	0.1615666
17	0x3dffdb32	0.1249298
18	0xbe54d2f0	-0.20783591
19	0x3d861c8e	0.06548415
20	0xbe8f71d4	-0.2801653
21	0xbecf6c95	-0.4051253
22	0x3e1c297b	0.15250199
23	0xbf0b4818	-0.5440688
24	0x3e0e1311	0.13874461
25	0x3c96dac7	0.018414868
26	0x3e3a7416	0.18208346
27	0xbe48c154	-0.19604999
28	0x3ca07661	0.019587697
29	0x3e926c24	0.2859813
30	0x3e15d102	0.14630511
31	0x3e92a8ba	0.28644353
32	0x3e367537	0.17818151
33	0xbecf5355	-0.40493265
34	0x3e6c4f16	0.23077044
35	0x3e5dbe26	0.21654567
36	0x3e08549f	0.1331353
37	0xbddbb973	-0.10728731
38	0xbcdfca1d	-0.027318055
39	0xbcf49f26	-0.029861044
40	0x3ed679a9	0.41889694
41	0xbd2e4ec6	-0.042555593
42	0xbd5efe72	-0.054441877
43	0x3e4327b9	0.19058122
44	0x3e335d41	0.17516042
45	0x3de80dd6	0.11330764
46	0xbe8496ad	-0.25896206
47	0xbcc7778c	-0.024348997
48	0xbde45937	-0.11149829
49	0xbedbe4ec	-0.4294809
50	0xbefb0ffe	-0.4903564
51	0xbdfe6809	-0.12422187
52	0xbdbbc287	-0.091679625
53	0xbea080ca	-0.31348258
54	0xbe0b2d04	-0.13591391
55	0xbe88449f	-0.26614854
56	0xbed3e4b7	-0.41385433
57	0x3d95453b	0.07288595
58	0xbd6822a2	-0.056673653
59	0x3d3f79ab	0.04674689
60	0xbc8bf980	-0.017086744
61	0xbd751777	-0.05983683
62	0xbe0584d8	-0.13038957
63	0xbd72f58b	-0.0593162
64	0x3d4248bf	0.047432657
65	0x3ce0555f	0.027384458
66	0x3ee3f969	0.44526222
67	0x3e2c44de	0.16823146
68	0x3eea5573	0.45768318
69	0xbea1d298	-0.31605983
70	0xbedd0058	-0.43164325
71	0xbedc4667	-0.43022463
72	0xbe969361	-0.29409316
73	0xbc380bac	-0.011233252
74	0xbe809027	-0.2510998
75	0x3d02cb53	0.031932186
76	0xbd7a404f	-0.061096486
77	0xbd24dc2a	-0.040249027
78	0xbd953416	-0.07285325
79	0x3d56a3ab	0.05240218
80	0xbd78a2dd	-0.060702194
81	0x3d0b66ef	0.034033712
82	0x3e03b503	0.12862019
83	0xbd763117	-0.06010541
84	0xba9dad8a	-0.0012029868
85	0xbde0a037	-0.109680586
86	0xbd3801a0	-0.044923425
87	0xbcb04e8b	-0.021521827
88	0xbd774bec	-0.06037514
89	0xbea12e5b	-0.3148068
90	0xbd85df51	-0.06536735
91	0x3dbf0ab2	0.09328212
92	0x3d7f11b6	0.06227275
93	0x3e8540fc	0.26026142
94	0x3e503de5	0.20336111
95	0x3e6d3f30	0.23168635
96	0xbd3502f0	-0.044192255
97	0x3dd545d6	0.10413711
98	0xbb8ccbce	-0.0042967563
99	0xbe7a6e62	-0.2445617
100	0x3b925616	0.0044658286
101	0xbd3cbf73	-0.046081018
102	0x3e608a53	0.21927767
103	0xbc298c79	-0.010348433
104	0x3ec0d00e	0.37658733
105	0xbb00234c	-0.0019552289
106	0x3c084213	0.008316535
107	0xbd1e61bf	-0.038667437
108	0x3c0872c8	0.008328147
109	0x3cb858f9	0.022503363
110	0xbda2a3fa	-0.07941432
111	0xbc4243d9	-0.011856996
112	0x3db9f240	0.09079409
113	0x3df2b320	0.11850572
114	0xbf0a6822	-0.54065144
115	0xbf014365	-0.5049346
116	0xbee03b25	-0.43795124
117	0x3d4cd198	0.05000457
118	0xbd1d0312	-0.038333006
119	0x3e23c927	0.15994702
120	0x3ed2d5de	0.41178793
121	0xbd8bf4d9	-0.0683381
122	0x3ebe69be	0.3719005
123	0x3b6dbf2a	0.0036277273
124	0x3dff31f4	0.124607
125	0x3d9ecda8	0.077540696
126	0x3d61d38d	0.05513339
127	0x3e0baa3a	0.13639155
128	0x3c737c98	0.014861248
129	0x3e4693e5	0.19392355
130	0x3e1db848	0.15402329
131	0x3cff3e64	0.03115768
132	0x3dc234b3	0.09482708
133	0x3da151aa	0.07876904
134	0x3d210d66	0.03931942
135	0x3e19f457	0.15034615
136	0xbe3e2358	-0.1856817
137	0xbe6c1f05	-0.23058708
138	0x3ceaa0cc	0.028641127
139	0x3ded1227	0.11575728
140	0xbb08f502	-0.002089799
141	0x3da496f2	0.08036603
142	0xbe3bf9bb	-0.18356983
143	0xbdb3a71f	-0.0877211
144	0x3e924e42	0.2857533
145	0xbdc1fcf7	-0.09472077
146	0x3cefad8b	0.029257556
147	0xbd2bd58a	-0.041951694
148	0xbec350d6	-0.3814761
149	0x3ed47707	0.4149706
150	0xbe3672ad	-0.17817183
151	0x3d5cced5	0.053908188
152	0xbe65c8d9	-0.22439899
153	0x3dbe05d8	0.09278458
154	0xbd831e5f	-0.06402277
155	0xbdfa62f1	-0.12225903
156	0x3e944198	0.28956294
157	0x3d8d1b43	0.068899654
158	0x3cebad4e	0.028769162
159	0x3c003652	0.007825451
160	0x3d84ea1a	0.06489964
161	0xbb8968b4	-0.00419339
162	0x3e0abe4e	0.13549158
163	0x3e522fcf	0.2052605
164	0x3e0df6b2	0.13863638
165	0x3d8094e8	0.062784016
166	0xbe51a250	-0.20472074
167	0xbe51ac84	-0.20475966
168	0x3e8d48fc	0.27594745
169	0xbeed8348	-0.46389222
170	0x3e944ff9	0.28967264
171	0xbbe3ce46	-0.00695208
172	0x3e0a82d0	0.13526464
173	0xbee29bba	-0.44259435
174	0x3c61499a	0.013750458
175	0xbda05aa4	-0.07829788
176	0x3ce5fbd1	0.028074177
177	0x3dd295a8	0.10282451
178	0xbddc1dfa	-0.10747905
179	0x3e5f80b8	0.21826446
180	0x3e7a78f7	0.24460207
181	0xbe0097dc	-0.1255793
182	0xbe87a9bf	-0.26496693
183	0xbd8d9603	-0.06913378
184	0x3e8698c9	0.2628844
185	0x3c8fcb3a	0.01755296
186	0x3e0f6fa0	0.14007425
187	0xbe75e932	-0.24014738
188	0xbc80148a	-0.015634794
189	0xbe06c023	-0.13159232
190	0xbdbcfac2	-0.09227516
191	0xbdd4e9c9	-0.103961535
192	0xbd0befbf	-0.034164187
193	0x3e216ffb	0.15765373
194	0xbc5a1977	-0.013311735
195	0x3dd5de7a	0.10442825
196	0xbd8dcc32	-0.06923713
197	0xbe471b37	-0.19443975
198	0x3df0da20	0.11760354
199	0xbd117029	-0.035507355
200	0x3d8196d0	0.06327593
201	0x3eb90052	0.36133057
202	0x3ca26d5a	0.019827534
203	0xbe0025b7	-0.12514387
204	0xbd818a73	-0.06325235
205	0x3e552436	0.20814595
206	0x3e0bda0b	0.13657396
207	0xbec755ef	-0.3893275
208	0xbde378cf	-0.11107027
209	0xbdbe6081	-0.092957504
210	0x3ca9eb13	0.020741975
211	0x3d407104	0.04698278
212	0xbcaa02c6	-0.020753276
213	0xbc775d01	-0.015097857
214	0xbd1152c6	-0.03547933
215	0x3d97f6ab	0.07420095
216	0xbd5b3a67	-0.053522494
217	0x3c26fcc3	0.010192099
218	0xbe4af186	-0.19818696
219	0x3e159702	0.14608386
220	0x3e128f80	0.14312553
221	0xbc9e956d	-0.019358361
222	0xbeff885b	-0.49908718
223	0xbe46a252	-0.19397858
224	0xbe8105e4	-0.25199807
225	0x3dff6fc3	0.12472489
226	0x3e21bea7	0.15795384
227	0xbc869bca	-0.016431708
228	0x3d80e88a	0.06294353
229	0x3d4a3077	0.049362626
230	0xbe4b2836	-0.19839558
231	0xbd84fc0a	-0.06493385
232	0xbd7437c0	-0.05962348
233	0xbde15c65	-0.11003951
234	0x3cf3b982	0.029751543
235	0xbdab7627	-0.08372145
236	0xbe0e111c	-0.13873714
237	0xb9c6f1dd	-0.00037945705
238	0x3c9b4ebb	0.01895844
239	0x3d90d715	0.07072274
240	0x3d12f2d1	0.0358761
241	0xbe4a6b7a	-0.19767562
242	0x3e4d0407	0.20021068
243	0x3dfc4a73	0.123188876
244	0x3e15ab7f	0.14616202
245	0x3de7e7cc	0.113235086
246	0x3d250722	0.040290006
247	0x3bdd7b98	0.0067591183
248	0x3c246745	0.010034387
249	0xbd3c6cf7	-0.046002354
250	0x3e811b22	0.25216013
251	0x3cd7b1a1	0.026329817
252	0xbd9874ef	-0.07444178
253	0xbc9ef9d2	-0.019406233
254	0xbdbcc597	-0.09217375
255	0xbd3f57d4	-0.04671462

resolve.3.layers.0.conv0.bias f4 [16]
0	0x3d9e5445	0.07730917
1	0xbdd892b3	-0.10574856
2	0x3e21dd6c	0.15807122
3	0xbd6e31a4	-0.05815281
4	0xbe55d516	-0.20882067
5	0x3dba751b	0.09104367
6	0x3c2de753	0.010614234
7	0xbb66ebe0	-0.0035235807
8	0xbccfee83	-0.025382286
9	0xbb52c6b2	-0.0032161889
10	0x3d0893d5	0.03334411
11	0x3e7bf8af	0.24606584
12	0x3d1b922f	0.03798121
13	0xbda59ade	-0.08086179
14	0xbd883a0f	-0.06651699
15	0x3c9234d9	0.017847465

resolve.3.layers.0.bn0.weight f4 [16]
0	0x3f800000	1.0
1	0x3f800000	1.0
2	0x3f800000	1.0
3	0x3f800000	1.0
4	0x3f800000	1.0
5	0x3f800000	1.0
6	0x3f800000	1.0
7	0x3f800000	1.0
8	0x3f800000	1.0
9	0x3f800000	1.0
10	0x3f800000	1.0
11	0x3f800000	1.0
12	0x3f800000	1.0
13	0x3f800000	1.0
14	0x3f800000	1.0
15	0x3f800000	1.0

resolve.3.layers.0.bn0.bias f4 [16]
0	0x00000000	0.0
1	0x00000000	0.0
2	0x00000000	0.0
3	0x00000000	0.0
4	0x00000000	0.0
5	0x00000000	0.0
6	0x00000000	0.0
7	0x00000000	0.0
8	0x00000000	0.0
9	0x00000000	0.0
10	0x00000000	0.0
11	0x00000000	0.0
12	0x00000000	0.0
13	0x00000000	0.0
14	0x00000000	0.0
15	0x00000000	0.0

resolve.3.layers.0.bn0.running_mean f4 [16]
0	0x00000000	0.0
1	0x00000000	0.0
2	0x00000000	0.0
3	0x00000000	0.0
4	0x00000000	0.0
5	0x00000000	0.0
6	0x00000000	0.0
7	0x00000000	0.0
8	0x00000000	0.0
9	0x00000000	0.0
10	0x00000000	0.0
11	0x00000000	0.0
12	0x00000000	0.0
13	0x00000000	0.0
14	0x00000000	0.0
15	0x00000000	0.0

resolve.3.layers.0.bn0.running_var f4 [16]
0	0x3f800000	1.0
1	0x3f800000	1.0
2	0x3f800000	1.0
3	0x3f800000	1.0
4	0x3f800000	1.0
5	0x3f800000	1.0
6	0x3f800000	1.0
7	0x3f800000	1.0
8	0x3f800000	1.0
9	0x3f800000	1.0
10	0x3f800000	1.0
11	0x3f800000	1.0
12	0x3f800000	1.0
13	0x3f800000	1.0
14	0x3f800000	1.0
15	0x3f800000	1.0

resolve.3.layers.0.conv1.weight f4 [16, 16, 1]
0	0x3ddcb6f2	0.107770815
1	0x3df64008	0.12023932
2	0xbe82dd7a	-0.25559598
3	0xbe98a916	-0.29816502
4	0xbd8b8ef5	-0.06814376
5	0x3e144084	0.14477736
6	0x3dba3642	0.0909238
7	0xbee96bb4	-0.45589983
8	0xbe8980da	-0.26856118
9	0x3bb17c47	0.0054164263
10	0xbd3badf4	-0.04582019
11	0x3e9a0394	0.30080855
12	0xbdb02a19	-0.086017795
13	0x3d148f0b	0.03626923
14	0x3d8e0937	0.06935351
15	0xbe994aa2	-0.29939753
16	0xbe60c254	-0.2194913
17	0xbc8302e4	-0.01599259
18	0x3d78dd24	0.06075777
19	0x3e926e6e	0.28599876
20	0x3dbe13d6	0.09281127
21	0x3d7a882a	0.061165012
22	0xbeca403c	-0.39502132
23	0xbe50aa93	-0.20377569
24	0xbc2aa56e	-0.010415418
25	0xbdef32f0	-0.116796374
26	0xbe553f8e	-0.20825025
27	0x3e86dd4e	0.26340717
28	0x3c5d373c	0.013501938
29	0xbd8118a7	-0.0630353
30	0x3d1f4ae3	0.038889777
31	0xbccf9270	-0.025338382
32	0x3daa0356	0.083014175
33	0x3e3663c9	0.17811503
34	0xbde496f1	-0.11161602
35	0x3d98ecec	0.07467064
36	0xbc48d0b9	-0.012256795
37	0xbd28d556	-0.041219078
38	0xbdc41f0b	-0.095762335
39	0x3c70b46a	0.014691452
40	0x3f07e741	0.5308724
41	0x3da7f942	0.08201839
42	0xbdad4eaa	-0.084622696
43	0xbcc09d2f	-0.023512451
44	0xbb03b9db	-0.0020099792
45	0xbd81dfac	-0.0634149
46	0x3e82412a	0.2544034
47	0xbeafdde2	-0.3434897
48	0xbda79d65	-0.081843175
49	0x3c05625f	0.008141129
50	0x3bcaa167	0.0061837914
51	0x3d95ef34	0.07321015
52	0xbe4311d7	-0.19049774
53	0xbdf6e11d	-0.12054656
54	0xbe4c313b	-0.19940655
55	0xbd9d7daa	-0.07689984
56	0xbb39f47b	-0.0028374481
57	0xba6a208f	-0.0008931243
58	0xbe08608c	-0.1331808
59	0xbd6edade	-0.058314197
60	0xbd1ea1f2	-0.03872866
61	0x3de8668b	0.113476835
62	0x3c970e8c	0.018439554
63	0xbd1d3316	-0.038378797
64	0xbda85ba5	-0.08220605
65	0x3c800c88	0.015630975
66	0xbb21a70d	-0.002466622
67	0xbdb68346	-0.08911757
68	0xbe6da166	-0.232061
69	0x3eb69d1f	0.3566675
70	0x3e4f8dae	0.2026889
71	0x3ea00697	0.31255028
72	0xbd111b53	-0.03542645
73	0x3f35336e	0.707816
74	0xbe16049c	-0.14650196
75	0x3dc64a08	0.09682089
76	0xbed1908b	-0.4093059
77	0x3e4be4d2	0.19911507
78	0xbd1ecc96	-0.038769327
79	0x3d4ee409	0.05051044
80	0xbcc1d5ce	-0.02366152
81	0x3c8ef746	0.017451894
82	0x3b9591b7	0.0045644897
83	0xbc4729f9	-0.012156003
84	0xbe962ce3	-0.2933112
85	0xbd4d517f	-0.05012655
86	0x3cf1a694	0.029498376
87	0x3c9aef9c	0.018913083
88	0x3a69c8b0	0.00089181494
89	0x3d254d0d	0.040356684
90	0xbc5e3fc5	-0.0135650085
91	0xbc26cb33	-0.010180282
92	0xbd008afb	-0.031382542
93	0xbc7be227	-0.015373743
94	0x3bdcafb4	0.0067348126
95	0x3a7dcae0	0.0009681415
96	0xbc89d817	-0.016826672
97	0xbe5303d6	-0.20606932
98	0x3db9b25a	0.09067221
99	0xbea50349	-0.3222907
100	0xbb9d42c2	-0.004799218
101	0xbe21ec4c	-0.15812796
102	0xbe40d6b0	-0.18831897
103	0x3e1aec61	0.15129234
104	0xbd8af3bd	-0.06784771
105	0xbdde1dc5	-0.10845522
106	0xbe491988	-0.19638646
107	0xbe8e4f02	-0.27794653
108	0x3c9f28f8	0.019428715
109	0xbd66df9b	-0.05636559
110	0xbeda201b	-0.4260262
111	0x3e194513	0.14967756
112	0x3dfe5297	0.124180965
113	0xbf8ab443	-1.0836262
114	0x3ed90c87	0.4239237
115	0xbead3e0e	-0.33836406
116	0xbdc5d1e7	-0.09659176
117	0x3cf052f1	0.029336425
118	0x3b69511b	0.003560132
119	0x3e550764	0.208036
120	0xbcf59e10	-0.029982597
121	0xbe0f227d	-0.13978
122	0xbb699365	-0.0035640833
123	0x3e01e1a5	0.12683733
124	0x3e1eff27	0.1552702
125	0x3c77c7a3	0.015123281
126	0x3d95e725	0.07319478
127	0xbcf7164b	-0.030161997
128	0xbd9d0850	-0.07667601
129	0x3e06ff0d	0.13183232
130	0xbe470995	-0.19437249
131	0xbecc1f5d	-0.39867678
132	0xbd6b7f7d	-0.05749463
133	0xbdf53ee3	-0.11974885
134	0x3ed68fcd	0.41906586
135	0xbec09253	-0.37611637
136	0x3e9dbcee	0.30808204
137	0x3d7d6077	0.061859574
138	0xbee7caac	-0.45271814
139	0x3e2f8f60	0.17144537
140	0xbcb235b3	-0.021754121
141	0x3dc86b75	0.09786121
142	0x3e0b32ac	0.13593549
143	0xbd427bbe	-0.04748129
144	0xbe07834a	-0.13233677
145	0xbdd43e86	-0.10363488
146	0x3c9e9694	0.01935891
147	0x3e56a665	0.20961912
148	0xbf0357ca	-0.5130583
149	0x3d51cd75	0.05122133
150	0x3c353877	0.011060826
151	0xbe620c63	-0.22075038
152	0x3d07dba8	0.033168465
153	0x3d1d60cd	0.038422395
154	0x3e1051cd	0.14093705
155	0xbdaae9b5	-0.08345357
156	0xbd1e88ef	-0.03870481
157	0x3d610068	0.054932028
158	0xbd1f8138	-0.038941592
159	0x3de0c261	0.10974575
160	0xbd4c9af7	-0.049952473
161	0xbb880cd5	-0.0041519203
162	0xbb9b852f	-0.0047461013
163	0xbd3f201e	-0.04666149
164	0x3e736da5	0.23772295
165	0x3d19e3ea	0.03757087
166	0x3cf73269	0.030175405
167	0x3dd98c67	0.10622483
168	0xbc4f3aeb	-0.0126483245
169	0x3d0092c9	0.031389985
170	0xbcc98c2e	-0.024602976
171	0x3c7d8c40	0.015475333
172	0xbd207993	-0.039178442
173	0xbe2758d2	-0.16342476
174	0x3c00da8f	0.007864608
175	0x3c241fc5	0.01001734
176	0x3c794e0d	0.015216363
177	0x3cd90f33	0.026496505
178	0xbd28764e	-0.04112845
179	0xba052a7c	-0.0005079878
180	0xbca0734c	-0.019586228
181	0xbbd38c7b	-0.0064559556
182	0xbd4c2bc8	-0.04984644
183	0x3deeb6b6	0.11655943
184	0xbe7137fe	-0.23556516
185	0xbc09f05f	-0.008419125
186	0xbe0c1e8c	-0.13683528
187	0x3dc2373c	0.09483191
188	0xbc3318cd	-0.010931206
189	0x3dd8efcb	0.10592612
190	0x3f08c50d	0.53425676
191	0xbe9f6f62	-0.31139666
192	0x3c78bc19	0.015181565
193	0x3b9e6fc0	0.004835099
194	0xbd3ea725	-0.04654612
195	0x3d80d32f	0.0629028
196	0x3e6509f5	0.2236708
197	0xbec25728	-0.3795712
198	0xbe731b91	-0.23740984
199	0xbebad288	-0.36488748
200	0x3d00b0c7	0.031418588
201	0xbf31c3a1	-0.6943913
202	0x3e661a90	0.2247107
203	0xbdcab19f	-0.0989716
204	0x3f0756f7	0.5286707
205	0xbde73cb9	-0.11290879
206	0xbbfbaf92	-0.0076808417
207	0xbdc845f6	-0.09778969
208	0xbd47ce7f	-0.048780914
209	0xbcbb15bc	-0.022837512
210	0x3c7539f9	0.014967435
211	0xbe185df0	-0.14879584
212	0x3d67acc9	0.056561265
213	0xbe86c9b5	-0.26325765
214	0xbdcf15cd	-0.1011158
215	0xbe048745	-0.12942226
216	0x3ea602e1	0.3242407
217	0x3e6378cb	0.22214048
218	0x3eb5fc52	0.35544068
219	0xbdb5d7d8	-0.088790596
220	0xbe6683f9	-0.22511281
221	0xbd5ed94a	-0.05440644
222	0xbef6746f	-0.48135707
223	0x3f380008	0.7187505
224	0x3d35c9e9	0.04438201
225	0x3c2b75c8	0.010465093
226	0xbc68787e	-0.014188884
227	0xbd470c02	-0.048595436
228	0x3e3db418	0.18525732
229	0x3dd85b97	0.105643444
230	0xbcf7dfda	-0.030258108
231	0x3cba3f79	0.022735344
232	0x3c262d5f	0.010142653
233	0xbd5bf4a8	-0.05370012
234	0x3dcce9a6	0.100055024
235	0x3bb4be76	0.005515869
236	0x3d437216	0.047716223
237	0xbd0834e4	-0.033253565
238	0x3c3b8431	0.011445091
239	0x3ce80676	0.028323393
240	0xbe9e00a2	-0.30859858
241	0x3e970d7f	0.29502484
242	0xbaea6c01	-0.0017884971
243	0x3de5b9d9	0.11217088
244	0xbde5b16c	-0.11215481
245	0x3da5316e	0.080660686
246	0x3d04e61f	0.032446023
247	0x3eb3fed2	0.3515535
248	0x3da6a59f	0.081370585
249	0xbe32571f	-0.17416047
250	0x3dd8ac49	0.10579736
251	0xbcadb7ee	-0.021205869
252	0x3e079e98	0.13244092
253	0x3e83fd3f	0.2577915
254	0x3e9e9a74	0.30977213
255	0xbd75f78e	-0.06005054

resolve.3.layers.0.conv1.bias f4 [16]
0	0xbdd9c5e3	-0.10633447
1	0x3d7a7a62	0.06115187
2	0x3d581817	0.05275735
3	0x3dbedfb0	0.09320009
4	0xbdc55cdd	-0.09636853
5	0xbe0d448a	-0.13795677
6	0xbe6bf99e	-0.2304444
7	0x3d38b7dc	0.045097217
8	0x3d16c4d0	0.03680879
9	0xbda1f47c	-0.0790796
10	0x3d6a54ae	0.057209663
11	0xbc9e66b7	-0.019336088
12	0x3c6ae2b7	0.01433628
13	0x3dae48d8	0.085099876
14	0xbce00f34	-0.027351
15	0xbd8ce99d	-0.06880496

resolve.3.layers.0.bn1.weight f4 [16]
0	0x3f800000	1.0
1	0x3f800000	1.0
2	0x3f800000	1.0
3	0x3f800000	1.0
4	0x3f800000	1.0
5	0x3f800000	1.0
6	0x3f800000	1.0
7	0x3f800000	1.0
8	0x3f800000	1.0
9	0x3f800000	1.0
10	0x3f800000	1.0
11	0x3f800000	1.0
12	0x3f800000	1.0
13	0x3f800000	1.0
14	0x3f800000	1.0
15	0x3f800000	1.0

resolve.3.layers.0.bn1.bias f4 [16]
0	0x00000000	0.0
1	0x00000000	0.0
2	0x00000000	0.0
3	0x00000000	0.0
4	0x00000000	0.0
5	0x00000000	0.0
6	0x00000000	0.0
7	0x00000000	0.0
8	0x00000000	0.0
9	0x00000000	0.0
10	0x00000000	0.0
11	0x00000000	0.0
12	0x00000000	0.0
13	0x00000000	0.0
14	0x00000000	0.0
15	0x00000000	0.0

resolve.3.layers.0.bn1.running_mean f4 [16]
0	0x00000000	0.0
1	0x00000000	0.0
2	0x00000000	0.0
3	0x00000000	0.0
4	0x00000000	0.0
5	0x00000000	0.0
6	0x00000000	0.0
7	0x00000000	0.0
8	0x00000000	0.0
9	0x00000000	0.0
10	0x00000000	0.0
11	0x00000000	0.0
12	0x00000000	0.0
13	0x00000000	0.0
14	0x00000000	0.0
15	0x00000000	0.0

resolve.3.layers.0.bn1.running_var f4 [16]
0	0x3f800000	1.0
1	0x3f800000	1.0
2	0x3f800000	1.0
3	0x3f800000	1.0
4	0x3f800000	1.0
5	0x3f800000	1.0
6	0x3f800000	1.0
7	0x3f800000	1.0
8	0x3f800000	1.0
9	0x3f800000	1.0
10	0x3f800000	1.0
11	0x3f800000	1.0
12	0x3f800000	1.0
13	0x3f800000	1.0
14	0x3f800000	1.0
15	0x3f800000	1.0
