generators/w4.ckpt (torch, 199751 bytes, 235 tensors)

resolve.0.weight f4 [4, 1, 7]
00000000: 1563 303f bc89 8a3f d0cd 363f 7107 793f
00000010: 2a30 b83e 7bc7 bc3e 27ee 3b3b a2b2 fbbe
00000020: 8623 93bf 19a4 07c0 157c a7bf 6f0f 7fbf
00000030: 5b43 dabd 2630 733e c9ef e93e 22fb 253f
00000040: 99e8 933f d8fb 2e3f 357a 153c 0822 3abd
00000050: 9ce4 b4be 01f8 e03f e8d3 0240 a00b 1b3f
00000060: 3adb fabf f548 07c0 5570 3fbf d0dc 853f
0.6890119 1.0823283 0.71407795 0.9727698 0.35974246 0.36870942 0.0028675885 -0.49159724
-1.1495216 -2.1193907 -1.3084742 -0.99632925 -0.10657378 0.23748836 0.45690754 0.64836323
1.1555358 0.68353033 0.009123375 -0.04544261 -0.35330665 1.7575685 2.0441837 0.60564613
-1.9598153 -2.113828 -0.7478078 1.0458012

resolve.0.bias f4 [4]
00000000: be98 bd3c 9cc5 9bbe b04c d03e e2be 403b
0.023144122 -0.304242 0.40683508 0.002941065

resolve.2.layers.0.conv0.weight f4 [4, 4, 3]
00000000: 8418 ce3e 8ee6 b03e d121 293e bc7c 1a3e
00000010: df5d 11bd 3e4b 023e 22c6 693d 5b7a 2dbd
00000020: 18b7 ee3d d14e 03bf e4c6 aa3e fe21 0d3f
00000030: 4bf5 17bd 9c36 bfbe 94bc 9f3d d7d2 263e
00000040: 1097 8c3e 8937 ebbd 0e6c 06be 6b14 5a3c
00000050: c4fb c2bd 37a4 b63d 266d bbbe fa35 bbbe
00000060: e3b0 923e 9849 ba3d 55ef 6c3e 9702 45be
00000070: 19fe d03d 17ae d3bd 29b2 023e ef0d 1bbe
00000080: e4e1 073c 107d 673f 3c15 6f3e 4a6e 9dbf
00000090: cdfa eebd 20ab 36be 653b 913e 41fe a13b
000000a0: 2166 5b3e b863 88be 47c3 a1be 8b99 82be
000000b0: 4665 55be 6081 273e 0a7a 53be bf5a 8b3e
0.4025308 0.345509 0.16516806 0.15086645 -0.035489913 0.12724015 0.05707372 -0.042353015
0.11656016 -0.5129214 0.33354867 0.5512999 -0.037099164 -0.3734635 0.0779964 0.16291367
0.27459002 -0.11485202 -0.13127157 0.013310532 -0.09520677 0.0891804 -0.3660671 -0.36564618
0.2865058 0.09096068 0.23138173 -0.19239269 0.10204715 -0.103359394 0.12763275 -0.15142034
0.008293603 0.90425205 0.23347944 -1.2299283 -0.1166893 -0.17838717 0.28365627 0.0049436395
0.21425678 -0.2663858 -0.31594297 -0.2550777 -0.20839414 0.16357946 -0.20652023 0.2721767

resolve.2.layers.0.conv0.bias f4 [4]
00000000: f708 10be f37d 073d 03e3 593e c40d 2dbe
-0.1406592 0.0330791 0.21278004 -0.16899782

resolve.2.layers.0.bn0.weight f4 [4]
00000000: 0000 803f 0000 803f 0000 803f 0000 803f
1.0 1.0 1.0 1.0

resolve.2.layers.0.bn0.bias f4 [4]
00000000: 0000 0000 0000 0000 0000 0000 0000 0000
0.0 0.0 0.0 0.0

resolve.2.layers.0.bn0.running_mean f4 [4]
00000000: 0000 0000 0000 0000 0000 0000 0000 0000
0.0 0.0 0.0 0.0

resolve.2.layers.0.bn0.running_var f4 [4]
00000000: 0000 803f 0000 803f 0000 803f 0000 803f
1.0 1.0 1.0 1.0

resolve.2.layers.0.conv1.weight f4 [4, 4, 1]
00000000: e3ef 943e 513c 77bd cccf 893e a1c9 c4be
00000010: c953 5bbe e33a 8d3e e5ae 723e 58fa edbd
00000020: d65c 403f 34a5 903e 4ae6 c0be eb8e 94be
00000030: 0c99 083f df7c adbd d13f ca3d 9f36 03bf
0.2908927 -0.060360257 0.2691635 -0.3843508 -0.2141868 0.2758399 0.2369953 -0.11620015
0.75141656 0.2825104 -0.37675697 -0.29015288 0.5335853 -0.08471083 0.09875453 -0.5125522

resolve.2.layers.0.conv1.bias f4 [4]
00000000: e2c2 8ebe 5ead 143e 0a9c 52bd 6ed2 87be
-0.2788306 0.1451926 -0.05141834 -0.26527733

resolve.2.layers.0.bn1.weight f4 [4]
00000000: 0000 803f 0000 803f 0000 803f 0000 803f
1.0 1.0 1.0 1.0

resolve.2.layers.0.bn1.bias f4 [4]
00000000: 0000 0000 0000 0000 0000 0000 0000 0000
0.0 0.0 0.0 0.0

resolve.2.layers.0.bn1.running_mean f4 [4]
00000000: 0000 0000 0000 0000 0000 0000 0000 0000
0.0 0.0 0.0 0.0

resolve.2.layers.0.bn1.running_var f4 [4]
00000000: 0000 803f 0000 803f 0000 803f 0000 803f
1.0 1.0 1.0 1.0

resolve.2.layers.1.conv0.weight f4 [4, 4, 3]
00000000: f731 583e 492c 493e 2535 413e 321d 1bbe
00000010: abf2 9d3d ee45 80be b25f 1d3f c400 3a3e
00000020: 6375 af3e c791 a6be bd0b 94bd 1e35 ebbc
00000030: 9f3c 19be b1f2 adbe 67ab 18bd cb42 7e3e
00000040: d53a 8a3f 4870 0d3e 7287 673d 38ee 05bf
00000050: 5231 a53e 8847 48be 41bd 1ebe e7b2 60be
00000060: 5482 c83e 6e0a 9b3c 41b9 113f de6a ab3e
00000070: 61bc 24be 6fca f93e 3ced f5be 3b16 7fbe
00000080: cb0a 0d3d bbff 803e 503a 833d 2b77 083f
00000090: 2851 643e ed8b b2bd 374a 9f3d b9fc 9c3e
000000a0: 07f6 a2be 401d 393e 78d8 db3d d238 b43e
000000b0: 4962 0b3e ad5c e3be 0dc3 0a3e 03e5 94be
0.2111281 0.196458 0.1886793 -0.15147856 0.07712301 -0.25053352 0.61474144 0.18164355
0.34269246 -0.32533094 -0.072288014 -0.028711852 -0.14964531 -0.3397422 -0.037272837 0.24830167
1.0799204 0.13812363 0.056525655 -0.5231662 0.3226419 -0.19558537 -0.15501882 -0.21943246
0.39161932 0.018925872 0.569233 0.3347997 -0.16087486 0.48787257 -0.48032558 -0.24910824
0.03443412 0.25195107 0.064076066 0.53306836 0.22296584 -0.08718095 0.07777827 0.30661562
-0.3182833 0.18077564 0.107346475 0.351996 0.13611712 -0.44406644 0.13550968 -0.29080972

resolve.2.layers.1.conv0.bias f4 [4]
00000000: 3b4e fe3c 9e94 09be 399a 883d 90a5 39be
0.031043163 -0.13435599 0.06670041 -0.18129563

resolve.2.layers.1.bn0.weight f4 [4]
00000000: 0000 803f 0000 803f 0000 803f 0000 803f
1.0 1.0 1.0 1.0

resolve.2.layers.1.bn0.bias f4 [4]
00000000: 0000 0000 0000 0000 0000 0000 0000 0000
0.0 0.0 0.0 0.0

resolve.2.layers.1.bn0.running_mean f4 [4]
00000000: 0000 0000 0000 0000 0000 0000 0000 0000
0.0 0.0 0.0 0.0

resolve.2.layers.1.bn0.running_var f4 [4]
00000000: 0000 803f 0000 803f 0000 803f 0000 803f
1.0 1.0 1.0 1.0

resolve.2.layers.1.conv1.weight f4 [4, 4, 1]
00000000: b54f 463e f118 8c3e 1016 553e 287f 99be
00000010: 3687 0b3f ca4c 773e a709 3e3d 895e 18bf
00000020: 8a89 ab3e 12c1 883d 71c1 7b3c 4c5b 313f
00000030: 5687 3a3e 751a 0a3e 4a10 4dbf 5012 c13f
0.19366343 0.2736278 0.20809197 -0.29979825 0.5450319 0.24150386 0.046395924 -0.5951925
0.3350337 0.0667745 0.015365944 0.6927993 0.18215689 0.13486655 -0.8010298 1.5083714

resolve.2.layers.1.conv1.bias f4 [4]
00000000: b494 803e 8124 c0bd 19e3 54be bf23 2ebe
0.2511345 -0.093819626 -0.20789756 -0.17005824

resolve.2.layers.1.bn1.weight f4 [4]
00000000: 0000 803f 0000 803f 0000 803f 0000 803f
1.0 1.0 1.0 1.0

resolve.2.layers.1.bn1.bias f4 [4]
00000000: 0000 0000 0000 0000 0000 0000 0000 0000
0.0 0.0 0.0 0.0

resolve.2.layers.1.bn1.running_mean f4 [4]
00000000: 0000 0000 0000 0000 0000 0000 0000 0000
0.0 0.0 0.0 0.0

resolve.2.layers.1.bn1.running_var f4 [4]
00000000: 0000 803f 0000 803f 0000 803f 0000 803f
1.0 1.0 1.0 1.0

resolve.2.layers.2.conv0.weight f4 [4, 4, 3]
00000000: 68ea debd 3484 a33b b744 03bd b5be 8cbe
00000010: 2274 013f 5595 67be a838 b83d 0d70 6ebe
00000020: d393 d03d 653a 263d 5719 503e b06d 8dbd
00000030: e4df 053d e99b 993d ca4d 94bd 1f29 91bc
00000040: cc52 d83e 0536 db3d 3c77 f43c 7b58 a9bd
00000050: 0dc6 923d c42d d53c df8f c83d e66b ac3d
00000060: 8fa6 c7bd 9a78 f7bc bef1 373e 0878 0d3e
00000070: 56ec 653e cea3 2abe c15b 04bc 4c40 3cbe
00000080: 69cc 1ebe 6010 4c3e 8fe9 ad3e d24a c13d
00000090: 6036 8cbe 92db 3fbe f233 89bc 2aec 403e
000000a0: 29d8 8bbe 5def 8cbc 96f0 8dbd 3108 5ebe
000000b0: 23c6 4ebd 7079 e53d 6b18 a4be 1a97 043d
-0.10884553 0.004990125 -0.032047953 -0.27489248 0.5056783 -0.2261556 0.08995181 -0.23284931
0.10184445 0.040583033 0.20322166 -0.06905687 0.032684222 0.075004406 -0.072413996 -0.017719803
0.4225067 0.10703663 0.029842012 -0.082688294 0.071666814 0.0260228 0.09793066 0.084190175
-0.097485654 -0.030208874 0.17963311 0.1381532 0.22453436 -0.16664049 -0.008078516 -0.18383902
-0.15507664 0.19928122 0.33967254 0.09438099 -0.27385235 -0.18736103 -0.016748402 0.1884009
-0.27313355 -0.017203981 -0.06930654 -0.21682812 -0.050481927 0.11204803 -0.3204988 0.032370664

resolve.2.layers.2.conv0.bias f4 [4]
00000000: e7fb 8bbe dd73 513e 27ec 653e 5726 0a3e
-0.27340624 0.20454355 0.22453366 0.13491188

resolve.2.layers.2.bn0.weight f4 [4]
00000000: 0000 803f 0000 803f 0000 803f 0000 803f
1.0 1.0 1.0 1.0

resolve.2.layers.2.bn0.bias f4 [4]
00000000: 0000 0000 0000 0000 0000 0000 0000 0000
0.0 0.0 0.0 0.0

resolve.2.layers.2.bn0.running_mean f4 [4]
00000000: 0000 0000 0000 0000 0000 0000 0000 0000
0.0 0.0 0.0 0.0

resolve.2.layers.2.bn0.running_var f4 [4]
00000000: 0000 803f 0000 803f 0000 803f 0000 803f
1.0 1.0 1.0 1.0

resolve.2.layers.2.conv1.weight f4 [4, 4, 1]
00000000: 58db 96be d111 efbe 01bc b5be d3aa f93e
00000010: 1f22 023e dbb7 0c3f 5e20 a93e 3551 253e
00000020: ca37 0dbe 797e d4bd 4c70 2d3c 7c72 0abe
00000030: aa68 993e 2915 37be 7e04 a0bc 9c68 bfbe
-0.2946422 -0.4669328 -0.35494998 0.4876314 0.12708329 0.5496804 0.33032507 0.1614426
-0.13790813 -0.10375685 0.010585856 -0.13520235 0.29962665 -0.17879166 -0.019533392 -0.37384498

resolve.2.layers.2.conv1.bias f4 [4]
00000000: 6d43 d8bd 0593 96be 395b 38be 9afa 1c3e
-0.105597354 -0.29409042 -0.18003549 0.15329972

resolve.2.layers.2.bn1.weight f4 [4]
00000000: 0000 803f 0000 803f 0000 803f 0000 803f
1.0 1.0 1.0 1.0

resolve.2.layers.2.bn1.bias f4 [4]
00000000: 0000 0000 0000 0000 0000 0000 0000 0000
0.0 0.0 0.0 0.0

resolve.2.layers.2.bn1.running_mean f4 [4]
00000000: 0000 0000 0000 0000 0000 0000 0000 0000
0.0 0.0 0.0 0.0

resolve.2.layers.2.bn1.running_var f4 [4]
00000000: 0000 803f 0000 803f 0000 803f 0000 803f
1.0 1.0 1.0 1.0

resolve.2.layers.3.weight f4 [8, 4, 12]
00000000: 056f cc3c a270 153e 02c4 42bc 0c97 dcbd
00000010: dcfb bebd e487 4fbe 2b12 00be 5ffb 79bd
00000020: dc8d 473e 4efc 00be b9d4 a0bd d642 3bbe
00000030: fe16 013e 0697 e3be c124 80be 163d 00be
00000040: 2d7c 933e a683 f03e ab6d 823e 2a37 483e
00000050: fce9 df3d ad5e 82bd 859b 23bd aabc b9be
00000060: 876e 183e 148d b83e 5c39 ef3e f973 473e
00000070: 3199 02be e4f3 e2bd 97b1 55bd 5965 26be
00000080: 74f0 ad3d 0f6a 903d 67b1 803e abcd 353e
00000090: 921b 16bf 4824 77be 491a f23c 8be9 dc3e
000000a0: fee4 533e 9f32 6abe fa67 c2be 161a 99be
000000b0: b645 6fbe 1a00 95be bcdf 35bc 5007 1b3c
000000c0: ea61 2dbe d2a4 43bd bfc2 07be bb4a 2bbe
000000d0: 343a e6bd 6413 e5bd 7c1f 4fbd 3785 74bd
000000e0: f226 5bbe 3333 90bc b810 24be 0157 0b3d
000000f0: bed6 81bc 4d0f 373c 3cc4 3b3e 544c 1d3e
00000100: 0402 d4bb c1ea 2e3e 68c1 463e ffd3 e03d
00000110: b5d0 3f3e 225c 253e e94b 55bd 7da5 8ebd
00000120: b26b 68bd c025 5a3a d571 fc3d e32c a03d
00000130: d61e a2bd 9885 9abd 8013 5ebd 7fd8 cebd
00000140: 9a7c 83bd a463 b03b 6838 f93d d256 903d
00000150: 4634 10bd 1598 74bd ddcd 973d 535c 30be
00000160: 9dbc f1bd 88be 553d f12b 24bb b7bd 333d
00000170: 1b43 7a3d adca 9e3d 4fd8 a5bd 5b49 4abe
00000180: 8da1 59be 1a9d 89be c575 51be 1d1c bfbe
00000190: 7ea7 50be fde7 e23d e534 e13b 3f42 88be
000001a0: 689c b3be 621a 89be 3c66 5bbe 1f1c ab3d
000001b0: 072c d1bd 8cd4 883e 08da 823e a8d0 3c3e
000001c0: c21e 8ebe dc91 aabe 1a8f 6bbe 28ad d5bb
000001d0: 15ee 0e3d 6d9f 133e ab50 6a3e b19a 20bc
000001e0: e741 9ebc 6ca6 bcbc 5140 313c 240f 86bc
000001f0: c991 f8bb 7f46 473e 75df 513e be52 8b3e
00000200: c316 9e3e 8965 8a3e 4201 643e e3c8 aabd
00000210: a8b6 f43e 5552 593c 193e 76be 39ba f0be
00000220: 23b0 adbe 6dc0 743e 6350 df3e a075 e83e
00000230: 752c 9e3e 50a9 efbd 3ed3 90be 0e9e dbbe
00000240: 444e 9bbe 1654 31be 42e7 c3bc 4c8e 75bd
00000250: c8c2 b5bd bc61 3e3d 74ba a73d 995f d4bd
00000260: 1237 7cbe 2b0f 27be 1138 98bd f137 863d
00000270: ab7f 2e3e c972 183e 5063 9c3d c565 00be
00000280: aa27 dbbe 9a17 98be c2a7 bebc 2d3d 993e
00000290: f29a 013f db44 653e 3a07 4c3d 54c8 1fbe
000002a0: e767 d83d 5928 533e 357c 243d 2015 173e
000002b0: 0fcc b73e a83c ab3e d13a 043e 03c2 0d3e
000002c0: c705 463d 2475 3abc 62d7 9f3d b288 c33d
000002d0: 35d2 06be d2c8 14be 993b a4be 8754 ccbe
000002e0: 79eb a6bd e788 e53e 1d05 aa3e e4ce 863e
000002f0: 42a4 91be 4dac ecbe 569a c7be 35ac 2bbe
00000300: f338 8fbe 2885 e2bd df0a 59be cd4e f3bd
00000310: 942d e8bd 3474 a2be d6dc 94be 8c97 b1bc
00000320: 46db e3bc f606 4abe 21dd 653b a033 0bbd
00000330: ad2d 40be 58ab 11be f139 bfbd e8f5 8abc
00000340: da45 62bc f1ae 443e 6d48 8a3d 4797 91bd
00000350: f52d 20bd aa74 063c bfab a63d 6c41 acbb
00000360: 9b84 5b3e 6a4b 073e 51cb a43d b624 833d
00000370: 175c 863e 9b60 803e 10f7 513e 029f cb3d
00000380: dc0a eb3d eb56 f4bc dac1 7ebd 5283 0d3e
00000390: 4376 a1be 874b 45be 372a 8ebd c507 0cbd
000003a0: 2b3f 4abd 9a30 23be 03ad 3ebe 2568 15be
000003b0: d80d 8ebe d745 9ebe 1031 b6bd b1b8 02bd
000003c0: 199f 983d e97b fd3d 8384 d83d dc43 303e
000003d0: c9b7 373e ce4e 123e 4b2d b53d 8202 583d
000003e0: 4c3f b33d 5823 0a3e 4172 96bd f9a1 06be
000003f0: 8e5f b5bc 1319 cbbd 78c2 8fbd 1fe0 c73c
0.024955282 0.14593747 -0.011887552 -0.107709974 -0.09325382 -0.20266682 -0.1250693 -0.06103074
0.19487709 -0.12596247 -0.078530736 -0.18287215 0.12606427 -0.4445116 -0.2502804 -0.12523302
0.28805676 0.4697544 0.25474295 0.19552293 0.10933301 -0.06365714 -0.039943237 -0.36276752
0.14885913 0.36045134 0.4672345 0.19477834 -0.1275375 -0.11081675 -0.052171316 -0.16249599
0.084931284 0.07051479 0.25135347 0.17754237 -0.5863582 -0.24134934 0.02955355 0.4314693
0.20692822 -0.22870873 -0.37969953 -0.29902714 -0.23366436 -0.2910164 -0.011100706 0.009462193
-0.16931883 -0.047764607 -0.13257883 -0.16727726 -0.1124157 -0.11185339 -0.050567135 -0.059697356
-0.21401575 -0.017602539 -0.16022003 0.03401852 -0.015849467 0.011173082 0.18336576 0.15361148
-0.006469967 0.17081739 0.19409716 0.10977935 0.18731959 0.16148427 -0.052074347 -0.06965158
-0.05674333 0.0008321665 0.12326399 0.078210615 -0.07916038 -0.07545012 -0.054217815 -0.10099887
-0.0642025 0.005382972 0.12168962 0.0704781 -0.0352061 -0.05971535 0.07412312 -0.17222719
-0.11803553 0.052183658 -0.0025050605 0.043882098 0.061099153 0.07753501 -0.08097898 -0.19754545
-0.21253033 -0.2687767 -0.20455082 -0.37326136 -0.20376393 0.110794045 0.0068727606 -0.26613042
-0.35080266 -0.2677794 -0.21425718 0.08354973 -0.10213476 0.2672466 0.2555697 0.18438971
-0.2775784 -0.33314407 -0.23003808 -0.006520886 0.03489502 0.14416285 0.22882335 -0.009802506
-0.019318534 -0.023028575 0.010818557 -0.016364641 -0.0075857383 0.19460486 0.20495398 0.27211565
0.3087674 0.2703059 0.22266105 -0.08339097 0.47795606 0.013264258 -0.24047126 -0.47017077
-0.33923444 0.2390153 0.43616018 0.4540224 0.30893293 -0.11702216 -0.28286165 -0.42894024
-0.3033315 -0.17317232 -0.023913983 -0.059950158 -0.08875042 0.046479926 0.0818986 -0.10369796
-0.24630383 -0.1631438 -0.07432569 0.06553639 0.17040889 0.14887537 0.0763613 -0.12538822
-0.428037 -0.29705507 -0.023273353 0.29929486 0.5062705 0.22389548 0.04981158 -0.15603763
0.10566693 0.2062086 0.040157516 0.14754152 0.35897872 0.33444715 0.12913062 0.13843541
0.048345353 -0.011380468 0.07804753 0.09547557 -0.13166125 -0.14529732 -0.3207672 -0.3990824
-0.081503816 0.4483101 0.33207026 0.2632972 -0.2844563 -0.46225205 -0.38984936 -0.1676491
-0.27973136 -0.11060554 -0.21195553 -0.118802644 -0.11336818 -0.3172928 -0.29074734 -0.021678708
-0.027814519 -0.19729218 0.003507443 -0.03398478 -0.18767424 -0.14225519 -0.09337223 -0.01696296
-0.013810599 0.1920736 0.06752095 -0.07108932 -0.039106328 0.008206526 0.08138227 -0.0052568223
0.21437304 0.13212362 0.08046592 0.064034864 0.26242134 0.25073704 0.20504403 0.09942438
0.11476681 -0.029826602 -0.06219659 0.13819626 -0.3153554 -0.19267093 -0.069416456 -0.034187097
-0.049376648 -0.15936509 -0.18620686 -0.14590509 -0.27744937 -0.3091266 -0.08896077 -0.031914417
0.074522205 0.123771496 0.105721496 0.17213386 0.17941202 0.14287874 0.088465296 0.052736767
0.08752307 0.13490045 -0.07346011 -0.13147725 -0.02214029 -0.09916892 -0.07019514 0.024398861

resolve.2.layers.3.bias f4 [8]
00000000: 89de 38bd bdfa cf3d e762 243e d1fb ce3d
00000010: 2cab 9bbe 45e5 76bd 4bdf a5bd b389 083e
-0.0451341 0.101552464 0.16053353 0.10106624 -0.3040403 -0.060277242 -0.080992304 0.13333778

resolve.3.layers.0.conv0.weight f4 [8, 8, 3]
00000000: 4740 3cbd dc4e 29be c3e3 bd3e 64a5 ac3e
00000010: 29bd 72be d044 f33d b54e b2bd 80e9 7cbd
00000020: 393b e0be 4656 2abe e40a d03e 1104 15be
00000030: 95b0 b73d b7a3 00bd 606c 753d c3be b73e
00000040: ebc4 4c3e fd66 cc3d 6ab6 58be c132 53bd
00000050: c336 3dbe c865 243e 1c2c 843d 4dcf f93e
00000060: e352 d4bb 9605 8bbe e593 2a3e c76a 14bb
00000070: e643 fb3d 8636 4f3e ead1 a4bd 7c82 a73e
00000080: def9 e0bc 1211 373f 68b7 0cbe 1ff7 1f3e
00000090: 08a7 763d b4f5 d4bc 79e9 37be bf6e 46bd
000000a0: de50 883e 5301 573e 149e 0dbf bf40 5cbc
000000b0: 0d01 2dbe 0338 303e 1eb5 2e3d 61c2 cb3d
000000c0: 5deb c93e ff92 8abf 2d04 df3e ff06 bfbe
000000d0: 4861 aabe c96b 62be a747 99be e583 113f
000000e0: 3e02 56be d4a8 a73f 4e19 49bd 96f8 42bd
000000f0: 0525 b83d 42d0 42be b0da 4cbe d7e0 d6be
00000100: 30ec a8bc 3a92 c6be a450 d0be ca76 4c3e
00000110: fd9f 2dbe 71b7 23be 2f97 0d3e c8a8 95bc
00000120: c969 133f a6ae bbbe aa01 ae3e d2c9 27bf
00000130: 811d 18be 58e1 a3be fa62 8ebe 7719 9c3e
00000140: 2128 83be 1e8b 7b3f 803b 473e bd8d 393e
00000150: 567a 28be 0484 d6bd 49c8 14be 30e4 0ebf
00000160: 138f 0dbf 8e62 2bbe 7f5c d6be 8543 193d
00000170: 2a02 303e 8be7 283d 4430 9d3c 4900 68bd
00000180: 98d1 033b efaa a0be be09 92bc c117 313e
00000190: 3db0 163e 9db6 0f3e 0cd6 163e 9f1f a13e
000001a0: 39dc e0bd a79f f4bd be49 333e 2760 dd39
000001b0: 1eaf 26be 07f2 d93d c5a5 ab3c 3d9d 4cbd
000001c0: e810 973d 2ab4 163e 4f8b a43e 46e2 5b3d
000001d0: 343a 883b 618b 023d 3565 5abe 088a 9b3e
000001e0: e014 a7be 04b8 983f 2f92 a43d 2141 bb3e
000001f0: 525a e63e bf5c 003f 4762 813f ea0d df3d
00000200: 4f02 b33e 4d5a 323f 663e 68bf 3ace 0e3f
00000210: 68b4 e03a 850b b1bd 0d2d c13d bef3 1b3f
00000220: 7af7 013f 7eb3 4b3f ecd1 9abe 8ee6 8c3e
00000230: c89e 44be 46b9 2b3e f1fa 9b3e b5a8 433f
00000240: 3486 9abd 939a babd 20fd 853d aeaa cbbd
00000250: 279e 68be ab11 573e 03b8 26bd d74a 033e
00000260: 29a8 6d3c 21e6 3bbd 6d29 d23e ce47 1fbe
00000270: 08a5 53be 0668 06be 9d9f 5dbe 796e 753e
00000280: 9d20 e43d b112 763d e784 b9bc df9d 943e
00000290: 4eaa dfbb 2f73 b4bd dafb 093e 2618 b13d
000002a0: 81a3 b83d 4da8 97be 0414 7dbe a19a dc3d
000002b0: 366f 0e3e d857 9abd 1dc6 4439 1326 833d
000002c0: ca99 743e 9104 e53e 8854 1dbe 4b67 03be
000002d0: ebf8 0c3d c2df 063e 01fa 37be 228f abbd
000002e0: 77ef d9bb 0029 483e 01c0 8dbe 96dc b1bd
000002f0: f880 d0ba 021d 91bc 3deb a83e 223d 9a3d
-0.045959737 -0.16533989 0.3708783 0.33719933 -0.23704971 0.11878359 -0.087064184 -0.06174612
-0.43795183 -0.16634473 0.4063331 -0.14552332 0.08969227 -0.03140613 0.059917808 0.35887727
0.19996993 0.09980581 -0.21163335 -0.051562075 -0.18477921 0.16054451 0.06453726 0.4879097
-0.0064796074 -0.271527 0.1665798 -0.0022646652 0.1226881 0.20235643 -0.080478504 0.3271674
-0.027462896 0.7151042 -0.13741839 0.15621613 0.060217887 -0.025996067 -0.17960157 -0.04844546
0.26624197 0.20996599 -0.55319333 -0.013443171 -0.16894932 0.17208867 0.042653196 0.09949184
0.3943738 -1.082611 0.43557873 -0.37310025 -0.33277345 -0.2211143 -0.2993748 0.5684188
-0.20899293 1.3098397 -0.049096398 -0.04760035 0.08991436 -0.19024757 -0.20005298 -0.41968414
-0.020620435 -0.38783437 -0.40686524 0.1996719 -0.16955562 -0.15987946 0.13827203 -0.018268958
0.5758329 -0.36656684 0.33985645 -0.6554233 -0.14855005 -0.3200786 -0.27809888 0.30488178
-0.25616553 0.9825915 0.19456291 0.18120475 -0.16452917 -0.10474399 -0.14529528 -0.55816936
-0.5529644 -0.16736814 -0.41867444 0.037417907 0.17188326 0.04123644 0.019188054 -0.056640897
0.0020113941 -0.31380412 -0.017826911 0.17294218 0.14715667 0.14034505 0.1473009 0.31469437
-0.10979504 -0.11944514 0.17508599 0.00042224044 -0.1627774 0.10641866 0.020953069 -0.04995464
0.073762715 0.14717165 0.32137534 0.053682588 0.004157329 0.031871203 -0.2132767 0.30378747
-0.32633114 1.1931157 0.08035695 0.36573127 0.44990784 0.5014152 1.0108117 0.10891326
0.349627 0.6966904 -0.9072021 0.55783427 0.0017143609 -0.08644775 0.09432421 0.60918796
0.50768244 0.7957076 -0.30238283 0.2751965 -0.19201195 0.16769895 0.3046489 0.764293
-0.075451285 -0.09111514 0.065424204 -0.09944664 -0.2271658 0.21002834 -0.04070283 0.12821518
0.014505425 -0.045873765 0.4104723 -0.15554735 -0.20668423 -0.1312562 -0.21642919 0.23967923
0.11139033 0.06007642 -0.02264638 0.29026696 -0.006825722 -0.08811032 0.1347498 0.08647184
0.09015561 -0.2962059 -0.24714667 0.107716806 0.13909611 -0.07536286 0.0001876582 0.064037465
0.23886791 0.44730046 -0.15364277 -0.12832372 0.034417074 0.13171294 -0.17966463 -0.0837691
-0.006650861 0.1954689 -0.2768555 -0.086846516 -0.0015907576 -0.017714027 0.32991973 0.075311914

resolve.3.layers.0.conv0.bias f4 [8]
00000000: af3f 60be 768f dbbd 0669 a0bd 2e30 913e
00000010: ed79 a4bd 4b80 7ebd d755 043e 12d4 8cbd
-0.21899293 -0.107207224 -0.07832532 0.2835707 -0.08031068 -0.06213407 0.1292337 -0.06876387

resolve.3.layers.0.bn0.weight f4 [8]
00000000: 0000 803f 0000 803f 0000 803f 0000 803f
00000010: 0000 803f 0000 803f 0000 803f 0000 803f
1.0 1.0 1.0 1.0 1.0 1.0 1.0 1.0

resolve.3.layers.0.bn0.bias f4 [8]
00000000: 0000 0000 0000 0000 0000 0000 0000 0000
00000010: 0000 0000 0000 0000 0000 0000 0000 0000
0.0 0.0 0.0 0.0 0.0 0.0 0.0 0.0

resolve.3.layers.0.bn0.running_mean f4 [8]
00000000: 0000 0000 0000 0000 0000 0000 0000 0000
00000010: 0000 0000 0000 0000 0000 0000 0000 0000
0.0 0.0 0.0 0.0 0.0 0.0 0.0 0.0

resolve.3.layers.0.bn0.running_var f4 [8]
00000000: 0000 803f 0000 803f 0000 803f 0000 803f
00000010: 0000 803f 0000 803f 0000 803f 0000 803f
1.0 1.0 1.0 1.0 1.0 1.0 1.0 1.0

resolve.3.layers.0.conv1.weight f4 [8, 8, 1]
00000000: 97bf e03d a53b 1ebf b93c e3be 914d e8be
00000010: f8f9 f7bc 7f91 fc3d 65ac 803c 9af3 e5be
00000020: 4081 e13d 6162 6d3c bc5d 523d 9c24 fbbc
00000030: 2eaa 3cbe 39d5 633c 10cf 21be 7c77 963d
00000040: 4e68 d43e 2acc b53e c2c9 4d3f c58a 103f
00000050: 28f6 f33e 56b0 80be 30a9 e23d fffb d43e
00000060: caad f3bb debb d63d ef5b 6ebe 8700 82be
00000070: 2b03 b8bd 3034 9bbe a2d8 043e b48c 043f
00000080: 6237 763e e798 02bd 0c91 1f3e 4b28 46be
00000090: 235c e0bd 395d 43be 2998 b83e 2b31 fc3c
000000a0: 953d 403e 2c22 113e 6e16 73bd 7ba8 ad3d
000000b0: 81ee a53d 56fe c63c a3a3 813e 4d3b bcbd
000000c0: 2501 9dbe 3c95 873e e8c8 35be 29cd 023e
000000d0: 744f 8b3d 79f9 fb3c 2527 ae3e 9870 15be
000000e0: bef9 b5be b2f2 0bbe fa75 c53c 9295 17be
000000f0: 0273 463e 0d3d c23d d515 ae3e d3a5 9dbe
0.10974043 -0.6180976 -0.44382265 -0.45371678 -0.030270562 0.12332439 0.015707204 -0.44912416
0.110109806 0.014488787 0.051358923 -0.030657105 -0.18424293 0.013905817 -0.15801644 0.073470086
0.41485828 0.35507327 0.80385983 0.56461746 0.4764874 -0.25134534 0.11067426 0.41598508
-0.0074364888 0.104850516 -0.23277257 -0.25391027 -0.08984979 -0.30313253 0.12973264 0.51777196
0.24044564 -0.0318841 0.15582675 -0.19351308 -0.10955074 -0.1907853 0.3605359 0.030785164
0.18773492 0.14173192 -0.059347562 0.08479401 0.08102132 0.024291199 0.25320157 -0.09190998
-0.30664936 0.26481044 -0.17752421 0.12773575 0.06802264 0.030758606 0.3401424 -0.14593732
-0.355421 -0.136668 0.024104107 -0.1480315 0.1937981 0.09484301 0.34001032 -0.30790576

resolve.3.layers.0.conv1.bias f4 [8]
00000000: 28a7 773e 0c94 033e 812b b8be 5bdf 783d
00000010: e6c4 37bd 4766 3cbe c070 37be bcaf 993e
0.24184859 0.12849444 -0.3597069 0.060759883 -0.04486551 -0.1839839 -0.17914104 0.30016887

resolve.3.layers.0.bn1.weight f4 [8]
00000000: 0000 803f 0000 803f 0000 803f 0000 803f
00000010: 0000 803f 0000 803f 0000 803f 0000 803f
1.0 1.0 1.0 1.0 1.0 1.0 1.0 1.0

resolve.3.layers.0.bn1.bias f4 [8]
00000000: 0000 0000 0000 0000 0000 0000 0000 0000
00000010: 0000 0000 0000 0000 0000 0000 0000 0000
0.0 0.0 0.0 0.0 0.0 0.0 0.0 0.0

resolve.3.layers.0.bn1.running_mean f4 [8]
00000000: 0000 0000 0000 0000 0000 0000 0000 0000
00000010: 0000 0000 0000 0000 0000 0000 0000 0000
0.0 0.0 0.0 0.0 0.0 0.0 0.0 0.0

resolve.3.layers.0.bn1.running_var f4 [8]
00000000: 0000 803f 0000 803f 0000 803f 0000 803f
00000010: 0000 803f 0000 803f 0000 803f 0000 803f
1.0 1.0 1.0 1.0 1.0 1.0 1.0 1.0

resolve.3.layers.1.conv0.weight f4 [8, 8, 3]
00000000: 583e 16bc 2441 883c 3d67 b33c 15c6 29be
00000010: 5edd 2dbe 3c11 1a3d bbef 90bc b1a6 39be
00000020: 663d a9bc 1d67 07be 6a81 293d 813d ab3c
00000030: e306 b93d 0030 bfbd 2e63 d9bd 50f9 313e
00000040: 878b 0ebe 90ef 893c 86a3 943d 2c81 ffbd
00000050: 7e9f a83b 985f 12be fab1 c03c 2601 eb3b
00000060: 956f 563b ade0 1cbe 3fea 62bc 9688 53bd
00000070: c17b 3dbd b28d 043e f72f 3ebd 2293 553e
00000080: b840 c8bc e1dd df3d 29fb c23d 1243 0ebc
00000090: aeed 64be 5e02 a2bb 84a7 28be d6f0 7c3d
000000a0: f95d 703d 1f56 d73d 411e 8a3b 122b 193e
000000b0: 0753 2ebe cc6a af3c 8470 463e 3a0c ce3d
000000c0: 1fd6 9b3d 50de bd3e abce 81bd 9644 263e
000000d0: fc5c b83e 785e 903e 7aad e1bd 1e19 5ebe
000000e0: b249 3fbd bc6b ca3d 2e4f 2dbc 2ffd 603c
000000f0: 8ed6 f03d 8350 1f3d b4b5 2b3e e302 903d
00000100: 2644 933e 1248 4c3e 567e a93d 5b29 493e
00000110: 477b a43c 08fe 2fbd 263c 183e a7bd ae3d
00000120: 817a 25be 2d1b 9fbe 1fa2 2dbe d0ef 41bd
00000130: 1acd 8bbc dba7 653d 92fe e9bc 4517 283f
00000140: 2ca0 29bd 0606 06bd 4398 4dbf 0c39 51bd
00000150: 5099 b5bc 88cc f3bd ef5c 38bd 146d b1bd
00000160: 6c69 da3d 6653 01bd 9e9b cc3d e34a d93e
00000170: b224 303e bdaf 0dbd c3e5 85bd c1f4 263d
00000180: 9200 64bc c748 e03d 0102 79bd 26d9 23be
00000190: d832 f8be 5c45 dfbc 629e ebbc b9e3 9b3e
000001a0: 315f 14bd 9e23 013e 2f7c a43e 103e af3d
000001b0: 26f8 03be 8a2e e6bc 5877 e7bd a362 96bd
000001c0: 047d d63b 4b94 63bd 5786 ae3d d829 f23d
000001d0: 6846 a23d 8761 f5bd 03a6 b03d ba71 b5bd
000001e0: 831f 66bc 64b7 2abc 99dd 56bc 6230 96bd
000001f0: 345a 88bc c14f 0fbe 85dd 713d 7493 7abd
00000200: 13d6 2e3c c646 763b 3dd1 efbd 72c2 b23b
00000210: bcdd 1dbd c223 c8bd a1dd 833c 93f0 ecbc
00000220: bd9b 40bd 56ff a4bd bc7b c03c 978c 2b3e
00000230: 3b04 e43d bc38 bebc c50a e93d d1b1 c6bd
00000240: 1a83 2bbe de9c 2dbf 5b43 09be 123b 05bc
00000250: 6a8b cc3e e922 a93d c17e eabc 5ef5 203f
00000260: 6514 2abd 4798 b4bb 0005 02bf ad8a 04be
00000270: f546 833d 1208 45bc 3d88 683d 68ba fcbc
00000280: 42be 983d 127a ac3d ba2d 5a3d 0a18 9e3e
00000290: 2050 69bc 8888 b13c 3a22 f8bd b901 0e3d
000002a0: 9fc3 1bbd aa34 483e 51fe c7bc 9cde a0bc
000002b0: 07f7 393e afdc c93d 7fd1 abbc ffd1 86bd
000002c0: daa8 ecbc 5dec 93bc 0d43 ed3d 4b83 5abd
000002d0: 577d 54bd a552 033e d8d7 c43d 5860 39bd
000002e0: dd45 b2bd 8f03 e63c bbc8 30bd 28f5 3abe
000002f0: 72dd 9abd f374 0f3d d42e 45be a2f0 ac3c
-0.009170137 0.016632624 0.021899814 -0.16579469 -0.16978976 0.037614092 -0.017692437 -0.18129994
-0.02065916 -0.13222928 0.041383184 0.02090335 0.09034517 -0.09335327 -0.1061462 0.17380261
-0.13920413 0.016837865 0.07257752 -0.124758095 0.005145966 -0.14294279 0.023522366 0.0071717678
0.0032720317 -0.15320082 -0.013849794 -0.05164393 -0.0462606 0.12944677 -0.04643246 0.20856908
-0.024444923 0.10930992 0.09520561 -0.008682983 -0.22356293 -0.00494413 -0.16470152 0.061753117
0.05868337 0.10514473 0.0042150323 0.14957836 -0.1702386 0.02141323 0.19378859 0.10060926
0.076092 0.37083673 -0.06338247 0.16237101 0.3600844 0.28197074 -0.11019416 -0.21689269
-0.04670114 0.0988383 -0.01057796 0.013732239 0.11759673 0.03889514 0.16768533 0.070318006
0.2876293 0.19949368 0.0827605 0.19644682 0.020078314 -0.042966872 0.14866695 0.08532267
-0.16160013 -0.3107542 -0.16956376 -0.047347844 -0.017065573 0.056068283 -0.028563771 0.65660506
-0.041412517 -0.03272059 -0.8031046 -0.051079795 -0.022167832 -0.119042456 -0.045010503 -0.08663383
0.10664639 -0.031573676 0.09990619 0.42439947 0.17201498 -0.034591425 -0.06537964 0.04076076
-0.013916152 0.10951381 -0.060792927 -0.16000804 -0.4847629 -0.027254753 -0.028762046 0.30447176
-0.036223594 0.12611243 0.32125995 0.08556759 -0.1288763 -0.028098363 -0.1130206 -0.07343032
0.0065456647 -0.055561345 0.08521717 0.11824387 0.07923585 -0.119814925 0.08625414 -0.08859582
-0.014045599 -0.0104197 -0.013114356 -0.07333447 -0.016644575 -0.13995267 0.059049148 -0.06117578
0.010671156 0.0037578805 -0.11709831 0.0054553086 -0.03854154 -0.09772445 0.016096892 -0.028923308
-0.047023524 -0.08056514 0.023496501 0.1675285 0.111336194 -0.023220412 0.11379007 -0.097018845
-0.1674923 -0.67817485 -0.134046 -0.008131759 0.39950114 0.08258612 -0.028624894 0.628744
-0.041523356 -0.005511317 -0.5078888 -0.12943526 0.06410018 -0.01202585 0.056770552 -0.030850604
0.07458164 0.084217206 0.053266264 0.30877715 -0.014240295 0.021671548 -0.12115903 0.03466961
-0.038028356 0.1955134 -0.02441326 -0.019637398 0.1816064 0.09856545 -0.020973919 -0.06583022
-0.028889108 -0.018057043 0.115850545 -0.053347867 -0.051877346 0.12824495 0.096114814 -0.045257896
-0.087047316 0.028077869 -0.04316018 -0.18257582 -0.075617686 0.03502364 -0.19256145 0.021110836

resolve.3.layers.1.conv0.bias f4 [8]
00000000: 09ce 79bd a822 373e b0fb f83c ee85 3a3e
00000010: 32f4 00be a89f e73d 0e49 26bc 3ba0 8bbe
-0.060987506 0.17884314 0.030393451 0.18215153 -0.12593153 0.11309749 -0.0101492535 -0.27270684

resolve.3.layers.1.bn0.weight f4 [8]
00000000: 0000 803f 0000 803f 0000 803f 0000 803f
00000010: 0000 803f 0000 803f 0000 803f 0000 803f
1.0 1.0 1.0 1.0 1.0 1.0 1.0 1.0

resolve.3.layers.1.bn0.bias f4 [8]
00000000: 0000 0000 0000 0000 0000 0000 0000 0000
00000010: 0000 0000 0000 0000 0000 0000 0000 0000
0.0 0.0 0.0 0.0 0.0 0.0 0.0 0.0

resolve.3.layers.1.bn0.running_mean f4 [8]
00000000: 0000 0000 0000 0000 0000 0000 0000 0000
00000010: 0000 0000 0000 0000 0000 0000 0000 0000
0.0 0.0 0.0 0.0 0.0 0.0 0.0 0.0

resolve.3.layers.1.bn0.running_var f4 [8]
00000000: 0000 803f 0000 803f 0000 803f 0000 803f
00000010: 0000 803f 0000 803f 0000 803f 0000 803f
1.0 1.0 1.0 1.0 1.0 1.0 1.0 1.0

resolve.3.layers.1.conv1.weight f4 [8, 8, 1]
00000000: 3a3e 8cbe 0600 3b3e c9b9 4a3d f090 093e
00000010: ae89 78bc 7c53 2b3e 0689 6b3d 997c 23bd
00000020: 5f2e cbbd af8d 56be a8a7 2cbd deb8 18be
00000030: 640d 313e 3767 41be a795 823d b72b 993e
00000040: e7be 953e 16a1 db3c c748 e0be c062 8c3e
00000050: 0cff f23e 4e5f a6be 4321 843f e6b7 283e
00000060: 6d29 c23c a418 c33e 871e 92bd 4f01 b2be
00000070: abba 2d3f 8f3e 56be 24b3 75be fe06 05be
00000080: c94a c63d 2e03 9fbd 92d8 6a3e 32e2 a1be
00000090: 0061 da3e 6d63 12bd 5dbf 7dbd 97f9 e83d
000000a0: dc4d 5d3c 5218 82bc fdbb 26bc a517 adbc
000000b0: ac4c 1d3e 2188 9a3d 6586 68bd 274c ac3e
000000c0: 60de 073e 5fef 813e 71b3 c23d 1c53 bf3e
000000d0: d8a7 7ebe 630d d33e f6b0 2cbe d93d 74bd
000000e0: 3a6c a6be dd49 c9bd d24b adbc 1706 6f3e
000000f0: 50e0 80be 6f52 a9bb 0a98 663e 8037 233e
-0.27391225 0.18261728 0.049493585 0.13434196 -0.015169544 0.16731066 0.057503723 -0.039913747
-0.09920954 -0.20952486 -0.042152077 -0.14914271 0.17290264 -0.1888703 0.063762 0.29916164
0.2924721 0.02681021 -0.43805525 0.2741909 0.4746021 -0.32494587 1.0322651 0.16476402
0.023701394 0.38104737 -0.07134729 -0.34766623 0.6786296 -0.20922302 -0.23994118 -0.12990949
0.09682233 -0.07764278 0.22934178 -0.31617886 0.4265213 -0.03573935 -0.061950076 0.113757305
0.013507333 -0.015880737 -0.010176656 -0.021129439 0.15361279 0.07545496 -0.056768794 0.3365185
0.13268423 0.25377938 0.09506882 0.37368095 -0.24868715 0.4122115 -0.1686438 -0.059629295
-0.32504445 -0.098285414 -0.021154318 0.23342167 -0.25171137 -0.0051672976 0.22518936 0.1593914

resolve.3.layers.1.conv1.bias f4 [8]
00000000: b2d3 993e ccb4 263e 7c70 293e 0fc7 a73d
00000010: 3623 133e f1c1 003d 85f0 7cbe f28f 87be
0.30044323 0.16279906 0.16546816 0.08192264 0.143689 0.031434957 -0.24701126 -0.2647701

resolve.3.layers.1.bn1.weight f4 [8]
00000000: 0000 803f 0000 803f 0000 803f 0000 803f
00000010: 0000 803f 0000 803f 0000 803f 0000 803f
1.0 1.0 1.0 1.0 1.0 1.0 1.0 1.0

resolve.3.layers.1.bn1.bias f4 [8]
00000000: 0000 0000 0000 0000 0000 0000 0000 0000
00000010: 0000 0000 0000 0000 0000 0000 0000 0000
0.0 0.0 0.0 0.0 0.0 0.0 0.0 0.0

resolve.3.layers.1.bn1.running_mean f4 [8]
00000000: 0000 0000 0000 0000 0000 0000 0000 0000
00000010: 0000 0000 0000 0000 0000 0000 0000 0000
0.0 0.0 0.0 0.0 0.0 0.0 0.0 0.0

resolve.3.layers.1.bn1.running_var f4 [8]
00000000: 0000 803f 0000 803f 0000 803f 0000 803f
00000010: 0000 803f 0000 803f 0000 803f 0000 803f
1.0 1.0 1.0 1.0 1.0 1.0 1.0 1.0

resolve.3.layers.2.conv0.weight f4 [8, 8, 3]
00000000: 0371 cebd d36d 03be 4e70 aebd 610f bb3d
00000010: f1f6 ccbc d9ba 103d 2510 6c3c f547 9e3e
00000020: d076 e23c 3af0 c1bd 0e6d c6be 81dd edbd
00000030: 0a1f 023e 8d38 f6bb 9128 f43d 09d6 4f3d
00000040: b086 483d 8caa 483d 427d cabd 1e2b ce3e
00000050: 0ed5 d2bc 63ed 29bd beb6 2f3d 8691 33bd
00000060: 6ac5 a93d 1106 8c3d 96e3 093e fe3c 89bc
00000070: bc14 203d 8ec6 1dbc 02dd babd 6065 d4bf
00000080: b73a c1bd 0a66 00be aeda c43e fc9b 33be
00000090: 150c c5bd 5a7b bd3e 16c6 ae3c 677c bd3d
000000a0: 0c98 a73d 5636 513b c62b 453e cdc5 92bd
000000b0: 88f7 633c 9ee8 1dbe 2174 94be 8a1c 4b3d
000000c0: 43fc 773d fb66 3dbd 3573 323e 5bbf 363c
000000d0: 6615 0a3e dc7a a7bc 00dd 8cbc 2a45 12bf
000000e0: bd07 25bd 53b5 f9bd fdbf ec3d afe7 71bc
000000f0: 7a41 0a3e 91e3 e03c dea8 00be 662d 5a3d
00000100: 62c5 2c3e 2623 36bc 66b5 de3d f9be 4abd
00000110: 07f5 193d a4eb b2bd 7356 513c d5a4 3a3d
00000120: 3b51 08be a777 273e 3721 3fbe 99a8 5c3d
00000130: 89c3 3c3e 5a16 813d 2e42 2e3d bd46 f4bd
00000140: b7cc 663d 3769 263d 3c51 03be 9041 f2bd
00000150: 3fe5 913d 6978 5fbd bf1d 4a3e 3723 803d
00000160: 3445 c73e 77c0 f63d 9b81 80bd 13c2 193e
00000170: 92ac b4bc ddfb d6bd b7e7 843e 755f 42be
00000180: db30 37be 9d34 513e 2701 bdbd 4332 b33d
00000190: f73f 233d dc23 4a3d 2f5c 523d 2267 48bd
000001a0: 7753 1e3d 85a7 a4bc 35d5 2f3f 66e1 40bd
000001b0: 82e0 1e3e 59d5 a23e 2166 f33d 1b4b 653d
000001c0: 4fe8 ddbd 0d9d 9d3d 8a0f a03d 93f8 223c
000001d0: 082a 523d 4dfd 88bb 1299 52bd 84f0 33bd
000001e0: 67c4 7c3e 9d8c d3bd d872 1c3e b369 adbd
000001f0: c75c 8eba 6f19 29bd e434 4ebd cbd4 803f
00000200: eef6 dcbd 8d3a 41be 1804 0a3f ad3b 8cbe
00000210: 4543 c1bc 0c68 e33d b5d3 503e e1b4 a03c
00000220: ecf3 4ebe 0f83 ab3c e158 1c3d 3729 49be
00000230: 18b6 f03c 9c74 e9bd 2974 093e 9c67 14bd
00000240: 0dd7 3fbe 517c 68bd bcd7 61be 5600 fa3d
00000250: 13ed 683e 721e 6d3d 24b2 9a3b 77cb be3e
00000260: 9568 3d3d 0e98 b83c 384a 8a3e 581f 03be
00000270: 20a8 523d a439 e1bd e6d7 923d 42f2 ab3d
00000280: cd56 4b3d e57b 413d 75ed 25be 2878 82bd
00000290: 4588 37be 70d5 61bd db95 e63c 9f3d e3bd
000002a0: 1c7d 003d c3ac 15bd 9ae0 953d 9828 c5bc
000002b0: a66e abbd 82ec ffbc 01ea 7e3b fac7 9c3e
000002c0: 848b 0abd c899 27bc e507 92bd e426 153d
000002d0: 4acb dc3d 661c b9bd 679e 41be deaa 32bc
000002e0: 34f6 8cbe 1052 1dbd 4d7e 92bc 600a 6a3d
000002f0: 0db1 59bd 2dbb 29bd 49f2 b7bd b66c 223c
-0.10080149 -0.12834863 -0.08517514 0.09133793 -0.025020095 0.03533444 0.014408146 0.30914274
0.027644545 -0.09469648 -0.38755077 -0.11614514 0.12707153 -0.0075140656 0.119218 0.05074123
0.048956573 0.04899077 -0.09887172 0.4026727 -0.025736358 -0.041486155 0.042898886 -0.043839954
0.08289607 0.068370946 0.13465723 -0.016752716 0.039082274 -0.009629859 -0.09124185 -1.6593437
-0.09435027 -0.12538925 0.3844809 -0.17539972 -0.09621445 0.37008172 0.02133469 0.092522435
0.081832975 0.0031923256 0.1925498 -0.07166634 0.0139139965 -0.15420768 -0.2899485 0.049587764
0.06054331 -0.046240788 0.1742676 0.011154021 0.13484725 -0.020444326 -0.017195225 -0.57136786
-0.040290583 -0.12192788 0.11560056 -0.01476471 0.1350154 0.027452262 -0.12564418 0.05326595
0.1687217 -0.0111167785 0.10874443 -0.049498532 0.037587192 -0.08736351 0.012776959 0.045567352
-0.13312237 0.16354237 -0.18665014 0.053871725 0.18433966 0.06303091 0.042543583 -0.11927555
0.056347575 0.040627684 -0.12823957 -0.11828911 0.07123803 -0.05455819 0.1973791 0.06256717
0.38919985 0.120484285 -0.0627472 0.1501544 -0.022054944 -0.10497258 0.25958034 -0.18981726
-0.1788973 0.20430227 -0.092287354 0.08749821 0.039855924 0.049350604 0.051357444 -0.04892648
0.038653817 -0.02009941 0.68684703 -0.047089957 0.1551533 0.31803396 0.11884714 0.05597983
-0.10835325 0.07695971 0.07815464 0.00994696 0.051309615 -0.0041805864 -0.05141551 -0.043930545
0.24684297 -0.10329554 0.15278184 -0.08467426 -0.001086139 -0.04128402 -0.05034341 1.0064939
-0.107892856 -0.18869992 0.53912497 -0.2738928 -0.023591647 0.1110383 0.2039326 0.0196175
-0.20210236 0.020936517 0.0381707 -0.19644628 0.029383704 -0.113991946 0.13423218 -0.036231622
-0.18734379 -0.056759182 -0.22054952 0.12207095 0.22746687 0.057890363 0.004720943 0.37264606
0.046242315 0.022533443 0.2700975 -0.12804925 0.051429868 -0.10997322 0.071700856 0.083958164
0.049643327 0.047237296 -0.16203864 -0.06370574 -0.17923076 -0.05513519 0.028147629 -0.11095738
0.031369314 -0.03654171 0.0731823 -0.024067208 -0.08370714 -0.031240705 0.0038896801 0.3062132
-0.03382446 -0.010229535 -0.07130412 0.036414042 0.10780962 -0.0903862 -0.18908082 -0.010904996
-0.27531588 -0.03840834 -0.01788249 0.0571388 -0.053147364 -0.04143827 -0.08981759 0.009913614

resolve.3.layers.2.conv0.bias f4 [8]
00000000: dac9 4d3d b722 48bd 9f2a c43c d3f4 813d
00000010: 3ae5 243e 12a5 2bbe cd94 f23d 3879 67be
0.05024133 -0.04886123 0.023946105 0.06345525 0.16103068 -0.16762188 0.11844788 -0.22604835

resolve.3.layers.2.bn0.weight f4 [8]
00000000: 0000 803f 0000 803f 0000 803f 0000 803f
00000010: 0000 803f 0000 803f 0000 803f 0000 803f
1.0 1.0 1.0 1.0 1.0 1.0 1.0 1.0

resolve.3.layers.2.bn0.bias f4 [8]
00000000: 0000 0000 0000 0000 0000 0000 0000 0000
00000010: 0000 0000 0000 0000 0000 0000 0000 0000
0.0 0.0 0.0 0.0 0.0 0.0 0.0 0.0

resolve.3.layers.2.bn0.running_mean f4 [8]
00000000: 0000 0000 0000 0000 0000 0000 0000 0000
00000010: 0000 0000 0000 0000 0000 0000 0000 0000
0.0 0.0 0.0 0.0 0.0 0.0 0.0 0.0

resolve.3.layers.2.bn0.running_var f4 [8]
00000000: 0000 803f 0000 803f 0000 803f 0000 803f
00000010: 0000 803f 0000 803f 0000 803f 0000 803f
1.0 1.0 1.0 1.0 1.0 1.0 1.0 1.0

resolve.3.layers.2.conv1.weight f4 [8, 8, 1]
00000000: 64bb c83e 06a3 043e 2d60 14bf a74e e3bb
00000010: 398b 1f3e bc09 60be 1aca 51be 513f 923e
00000020: 1561 063e 56a9 68bd dc80 9d3d 2953 44bd
00000030: 1e1e e1bc 405d 25bd c292 d5bc 223c 893d
00000040: bd3e 5c3d 09c8 e5be 6d48 c6be e974 ac3e
00000050: dd53 003e 43e4 bc3d 5889 483e 1b21 953c
00000060: 9f9e a3be 43bc 503e 422e 1f3c 7738 dc3b
00000070: 9527 5b3e dee6 7dbe 9b36 2bbe b03c de3e
00000080: fa63 8fbe 8c15 ad3e e517 873e 533a f13e
00000090: b3d0 42be 37eb 913e eb84 8c3c fb92 d9be
000000a0: 5cf3 3b3e 7f86 0ebd 48a1 df3c 7c0e bdbd
000000b0: e777 2f3d 707d 4ebd f601 1bbd d0cf fb3d
000000c0: 57b9 143c 7228 493e dcd3 83be e892 ffbd
000000d0: c259 a03e 87df b13c e058 e9bb 735d 1d3e
000000e0: 51b4 26be 2996 e13d 17c6 bbbe 1f3d 87be
000000f0: 39f2 ee3e 26f7 12bc cc3d 823d 4c17 3f3e
0.39205468 0.12952814 -0.5795925 -0.0069368663 0.15580453 -0.21878713 -0.20487252 0.28563932
0.13122971 -0.056802116 0.076905936 -0.04793087 -0.027480181 -0.040372133 -0.026070956 0.067009225
0.05377077 -0.44879177 -0.3872713 0.33682945 0.12531991 0.09223225 0.19583642 0.018204262
-0.31956956 0.20384316 0.009715619 0.0067205983 0.21401818 -0.247951 -0.16720049 0.43405676
-0.28005964 0.338055 0.26385418 0.4711481 -0.19024925 0.28499767 0.017153224 -0.4249495
0.18354553 -0.034796234 0.027298585 -0.09231278 0.042838957 -0.050412595 -0.037843667 0.122954965
0.009077392 0.19644335 -0.25747573 -0.12479192 0.3131848 0.021713031 -0.0071211904 0.1536768
-0.16279723 0.11014969 -0.36674568 -0.2641382 0.46669176 -0.008970058 0.06359443 0.18661231

resolve.3.layers.2.conv1.bias f4 [8]
00000000: 32b5 27be d66a 9bbd 7b7d 063c 9dc8 44be
00000010: aa82 a03e 2b95 803e 6d33 d03d 0ad6 9abe
-0.16377714 -0.07588737 0.008208628 -0.19217153 0.3134969 0.25113806 0.10166059 -0.30241424

resolve.3.layers.2.bn1.weight f4 [8]
00000000: 0000 803f 0000 803f 0000 803f 0000 803f
00000010: 0000 803f 0000 803f 0000 803f 0000 803f
1.0 1.0 1.0 1.0 1.0 1.0 1.0 1.0

resolve.3.layers.2.bn1.bias f4 [8]
00000000: 0000 0000 0000 0000 0000 0000 0000 0000
00000010: 0000 0000 0000 0000 0000 0000 0000 0000
0.0 0.0 0.0 0.0 0.0 0.0 0.0 0.0

resolve.3.layers.2.bn1.running_mean f4 [8]
00000000: 0000 0000 0000 0000 0000 0000 0000 0000
00000010: 0000 0000 0000 0000 0000 0000 0000 0000
0.0 0.0 0.0 0.0 0.0 0.0 0.0 0.0

resolve.3.layers.2.bn1.running_var f4 [8]
00000000: 0000 803f 0000 803f 0000 803f 0000 803f
00000010: 0000 803f 0000 803f 0000 803f 0000 803f
1.0 1.0 1.0 1.0 1.0 1.0 1.0 1.0

resolve.3.layers.3.weight f4 [16, 8, 8]
00000000: 622d 703f 3cb6 11bf 005e 073f ca04 1abf
00000010: 8549 0abe bb96 1dbf 0597 8a3f e7ed 1bbe
00000020: e3d8 933e 1801 b83e d352 f23e cd7a 9f3e
00000030: a7bf d53e b847 703e 8a56 b9bc e4bd 133e
00000040: d71e debe 41e3 9f3c d2cb babe 3ef2 713d
00000050: cbc1 043f b75f cbbe c98b a0be a8a1 d53c
00000060: a151 9fbe 74b2 25bd 65ef 16bd 6b55 b93e
00000070: 40c9 893e 6198 42be cf28 d7bd 2c52 6ebe
00000080: 07e4 fb3d ea33 8b3e 3d52 b53d e714 923e
00000090: 3398 0cbd 6a03 d83e a4a9 e2bc 1d39 9d3e
000000a0: 4246 173e 5c6f bc3d 08a4 2c3d dc02 fc3d
000000b0: 01ea 423e c0b3 c63d 4ade 3e3e ae26 553e
000000c0: 5f32 de3e 9808 acbd 7d03 fd3e 841c 8a3e
000000d0: adbd 3c3d 2afb 2a3f a2cd 99bd b14d b03d
000000e0: d05e 12be ddd9 5c3e 9415 163e c9ce 823e
000000f0: fcba 803f 1391 23be 722f 643e 4800 ca3c
00000100: cebf 1e3d 4943 003e 95ec 283e 18e3 4b3e
00000110: f0e4 683e 7bdb ba3d 3679 9b3c 2df5 843d
00000120: 4606 8c3d 002a 5bbe 603a e2bd 51ca eb3e
00000130: 49c1 713d 53df 35be 3f28 9ebc 019e 86bb
00000140: 3e6b cd3d ce63 f53c 63b1 7f3d 3650 563d
00000150: e818 7f3d 0998 0f3e cbc5 473d f11b af3c
00000160: c73b 043e 0e07 393d 3a26 07bc acb9 21be
00000170: 3795 293e e13f dd3c f24d 3b3d 8da1 223d
00000180: fef4 d53d 3d92 813d 56c2 5a3e 52f9 763e
00000190: 39f6 833e 71fd 2a3e 839e a43d 17bc e43d
000001a0: 1ece 533d b8a5 b43e 8d91 5a3e b9c0 3ebe
000001b0: 8b71 283d 9ba7 773e b382 c73d 6dd9 113d
000001c0: 160c 273d 7df9 523e 98c7 a5bc 4ea9 8c3e
000001d0: 5ca0 0d3e 74d5 1b3d c941 103e 78cd 8c3d
000001e0: c2ab 193c f05d 0ebe dcc5 503d 4e94 b4bd
000001f0: 2fff f53b 47e4 ac3d 4816 05bd f83f 6bbc
00000200: b7a2 6a3c 90bf d23d d2eb cc3d 33ab 6c3e
00000210: 8ccb 7d3e cdaf c63e baad 203d 2584 e23d
00000220: 63ce 11bc 3250 c43c 8514 c13d ec29 193e
00000230: 35fe 9fbe 315a 09be 7065 b53e 3935 fd3d
00000240: 0759 193e 647b a23d d362 f63d efb0 d63d
00000250: 6230 123e 5cb2 fc3d 1a6b a03d 6690 113c
00000260: c0a6 9a3d 956d b63d b136 c1bb 8d8b b2bd
00000270: b8bd 543e 1ba8 253d 85c6 b53d 651f 0dbd
00000280: 06e4 f73d 1956 363e 7e20 653e 8aad 8f3e
00000290: 37eb 8b3e 4d10 a03e 97b3 0a3e 6ee8 2e3e
000002a0: 65f7 643d 3bd1 02bd e666 87bd a713 f9bd
000002b0: 0c4b f63e 7595 443e 6e28 efbd eaa3 073d
000002c0: 0f15 973c 7c5c 56bd 9332 bebc 9643 a93d
000002d0: f578 263e a9d5 efbd dac9 493e 12f6 0d3e
000002e0: 9d88 4fbd 840a f2bc 031e 5ebd 38ec 0fbc
000002f0: 30e1 c0bc 6d05 003e f35e c9bd 29c1 54bc
00000300: a597 74bf b481 0e3f 59c5 f3be 4bdc c93f
00000310: bf3c b33f a02a 8c3f 6c77 403d f3f9 053f
00000320: beeb 053f 4f71 893e 8b7b 783e 82df fd3e
00000330: be1d 403f dc31 0b3f 93b5 183f 185f 163f
00000340: f346 253e 8be0 6fbe 7901 9cbe 2515 b23d
00000350: 3e60 9dbe 3f4c 5ebf 372a 8ebe 2139 8dbc
00000360: 9f3f c83e 3a19 58be ce92 debe c7aa 823d
00000370: bf46 eebf a673 233e 154f a1bd a233 c2bc
00000380: cf44 883e 2781 98bc 672f 2c3f d471 223f
00000390: 0281 323f 5cf9 5d3f 51a1 033f 07e8 6a3e
000003a0: 7c03 e53e ea3a 183f bb4c 103f c01c 5c3f
000003b0: 365c 7c3f 45d4 323f 01b3 023f eca6 2e3f
000003c0: 50b3 f63e c924 0a3f d623 e63e c3e3 e53e
000003d0: 3b0e 673f 80f7 0f3e c71f 333f f494 033f
000003e0: cbf3 d53e ce53 633e 1d37 9c3d 6831 b83e
000003f0: 2d2d 99be b55b 6c3e e3ed 963e f401 303c
0.9381925 -0.5691869 0.5287781 -0.6016356 -0.13504608 -0.6155812 1.0827338 -0.15227471
0.2887641 0.35938334 0.47328815 0.31148377 0.41747782 0.23464859 -0.022624273 0.14427906
-0.43382904 0.019517543 -0.36483628 0.05906891 0.51858205 -0.39721462 -0.31356648 0.02607806
-0.31116965 -0.04045339 -0.0368494 0.3619798 0.26911354 -0.1900344 -0.105058305 -0.23273534
0.12299352 0.27188045 0.08853576 0.28531572 -0.034324836 0.42190105 -0.027668782 0.30707636
0.14772895 0.092009276 0.04214862 0.12305233 0.19034578 0.09702253 0.18639484 0.20815536
0.43397805 -0.08400077 0.49416724 0.2697488 0.046079326 0.66789496 -0.075099245 0.086085685
-0.1429398 0.21567483 0.14656669 0.2554839 1.0057063 -0.1597331 0.22283724 0.024658337
0.038757138 0.12525667 0.16496499 0.19910848 0.22743583 0.09123894 0.018978696 0.06492076
0.06837134 -0.2140274 -0.110462904 0.46052793 0.05902222 -0.17760973 -0.0193063 -0.004108191
0.100302204 0.029954817 0.06242503 0.05232259 0.06227961 0.1402284 0.048772614 0.021375628
0.12913428 0.045172743 -0.00824886 -0.15793484 0.16560827 0.027007999 0.04572863 0.039704848
0.10447119 0.06326721 0.21363196 0.24118546 0.2577379 0.16698243 0.08038046 0.11168688
0.05171024 0.35282683 0.21344586 -0.18628205 0.041123908 0.2418503 0.09741726 0.035607744
0.04078301 0.20602985 -0.020236775 0.2747292 0.13830703 0.03804536 0.14087595 0.068751276
0.009379329 -0.13903022 0.050969943 -0.088173494 0.007507227 0.08441978 -0.032491952 -0.014358513
0.014321021 0.10290444 0.10005917 0.23112182 0.24784678 0.38806 0.03922818 0.11060361
-0.008899304 0.023964021 0.09427742 0.14957398 -0.31248632 -0.13413312 0.35428953 0.12363667
0.14975367 0.07933691 0.12030568 0.10482966 0.14276269 0.12338707 0.07832928 0.008884525
0.07551336 0.0890762 -0.0058964123 -0.087180234 0.20775497 0.04044352 0.08875755 -0.03445377
0.12104039 0.17806281 0.22375676 0.28062087 0.27327892 0.31262437 0.1354507 0.17080852
0.055899996 -0.03193782 -0.06611423 -0.121619515 0.4810413 0.19197638 -0.11677633 0.033115305
0.018442659 -0.052334294 -0.023217475 0.08264844 0.16257079 -0.11710674 0.19705907 0.138634
-0.050667394 -0.02954603 -0.05422784 -0.008784346 -0.023544878 0.1250207 -0.09832563 -0.012985506
-0.9554389 0.5566666 -0.47611502 1.5770353 1.4002913 1.0950508 0.04698889 0.5233452
0.5231284 0.2684426 0.24265878 0.49584585 0.7504538 0.54372954 0.5965206 0.5873885
0.16140346 -0.234255 -0.30469874 0.08695439 -0.3073749 -0.8683509 -0.27766582 -0.017239155
0.3911104 -0.21103373 -0.43471378 0.063802294 -1.861534 0.15962085 -0.07876412 -0.023706261
0.26614997 -0.018616272 0.6725983 0.6345494 0.697281 0.8670862 0.51418024 0.22940074
0.4472922 0.59464896 0.5636708 0.8598137 0.985782 0.6985515 0.5105439 0.6822345
0.4818368 0.5396238 0.44949216 0.4490033 0.9025609 0.14059258 0.69970363 0.5139916
0.41787562 0.22199938 0.076276995 0.35975194 -0.2991728 0.23081858 0.29478368 0.010742653

resolve.3.layers.3.bias f4 [16]
00000000: bd0b 823e cbfa d93d 5a1d b33d f740 be3e
00000010: 6e6a ba3d b648 a1bd e775 cc3c fc12 e83c
00000020: a57e 223e c455 e63d 6321 4a3d d88a 253e
00000030: a773 d13d 37ae 853d 3d8e 2a3d 126a 8a3d
0.2539958 0.10643538 0.08745833 0.3715894 0.09102331 -0.07875197 0.024958564 0.028329365
0.15868624 0.11246827 0.049348246 0.16166246 0.10227137 0.065273695 0.041639555 0.067585126

resolve.4.layers.0.conv0.weight f4 [16, 16, 3]
00000000: 77ac ba3a ab41 07bd e116 c83c edc0 593d
00000010: 3312 293e 2e9f 2dbe cac8 e63c 7555 673e
00000020: 0adc 603d ed57 b0bd a037 1bbe 94e3 bdbd
00000030: d8b2 88be 2ab4 25be a17e 7c3d a6ec c53d
00000040: b05b d33d 8321 a73d 0c78 8e3e 18e9 333d
00000050: 1159 3d3d 434a 983e 5687 5c3e 4ce8 6d3d
00000060: 9914 fb3c 03da 7ebd bfee ab3d 34e1 4b3e
00000070: f340 c2bc ef7a 453c 37eb 9abc c564 c83e
00000080: ce8c 923d 7f3b a9bc 2ab8 743d 8afc a93c
00000090: 060c d6bd c085 9d3d 02d1 9e3d 37eb ffbd
000000a0: 4a7e 913e 25b8 92bd 017c 293e e9ad 983d
000000b0: 65fd e23c b6ce b53c 63aa 8c3d 419c 4c3d
000000c0: 05fd 5fbc 3b1e 36bd 57f3 75bc dba7 95bc
000000d0: d9a4 a6bc a9d8 573d 9d8f 503c f825 993d
000000e0: f139 42bd 29ee 00bd d5c0 973b 4436 55bc
000000f0: e553 4f3d 87bc 5c3e 75ed 3abd 3e8f 9ebd
00000100: 1a98 17bd 2d49 9bbc 1a60 373e ac3d c83d
00000110: 822f 42bd 4de6 1b3e 25b9 323d 0baa 2c3e
00000120: b001 9ebb f1ed 213b c2b7 6c3a 0353 6fbc
00000130: 0473 3e3d 39ae 1c3d db74 1c3d 2032 6d3d
00000140: afcb 883d 8e1e 41be 7e0b 023e b32e 04bd
00000150: 9f32 073e 2ffa 89bd fde9 76bb b381 5e3d
00000160: b1cf ff3c d8f5 ad3d 3389 c63d 9c96 23be
00000170: 41af 93bd 8464 3bbc aa5c cebd d35e 98bd
00000180: e8d9 1aba 2439 193c c30d a53c dfa5 44bd
00000190: cf14 4c3d 3fb1 773b 12eb a5bd b730 d13c
000001a0: 939f 5f3d 07e1 a53c 9d45 723d 339d 81bc
000001b0: ef64 d33c 2ff7 063e 7909 f1bc e911 0bbd
000001c0: 43c1 983d 4deb cf3d e2fa bd3d e117 0b3d
000001d0: afbf 2f3e b9ce 1f3d 0ee0 153d b346 c5bd
000001e0: fd03 713e 4dfe 2abd 998d 2dbd 9b15 62be
000001f0: eac7 daba 4125 44bc 9cd9 23be 9361 bd3d
00000200: d5b0 0cbe fbef ff3d d53f 25be a7f7 253c
00000210: c21f 1a3d 2427 3cbe 4ec5 2dbc 908c d1bc
00000220: 58c1 943d 4266 6cbd 5a96 963d 41aa 743e
00000230: a62c 773d ebf8 0c3c 9a48 8fbd 3596 963d
00000240: 0f8f 92bc b506 5e3e b10f 1c3d 335b 363d
00000250: 4425 eebb 872d f63c 3acb b1be 092e 2dbe
00000260: 4ab0 4bbd b320 5a3d a3ea cf3e 7316 933d
00000270: 49f6 af3d 6d8f b3be 6c82 563e 734e 003f
00000280: 344a 0c3f fba3 993e a639 b6be 8238 33bf
00000290: a73b c9be b41e 13be bd6a d1be da6c 083e
000002a0: 1513 b43e 16be 0b3e 4a33 b93e 8951 20bd
000002b0: d3b2 34be ff00 6dbe 7e9e 1ebf c5e3 f0bf
000002c0: 85bd 43bf 1ce3 d33d d0cd 02bf 6a45 553c
000002d0: 8012 73be 1b1d b13d 80d8 dc3d 3ad3 e1be
000002e0: 5bd6 e3bf 4e53 06bf 5d94 fd3d 8f69 28be
000002f0: 73c4 3ebe c832 f3bc fbf1 b43d 35f7 42bc
00000300: f02c 253a cfb3 ea3c 5fdf 7a3d 2d63 77bd
00000310: 7575 873d f4bb 94be 34f7 0f3d 1f2d 0f3e
00000320: 7a36 e23d 5254 f5bc 77a9 2abd e0ed 94bd
00000330: 98a9 113e 141a 36be e988 d93d c5b5 543e
00000340: 641f 643d 048a 103e 2e92 d93d f6af ddbd
00000350: de7c 9bbc 6eef 6fbc 0604 293e 2b04 beba
00000360: c7dc ee3c 8f2c d83d 5895 ddbc e0de 1f3e
00000370: a902 a3b9 b554 313e 73a0 283d 854e ad3e
00000380: c714 6f3e e68d ba3d 6d60 ab3d 359e e0bd
00000390: 6cdf 3dba 3630 25be 034e 683c 08fb 81bd
000003a0: 3a9e a43d 811a 053e 9674 9b3d 9d6a a03e
000003b0: 66ae a83c 7d95 98bd 7eed 69bd f6a6 f2bd
000003c0: 689d d83e bece ed3f 8672 3ebd 45fc cb3e
000003d0: 1b0a b43e 3b24 513d 4ed9 a13e cee0 113f
000003e0: abd8 99bd 606f 86be 2d26 13bf 9cd8 893d
000003f0: d41a 033d cf39 40be f700 43bd 1a18 4e3d
0.0014242072 -0.03302161 0.024424972 0.053162504 0.16510849 -0.16955253 0.028171916 0.22591193
0.054897346 -0.086105205 -0.15157938 -0.09271923 -0.26698947 -0.16182008 0.0616442 0.09664278
0.103202224 0.08160689 0.27825963 0.043923467 0.04622752 0.29744157 0.21536002 0.058082864
0.03064947 -0.06221963 0.083951466 0.19910127 -0.02371261 0.012053235 -0.018910987 0.3913938
0.071557626 -0.020658253 0.059745945 0.020750303 -0.10451512 0.076915264 0.07754709 -0.124960355
0.28416663 -0.07164029 0.1655121 0.07455046 0.027708719 0.022193294 0.06868436 0.049953703
-0.013671164 -0.044462424 -0.01501163 -0.018268516 -0.020342277 0.052696858 0.012729553 0.07477945
-0.04741854 -0.031477127 0.0046311417 -0.013013426 0.050617117 0.21556292 -0.045636613 -0.07742165
-0.03701029 -0.018955791 0.17907754 0.09777388 -0.04740859 0.15224572 0.0436336 0.16861741
-0.0048219785 0.0024708475 0.00090300676 -0.014607194 0.046496406 0.03825209 0.03819738 0.05790913
0.066794746 -0.18859312 0.12699696 -0.0322711 0.13202904 -0.06737172 -0.003767609 0.05432291
0.031226965 0.084941566 0.096941374 -0.15975422 -0.072111614 -0.011437539 -0.10076268 -0.07439961
-0.00059071044 0.009352002 0.020148164 -0.04800975 0.049824532 0.0037794856 -0.08101477 0.025535924
0.05459554 0.020248903 0.05914842 -0.015822029 0.025804965 0.1318023 -0.029423462 -0.033952627
0.07458737 0.10152302 0.09276368 0.03395832 0.17162965 0.039015505 0.03659063 -0.096326254
0.23536678 -0.041746426 -0.042371366 -0.22078554 -0.0016691659 -0.011971773 -0.1600098 0.092471264
-0.13739331 0.124969445 -0.16137631 0.010129846 0.037627943 -0.18374306 -0.010606123 -0.02557972
0.0726344 -0.05771471 0.07352896 0.23893072 0.060345314 0.008604269 -0.069962695 0.073528685
-0.017890481 0.21682246 0.038100902 0.044520568 -0.007267626 0.030051006 -0.34725362 -0.16912092
-0.04972867 0.05325384 0.406087 0.07182016 0.08591897 -0.35070363 0.2094819 0.50119704
0.54800725 0.3000792 -0.35590857 -0.700081 -0.39303324 -0.14367181 -0.40901747 0.13322774
0.35170808 0.13646731 0.36171943 -0.039140258 -0.17646341 -0.23144911 -0.6196059 -1.881951
-0.7646106 0.10346052 -0.51095295 0.013017038 -0.23737526 0.086481296 0.107834816 -0.44106466
-1.7799791 -0.5247086 0.12381814 -0.16446517 -0.18629627 -0.0296873 0.088352166 -0.011899759
0.00063009467 0.028650193 0.06124818 -0.060397316 0.066142 -0.29049647 0.03514786 0.13982056
0.11045547 -0.029947434 -0.04166552 -0.072719336 0.14224851 -0.17783386 0.10621817 0.20772465
0.055694 0.14115149 0.10623585 -0.108245775 -0.01898044 -0.014644487 0.16505441 -0.0014497092
0.02915801 0.10555374 -0.027048752 0.15612364 -0.00031091765 0.1731747 0.04116864 0.33848968
0.2334777 0.09109096 0.08368001 -0.109676756 -0.000724307 -0.16131672 0.014178756 -0.063467085
0.08037992 0.12998392 0.075905964 0.3133134 0.020590972 -0.074503876 -0.057111256 -0.118482515
0.4230759 1.8578718 -0.046495937 0.39840904 0.3516396 0.051059943 0.31611103 0.5698365
-0.07512029 -0.26256847 -0.57480127 0.06730768 0.032008007 -0.18772052 -0.047608342 0.050315954

resolve.4.layers.0.conv0.bias f4 [16]
00000000: 04bc 5dbe 4fae 0bbe ad8c a7bb d9be 603e
00000010: e7aa 92be 509d e1bd 22ff 76bd d6a1 8e3b
00000020: 9a73 bfbc ca1c 71bd 6e76 01be 6acc 88bd
00000030: f4fa f43b dd82 973d b11b 8e3e ed7e 433d
-0.21653754 -0.13640712 -0.0051132054 0.21947803 -0.28646013 -0.11016333 -0.060301907 0.0043527884
-0.023370553 -0.058865346 -0.12642834 -0.06679614 0.007476205 0.07398007 0.27755502 0.047728468
